weights/6. truck classifier/classif_model_weights_maxAccuracy.pt (torch, 523314 bytes, 16 tensors)

conv2Dfeatures.conv00.weight f4 [4, 1, 5, 5]
-0.009029079 -0.010041509 -0.048658352 -0.024146806 -0.023229646 -0.037922584 -0.09178056 -0.107303
-0.07945583 -0.088396825 -0.057491355 -0.15369743 -0.13806957 -0.07414525 -0.06572029 -0.08046773
-0.120730445 -0.11651014 -0.1397613 -0.09399473 -0.05087562 -0.073601566 -0.035627134 -0.034848057
-0.02176332 -0.20204973 -0.27813795 -0.17094083 -0.15537326 -0.1369718 -0.17047016 -0.18454914
-0.17352337 -0.13928343 -0.16290826 0.039233144 0.02536361 0.024181364 0.054685082 0.022987407
0.15686639 0.16285054 0.16243826 0.21443467 0.10835461 0.1417544 0.17019838 0.20502211
0.19544762 0.06224238 0.004415689 0.04453904 0.0103529245 0.009637121 0.004776764 0.04808278
0.06571281 0.07647581 0.1047088 0.06751526 0.06834672 0.09371192 0.08981536 0.12199786
0.0731727 0.0731161 0.11895684 0.06569032 0.11439323 0.11396642 0.060891565 0.06497482
0.067085475 0.08130645 0.053338926 0.08010596 0.17678687 0.13754936 0.17303899 0.12104288
0.06893255 0.151161 0.15414727 0.11454531 0.15938972 -0.0023796102 -0.000624883 -0.016978422
-0.030957421 -0.03619814 0.031772118 -0.08541109 -0.17936799 -0.21697201 -0.27288342 0.0366632
-0.053880703 -0.14347026 -0.21994752 -0.2128192
00000000: b4ee 13bc 2485 24bc fb4d 47bd 86cf c5bc
00000010: 194c bebc b654 1bbd 72f7 bbbd adc1 dbbd
00000020: bdb9 a2bd 6509 b5bd 0e7c 6bbd dc62 1dbe
00000030: 1c62 0dbe 77d9 97bd 5c98 86bd 44cc a4bd
00000040: 8641 f7bd de9c eebd 961d 0fbe 4f80 c0bd
00000050: f462 50bd 6bbc 96bd c2ed 11bd d6bc 0ebd
00000060: fd48 b2bc 20e6 4ebe 1968 8ebe 1d0b 2fbe
00000070: 2b1a 1fbe 5642 0cbe bb8f 2ebe 73fa 3cbe
00000080: 1cb0 31be 51a0 0ebe 6cd1 26be efb2 203d
00000090: 58c7 cf3c ff17 c63c 77fd 5f3d 1650 bc3c
000000a0: 95a1 203e 4bc2 263e 3756 263e c394 5b3e
000000b0: 06e9 dd3d 1128 113e 7c48 2e3e 51f1 513e
000000c0: 6c23 483e def1 7e3d 7cb1 903b 926e 363d
000000d0: 509f 293c 04e5 1d3c 6786 9c3b 73f2 443d
000000e0: 7094 863d 599f 9c3d 9171 d63d 7145 8a3d
000000f0: 5df9 8b3d 09ec bf3d 1ef1 b73d 04da f93d
00000100: 92db 953d e5bd 953d a59f f33d a688 863d
00000110: ff46 ea3d 3a67 e93d 6f69 793d 8511 853d
00000120: 1c64 893d ff83 a63d eb79 5a3d 980e a43d
00000130: 9e07 353e bdd9 0c3e 2231 313e 54e5 f73d
00000140: 822c 8d3d f3c9 1a3e c8d8 1d3e bb96 ea3d
00000150: 0f37 233e 3cf3 1bbb 30cf 23ba 5516 8bbc
00000160: 6b9a fdbc 8044 14bd 7b23 023d 02ec aebd
00000170: 3eac 37be e92d 5ebe 60b7 8bbe 272c 163d
00000180: 03b2 5cbd dee9 12be ec39 61be 47ed 59be

conv2Dfeatures.conv00.bias f4 [4]
0.2054821 -0.09071951 -0.27665758 -0.15439722
00000000: e669 523e 27cb b9bd 10a6 8dbe 4e1a 1ebe

conv2Dfeatures.conv01.weight f4 [16, 4, 5, 5]
-0.04393261 0.06770694 -0.09822623 0.052918084 0.19058283 0.05010435 0.11092253 -0.10499291
0.096739784 0.1103648 -0.034092333 -0.07503436 0.13530691 -0.04012282 -0.073499605 -0.104173005
-0.048265077 -0.029607298 -0.017591959 0.031966437 -0.22853124 0.011712465 -0.034692902 0.0064736484
0.14103016 0.049572635 0.029520987 0.11037042 0.032505333 -0.082996145 -0.02918152 0.08854882
-0.11093506 -0.08449111 0.088685915 0.19749291 -0.027505977 -0.0972566 -0.02672759 -0.0043171863
-0.101550736 -0.10766915 -0.113274194 -0.05281447 -0.043165486 0.18456323 -0.00031865228 -0.02482473
-0.07734631 -0.03533684 -0.0697263 -0.03264563 0.08686868 0.012441731 -0.16457817 -0.11910105
-0.1363857 0.04572275 -0.12979148 -0.02851091 0.14611354 0.0897987 -0.04159311 0.021647064
0.040995583 0.15703826 0.05628488 0.021421319 0.08324638 -0.033310503 0.18032928 0.11228238
-0.02675661 -0.06619887 -0.102353536 0.21688277 0.035795454 -0.12799054 0.05080328 -0.021406855
0.14485857 0.13460365 -0.034020957 0.018485328 0.10932514 -0.086144574 0.13750957 -0.08620955
0.074205846 -0.012363335 0.14972708 0.05594245 -0.001902269 0.07089092 -0.0026261844 0.07164828
-0.0643792 -0.05811626 -0.03546396 -0.03394514 -0.14598913 -0.19343051 -0.09503571 -0.066174835
-0.11368322 -0.01809344 0.08952578 0.1855587 -0.04496107 -0.0862504 0.0583267 0.0049062325
0.15576325 0.102872714 -0.007965378 0.0018556231 -0.035103206 0.19389921 0.012413404 -0.00058671663
-0.03152879 0.0061860057 0.08442155 -0.013137963 -0.014037225 -0.047985353 -0.031271797 -0.22065778
-0.12209732 0.0055361213 -0.11290733 -0.25373983 -0.4886507 -0.18068951 -0.07399877 0.032128174
-0.009475073 -0.14106625 -0.098874435 -0.09901081 -0.06274228 0.0024835656 0.01913946 0.11266513
0.07151813 -0.09172593 -0.039016176 -0.035816915 -0.10734632 -0.09707617 0.112298444 0.10976082
0.10226973 0.06709976 0.07930263 -0.07985254 -0.02250982 -0.1745609 0.045509282 0.16905701
0.022594845 -0.012376066 -0.18748064 -0.019066084 0.021741875 0.043084744 -0.02815011 -0.16109045
-0.04962802 0.11069248 0.0063883304 0.044368822 -0.13148372 0.08609423 0.023462148 0.12063409
0.039016955 -0.09475304 -0.03290267 -0.09563778 0.053399 0.06785117 0.040300213 -0.056509126
-0.07356048 -0.07441307 0.017666943 -0.047044862 -0.05684878 0.008805398 0.023093367 0.012570539
-0.1509735 0.18154608 0.21020964 0.09740436 0.16027951 0.08583984 0.07135345 0.029431801
0.05242761 -0.12839867 -0.23303844 0.08794158 -0.019744776 -0.005559807 -0.12239256 -0.08528747
0.018479649 0.20225193 0.0129785035 -0.049676117 -0.0025411122 0.10803951 0.26509398 -0.07961895
-0.1308746 -0.07920128 0.15210713 0.05290938 -0.055153377 -0.103986874 -0.014575282 0.082542464
0.100231774 -0.0070936563 -0.055018663 -0.1312796 0.091784626 0.07908834 0.0640187 0.05958857
0.0024769343 -0.06678204 0.1369509 0.0048392243 0.01929299 0.010173776 0.05949602 0.119387716
0.049204078 -0.037782278 0.09197945 0.08348585 0.07267202 -0.17348099 -0.16440287 -0.03360674
-0.15301633 -0.15424424 0.055682134 0.03320656 0.19336963 -0.008922571 -0.017111331 -0.0061891987
00000000: aef2 33bd f0a9 8a3d d52a c9bd a2c0 583d
00000010: 2528 433e 383a 4d3d 5a2b e33d 8606 d7bd
00000020: 821f c63d f106 e23d 67a4 0bbd 9dab 99bd
00000030: e58d 0a3e d357 24bd f686 96bd a858 d5bd
00000040: 9ab1 45bd 018b f2bc 031d 90bc 3def 023d
00000050: 1804 6abe a4e5 3f3c 251a 0ebd e620 d43b
00000060: 366a 103e ad0c 4b3d ffd5 f13c e309 e23d
00000070: 5024 053d e2f9 a9bd 150e efbc 1559 b53d
00000080: ec31 e3bd ad09 adbd f6a0 b53d 953b 4a3e
00000090: 3754 e1bc 782e c7bd d2f3 dabc 2f77 8dbb
000000a0: d5f9 cfbd a581 dcbd 4dfc e7bd fc53 58bd
000000b0: 4bce 30bd 25fe 3c3e c910 a7b9 3b5d cbbc
000000c0: be67 9ebd 5dbd 10bd aacc 8ebd 6db7 05bd
000000d0: 35e8 b13d 67d8 4b3c 2e87 28be 40eb f3bd
000000e0: b1a8 0bbe c747 3b3d 0fe8 04be b68f e9bc
000000f0: ca9e 153e 61e8 b73d 895d 2abd 2f55 b13c
00000100: fcea 273d a3ce 203e f98a 663d c37b af3c
00000110: 147d aa3d 9870 08bd 3da8 383e 4ef4 e53d
00000120: ae30 dbbc 4693 87bd bb9e d1bd 8416 5e3e
00000130: 419e 123d f40f 03be 1a17 503d 6e5d afbc
00000140: ce55 143e 8ad5 093e 8f59 0bbd 8b6e 973c
00000150: dce5 df3d 916c b0bd 4fcf 0c3e a28e b0bd
00000160: 3cf9 973d 968f 4abc 0e52 193e e923 653d
00000170: 8e55 f9ba 422f 913d 101c 2cbb 55bc 923d
00000180: 3ed9 83bd 510b 6ebd a842 11bd 0f0a 0bbd
00000190: 2d7e 15be a612 46be 15a2 c2bd ac86 87bd
000001a0: c0d2 e8bd b238 94bc 4b59 b73d 1a03 3e3e
000001b0: 1929 38bd 0da4 b0bd fae7 6e3d 76c4 a03b
000001c0: 6780 1f3e eeae d23d 3881 02bc 6138 f33a
000001d0: 61c8 0fbd 848d 463e 9761 4b3c e3cd 19ba
000001e0: 5524 01bd fab3 ca3b 35e5 ac3d 9c40 57bc
000001f0: 64fc 65bc 4a8c 44bd db16 00bd 1df4 61be
00000200: 290e fabd 5a68 b53b f53b e7bd 30ea 81be
00000210: 6d30 fabe ac06 39be ab8c 97bd d598 033d
00000220: 563d 1bbc ac73 10be ae7e cabd 2ec6 cabd
00000230: 067f 80bd 51c3 223b 5bca 9c3c fabc e63d
00000240: 1978 923d ceda bbbd 6dcf 1fbd c2b4 12bd
00000250: 63d8 dbbd dfcf c6bd bafc e53d 48ca e03d
00000260: cb72 d13d 996b 893d 6b69 a23d ba89 a3bd
00000270: 8466 b8bc 18c0 32be f167 3a3d 481d 2d3e
00000280: d318 b93c fcc4 4abc edfa 3fbe 7a30 9cbc
00000290: 041c b23c a179 303d 0f9b e6bc e5f4 24be
000002a0: c046 4bbd bdb2 e23d 3355 d13b 15bc 353d
000002b0: aba3 06be 2c52 b03d b133 c03c 010f f73d
000002c0: 3ed0 1f3d e20d c2bd f3c4 06bd bedd c3bd
000002d0: e9b8 5a3d 8ef5 8a3d d611 253d 1d76 67bd
000002e0: e0a6 96bd e165 98bd 44ba 903c 1db2 40bd
000002f0: 44da 68bd 8444 103c 4d2e bd3c a9f4 4d3c
00000300: cc98 1abe 37e7 393e 3241 573e f07b c73d
00000310: 5020 243e cccc af3d c221 923d f61a f13c
00000320: 55be 563d f17a 03be a1a1 6ebe b71a b43d
00000330: ccbf a1bc 0b2f b6bb f3a8 fabd 32ab aebd
00000340: a262 973c 211b 4f3e caa3 543c 2f79 4bbd
00000350: ca88 26bb d243 dd3d 66ba 873e 430f a3bd
00000360: fe03 06be 4834 a2bd f9c1 1b3e 82b7 583d
00000370: 82e8 61bd 12f7 d4bd 2acd 6ebc 060c a93d
00000380: 5146 cd3d e771 e8bb 405b 61bd 296e 06be
00000390: 94f9 bb3d 11f9 a13d 3c1c 833d 2513 743d
000003a0: 1054 223b 06c5 88bd db3c 0c3e 5b92 9e3b
000003b0: 550c 9e3c e9af 263c 19b2 733d 8c81 f43d
000003c0: 378a 493d 97c1 1abd b95f bc3d a1fa aa3d
000003d0: 11d5 943d 00a5 31be 3a59 28be 39a7 09bd
000003e0: 50b0 1cbe 34f2 1dbe f312 643d 9a03 083d
000003f0: b002 463e fa2f 12bc 102d 8cbc c3ce cabb

conv2Dfeatures.conv01.bias f4 [16]
0.0989373 -0.04004354 0.023391584 0.05660881 0.3077332 0.12062608 0.081733406 -0.08461644
0.110610016 0.035504863 0.0027580685 -0.07567844 0.041584887 0.17595053 -0.042120416 -0.23128404
00000000: a49f ca3d b204 24bd b59f bf3c a4de 673d
00000010: 358f 9d3e ce0a f73d d863 a73d 624b adbd
00000020: 8187 e23d 8c6d 113d b6c0 343b 4cfd 9abd
00000030: ea54 2a3d 602c 343e 7586 2cbd b9d5 6cbe

conv2Dfeatures.conv02.weight f4 [22, 16, 3, 3]
0.09109947 0.03428597 -0.05299799 0.07377352 -0.06295589 -0.16238849 0.14533837 0.06853386
-0.19561091 0.0051612905 0.17386617 -0.008073493 -0.009188823 -0.065000586 -0.21182884 0.023733648
0.05321044 -0.037531562 -0.13178018 0.105379574 0.010703122 0.11102857 0.02488692 -0.077962816
0.01074019 -0.15392427 -0.16504289 -0.06811017 0.07561084 0.17390586 -0.0009279436 0.008411318
-0.072451726 -0.055606753 -0.07798795 -0.064979374 0.10286362 -0.16921796 -0.021724865 -0.049398754
0.12954754 -0.0311484 0.07269533 0.112160556 -0.059224192 0.025270676 -0.15651982 -0.05679518
0.07972641 0.038208544 -0.21556634 -0.0020806356 0.078512065 -0.12803657 -0.04238487 0.09231737
0.053694542 0.07993176 -0.048389394 -0.15957755 -0.0769176 -0.02353518 -0.07806635 -0.035643835
-0.036397684 -0.07961323 -0.069915324 0.117986634 -0.040735703 -0.013720479 -0.050972916 0.12521602
0.09280015 0.026041321 -0.10278517 -0.053795986 0.18479152 -0.09508096 0.025755268 -0.0034057111
0.07454708 -0.015413379 -0.053537127 -0.0813578 -0.012504549 -0.04916842 -0.05194949 -0.029190896
-0.08362609 0.026833868 0.10362615 0.016625838 -0.026970789 -0.1486132 0.05359798 0.1220233
0.10098296 0.032474108 -0.06614847 0.1570726 -0.031955164 -0.062339175 0.006157177 -0.049839713
0.20883517 -0.039376948 0.19047296 -0.12732732 0.18148093 -0.0044882474 -0.06679621 -0.034319833
0.069224045 0.06897842 -0.06649712 -0.061183177 0.0073482916 -0.05353444 -0.08795256 -0.0027413242
0.06465925 -0.022053143 0.042070158 0.0459492 0.023360532 0.07171027 -0.032448407 0.11426982
-0.17296638 -0.08585043 -0.025930371 0.037257064 -0.013998196 0.030359032 0.0028295694 -0.049410947
-0.05938702 0.1749679 -0.0091116475 0.033459127 0.020293685 0.014151432 -0.23792547 -0.07656726
0.0075002387 -0.04916918 0.013642507 0.010418039 -0.032425802 -0.14581022 0.024044203 0.088924676
-0.15484309 -0.057108156 -0.018895475 -0.16440779 -0.03194945 0.04002004 0.091923445 0.09560643
0.06491564 0.022303594 -0.14657761 0.06713263 -0.030650701 0.108261086 -0.20898566 -0.19791624
0.029706728 0.07563105 -0.03697533 -0.02361235 0.0682837 -0.12539227 -0.07184256 -0.12040168
-0.07978727 -0.008112935 -0.03813193 -0.0744548 -0.0041792435 0.011671439 0.022507986 0.07754439
0.18425857 0.020506835 -0.090667486 0.058957443 0.2254578 0.020901423 -0.10577114 -0.015359462
-0.069355585 -0.021406425 0.08781634 0.019832188 -0.105386525 0.034862712 -0.0027279642 -0.07013129
0.12885804 0.11879899 0.017321609 -0.09735234 0.07607707 0.13715321 -0.091090746 -0.07212666
-0.01843405 0.09934903 0.08938939 0.12523422 0.005428983 0.047282435 -0.010671189 -0.059038814
0.08086161 -0.047159035 0.046827883 0.053236846 -0.1718816 0.0521065 0.035333905 0.1328565
-0.009835343 -0.053689532 -0.026145237 0.0838923 0.03159492 0.06615121 0.08574996 -0.121054426
0.048271842 0.14341074 -0.022902485 -0.018382456 0.10365061 -0.028053189 0.023443718 0.016602727
-0.06037641 -0.10647792 0.24661754 0.01695876 0.049226332 -0.11672129 0.018088259 -0.09980272
0.007876775 0.02272105 -0.002985243 -0.14389959 -0.13825274 -0.00082115806 -0.05180348 -0.18259901
00000000: 5c92 ba3d 726f 0c3d 6c14 59bd 9216 973d
00000010: 05ef 80bd 2b49 26be 95d3 143e 7b5b 8c3d
00000020: 3a4e 48be 0b20 a93b f909 323e af46 04bc
00000030: b88c 16bc 071f 85bd a9e9 58be 116d c23c
00000040: 31f3 593d b2ba 19bd 62f1 06be 3fd1 d73d
00000050: 265c 2f3c f262 e33d a7df cb3c f8aa 9fbd
00000060: 9ff7 2f3c 539e 1dbe 0101 29be 587d 8bbd
00000070: dbd9 9a3d 6114 323e 3e41 73ba a0cf 093c
00000080: 9261 94bd e8c3 63bd 25b8 9fbd e813 85bd
00000090: 29aa d23d 7947 2dbe 58f8 b1bc 5956 4abd
000000a0: 1ca8 043e ee2a ffbc 4ae1 943d 6fb4 e53d
000000b0: 1195 72bd 7304 cf3c bb46 20be 10a2 68bd
000000c0: 9a47 a33d 9080 1c3d 6cbd 5cbe 465b 08bb
000000d0: efca a03d 051c 03be c29b 2dbd e410 bd3d
000000e0: cfee 5b3d 43b3 a33d f533 46bd 4c68 23be
000000f0: fa86 9dbd dacc c0bc 40e1 9fbd 45ff 11bd
00000100: bd15 15bd 430c a3bd c42f 8fbd faa2 f13d
00000110: 7bda 26bd dccb 60bc fac8 50bd a138 003e
00000120: 010e be3d 9c54 d53c 0881 d2bd 2e59 5cbd
00000130: fd39 3d3e ceb9 c2bd b6fc d23c 5a32 5fbb
00000140: 24ac 983d 6688 7cbc bf49 5bbd eb9e a6bd
00000150: e1df 4cbc d364 49bd fdc8 54bd bf21 efbc
00000160: 2844 abbd b3d2 db3c f239 d43d e932 883c
00000170: d8f1 dcbc 0f2e 18be 8e89 5b3d 5ae7 f93d
00000180: 27d0 ce3d 9203 053d d978 87bd a4d7 203e
00000190: 6be3 02bd 5d57 7fbd 25c2 c93b ba24 4cbd
000001a0: e3d8 553e b949 21bd 580b 433e 1862 02be
000001b0: 23d6 393e 2612 93bb 74cc 88bd f492 0cbd
000001c0: 56c5 8d3d 8f44 8d3d a42f 88bd 369b 7abd
000001d0: f0c9 f03b ee46 5bbd 7920 b4bd caa7 33bb
000001e0: 126c 843d cba8 b4bc c251 2c3d 3a35 3c3d
000001f0: 965e bf3c d6dc 923d 9fe8 04bd 4c06 ea3d
00000200: 191e 31be 5ad2 afbd ee6b d4bc dd9a 183d
00000210: b158 65bc 81b3 f83c 4c70 393b 2263 4abd
00000220: ce3f 73bd c92a 333e 0549 15bc 700c 093d
00000230: f13e a63c 68db 673c bca2 73be 4ccf 9cbd
00000240: 90c4 f53b 9f65 49bd d284 5f3c 6cb0 2a3c
00000250: ebd0 04bd 464f 15be 59f8 c43c 241e b63d
00000260: 308f 1ebe 3eea 69bd afca 9abc 845a 28be
00000270: 6ddd 02bd 0eec 233d 5c42 bc3d 4ecd c33d
00000280: 7ef2 843d 07b6 b63c 7118 16be d57c 893d
00000290: 2e17 fbbc fdb7 dd3d 5600 56be 8eaa 4abe
000002a0: 865b f33c 74e4 9a3d 7273 17bd b06e c1bc
000002b0: 53d8 8b3d d566 00be 3122 93bd 2895 f6bd
000002c0: 8267 a3bd 1eec 04bc 3a30 1cbd c27b 98bd
000002d0: 09f2 88bb 9039 3f3c ab62 b83c 98cf 9e3d
000002e0: 47ae 3c3e f3fd a73c e0af b9bd 5c7d 713d
000002f0: 69de 663e 7639 ab3c 8a9e d8bd 41a6 7bbc
00000300: 4d0a 8ebd 875c afbc 0ed9 b33d 1d77 a23c
00000310: e4d4 d7bd 34cc 0e3d a5c7 32bb fea0 8fbd
00000320: 5df3 033e e34c f33d 0ce6 8d3c aa60 c7bd
00000330: 4bce 9b3d e471 0c3e c98d babd 24b7 93bd
00000340: 0103 97bc 8177 cb3d c911 b73d 663d 003e
00000350: 9ce5 b13b 3aab 413d 36d6 2ebc afd2 71bd
00000360: c69a a53d d529 41bd 98ce 3f3d e10e 5a3d
00000370: bb01 30be a06d 553d 49ba 103d 890b 083e
00000380: 6b24 21bc 8ee9 5bbd 892e d6bc bacf ab3d
00000390: ad69 013d 497a 873d ad9d af3d 62eb f7bd
000003a0: b2b8 453d 44da 123e fe9d bbbc ce96 96bc
000003b0: c546 d43d cdcf e5bc 0a0d c03c 7102 883c
000003c0: 414d 77bd 1911 dabd 4f89 7c3e 19ed 8a3c
000003d0: 8da1 493d 920b efbd d42d 943c 5e65 ccbd
000003e0: 970d 013c 7f21 ba3c 11a4 43bb 6a5a 13be
000003f0: 2092 0dbe fc42 57ba e32f 54bd 3cfb 3abe

conv2Dfeatures.conv02.bias f4 [22]
-0.08275267 -0.13366592 -0.12917563 -0.14881466 -0.06608588 -0.16805777 -0.181787 -0.11119614
-0.13025819 -0.21098065 -0.18101336 -0.012506975 -0.10229639 -0.19668643 -0.15359937 -0.23946957
-0.02748741 -0.085763 -0.24472708 -0.08107805 -0.18804432 -0.27213767
00000000: 3b7a a9bd b8df 08be 9e46 04be df62 18be
00000010: 0958 87bd 5617 2cbe 5f26 3abe cdba e3bd
00000020: 6762 05be 500b 58be 915b 39be 0eea 4cbc
00000030: c580 d1bd 2b68 49be 2749 1dbe 8337 75be
00000040: 472d e1bc 83a4 afbd bc99 7abe 400c a6bd
00000050: b18e 40be a155 8bbe

fully_connect.linear00.weight f4 [256, 352]
-0.03549122 -0.0031441173 -0.017239127 0.052218266 0.084605485 -0.04746141 0.005257488 0.072093785
0.0068416367 -0.16466811 -0.15987657 -0.03873917 0.13469966 -0.17879395 0.05256632 0.15603764
-0.018273776 0.0042973068 0.12807728 0.013471225 0.033864703 0.119149916 -0.02944367 -0.0045759967
0.040454213 -0.21550469 -0.0771593 0.020904567 -0.13725312 -0.035468966 -0.13363846 0.03258671
-0.13048203 -0.05570874 0.058155727 -0.05008967 0.020235317 0.057006087 0.069605246 0.014952197
0.123945154 -0.08177004 -0.08194977 0.0048971456 0.052467536 -0.12791978 -0.10036197 -0.027255166
-0.08221371 0.020639814 0.023640955 -0.03648766 0.033165615 -0.009041388 0.058405716 0.030657714
-0.05280965 0.087097816 -0.011366904 0.00628649 -0.036567267 0.050027974 -0.1739652 0.07417153
-0.036015946 0.058094203 0.022969728 0.014025948 -0.09181317 0.0037272584 -0.10216312 0.02096995
0.014375878 -0.121423066 0.057680335 -0.013116449 0.046484817 0.024759125 0.0058846623 0.09840228
0.09087944 0.008259983 0.027056666 0.058573198 -0.069378555 0.06508541 0.045977443 -0.004303293
0.0304684 -0.014466415 -0.071852356 0.14754246 -0.10273326 0.072400466 0.13534907 -0.014303459
0.0045726243 -0.0054271696 0.06125449 0.035309933 0.11038914 0.022834003 -0.005216264 0.10835902
-0.03005545 0.14446796 0.16577706 -0.019112933 0.047299962 -0.041950893 0.05487729 -0.0004501077
-0.033503532 -0.0042169853 0.084769346 0.051600877 0.030117368 -0.011971985 -0.18392982 0.09344015
0.074614115 -0.09759025 -0.009118712 0.010108731 -0.013684832 -0.017930444 0.0010040714 0.12448284
-0.052383438 -0.07798403 0.046755318 0.07357315 0.023744756 -0.02568545 -0.030778386 0.008970246
-0.043861028 0.07228641 0.087509 -0.031549115 0.025448015 0.060265988 -0.09766848 -0.097877115
-0.007109499 0.04448698 0.0678754 0.012502555 0.016589614 -0.07885783 -0.049207818 -0.08344103
0.012150389 -0.03856046 -0.18100962 -0.06683686 0.0873147 0.09199728 0.060470827 0.076408036
0.064395085 -0.036895745 0.0117722545 -0.024125021 -0.108572304 0.040017474 -0.014150837 -0.09894409
0.0005819926 0.033527337 0.109457366 -0.102533795 -0.0077250344 -0.08436837 -0.10440724 0.058051214
-0.04173036 -0.04487426 0.0067919614 0.06683537 -0.019521633 0.06823149 0.023848092 -0.03529173
0.1255597 0.008937572 -0.08837217 0.032885585 0.0034565856 0.084253184 0.07929153 0.019044185
0.007704959 -0.012269488 0.027672723 -0.021157466 0.054069076 0.16033192 0.030775215 -0.029051647
-0.032749534 -0.121323936 -0.0637537 0.038717132 0.097898886 0.077489816 0.017530955 0.091067836
-0.028964767 0.12284787 -0.040616836 0.043547083 -0.014530288 0.05029706 -0.04476973 -0.018090116
0.09081146 -0.044343002 -0.21164043 0.09956117 -0.038291648 0.08459579 0.0031984402 -0.028333426
-0.017668568 -0.11822901 -0.029718826 -0.08849395 -0.11203236 -0.111666486 0.06844941 -0.0075326776
-0.042379133 0.018985447 0.035711583 0.032432396 0.06228637 0.14642374 0.11292528 -0.04440443
0.048951223 -0.03474211 -0.082508266 0.030812953 0.013425276 0.012990014 -0.063397095 0.065645404
0.09506185 -0.047331687 0.11943524 0.017260116 0.00973523 0.010478369 -0.17491974 0.019439688
00000000: 3e5f 11bd 890d 4ebb 1239 8dbc d2e2 553d
00000010: a445 ad3d e566 42bd 0247 ac3b e8a5 933d
00000020: cf2f e03b c29e 28be afb6 23be f7ac 1ebd
00000030: b5ee 093e c315 37be c84f 573d 55c8 1f3e
00000040: e3b2 95bc 6cd0 8c3b b126 033e 6ab6 5c3c
00000050: b7b5 0a3d df04 f43d da33 f1bc 3ef2 95bb
00000060: 51b3 253d 43ad 5cbe b205 9ebd 0e40 ab3c
00000070: 158c 0cbe e847 11bd 85d8 08be a479 053d
00000080: 159d 05be d92e 64bd b334 6e3d d32a 4dbd
00000090: 89c4 a53c 377f 693d 328d 8e3d 0ffa 743c
000000a0: f5d6 fd3d 0d77 a7bd 48d5 a7bd 3c78 a03b
000000b0: 33e8 563d 67fd 02be 948a cdbd 3a46 dfbc
000000c0: a95f a8bd d414 a93c adaa c13c 1674 15bd
000000d0: abd8 073d 5422 14bc d53a 6f3d e325 fb3c
000000e0: ee4e 58bd 5760 b23d 403c 3abc e6fe cd3b
000000f0: 8fc7 15bd 22ea 4c3d ef23 32be 3ee7 973d
00000100: 7585 13bd 30f4 6d3d 032b bc3c 17cd 653c
00000110: 8b08 bcbd 0545 743b e63a d1bd 2cc9 ab3c
00000120: cd88 6b3c a8ac f8bd 3742 6c3d 60e6 56bc
00000130: dd66 3e3d a6d3 ca3c 20d4 c03b 2287 c93d
00000140: 001f ba3d e154 073c f1a5 dd3c 73ea 6f3d
00000150: 5816 8ebd 804b 853d d852 3c3d a302 8dbb
00000160: de98 f93c 8b04 6dbc 5427 93bd 5f15 173e
00000170: d165 d2bd b246 943d f298 0a3e 0e59 6abc
00000180: f4d5 953b 66d6 b1bb fde5 7a3d 26a1 103d
00000190: b413 e23d 600e bb3c 32ed aabb 55eb dd3d
000001a0: d936 f6bc 69ef 133e 76c1 293e ba92 9cbc
000001b0: 9bbd 413d b3d4 2bbd 02c7 603d 6ffc ebb9
000001c0: 003b 09bd a32e 8abb 8d9b ad3d 715b 533d
000001d0: b3b8 f63c 2526 44bc 1958 3cbe 8d5d bf3d
000001e0: 49cf 983d 66dd c7bd a666 15bc 179f 253c
000001f0: 5836 60bc dee2 92bc 0c9b 833a dcf0 fe3d
00000200: 0490 56bd 17b6 9fbd 8182 3f3d 85ad 963d
00000210: 5d84 c23c 4b6a d2bc f422 fcbc f0f7 123c
00000220: 9fa7 33bd e60a 943d eb37 b33d a539 01bd
00000230: 5b78 d03c 78d9 763d 6906 c8bd cc73 c8bd
00000240: cdf6 e8bb fb37 363d 4202 8b3d 84d7 4c3c
00000250: f1e6 873c 3780 a1bd 238e 49bd 21e3 aabd
00000260: 6d12 473c 93f1 1dbd 965a 39be c3e1 88bd
00000270: 0dd2 b23d 1269 bc3d 42b0 773d d17b 9c3d
00000280: 92e1 833d fe1f 17bd 6ae0 403c d6a1 c5bc
00000290: 285b debd 5de9 233d ead8 67bc 33a3 cabd
000002a0: dd90 183a f653 093d 2f2b e03d 3dfd d1bd
000002b0: 4922 fdbb 53c9 acbd 77d3 d5bd 1cc7 6d3d
000002c0: 74ed 2abd 12ce 37bd 1a8f de3b fce0 883d
000002d0: d5eb 9fbc f4bc 8b3d 135d c33c 108e 10bd
000002e0: b992 003e e56e 123c 78fc b4bd 09b3 063d
000002f0: e287 623b ef8c ac3d 9963 a23d 8d02 9c3c
00000300: e179 fc3b f605 49bc e8b1 e23c 6c52 adbc
00000310: 8977 5d3d 0d2e 243e 4e1c fc3c b8fd edbc
00000320: 6024 06bd af78 f8bd 4d91 82bd db95 1e3d
00000330: 367f c83d fbb2 9e3d 149d 8f3c c681 ba3d
00000340: 8547 edbc aa97 fb3d d75d 26bd 6d5e 323d
00000350: 7210 6ebc 4a04 4e3d 7760 37bd b931 94bc
00000360: 5cfb b93d 02a1 35bd 45b8 58be bae6 cb3d
00000370: b4d7 1cbd 8f40 ad3d ec9c 513b 801b e8bc
00000380: acbd 90bc 0d22 f2bd e574 f3bc 513c b5bd
00000390: 3971 e5bd 66b1 e4bd 342f 8c3d aed4 f6bb
000003a0: be95 2dbd 5e87 9b3c 4f46 123d d5d7 043d
000003b0: fe1f 7f3d 1bf0 153e 5f45 e73d 6be1 35bd
000003c0: 1481 483d be4d 0ebd 18fa a8bd 726b fc3c
000003d0: b0f5 5b3c 11d4 543c 56d6 81bd 1971 863d
000003e0: caaf c23d dfde 41bd 779a f43d 1665 8d3c
000003f0: 8480 1f3c 77ad 2b3c 291e 33be fb3f 9f3c

fully_connect.linear00.bias f4 [256]
-0.05362646 0.07171495 -0.04246995 0.034925368 -0.10416633 0.036164474 0.038777582 -0.06106449
-0.057906024 0.03933504 -0.045722917 -0.06485922 -0.035863493 0.021973344 0.0014291403 -0.011491786
-0.02466156 -0.00593502 -0.06561468 0.011159238 0.019230083 -0.08313974 -0.08865468 -0.11799282
-0.011007171 -0.13709779 -0.07062097 0.0065642525 -0.07239844 -0.08620967 0.03326773 -0.100767285
0.01458634 0.09307883 -0.0025776369 0.021564431 -0.026926283 -0.039655406 -0.035903167 -0.006085844
0.0016091898 -0.0227574 -0.1041743 -0.14270341 -0.06036943 -0.068919756 -0.043711033 -0.014023183
-0.032872733 -0.07848734 -0.08572005 -0.01437368 -0.11978999 -0.054735404 0.03897821 -0.046364523
-0.039498962 -0.0064706355 0.0051460983 0.006034963 -0.17865488 -0.0064427466 -0.04618798 -0.063188836
-0.13747537 -0.0177083 -0.012275753 -0.044034056 -0.0064820936 -0.056834534 0.039747838 0.012672261
-0.0500432 0.02654874 0.00278391 -0.13013197 -0.04692195 -0.020798484 -0.062078204 -0.07793588
-0.047212657 -0.008631006 -0.07190851 0.104774565 0.018660448 -0.060270283 -0.018779043 -0.011026378
-0.05377066 0.051317897 -0.038685866 -0.06742591 0.010929588 -0.036274858 -0.020538282 -0.021647297
-0.02716861 -0.031424638 -0.056312833 -0.114131875 -0.027575769 0.0014761336 -0.036332663 -0.089478225
-0.039098736 -0.0052062543 0.06294514 -0.024694635 -0.04262201 0.0020937328 -0.07582507 -0.07478094
-0.004443024 -0.06431658 -0.035671607 0.0027110002 -0.065877974 -0.072487675 0.056479957 -0.13535497
-0.012403448 -0.050946165 -0.10910338 0.037617788 -0.077142775 -0.03555697 -0.0666304 -0.079438135
-0.0064183623 0.04957418 -0.0811722 -0.07099093 -0.059613705 -0.024245383 0.06489756 -0.0799094
-0.0014641857 0.06458085 -0.067514196 0.026420495 -0.06485674 0.03557705 -0.08830022 -0.018367609
0.009536797 -0.020331055 0.01791445 -0.041890666 0.06500117 -0.14287357 -0.04330097 -0.115667805
-0.096234664 -0.107924774 -0.04543159 -0.06528859 -0.041867033 -0.10971129 0.029304758 -0.027252093
-0.05539997 -0.039653976 -0.0061428742 -0.10736485 -0.024276745 0.0034508514 0.013576971 -0.051026385
-0.12982194 -0.03063507 0.012683403 -0.10795517 -0.013307328 -0.00015567217 -0.004678725 -0.090081565
0.0015694803 -0.05710372 -0.12569287 0.0136526935 0.007538679 -0.0565791 0.026920496 -0.076149195
-0.0201955 -0.076991096 0.014757431 -0.13106993 -0.030685183 -0.08216826 -0.06474861 0.07948925
0.002021297 -0.10157514 -0.046111315 -0.041188363 -0.044840757 -0.01826036 -0.15929602 -0.024303643
0.058315683 -0.12774526 -0.016231567 0.028823359 -0.042068724 -0.081964746 -0.12109544 -0.052621704
-0.020561436 0.050817717 0.023306036 -0.07573332 -0.0581989 -0.10419089 -0.090883665 -0.13809085
0.07876591 -0.06428212 -0.023127154 -0.046002246 0.029418403 0.05138965 0.05088111 -0.08319075
-0.017241484 0.06697447 -0.07983665 -0.084828265 -0.051336907 -0.058173247 -0.012833709 0.02252284
0.10342347 -0.0053859465 -0.011558098 0.0091378605 -0.056505825 -0.012566618 0.018391117 -0.047569726
-0.0026768036 -0.040568955 -0.13245444 -0.035938714 -0.09830638 -0.004173932 -0.004291273 -0.035314687
-4.647389e-05 0.021697203 0.0017243094 -0.03426928 0.04221374 -0.043892458 -0.06079016 -0.1378992
00000000: 6ba7 5bbd 4adf 923d f8f4 2dbd e70d 0f3d
00000010: 2855 d5bd 3321 143d 3ed5 1e3d c21e 7abd
00000020: de2e 6dbd c71d 213d f447 3bbd e9d4 84bd
00000030: 99e5 12bd 7101 b43c fe51 bb3a 0b48 3cbc
00000040: 0a07 cabc 8e7a c2bb fd60 86bd 3dd5 363c
00000050: 6888 9d3c 2b45 aabd 9690 b5bd 38a6 f1bd
00000060: 6c57 34bc 5d63 0cbe baa1 90bd f118 d73b
00000070: a245 94bd b28e b0bd be43 083d 145f cebd
00000080: 8bfb 6e3c 1da0 be3d 92ed 28bb e4a7 b03c
00000090: 8294 dcbc b56d 22bd 330f 13bd c26b c7bb
000000a0: 73eb d23a ba6d babc 5659 d5bd d820 12be
000000b0: ef45 77bd cd25 8dbd 570a 33bd 7ec1 65bc
000000c0: 8fa5 06bd f8bd a0bd fe8d afbd 957f 6bbc
000000d0: 7454 f5bd 3b32 60bd 9ea7 1f3d bae8 3dbd
000000e0: aac9 21bd a007 d4bb 9aa0 a83b f0c0 c53b
000000f0: 4ef1 36be ad1d d3bb 9b2f 3dbd 2669 81bd
00000100: 58c6 0cbe ff10 91bc 3d20 49bc 0e5d 34bd
00000110: be67 d4bb 54cb 68bd a1ce 223d 519f 4f3c
00000120: 19fa 4cbd be7c d93c 4272 363b 5141 05be
00000130: 3b31 40bd 9561 aabc b745 7ebd d99c 9fbd
00000140: 0f62 41bd 1069 0dbc c544 93bd 0c94 d63d
00000150: ccdd 983c f9dd 76bd 82d6 99bc fba7 34bc
00000160: a03e 5cbd b732 523d 1275 1ebd 9816 8abd
00000170: 0412 333c f294 14bd e63f a8bc ac55 b1bc
00000180: b490 debc 1fb7 00bd 49a8 66bd f9bd e9bd
00000190: 94e6 e1bc d37a c13a 8fd1 14bd 5c40 b7bd
000001a0: ff25 20bd 3a99 aabb 62e9 803d 674c cabc
000001b0: 6b94 2ebd 0237 093b 2d4a 9bbd c026 99bd
000001c0: c996 91bb 69b8 83bd 641c 12bd 09ab 313b
000001d0: 08eb 86bd 6b74 94bd 8757 673d 7e9a 0abe
000001e0: d537 4bbc edac 50bd 9871 dfbd 1c15 1a3d
000001f0: 08fd 9dbd 2fa4 11bd 8575 88bd 76b0 a2bd
00000200: 2051 d2bb 4c0e 4b3d 9c3d a6bd b163 91bd
00000210: 802d 74bd 419e c6bc 03e9 843d 8aa7 a3bd
00000220: ebe9 bfba f742 843d e244 8abd cb6f d83c
00000230: 9cd3 84bd 3eb9 113d bfd6 b4bd ab77 96bc
00000240: 3a40 1c3c 508d a6bc 53c1 923c 8c95 2bbd
00000250: 551f 853d 734d 12be 5c5c 31bd 3ee3 ecbd
00000260: ae16 c5bd aa07 ddbd 7a16 3abd 06b6 85bd
00000270: c47c 2bbd 50b0 e0bd 8810 f03c c83f dfbc
00000280: 14eb 62bd 356c 22bd 2a4a c9bb 1ae2 dbbd
00000290: 06e0 c6bc ae27 623b f271 5e3c 0b01 51bd
000002a0: 0bf0 04be 66f6 fabc 0cce 4f3c 9a17 ddbd
000002b0: fb06 5abc ee3b 23b9 fd4f 99bb af7c b8bd
000002c0: 05b7 cd3a 97e5 69bd a2b5 00be 8caf 5f3c
000002d0: 0607 f73b 7dbf 67bd 5f88 dc3c 1cf4 9bbd
000002e0: 0971 a5bc 82ad 9dbd 27c9 713c 3237 06be
000002f0: 7e5f fbbc d547 a8bd eb9a 84bd 43cb a23d
00000300: bd77 043b a106 d0bd 38df 3cbd 21b5 28bd
00000310: f1aa 37bd c096 95bc 7f1e 23be 6f18 c7bc
00000320: 6ddc 6e3d a7cf 02be 10f8 84bc f71e ec3c
00000330: 4150 2cbd 22dd a7bd e300 f8bd db89 57bd
00000340: 7570 a8bc 3d26 503d 4dec be3c 121a 9bbd
00000350: f861 6ebd 0962 d5bd 3721 babd b067 0dbe
00000360: 0550 a13d 58a6 83bd 2875 bdbc da6c 3cbd
00000370: ddfe f03c f47d 523d b668 503d e95f aabd
00000380: 033e 8dbc e929 893d 6681 a3bd 71ba adbd
00000390: a646 52bd 1247 6ebd 7a44 52bc d281 b83c
000003a0: afcf d33d 987c b0bb 2d5e 3dbc f7b6 153c
000003b0: a772 67bd 37e4 4dbc f8a8 963c 79d8 42bd
000003c0: 506d 2fbb a22b 26bd 23a2 07be 7934 13bd
000003d0: db54 c9bd 7bc5 88bb cf9d 8cbb 22a6 10bd
000003e0: f6ec 42b8 55be b13c 3902 e23a f25d 0cbd
000003f0: 51e8 2c3d 94c8 33bd 1aff 78bd 7335 0dbe

fully_connect.batch_norm00.weight f4 [256]
1.3916886 1.1794204 1.2207739 1.2495524 1.3075728 1.0391806 1.1071694 1.005058
0.9827845 1.2179737 1.294369 0.9902661 1.1350799 1.0040491 1.1047513 0.9874939
1.2170023 1.0806869 1.1063452 1.0515859 1.2050016 1.1062955 1.149984 1.0748914
1.0622214 1.2065386 0.9900457 1.2196987 1.1037098 1.1864469 1.0285318 1.2700406
1.0933818 1.0451491 0.9231947 1.2596339 1.2613513 1.0912484 1.0720414 1.0563648
1.2278588 1.1675829 1.1639327 1.09303 0.9626872 1.0854622 1.122239 1.0951812
1.080713 1.1953413 1.0702168 1.1406804 1.0319693 1.1520748 1.0448921 1.0743526
1.2073805 1.2314216 1.1165932 1.3156141 1.1181993 1.047165 1.154237 1.1325767
1.0436622 1.0343887 1.0412861 0.95133114 1.1343381 0.94287896 1.0944246 1.2656358
1.1458628 1.0476825 1.1482198 1.0165558 1.22904 1.0971318 1.125235 1.119647
1.1310878 1.0690912 1.0813575 1.0693524 1.0664723 1.0584383 1.0546483 1.2056607
1.0480151 1.1038823 1.0343641 1.1743616 1.0425402 1.2541409 1.1096157 1.1142699
1.0906795 1.1452652 1.0971465 1.0766026 0.9987941 1.1109443 1.2427441 1.1432692
1.0732893 1.0205479 1.036301 1.1464757 1.0117543 1.1781129 1.1180298 0.9905355
1.1491827 0.97587276 1.0504909 1.2027942 1.1123884 1.0682393 1.10217 1.084605
1.0485975 1.0185788 1.0661099 1.0437245 1.0551621 1.1983073 1.0635024 0.9825549
1.0577747 0.9984141 1.0721248 1.1457765 1.0961815 1.2571558 1.0738937 1.4051508
1.0586542 1.1553272 1.1338902 1.2878233 1.4532596 1.035718 1.0214851 1.1103688
0.96207416 1.1201237 1.2630107 1.1817178 1.066323 1.0529296 1.2132747 1.1031761
1.0761132 1.1534355 1.0430882 0.9094327 1.0525906 1.1156838 1.0668995 1.0113974
1.0575628 0.94204885 1.0065205 1.1127654 1.3389373 0.9645704 1.0196164 1.0620915
1.098478 1.0929215 1.2305241 1.0742565 1.1523982 1.0535288 1.3607011 1.0302104
1.1327263 1.0664548 1.09461 1.1501644 1.0863401 1.0479337 1.0186639 0.98881066
1.3243396 1.0352063 1.1221882 1.0921106 1.1885943 1.0665041 1.0989876 1.0605339
1.2299734 1.0471579 1.0418897 1.1582941 1.113125 1.1831458 1.1000627 1.0434347
1.0126705 1.0582767 0.98678994 1.2170495 1.0546975 1.10764 1.1136543 1.1336322
1.0905392 1.067255 1.0894955 1.045509 1.2037055 1.2219006 1.0705184 1.2154945
1.0009323 1.070552 1.2014784 1.0592426 1.3003211 1.0908239 1.1127075 0.96625996
1.2057065 1.1439874 1.0227096 1.0760788 0.99880373 1.0761799 0.97922903 1.1539431
1.0040134 1.1265904 1.0608892 1.1863964 1.00121 1.0518832 1.0819468 1.2009124
1.1317654 1.1455576 1.2895145 1.0614669 1.1731694 1.0081022 1.0308781 1.1549025
1.0515769 1.1319423 1.1588517 1.0402771 1.0771888 1.0874516 1.0984234 1.0272626
00000000: da22 b23f 3ff7 963f 5242 9c3f 55f1 9f3f
00000010: 8c5e a73f df03 853f bab7 8d3f bea5 803f
00000020: c497 7b3f 90e6 9b3f e2ad a53f 1482 7d3f
00000030: 4c4a 913f ae84 803f 7e68 8d3f 66cc 7c3f
00000040: bbc6 9b3f f353 8a3f b89c 8d3f 5e9a 863f
00000050: 7e3d 9a3f 179b 8d3f ad32 933f 0b96 893f
00000060: dff6 873f db6f 9a3f a373 7d3f 161f 9c3f
00000070: 5d46 8d3f 7edd 973f eea6 833f b190 a23f
00000080: eff3 8b3f 72c7 853f 7d56 6c3f af3b a13f
00000090: f673 a13f 07ae 8b3f a738 893f f636 873f
000000a0: 7a2a 9d3f 5b73 953f bffb 943f 68e8 8b3f
000000b0: ab72 763f 6df0 8a3f 87a5 8f3f e62e 8c3f
000000c0: ce54 8a3f f200 993f ddfc 883f d101 923f
000000d0: 9217 843f 3077 933f 06bf 853f 6384 893f
000000e0: 728b 9a3f 399f 9d3f 87ec 8e3f 0b66 a83f
000000f0: 2821 8f3f 8109 863f 0abe 933f 46f8 903f
00000100: b996 853f d966 843f dd48 853f 708a 733f
00000110: fe31 913f 8460 713f 1b16 8c3f 5b00 a23f
00000120: a2ab 923f 761a 863f def8 923f 801e 823f
00000130: 2f51 9d3f d16e 8c3f b307 903f 9850 8f3f
00000140: 7cc7 903f fbd7 883f ec69 8a3f 8ae0 883f
00000150: 2a82 883f e87a 873f b7fe 863f 1753 9a3f
00000160: 5c25 863f 044c 8d3f 0b66 843f 7b51 963f
00000170: f571 853f b087 a03f e307 8e3f 65a0 8e3f
00000180: 639b 8b3f 0d98 923f 4c6f 8c3f 1dce 893f
00000190: f8b0 7f3f 6c33 8e3f 3d12 9f3f a556 923f
000001a0: 8b61 893f 50a1 823f 83a5 843f b7bf 923f
000001b0: 2a81 813f 67cc 963f 9a1b 8f3f bc93 7d3f
000001c0: 6b18 933f ccd2 793f 7c76 863f 29f5 993f
000001d0: be62 8e3f 11bc 883f e813 8d3f 56d4 8a3f
000001e0: 7138 863f ca60 823f 4a76 883f c498 853f
000001f0: 8d0f 873f 2262 993f d920 883f b888 7b3f
00000200: 2965 873f 1198 7f3f 633b 893f cea8 923f
00000210: ad4f 8c3f 7bea a03f 5975 893f fbdb b33f
00000220: fb81 873f c3e1 933f 5023 913f 65d7 a43f
00000230: 6904 ba3f 6892 843f 06c0 823f 9120 8e3f
00000240: 7e4a 763f 3760 8f3f 56aa a13f 8742 973f
00000250: 467d 883f 66c6 863f 964c 9b3f e034 8d3f
00000260: 14be 893f c6a3 933f ea83 853f 95d0 683f
00000270: 4abb 863f bace 8e3f 2a90 883f 7875 813f
00000280: 385e 873f 1d2a 713f aad5 803f 196f 8e3f
00000290: 4c62 ab3f 16ee 763f ca82 823f 9df2 873f
000002a0: ed9a 8c3f dae4 8b3f d081 9d3f 3d81 893f
000002b0: c981 933f 08da 863f 742b ae3f efdd 833f
000002c0: 2dfd 903f 9781 883f 2e1c 8c3f 9638 933f
000002d0: 310d 8b3f b122 863f 9463 823f b222 7d3f
000002e0: f683 a93f a481 843f dda3 8f3f 48ca 8b3f
000002f0: dc23 983f 3583 883f a0ab 8c3f 93bf 873f
00000300: c56f 9d3f 4509 863f a45c 853f fb42 943f
00000310: e17a 8e3f 5271 973f dbce 8c3f 458f 853f
00000320: 309f 813f 9c75 873f 449e 7c3f 47c8 9b3f
00000330: 5400 873f 26c7 8d3f 398c 8e3f dc1a 913f
00000340: ca96 8b3f d09b 883f 9774 8b3f 3dd3 853f
00000350: 0613 9a3f 3d67 9c3f bf06 893f 5395 9b3f
00000360: 8d1e 803f d907 893f 0bca 993f 4395 873f
00000370: ec70 a63f 1ea0 8b3f 336d 8e3f d05c 773f
00000380: 9754 9a3f 2e6e 923f 26e8 823f f3bc 893f
00000390: 9ab1 7f3f 43c0 893f c1ae 7a3f 68b4 933f
000003a0: 8383 803f 1d34 903f 38cb 873f d6db 973f
000003b0: a627 803f 1ca4 863f 3c7d 8a3f 7fb7 993f
000003c0: b0dd 903f a2a1 923f d00e a53f 26de 873f
000003d0: 6a2a 963f 7e09 813f d0f3 833f d8d3 933f
000003e0: 129a 863f 7ce3 903f 4155 943f cd27 853f
000003f0: 53e1 893f 9d31 8b3f 2399 8c3f 577d 833f

fully_connect.batch_norm00.bias f4 [256]
-0.011216362 0.1996477 0.113441944 -0.0049027675 0.079601854 -0.10288775 0.072066195 0.19200541
-0.08412341 -0.069178954 0.039124854 -0.073749796 -0.047917146 -0.063036256 0.09608922 -0.09626253
0.051556725 0.14120008 0.049705297 0.08887085 0.14048557 0.18491401 0.076731615 -0.15087566
0.12135028 -0.021232754 -0.22491878 -0.123164445 -0.09954097 0.16563897 -0.12794079 -0.011404377
0.15131779 0.092070386 0.039765872 0.08894891 0.03127545 0.17041206 0.16562134 -0.1558594
0.08369279 0.07987969 0.009980311 0.15964808 -0.14840254 -0.07562579 0.092937574 0.11644157
-0.03845029 -0.035214633 -0.05098528 0.034904588 0.078350075 -0.03470691 0.09058162 0.0240501
0.015949499 0.06605309 -0.05202629 0.106069356 0.011679646 -0.10332395 -0.013313456 0.13702454
0.0691205 -0.04227121 -0.046107132 -0.122516446 -0.0044929944 -0.14052771 -0.006388668 0.124395594
0.0047157863 0.18941247 0.123724766 0.17269471 -0.037196167 0.028577562 0.04162144 -0.012218267
-0.13682523 0.07397808 -0.10086888 0.04084912 0.15969703 -0.057236996 0.09505617 -0.031347416
-0.087435365 0.08275997 0.06722445 -0.047317848 -0.0692595 0.06769501 -0.05722118 0.1721329
-0.11687083 0.015473054 0.012668131 -0.14494246 -0.049388073 -0.056382455 0.17395547 -0.09434165
0.052223343 -0.041334033 -0.06924812 0.23443535 0.07602668 0.17747793 0.13713989 0.19763407
-0.10584738 -0.016753692 0.114023864 -0.016486557 0.12603608 -0.03423163 -0.09866797 0.022322517
0.21181884 0.20244952 0.060087275 -0.038069542 -0.008291041 0.19251075 0.07937058 -0.14189066
-0.031823695 0.043507174 0.07754318 0.096507244 -0.13055304 0.11594841 0.14295545 0.15046427
0.018584128 -0.009515288 -0.042584643 -0.0107772695 0.09936911 0.17834768 0.06666502 0.015564126
-0.12170755 -0.06338603 0.11134404 0.055616923 -0.026029987 -0.013584815 0.044346645 -0.043207217
0.11661039 0.12929095 0.112662144 -0.0039023699 -0.013893099 0.009563024 0.06277344 -0.09659588
-0.0686928 -0.16461945 0.05780677 -0.07824705 0.091470204 0.13436386 -0.044468615 0.08266515
0.03442538 -0.104292825 0.17113724 0.19961971 0.14309368 0.07641746 0.117524676 0.052043427
0.08191969 0.047377296 -0.13841015 -0.09386967 -0.16494821 0.028608352 -0.16564158 0.07893694
0.1250548 -0.050895 0.0741933 0.03572674 -0.055980355 -0.006589912 0.020898724 -0.030911753
0.14876151 -0.03897805 -0.097675346 0.25806558 0.06387543 -0.08230661 -0.06981806 0.17642374
-0.042435046 -0.15521626 -0.14416923 -0.022157026 -0.16569132 -0.0389491 -0.0372802 -0.04622184
0.023433857 0.043788247 0.15821956 0.022373863 -0.048049815 -0.04207012 0.00080371933 0.027588353
-0.07132576 -0.058414087 0.101428494 -0.0071815923 0.07719322 -0.07493872 0.23803562 -0.088721864
0.04013575 0.21596299 -0.0063719996 0.060486574 -0.0053470903 -0.053725373 -0.046865314 0.17177996
0.030141488 0.18385363 0.20604503 0.22838435 -0.035032686 0.11393133 0.16090395 0.21088175
0.07677748 -0.12791206 0.11319176 -0.003316553 0.24619384 0.21950606 -0.088752866 0.084776245
0.07633374 0.096985966 0.032456703 -0.10858416 0.12322526 0.099107146 0.015949195 -0.06002056
00000000: d5c4 37bc 7270 4c3e 4054 e83d 65a7 a0bb
00000010: 4c06 a33d d0b6 d2bd 7197 933d 119d 443e
00000020: e548 acbd b2ad 8dbd 6241 203d 220a 97bd
00000030: c544 44bd 2719 81bd 6dca c43d 4a25 c5bd
00000040: 252d 533d c196 103e c897 4b3d ec01 b63d
00000050: 73db 0f3e 195a 3d3e 7725 9d3d 267f 1abe
00000060: 7f86 f83d 50f0 adbc 1c51 66be a43d fcbd
00000070: 23dc cbbd 439d 293e e902 03be 6dd9 3abc
00000080: 0df3 1a3e 668f bc3d 8ae1 223d d92a b63d
00000090: b01a 003d 8080 2e3e a498 293e 9b99 1fbe
000000a0: 2067 ab3d f797 a33d 7584 233c c97a 233e
000000b0: d6f6 17be b2e1 9abd 0e56 be3d eb78 ee3d
000000c0: 0d7e 1dbd 383d 10bd f1d5 50bd 1df8 0e3d
000000d0: 0176 a03d d528 0ebd db82 b93d b704 c53c
000000e0: 86a8 823c d846 873d 8519 55bd e43a d93d
000000f0: fc5b 3f3c 829b d3bd af20 5abc 2950 0c3e
00000100: 0c8f 8d3d 9424 2dbd d5da 3cbd e7e9 fabd
00000110: f839 93bb 7fe6 0fbe 0858 d1bb 1ec3 fe3d
00000120: e286 9a3b 58f5 413e 6963 fd3d e2d6 303e
00000130: 025b 18bd 7e1b ea3c 3e7b 2a3d 202f 48bc
00000140: ea1b 0cbe d281 973d 5894 cebd 6851 273d
00000150: 9e87 233e 5771 6abd cfac c23d 2666 00bd
00000160: 5011 b3bd 0f7e a93d f9ac 893d 5cd0 41bd
00000170: edd7 8dbd aea3 8a3d c260 6abd 9b43 303e
00000180: f959 efbd b182 7d3c fe8d 4f3c cc6b 14be
00000190: 264b 4abd 4af1 66bd 6221 323e 3236 c1bd
000001a0: 25e8 553d e04d 29bd f5d1 8dbd d20f 703e
000001b0: e0b3 9b3d c6bc 353e 666e 0c3e 9660 4a3e
000001c0: 83c6 d8bd 0a3f 89bc 5885 e93d d10e 87bc
000001d0: 9a0f 013e 7736 0cbd 6f12 cabd b6dd b63c
000001e0: 0ae7 583e ed4e 4f3e 131e 763d cfee 1bbd
000001f0: 25d7 07bc 8a21 453e 0b8d a23d c94b 11be
00000200: 9059 02bd 9434 323d f5ce 9e3d 97a5 c53d
00000210: b2af 05be 5c76 ed3d ea62 123e 4e13 1a3e
00000220: be3d 983c 03e6 1bbc 3c6d 2ebd 2593 30bc
00000230: 0882 cb3d c6a0 363e ac87 883d ad00 7f3c
00000240: cf41 f9bd 89d0 81bd 5808 e43d 92ce 633d
00000250: d73c d5bc d892 5ebc d4a4 353d 0dfa 30bd
00000260: 6ed1 ee3d d964 043e 69bb e63d e7be 7fbb
00000270: e19f 63bc 3bae 1c3c 5c8f 803d 10d4 c5bd
00000280: d0ae 8cbd 0092 28be cbc6 6c3d fd3f a0bd
00000290: bb54 bb3d ae96 093e b924 36bd 594c a93d
000002a0: a101 0d3d 7a97 d5bd 9a3e 2f3e 1c69 4c3e
000002b0: 2687 123e c280 9c3d c7b0 f03d 7d2b 553d
000002c0: 83c5 a73d b20e 423d 64bb 0dbe be3e c0bd
000002d0: 2fe8 28be 105c ea3c f29d 29be b1a9 a13d
000002e0: 5e0e 003e 4777 50bd a8f2 973d 3456 123d
000002f0: a84b 65bd 30f0 d7bb cd33 ab3c a53a fdbc
00000300: f054 183e 73a7 1fbd 030a c8bd 2c21 843e
00000310: 1fd1 823d 5e90 a8bd c5fc 8ebd 6da8 343e
00000320: 5fd0 2dbd 03f1 1ebe 19a1 13be a782 b5bc
00000330: fcaa 29be 1789 1fbd 1fb3 18bd 1d53 3dbd
00000340: 5cf8 bf3c 4e5b 333d 4f04 223e 6449 b73c
00000350: e2cf 44bd b851 2cbd b1b0 523a f800 e23c
00000360: 3d13 92bd 9c43 6fbd beb9 cf3d 9053 ebbb
00000370: 7b17 9e3d 7979 99bd 9cbf 733e cfb3 b5bd
00000380: 6265 243d 6725 5d3e 35cc d0bb c5c0 773d
00000390: a536 afbb 230f 5cbd d8f5 3fbd 16e7 2f3e
000003a0: 48eb f63c 2044 3c3e 78fd 523e 96dd 693e
000003b0: 6f7e 0fbd d454 e93d 01c4 243e 63f1 573e
000003c0: 833d 9d3d 61fb 02be 15d1 e73d 875a 59bb
000003d0: 3d1a 7c3e 32c6 603e 10c4 b5bd 2b9f ad3d
000003e0: dd54 9c3d 94a0 c63d 52f1 043d 5f61 debd
000003f0: 865d fc3d b0f8 ca3d e3a7 823c 1ed8 75bd

fully_connect.batch_norm00.running_mean f4 [256]
0.2563994 0.06436579 0.035394467 0.065681085 0.16140914 -0.036141336 -0.019857848 0.029572101
0.04838356 0.07909963 0.16854712 0.071184725 0.10389848 -0.060638268 0.015206835 -0.008087596
0.05096036 0.12855574 -0.010712812 -0.007895015 0.10177598 0.06599301 0.15358312 -0.018455813
0.07345637 0.073811576 0.048655074 0.100732 0.033174165 0.16415042 -0.025694182 0.20926951
0.13475397 -0.05550795 -0.029717155 0.22840217 0.088794045 0.11755058 0.08179492 0.027277252
0.11358534 0.10186009 0.024545422 0.05349871 -0.008036451 0.05755099 -0.0067293975 0.18118788
0.02986842 0.1276238 0.19253483 0.09016238 0.04759192 0.13439709 0.22460875 0.028258182
0.09622279 0.14374822 0.03888476 0.085129485 -0.03565405 -0.05260001 0.010241455 0.12071621
0.06370481 -0.021826599 0.014532029 -0.032955255 0.09049983 0.01936219 0.06298222 0.18831092
-0.03742753 -0.047512658 0.0051052244 0.07733723 0.116025195 0.23328646 0.17864148 -0.027757714
0.04719465 0.17647512 0.07703859 0.002299645 0.024957558 0.1737887 -0.018242905 0.13774607
0.08086022 0.01334031 0.2213741 0.097375594 0.0060956497 0.22999677 0.09395324 -0.04090535
0.1505318 0.063226715 0.08633368 0.05928397 -0.010782359 0.07267057 0.15188819 0.037760854
0.015220828 -0.016639598 0.006821362 -0.019845618 -0.035993475 0.20563005 0.33405676 -0.04616189
0.09639258 0.007659026 -0.027223889 0.22775476 -0.028878715 0.056253966 -0.014508193 0.041479237
0.02965776 -0.02118631 0.050301068 0.18333018 -0.04969193 0.06875113 0.02190041 0.12656173
0.075441584 0.026817396 0.12341609 0.12671895 0.16891375 0.288412 0.053014528 0.3015652
-0.019108033 0.0915129 0.04246849 0.10925638 0.291938 -0.032795724 0.11238038 0.043702457
-0.02559326 0.14401783 0.047363378 0.14439899 0.09879775 0.10234229 0.20856068 0.079380415
0.054896966 0.13875751 -0.047929183 0.06516207 0.06647297 -0.017653579 0.08073752 0.010389558
-0.03144003 0.015327336 -0.011220047 0.1422976 0.16116762 -0.030967943 0.036725573 0.16944924
0.10561852 -0.034780484 0.05916116 0.13536185 0.09430157 -0.0315556 0.21289186 0.016194189
0.05562514 -0.028894551 0.08141581 0.11610294 0.107154645 0.017071947 -0.034123447 0.14434683
0.18375872 -0.044946037 -0.00905111 -0.023161966 0.09341161 0.1804633 0.08106466 -0.023140235
0.23419005 -0.056465503 0.079336554 0.084446475 0.07258267 0.13660328 0.051597502 -0.004366079
-0.042417854 0.04259152 -0.0575377 0.04575852 0.060315404 0.18036783 0.08385675 0.14390437
0.22356522 0.082758926 0.066599466 0.05617818 0.12108411 0.13704367 -0.044529412 0.11351441
-0.009505191 -0.05267509 0.16288498 0.056266703 0.08770038 -0.016016874 0.033305068 0.012842062
0.24357024 0.12111536 -0.03455033 0.14412634 0.027171751 0.07924475 -0.047015894 0.08859226
-0.022954632 -0.040442485 0.057087474 0.10617002 0.00034722558 0.15055138 -0.042517573 0.030495903
0.19279219 0.033032604 0.124231264 -0.048205208 0.022145957 -0.01638629 -0.038852118 0.16792598
0.16778663 0.24195866 0.23306844 0.17961319 0.10625986 -0.007955879 -0.020419458 0.0646115
00000000: c846 833e 36d2 833d caf9 103d ce83 863d
00000010: 7048 253e f008 14bd edac a2bc 3141 f23c
00000020: d72d 463d fdfe a13d 9e97 2c3e 4cc9 913d
00000030: bac8 d43d d55f 78bd 1726 793c d681 04bc
00000040: cfbb 503d 1ea4 033e ca84 2fbc 185a 01bc
00000050: ed6f d03d 5827 873d e544 1d3e a530 97bc
00000060: 4b70 963d 862a 973d 8b4a 473d 944c ce3d
00000070: a2e1 073d 0c17 283e 9b7c d2bc bf4a 563e
00000080: f2fc 093e 4e5c 63bd 6471 f3bc 42e2 693e
00000090: a7d9 b53d 5cbe f03d 1884 a73d 8b74 df3c
000000a0: 6e9f e83d 069c d03d 7b13 c93c 7721 5b3d
000000b0: 52ab 03bc 96ba 6b3d 4782 dcbb 5189 393e
000000c0: 9eae f43c d0af 023e da27 453e 0ea7 b83d
000000d0: bfef 423d 649f 093e d6ff 653e b47d e73c
000000e0: 7410 c53d bc32 133e a045 1f3d 5e58 ae3d
000000f0: fb09 12bd 1c73 57bd c7cb 273c 0f3a f73d
00000100: ab77 823d b2cd b2bc bf17 6e3c 17fc 06bd
00000110: fa57 b93d 759d 9e3c d2fc 803d 94d4 403e
00000120: 9c4d 19bd a29c 42bd ba49 a73b fb62 9e3d
00000130: 9e9e ed3d a5e2 6e3e cbed 363e 2564 e3bc
00000140: 2d4f 413d e5b5 343e 69c6 9d3d a4b5 163b
00000150: cb73 cc3c aaf5 313e 2572 95bc 4e0d 0d3e
00000160: 0b9a a53d 5191 5a3c e4af 623e db6c c73d
00000170: 04be c73b 4684 6b3e 8e6a c03d 5e8c 27bd
00000180: 0225 1a3e 027d 813d b6cf b03d c0d3 723d
00000190: 7ea8 30bc 4fd4 943d 9488 1b3e 20ab 1a3d
000001a0: c860 793c c44f 88bc bb85 df3b 4793 a2bc
000001b0: e56d 13bd af90 523e 7d09 ab3e 4014 3dbd
000001c0: 7969 c53d 91f8 fa3b a204 dfbc 8b38 693e
000001d0: 0e93 ecbc 8f6a 663d c6b3 6dbc 22e6 293d
000001e0: d5f4 f23c ea8e adbc 7e08 4e3d e8ba 3b3e
000001f0: c489 4bbd 64cd 8c3d 7d68 b33c 6699 013e
00000200: 1e81 9a3d 28b0 db3c 93c1 fc3d 9dc2 013e
00000210: baf7 2c3e bdaa 933e c325 593d c166 9a3e
00000220: 7388 9cbc 1e6b bb3d 70f3 2d3d cfc1 df3d
00000230: e678 953e cf54 06bd af27 e63d 5901 333d
00000240: f5a8 d1bc 6979 133e 1a00 423d 54dd 133e
00000250: 7a56 ca3d d698 d13d ee90 553e 3392 a23d
00000260: a4db 603d 7316 0e3e 6451 44bd b173 853d
00000270: fb22 883d 3d9e 90bc b659 a53d f738 2a3c
00000280: 43c7 00bd 821f 7b3c 4ad4 37bc 76b6 113e
00000290: 2009 253e 7cb0 fdbc 8e6d 163d 1a84 2d3e
000002a0: 864e d83d fb75 0ebd f952 723d 4c9c 0a3e
000002b0: 2e21 c13d 7240 01bd 5300 5a3e ada9 843c
000002c0: 30d7 633d 44b4 ecbc 55bd a63d 61c7 ed3d
000002d0: e573 db3d 78da 8b3c 07c5 0bbd a8cf 133e
000002e0: 3f2b 3c3e 5619 38bd 1b4b 14bc 2abe bdbc
000002f0: 964e bf3d 5fcb 383e 3a05 a63d 9790 bdbc
00000300: 84cf 6f3e 5f48 67bd 347b a23d 46f2 ac3d
00000310: 39a6 943d bbe1 0b3e e757 533d 5311 8fbb
00000320: 58be 2dbd 7274 2e3d a7ac 6bbd 496d 3b3d
00000330: 490d 773d 58b2 383e 16bd ab3d ab5b 133e
00000340: 48ee 643e 837d a93d 4d65 883d 171b 663d
00000350: f2fa f73d 2d55 0c3e 7964 36bd 3e7a e83d
00000360: a9bb 1bbc d6c1 57bd 52cb 263e ea77 663d
00000370: 429c b33d d235 83bc e56a 083d 8367 523c
00000380: 7a6a 793e 540b f83d a684 0dbd db95 133e
00000390: 4b97 de3c 124b a23d bd93 40bd dc6f b53d
000003a0: 5a0b bcbc 05a7 25bd 8ed4 693d ab6f d93d
000003b0: d40b b639 242a 1a3e e826 2ebd 8bd2 f93c
000003c0: 516b 453e 324d 073d f66c fe3d d372 45bd
000003d0: 706b b53c 8a3c 86bc 6623 1fbd caf4 2b3e
000003e0: 42d0 2b3e 03c4 773e 7ea9 6e3e 85ec 373e
000003f0: c59e d93d 6059 02bc b546 a7bc 0953 843d
