weights/2. triplet loss model - marks/3. 1154 epochs/conv2Dfeatures_last.pt (torch, 21655 bytes, 6 tensors)

conv00.weight f4 [4, 1, 5, 5]
0	0x3cf5ccfa	0.030004967
1	0x3d0f7c4d	0.03503065
2	0x3d0695f0	0.032857835
3	0x3bac8ea8	0.0052660294
4	0x3da46c36	0.08028452
5	0x3dec37fb	0.11534115
6	0x3dc41cd8	0.09575814
7	0x3e03409e	0.12817618
8	0x3d3e6699	0.046484563
9	0x3dddaa11	0.10823453
10	0x3d8b87a7	0.06812983
11	0x3d1421a3	0.03616489
12	0x3d18b4ef	0.037281927
13	0xbc7f64aa	-0.015587965
14	0x3d5cd761	0.05391634
15	0xbd92891c	-0.07155058
16	0xbe0b8eb4	-0.13628656
17	0xbe0707ca	-0.13186565
18	0xbde00145	-0.10937742
19	0xbd9adc7c	-0.07561585
20	0xbd5ff040	-0.05467248
21	0xbe5ce358	-0.215711
22	0xbe4239a6	-0.18967304
23	0xbe4a31bf	-0.19745539
24	0xbdd42867	-0.10359269
25	0x3cef8402	0.02923775
26	0x3d8cc9bc	0.06874415
27	0x3cf5ad5a	0.029989887
28	0x3dae43c7	0.08509021
29	0x3e1c2066	0.15246734
30	0xbd2fd030	-0.042923152
31	0x3d5698c7	0.052391794
32	0x3dce85cb	0.10084113
33	0x3df59780	0.11991787
34	0x3db779ff	0.08958816
35	0x3d268380	0.040652752
36	0x3d8bc15f	0.06823992
37	0x3dda0ffa	0.106475785
38	0x3da1e3e4	0.07904795
39	0x3db12dfb	0.08651348
40	0x3ddf10ae	0.10891853
41	0x3c2e0518	0.010621332
42	0x3d04d3e9	0.032428656
43	0x3dd56d26	0.10421209
44	0x3b75b4e8	0.0037491862
45	0xbe152cbb	-0.14567845
46	0xbd64e3e9	-0.055881415
47	0x3d2152db	0.039385658
48	0x3b0e813d	0.0021744512
49	0xbd746739	-0.059668753
50	0x3e0d6bf1	0.13810708
51	0x3e5ba502	0.21449664
52	0x3e634fc8	0.22198403
53	0x3e00159c	0.12508243
54	0x3dbb606c	0.091492504
55	0xbe1ada0f	-0.15122245
56	0xbdc4a051	-0.096008904
57	0xbdebb93d	-0.11509941
58	0xbe02fb40	-0.12791157
59	0xbd8c30ff	-0.06845283
60	0xbda4c282	-0.08044912
61	0xbe2c286c	-0.16812295
62	0xbde66f25	-0.11251668
63	0xbe1e0860	-0.15432882
64	0xbe22a5ea	-0.15883604
65	0x3da63ae1	0.08116699
66	0xbd73708b	-0.0594335
67	0xbde7480b	-0.11293038
68	0xbd9a3e41	-0.07531405
69	0xbda1e81a	-0.07905598
70	0x3badaeea	0.0053003924
71	0x3bdcad1b	0.006734503
72	0xbc8a20a4	-0.016861267
73	0x3bfcf310	0.007719405
74	0x3d383e33	0.044981193
75	0xbe2cab88	-0.16862309
76	0xbe0d65ba	-0.13808337
77	0xbe0f63c4	-0.14002901
78	0xbd26eb52	-0.040751763
79	0xba84ab5a	-0.0010121868
80	0xbe2c68e4	-0.16836888
81	0xbe01d8a4	-0.12680298
82	0xbd4033bb	-0.046924334
83	0xbd861c21	-0.06548334
84	0xbce9f684	-0.02855993
85	0xbdff9a83	-0.12480643
86	0xbda745f2	-0.08167638
87	0xbdf002f2	-0.11719312
88	0xbd749471	-0.059711877
89	0xbcf6f3ef	-0.030145613
90	0xbe43ef1e	-0.19134185
91	0xbdbbb631	-0.0916561
92	0xbd3afce3	-0.045651328
93	0xbbbb7c06	-0.005721572
94	0x3d8fc984	0.07020858
95	0xbdaa0a93	-0.08302798
96	0x3d134fb8	0.035964698
97	0x3daf85ff	0.085704796
98	0x3dd70210	0.1049844
99	0x3d85721c	0.06515905

conv00.bias f4 [4]
0	0x3daa80c9	0.08325345
1	0xbd86e339	-0.06586308
2	0xbf0be144	-0.54640603
3	0xbe1f2b05	-0.15543754

conv01.weight f4 [16, 4, 5, 5]
0	0x3d02207d	0.031769264
1	0xbe031acc	-0.12803191
2	0xbdadf99a	-0.08494873
3	0x3e162e1f	0.14666031
4	0xbd54ea29	-0.051981125
5	0xbda5e522	-0.08100344
6	0x3d0947aa	0.03351561
7	0xbac602f4	-0.0015107081
8	0xbd4d81e5	-0.050172705
9	0xbd91073d	-0.07081459
10	0xbc8becbe	-0.01708066
11	0xbe25a4b6	-0.16176113
12	0xbda2ffa5	-0.079589166
13	0x3c7a80a4	0.015289459
14	0x3db73f1b	0.08947583
15	0xbd0a008e	-0.033691935
16	0xbcb12fea	-0.021629293
17	0xbccd1453	-0.025034105
18	0xbdead21e	-0.11465858
19	0x3da58954	0.08082834
20	0x3d33e4ff	0.04391956
21	0x3e3233fe	0.17402646
22	0x3e56227c	0.20911592
23	0x3d8ba258	0.06818074
24	0xbc8d8c2a	-0.01727875
25	0xbbb12626	-0.005406159
26	0xbdbb454d	-0.091440775
27	0xbd7ff32f	-0.062487777
28	0xbdbbfadb	-0.09178706
29	0xbd0304d0	-0.03198701
30	0x3c1808d4	0.009279449
31	0xbdcf8022	-0.10131861
32	0xbe01e6e5	-0.12685736
33	0xbc9b3ab2	-0.018948887
34	0xbca80a13	-0.020512616
35	0x3e8ea543	0.2786046
36	0xbd401396	-0.04689368
37	0x3e5c4638	0.21511161
38	0x3d9ac2fe	0.07556723
39	0xbd98ee3a	-0.07467313
40	0x3e67cac1	0.22635938
41	0x3e168ca8	0.14702094
42	0x3d503eae	0.050841026
43	0x3d1b7520	0.037953496
44	0xbdd9162b	-0.10599931
45	0xbbd948b6	-0.0066309823
46	0x3d0df1ae	0.03465431
47	0xbd0f6116	-0.035004698
48	0x3dfcbffa	0.12341304
49	0xbe3063de	-0.17225596
50	0x3da38d2c	0.07985911
51	0x3e0f25b2	0.13979223
52	0x3dce9bfa	0.10088344
53	0xbd00a4f7	-0.031407323
54	0xbd5e0979	-0.054208253
55	0x3e0fcc4e	0.1404278
56	0x3dc55afc	0.096364945
57	0xbe3db5d0	-0.18526387
58	0xbd437818	-0.047721952
59	0xbdfa8daa	-0.122340515
60	0xbe6d5828	-0.2317816
61	0xbe0744c5	-0.13209827
62	0xbe1aa561	-0.1510215
63	0x3c4fc459	0.01268109
64	0xbd1e1428	-0.03859344
65	0xbd860750	-0.065443635
66	0xbe4a37ca	-0.19747844
67	0x3e239a4a	0.15976825
68	0x3d9467be	0.0724635
69	0x3d21d381	0.039508346
70	0x3e072410	0.1319735
71	0x3e0a05cd	0.13478775
72	0x3e83cce0	0.25742245
73	0xbd85fa6a	-0.06541903
74	0xbd4acf79	-0.049514268
75	0x3d74c106	0.059754394
76	0x3dd08654	0.10181871
77	0x3e7e61de	0.24842021
78	0x3cf936c3	0.03042162
79	0x3dc49a7a	0.095997766
80	0x3c7a0149	0.0152590955
81	0x3d672834	0.056434825
82	0x3c5f566d	0.013631445
83	0xbdb8d85d	-0.09025643
84	0x3d86163a	0.06547208
85	0xbe81c719	-0.25347212
86	0x3d38356a	0.044972815
87	0xbe1c600b	-0.15271012
88	0xbe7dc3b9	-0.24781694
89	0xbcaee2b7	-0.02134834
90	0xbd55e4bd	-0.052220095
91	0x3b497331	0.0030738825
92	0xbb635cd8	-0.003469279
93	0x3e0cf1aa	0.13764063
94	0xbd2eaec7	-0.04264715
95	0xbd770c71	-0.0603146
96	0x3df32355	0.118719734
97	0x3db5dfe0	0.088805914
98	0x3dba21e5	0.09088496
99	0xbdf158d8	-0.11784524
100	0x3c94e0de	0.018173631
101	0xbd688299	-0.056765173
102	0xbe44804a	-0.19189563
103	0x3c1e6d3f	0.009669601
104	0x3d7e6a01	0.062112812
105	0x3bd2ff54	0.006439129
106	0xbb7edcad	-0.0038888857
107	0xbdd2e6c0	-0.10297918
108	0xbc450065	-0.01202402
109	0x3dbfafca	0.09359701
110	0x3b8fdb3c	0.0043901484
111	0xbbf89536	-0.0075861467
112	0xbe577ef7	-0.21044527
113	0x3d962f53	0.07333245
114	0x3c676ae7	0.014124609
115	0x3de8de6e	0.1137055
116	0x3d744e69	0.05964509
117	0xbdab8935	-0.083757795
118	0x3d77ccd4	0.060498074
119	0xbc94ba34	-0.018155195
120	0x3d9b538c	0.07584295
121	0x3d67d371	0.05659813
122	0xbea1808e	-0.31543392
123	0x3e6970d5	0.22796948
124	0x3ea08225	0.31349292
125	0x3dab2a7d	0.08357713
126	0x3bbed02d	0.0058231563
127	0xbd0038a8	-0.03130403
128	0x3d723c61	0.059139613
129	0xbb1ecaa5	-0.0024229672
130	0x3d29e63b	0.04147933
131	0xbda1cf62	-0.07900883
132	0xbdbbb87e	-0.091660485
133	0x3db638fe	0.08897589
134	0xbcb04545	-0.021517405
135	0x3dc1213f	0.09430169
136	0x3c1d01b0	0.009582922
137	0x3d4861c8	0.048921376
138	0xbe1fb995	-0.15598138
139	0x3d9704c0	0.07373953
140	0xbca3c0ae	-0.019989338
141	0xbd010094	-0.031494692
142	0xbd98e1db	-0.074649535
143	0xbdbdaacb	-0.09261092
144	0x3e037582	0.12837794
145	0xbd262450	-0.040561974
146	0xbd0c50a9	-0.03425661
147	0x3e263d7d	0.16234393
148	0xbea75f3f	-0.32689855
149	0x3cfb5c44	0.030683644
150	0x3cb16f6e	0.02165958
151	0x3cbc72f2	0.023004029
152	0x3c449846	0.011999195
153	0xbcf8a907	-0.030354036
154	0x3c85ee5b	0.016349008
155	0xbd93a9bd	-0.072101094
156	0xbe03bcbd	-0.12864967
157	0xbea8805b	-0.32910427
158	0xbc7918e5	-0.015203689
159	0x3d83e4e5	0.064401425
160	0x3d93d06b	0.07217487
161	0xbdd989d2	-0.1062199
162	0xbe78a946	-0.24283323
163	0x3d8a8175	0.06762973
164	0xbda5776b	-0.08079418
165	0x3c0dee12	0.008662717
166	0x3ded074f	0.1157366
167	0xbde5c986	-0.11220078
168	0xbe299451	-0.16560484
169	0xbd8ef319	-0.06979961
170	0x3dea9b15	0.11455361
171	0x3d9dc5ab	0.07703718
172	0xbebe6e9e	-0.3719377
173	0x3da9eaef	0.08296763
174	0x3e868c85	0.26279083
175	0x3c051fc4	0.008125249
176	0xbe1b1f34	-0.15148622
177	0x3dcd795b	0.10032912
178	0xbe22df0d	-0.159054
179	0x3cf2b03f	0.029625056
180	0xbdd7cd0e	-0.10537158
181	0x3d666235	0.056246
182	0xbd5daf8e	-0.0541225
183	0x3deca644	0.1155515
184	0x3e229845	0.15878399
185	0xbca861b7	-0.020554407
186	0xbd13909d	-0.036026586
187	0xbe3220fa	-0.17395392
188	0x3e1cd7ff	0.15316771
189	0xbd023526	-0.031788968
190	0xbdb0ed1b	-0.08638974
191	0x3d177da5	0.03698506
192	0xbe2002ce	-0.1562607
193	0x3d13b150	0.03605777
194	0x3cb25b02	0.021771912
195	0x3ced26c7	0.028949155
196	0x3de6019d	0.112307765
197	0xbdda2e6d	-0.10653386
198	0x3e195fe3	0.14977984
199	0x3e5f33e0	0.21797132
200	0xbd6da2cf	-0.058016594
201	0x3e16e40e	0.14735433
202	0x3d9bd824	0.07609585
203	0x3d3fd927	0.046837952
204	0x3cdaf9b5	0.026730398
205	0x3dfb19c9	0.122607775
206	0xbc8949ea	-0.016758878
207	0xbe00f0df	-0.12591885
208	0xbde48551	-0.111582406
209	0x3cc5cee7	0.02414651
210	0xbd82ff5b	-0.063963614
211	0x3dbb991b	0.09160062
212	0xbe147ab8	-0.14499938
213	0x3d12c2b7	0.035830226
214	0xbe4dc8c6	-0.2009612
215	0xbd0619f1	-0.032739583
216	0xbc878ae7	-0.016545726
217	0x3d32e154	0.04367192
218	0x3e43e068	0.19128573
219	0x3e01e52e	0.12685081
220	0x3db84725	0.08997945
221	0xbcd5580c	-0.02604296
222	0xbe93255d	-0.28739443
223	0xbe843d84	-0.25828183
224	0xbdfbf560	-0.12302661
225	0xbc7edec7	-0.015556044
226	0xbd7fd2cb	-0.062456887
227	0x3e8a2f08	0.26989007
228	0xbe1ce9ef	-0.15323614
229	0x3dd78d00	0.105249405
230	0x3dcf6e2f	0.10128438
231	0xbe08d424	-0.13362175
232	0x3d87ecd8	0.06636971
233	0xbddf716f	-0.109103076
234	0xbe140a48	-0.14457047
235	0xbe283631	-0.16426922
236	0x3cb3bddc	0.021941118
237	0x3e18cc1c	0.14921612
238	0x3e78bae6	0.24290046
239	0x3d1e65c7	0.03867128
240	0x3befc902	0.007317663
241	0xbda5d563	-0.08097341
242	0xbe086b0e	-0.13322088
243	0x3cbbb34b	0.022912642
244	0xbcffe158	-0.031235382
245	0xbd942c8b	-0.072350584
246	0x3d856c3a	0.06514783
247	0x3d0bccd7	0.034130897
248	0xbc3d0cb1	-0.01153867
249	0xbe1b06ce	-0.15139315
250	0x3cf5a898	0.029987618
251	0xbcc971e5	-0.024590442
252	0x3e920769	0.28521279
253	0x3dd8f6e7	0.10593968
254	0xbd655fbc	-0.055999503
255	0x3e22982b	0.1587836

conv01.bias f4 [16]
0	0xbd65e782	-0.056128986
1	0x3d169a35	0.036768157
2	0xbd74c44a	-0.05975751
3	0x3e76a96d	0.24088068
4	0xbe7d67a9	-0.24746574
5	0x3c9072f8	0.017632946
6	0xbe2a123f	-0.16608523
7	0xbe326d34	-0.1742447
8	0x3dd843b8	0.10559791
9	0xbcbd825f	-0.023133455
10	0xbd329859	-0.04360232
11	0xbd2348af	-0.03986424
12	0xbddef6ba	-0.10886903
13	0xbdd579f6	-0.10423653
14	0xbe282526	-0.16420421
15	0x3cea1256	0.028573196

conv02.weight f4 [22, 16, 3, 3]
0	0x3c9058c1	0.017620446
1	0x3c9ffc4f	0.01952949
2	0xbd41aa38	-0.047281474
3	0x3de0e5ea	0.109813526
4	0x3dca692b	0.098833404
5	0xbc8d30f1	-0.017235251
6	0x3d8bed2a	0.06832345
7	0xbda5d046	-0.08096366
8	0xbdd02363	-0.101629995
9	0x3e3da264	0.18518978
10	0xbca94aca	-0.020665545
11	0x3bd89610	0.0066096857
12	0xbe2384c5	-0.15968616
13	0xbe85367c	-0.2601813
14	0xbe73c21c	-0.23804516
15	0xbd9de6e6	-0.07710056
16	0xbdc8b772	-0.098006144
17	0xbd42b0fe	-0.047532074
18	0x3da39717	0.079878025
19	0x3e45f723	0.19332556
20	0xbda49f0e	-0.0803815
21	0xbd832b20	-0.0640471
22	0xbd0aebfc	-0.03391646
23	0x3dae7809	0.08518989
24	0xbe767ab9	-0.24070252
25	0x3b6d8032	0.003623974
26	0x3d3478bf	0.044060465
27	0x3cbe6e13	0.023245847
28	0xbbc33a32	-0.005957865
29	0xbe6936df	-0.22774838
30	0x3db862fc	0.09003255
31	0xbd75df00	-0.060027122
32	0x3db44ca2	0.08803679
33	0x3dcc5473	0.09977045
34	0xbe2702ff	-0.16309737
35	0xbe10a445	-0.14125164
36	0xbe32f2f4	-0.17475492
37	0xbc477e3a	-0.012176091
38	0xbd99439f	-0.07483601
39	0xbd356926	-0.04428973
40	0x3e6ec32f	0.23316644
41	0x3e600c3f	0.21879672
42	0x3e8aebae	0.27132934
43	0x3e58c5e8	0.21169245
44	0x3d8866f5	0.066602625
45	0x3dc95e7e	0.09832476
46	0xbdb5241f	-0.0884478
47	0x3d1fc17f	0.03900289
48	0xbd9fdc55	-0.07805697
49	0x3e7613f9	0.24031056
50	0x3dd9b1b8	0.106296
51	0xbcd87986	-0.026425134
52	0xbde19048	-0.110138476
53	0xbd0c9b07	-0.034327533
54	0x3c4a36d8	0.012342177
55	0xbbaf86a9	-0.005356629
56	0x3e00f8dc	0.12594932
57	0xbd7528a5	-0.059853215
58	0x3e14f218	0.14545476
59	0xbd94c1b7	-0.07263511
60	0x3d625062	0.05525244
61	0xbdd74d1a	-0.10512753
62	0xbd8bcd4a	-0.06826265
63	0xbc3baf4a	-0.011455366
64	0xbe071dbd	-0.13194938
65	0xbd1f24bf	-0.038853403
66	0xbc00b2b1	-0.007855103
67	0x3c49e98d	0.012323749
68	0xbe3c6e1d	-0.1840138
69	0x3e050f3b	0.12994091
70	0xbe9a904e	-0.3018822
71	0xbb8ec515	-0.00435699
72	0xbd637ed5	-0.05554088
73	0x3ca2dfac	0.019882046
74	0xbd9b8b4c	-0.07594928
75	0xbe4af654	-0.19820529
76	0x3a95b5c7	0.0011421972
77	0xbd847c97	-0.06469076
78	0xbdc60aec	-0.09670052
79	0xbe33b776	-0.17550454
80	0xbd0f30fe	-0.034958832
81	0xbd997cad	-0.07494483
82	0xbddb1643	-0.106976055
83	0xbe00cb79	-0.12577619
84	0x3cb5e1ce	0.022202399
85	0xbe06d48c	-0.13167018
86	0x3d289357	0.04115614
87	0x3d8021ae	0.06256424
88	0x3e8d943c	0.27652156
89	0xbe3341f9	-0.17505635
90	0x3d290f52	0.041274376
91	0xbc46ca0a	-0.012133131
92	0x3cfaf83e	0.03063595
93	0x3d327c96	0.043575846
94	0x3da0cf42	0.07852031
95	0xbd06b5d4	-0.03288825
96	0xbe21746a	-0.15767065
97	0x3e4aab8f	0.19792007
98	0x3e74accd	0.23894043
99	0xbd8f8545	-0.07007841
100	0xbbdf44cb	-0.0068136207
101	0x3cf7c86a	0.030246932
102	0xbd918082	-0.07104589
103	0x3c9728a8	0.018452004
104	0xbe1c7549	-0.15279116
105	0x3d19292a	0.037392773
106	0xbcca2d23	-0.024679726
107	0x3ddc2d8e	0.10750876
108	0xbda9064e	-0.08253156
109	0x3a92058e	0.0011140571
110	0x3bcf0b04	0.006318452
111	0x3e1ed985	0.15512665
112	0xbdb877a3	-0.09007194
113	0x3dd7c770	0.105360866
114	0xbd9d8036	-0.0769047
115	0xbe944622	-0.28959757
116	0x3dd9926c	0.10623631
117	0xbd238a2b	-0.03992669
118	0x3e610f86	0.21978578
119	0x3d7044b6	0.058659278
120	0x3d9ce877	0.07661527
121	0x3db67c92	0.08910479
122	0x3b00ded4	0.0019664066
123	0xbe664c12	-0.22489956
124	0xbe2f36a0	-0.17110682
125	0x3e7709f7	0.24124895
126	0x3d2b4b96	0.04182013
127	0x3e07ee2a	0.13274446
128	0x3e242fdd	0.16033883
129	0xbe09a2ef	-0.1344106
130	0xbd9ade5c	-0.07561943
131	0xbcacfe0e	-0.021117236
132	0x3e5384fd	0.206562
133	0x3c074c9e	0.008258013
134	0xbde38420	-0.11109185
135	0x3d31742c	0.04332368
136	0x3dd0072c	0.10157618
137	0xbd2706ab	-0.040777843
138	0x3dfff14b	0.12497195
139	0xbd914c25	-0.070946015
140	0xbd069814	-0.032859877
141	0xbddf6376	-0.109076425
142	0xbe036a14	-0.12833434
143	0x3d8e308c	0.06942853
144	0xbdfeb2ad	-0.124364235
145	0xbbb14896	-0.0054102642
146	0xbd2ef281	-0.04271174
147	0xbe8f6869	-0.28009346
148	0x3cbc31c2	0.022972945
149	0xbb40dcc9	-0.0029428473
150	0xbc836ba4	-0.016042538
151	0xbeb38481	-0.3506203
152	0x3d8bfe19	0.06835575
153	0xbc8a4fe3	-0.016883796
154	0xbd544b34	-0.05182953
155	0x3e1b6026	0.15173396
156	0xbd295d23	-0.041348588
157	0x3d149eec	0.036284372
158	0x3deaa6b0	0.11457574
159	0x3baa159d	0.005190565
160	0xbe5657e1	-0.2093196
161	0xbdab914c	-0.083773226
162	0x3dacee3b	0.08443876
163	0xbdd5533b	-0.104162656
164	0x3d4fcfa2	0.050735123
165	0x3d87be5e	0.066281065
166	0x3e09f830	0.13473582
167	0x3d08ba70	0.033380926
168	0xbe2e26c4	-0.17006975
169	0x3d4d3dc1	0.05010772
170	0x3e0ca92e	0.13736412
171	0xbe0f00c9	-0.13965143
172	0x3cf03980	0.029324293
173	0x3ddf4986	0.10902695
174	0x3d6defd8	0.05809006
175	0xbd95adc6	-0.07308535
176	0x3d81171d	0.06303237
177	0xbd464e7a	-0.048414685
178	0x3e4b9d3d	0.198842
179	0x3e245465	0.16047819
180	0xbe25860b	-0.16164415
181	0x3dcee43f	0.10102128
182	0xbe83a0bb	-0.25708565
183	0x3d62b5a8	0.055349022
184	0x3dc9467e	0.098278984
185	0xbda1d2dc	-0.07901546
186	0x3deb972e	0.115034446
187	0xbe8952d4	-0.26821005
188	0x3bf6d1a3	0.007532315
189	0x3e0c49dc	0.1370005
190	0x3a9f3da5	0.0012149109
191	0x3dc91256	0.098179504
192	0x3e02bbf6	0.12767014
193	0xbe312b39	-0.17301644
194	0xbe3550e4	-0.17706639
195	0xbc03f874	-0.008054841
196	0xbdc2b983	-0.0950804
197	0x3e28861c	0.16457409
198	0x3de83796	0.11338727
199	0xbd971065	-0.07376174
200	0xbd30ab35	-0.043132026
201	0x3d5e8545	0.054326314
202	0x3dfc37e0	0.12315345
203	0xbe18044d	-0.1484539
204	0x3d463dcb	0.048398774
205	0x3dffd15f	0.12491106
206	0xbc90325f	-0.017602144
207	0xbca34d13	-0.019934213
208	0x3bdab41f	0.006674304
209	0xbd8743f8	-0.06604761
210	0x3e538abc	0.20658392
211	0xbc061a55	-0.008184989
212	0xbd16a9c1	-0.036782984
213	0xbe7e0ef1	-0.24810387
214	0x3da9b320	0.082861185
215	0xbe24f040	-0.16107273
216	0x3e8c366b	0.27385268
217	0x3bef608c	0.0073052105
218	0xbd8494c5	-0.06473688
219	0xbd6184e8	-0.05505839
220	0x3e263798	0.16232145
221	0xbde84055	-0.11340395
222	0xbd092be2	-0.033489116
223	0x3d303994	0.04302366
224	0x3d698894	0.057015017
225	0x3cacfac2	0.021115664
226	0x3cae350c	0.02126553
227	0xbe2c1b07	-0.16807185
228	0xbc3d0a37	-0.01153808
229	0xbe178eb8	-0.14800537
230	0x3afda968	0.0019352855
231	0xbd7251d8	-0.059160084
232	0x3df937df	0.1216886
233	0x3d161c43	0.036648046
234	0x3dec096c	0.115252346
235	0xbcadee9f	-0.021231947
236	0xbd9490ec	-0.07254204
237	0xbe0445e8	-0.12917292
238	0xbde0038e	-0.10938178
239	0xbe357d64	-0.17723614
240	0xbc500cef	-0.012698396
241	0xbe69d143	-0.22833733
242	0x3d0567f5	0.032569844
243	0xbc456201	-0.012047292
244	0x3d985158	0.0743739
245	0x3cbde4ad	0.02318033
246	0x3bbadcbf	0.0057025845
247	0xbdb44346	-0.08801894
248	0x3d1074c0	0.03526759
249	0xbe2c3d21	-0.16820194
250	0xbe10baf9	-0.14133824
251	0x3e04f969	0.12985767
252	0x3dc1a463	0.094551824
253	0xbe305dcc	-0.1722328
254	0x3d6c1382	0.05763579
255	0x3e568e3a	0.20952693

conv02.bias f4 [22]
0	0x3dab74ac	0.08371863
1	0xbe1213e4	-0.142654
2	0xbdb06ccb	-0.086145006
3	0xbdecf260	-0.11569667
4	0xbea114c2	-0.3146115
5	0xbe18f7c4	-0.14938265
6	0xbe944598	-0.28959346
7	0xbe68fd29	-0.22752823
8	0xbe3c19cf	-0.1836922
9	0xbebab4db	-0.36466107
10	0xbe6dcc46	-0.23222455
11	0xbeb970eb	-0.36218962
12	0xbe0a7d98	-0.13524473
13	0xbed8cb04	-0.4234239
14	0x3d7b43cc	0.061343953
15	0xbea651c0	-0.32484245
16	0xbe18142c	-0.14851445
17	0xbdd16b1f	-0.1022551
18	0xbdb231d5	-0.08700911
19	0xbe925973	-0.2858387
20	0xbde66d9d	-0.11251376
21	0xbdd170ba	-0.10226579
