weights/2. triplet loss model - marks/3. 1154 epochs/conv2Dfeatures_best_var.pt (torch, 21655 bytes, 6 tensors)

conv00.weight f4 [4, 1, 5, 5]
000000 04 3c ee 3c 57 5f 34 3d 0b 84 4d 3d bf 5b 42 3a
       0.029081352 0.044036236 0.050174754 0.0007414184
000010 62 2d 99 3d a9 35 f7 3d 8b e2 be 3d 42 13 01 3e
       0.07479359 0.12070782 0.093205534 0.12605003
000020 cf 6b 53 3d 34 c7 fd 3d 96 90 83 3d 8e c0 11 3d
       0.051616486 0.123915106 0.06424062 0.035584025
000030 9d fb 13 3d 6a 0a c8 bc 69 a6 8c 3d c8 15 95 bd
       0.03612863 -0.024419028 0.06867678 -0.07279545
000040 62 71 0c be ca 2e 0a be 25 31 f4 bd 66 0f 97 bd
       -0.13715127 -0.13494411 -0.11923436 -0.07375984
000050 53 20 7d bd d2 f6 51 be a1 4c 49 be 84 61 4e be
       -0.061798405 -0.2050431 -0.19658138 -0.20154387
000060 e9 f4 ea bd 78 c3 21 3d ae 57 5d 3d 43 6e f7 3c
       -0.11472494 0.039493054 0.054038696 0.030203944
000070 34 92 ba 3d dd 97 1b 3e 18 a0 2f bd dc 78 59 3d
       0.09109917 0.1519465 -0.042877287 0.053093776
000080 1d c8 c6 3d f7 20 ee 3d 1d 3f b7 3d d2 17 19 3d
       0.09706137 0.11627381 0.08947585 0.037376232
000090 ab 64 95 3d 6b 27 d0 3d 31 79 bc 3d 5a de c5 3d
       0.072945915 0.101637684 0.09202803 0.09661551
0000a0 97 71 df 3d 5d 98 73 3c b1 72 66 3d 13 92 c4 3d
       0.109103374 0.014867869 0.056261722 0.09598174
0000b0 eb 8d ed ba 18 f5 1a be 3e 17 66 bd d1 98 a4 3c
       -0.001812396 -0.15132558 -0.05617451 0.0200924
0000c0 b0 22 47 bc 69 bc 40 bd 85 d7 12 3e 30 27 52 3e
       -0.012154266 -0.047054682 0.14340027 0.20522761
0000d0 ee 15 64 3e 48 f8 0e 3e 77 5a b8 3d 45 c5 1b be
       0.2227399 0.139619 0.0900163 -0.15211971
0000e0 63 bd b0 bd 19 ec f5 bd 7d 6a 03 be 06 e8 b8 bd
       -0.08629873 -0.12007923 -0.12833591 -0.0902863
0000f0 06 47 a0 bd 06 9d 27 be da d4 ff bd 4e 44 0b be
       -0.07826047 -0.16368493 -0.1249177 -0.13600275
000100 83 91 16 be 6c b2 80 3d 9d a4 68 bd f5 43 d0 bd
       -0.14703946 0.06284031 -0.056797612 -0.10169212
000110 06 b2 73 bd 07 e8 8f bd 1f f7 c8 bb e6 e4 0f 3c
       -0.05949595 -0.070266776 -0.0061329748 0.008782601
000120 7b 19 69 ba bb be c0 3b ea b3 2e 3d dd 8c 27 be
       -0.00088920415 0.005882112 0.04265205 -0.16362329
000130 3e 92 0b be 37 82 16 be 9f 78 40 bd f2 f5 2f ba
       -0.13630006 -0.1469811 -0.046990033 -0.0006712369
000140 47 29 25 be 1e 8d 12 be 6c 95 4a bd 15 ff 8f bd
       -0.16129027 -0.14311644 -0.049458906 -0.07031075
000150 97 75 d9 bc d7 8a 04 be 56 f3 ba bd eb a2 da bd
       -0.026545329 -0.12943588 -0.09128444 -0.106756054
000160 d3 31 6b bd a3 2b 2f bd 9f 98 3a be 80 8d ce bd
       -0.057420563 -0.042766225 -0.18222283 -0.10085583
000170 61 46 54 bd a1 1f aa bb 97 d9 9f 3d ec 07 8d bd
       -0.05182493 -0.0051917587 0.07805174 -0.068862766
000180 51 db 1c 3d 36 c3 a5 3d 27 43 ca 3d 19 28 93 3d
       0.038295094 0.08093874 0.098760895 0.071853824

conv00.bias f4 [4]
000000 dc ac be 3d 5c f9 a2 bd ea 60 02 bf 20 cb 21 be
       0.09310314 -0.07957718 -0.5092913 -0.15800142

conv01.weight f4 [16, 4, 5, 5]
000000 16 d9 49 bc 3f 6e fc bd e0 5d 3c bd 0b 89 f1 3d
       -0.012319824 -0.12325715 -0.045987964 0.11793717
000010 8f 32 c7 bc 3d 06 76 bd 3f 12 97 3d 0c 95 c2 bb
       -0.0243161 -0.060064543 0.07376527 -0.005938178
000020 23 80 af bd ae 91 3c bd 6f 7b 1d bd ee 4e 14 be
       -0.08569362 -0.04603737 -0.038447794 -0.14483234
000030 0d 31 9a bd 5d b3 bc 3c 66 c2 63 3d 67 8b 8f 3b
       -0.07528887 0.023034746 0.055605315 0.0043806317
000040 26 9b cf bc 74 f6 37 bc e8 6f eb bd aa 70 4e 3d
       -0.025342535 -0.011228193 -0.11495954 0.050400414
000050 6e bd 07 3d 91 7c 2f 3e 17 a8 48 3e a2 24 a5 3d
       0.03313964 0.17137362 0.19595371 0.08063628
000060 92 23 d0 bc 95 fc 1f 3b 29 13 d3 bd 20 9d 9e bd
       -0.025407586 0.0024412025 -0.10306389 -0.07744813
000070 3c e5 cb bd 09 20 75 bc 94 9e 02 3c 2b 30 b3 bd
       -0.09955832 -0.014961251 0.007972378 -0.08749422
000080 da 5f d1 bd 33 6c c6 bc 72 e1 16 bd 4d bd 89 3e
       -0.1022336 -0.024221515 -0.036836095 0.26902238
000090 84 65 3e bd 0e c8 43 3e 09 99 82 3d 73 1a 58 bd
       -0.04648353 0.19119284 0.063768454 -0.0527596
0000a0 f2 7f 57 3e 0f 30 0c 3e 44 11 43 3d 08 73 45 3d
       0.21044901 0.13690208 0.047623888 0.048205405
0000b0 07 29 d5 bd 56 19 b4 3c 85 95 a8 3c ed 1b 2c bd
       -0.10408216 0.021984737 0.020579109 -0.04201882
0000c0 35 8b e4 3d dd 17 25 be 9f 82 c0 3d aa ed 08 3e
       0.11159364 -0.16122384 0.09399914 0.13371912
0000d0 d3 d8 de 3d 29 e8 25 bd 2f 05 4a bb 21 a5 d0 3d
       0.108812 -0.04050461 -0.0030825844 0.10187746
0000e0 bc ba f2 3d ac 2d 47 be 81 60 09 bd df 67 14 be
       0.11852023 -0.19451016 -0.0335393 -0.14492749
0000f0 aa 78 6d be dd 54 b8 bd 2e eb 2b be ca 97 61 bc
       -0.23190561 -0.090005614 -0.16788933 -0.0137690995
000100 a2 cc bb bd 63 62 9d bd 47 4e 36 be ac d7 15 3e
       -0.0916989 -0.076847814 -0.17803298 0.14633054
000110 65 57 a2 3d f7 7e 7b 3c 8d f7 10 3e 26 4b fa 3d
       0.079268254 0.015350095 0.14156933 0.12221365
000120 43 73 7b 3e c2 d6 83 bd 80 e4 4e bd 1e 9d e9 3c
       0.24555688 -0.06437446 -0.050510883 0.028517302
000130 96 9b 8a 3d 94 77 7a 3e 48 74 0d 3d 45 5d af 3d
       0.06767957 0.24459678 0.034534723 0.085627116
000140 52 1c a4 3c e5 90 75 3d 51 cc dd 3c ba bc a7 bd
       0.020033035 0.059952635 0.027074965 -0.081902936
000150 45 82 8f 3d e8 23 73 be 71 ac 83 3c 5f e4 16 be
       0.07007269 -0.23744166 0.016073437 -0.14735554
000160 71 ca 51 be 23 4f af bc 13 dd 1e bd 33 10 9d 3b
       -0.20487382 -0.02140004 -0.03878505 0.004793191
000170 74 03 41 bc 70 79 d6 3d 79 88 2c bd 61 a8 47 bd
       -0.011780608 0.10472381 -0.042122338 -0.048744563
000180 25 1c e5 3d 67 33 8f 3d 9d 2c 96 3d a6 83 c9 bd
       0.11187009 0.06992226 0.07332728 -0.09839563
000190 31 d9 a2 3b b8 77 78 bd cb 22 37 be d7 a2 00 b8
       0.004969739 -0.060661048 -0.17884366 -3.0669235e-05
0001a0 56 dd 72 3d 7e 84 e4 bb 1f f4 8c 3b 18 45 c5 bd
       0.059293114 -0.006973802 0.0043015624 -0.09632319
0001b0 73 f9 fd 3b fd ed b5 3d 30 03 50 bc 45 11 40 3c
       0.007750684 0.08883283 -0.012696072 0.011722867
0001c0 45 a8 44 be 55 51 95 3d 38 9b 79 3c 0c d0 c3 3d
       -0.19204815 0.072909035 0.015234761 0.09561166
0001d0 1d a6 81 3d e1 96 aa bd f9 67 89 3d 4e b9 a3 bc
       0.06330512 -0.08329559 0.06709284 -0.019985821
0001e0 69 eb aa 3d ad 50 45 3d 25 fe 99 be d2 d4 61 3e
       0.08345682 0.04817264 -0.3007671 0.22053841
0001f0 65 72 a2 3e 8d 2b 91 3d cb c5 4c 3a 6a 53 c7 bb
       0.317279 0.07088385 0.0007811456 -0.006082942
000200 a4 c8 3d 3d 4f 05 94 3b c6 62 2c 3d 1f f9 95 bd
       0.046333924 0.0045172344 0.042086385 -0.07322907
000210 98 33 ab bd 15 fb 81 3d 42 cb a8 bc 23 f2 a8 3d
       -0.0835945 0.06346718 -0.020604733 0.08249309
000220 00 9f 02 3d e2 8d ff 3c 9b 63 f8 bd d0 72 94 3d
       0.031889915 0.031195585 -0.12128373 0.07248461
000230 68 85 93 bc 9f cf 65 bc ee 05 a3 bd b3 29 c7 bd
       -0.018007949 -0.0140265515 -0.079601154 -0.0972475
000240 b8 5c e9 3d d6 c9 39 bc e3 56 17 bd c3 1a 2e 3e
       0.11394638 -0.011339625 -0.036948096 0.17002396
000250 65 38 97 be d9 ba 14 3c e4 97 81 bc b3 f9 76 3c
       -0.29535213 0.009077751 -0.015819497 0.015074181
000260 bb 6c 7d 3c bc 0b 3f bc b2 2f a0 3c cc 97 c8 bd
       0.015467818 -0.011660513 0.019553993 -0.09794578
000270 0b f7 db bd 9b cf a3 be f4 1f cc bc bb aa 41 3d
       -0.10740479 -0.31994328 -0.02491758 0.047281962
000280 20 50 8e 3d 2c b8 ba bd d1 76 74 be 8f 98 99 3d
       0.069488764 -0.09117159 -0.2387345 0.07499801
000290 15 da a5 bd ad 9b 69 3c a3 1f c9 3d 50 7c e7 bd
       -0.080982365 0.014258307 0.09820487 -0.113030076
0002a0 33 f7 1e be ca 80 6c bd 31 b8 05 3e 4e 77 86 3d
       -0.15523987 -0.05774001 0.13058545 0.06565724
0002b0 a1 50 ba be 66 34 99 3d 4b 6e 7b 3e 37 10 1d 3c
       -0.3638964 0.07480697 0.24553792 0.009586385
0002c0 46 0c 1d be 6e 13 c8 3d 18 4a 0b be a4 56 d6 ba
       -0.15336713 0.09769331 -0.13602483 -0.0016352725
0002d0 29 c9 bd bd cc d3 33 3d 50 8c 4c bd 50 08 f5 3d
       -0.09266884 0.043903157 -0.0499385 0.11964476
0002e0 d2 3a 1f 3e 42 97 2a bc 16 e2 1f bd fc 1f 20 be
       0.15549782 -0.010412039 -0.03903397 -0.15637201
0002f0 2b e6 08 3e 34 3f 7c bc 78 cc 80 bd 1d 8e 21 3d
       0.13369052 -0.015395928 -0.06288999 0.03944217
000300 2d 58 25 be 19 fe 63 3d 56 52 cf 39 1d 88 db 3c
       -0.16146918 0.05566225 0.00039543462 0.026798302
000310 a8 b1 ed 3d c9 ea c7 bd 41 d1 f7 3d 0e 87 49 3e
       0.11606151 -0.097615786 0.12100459 0.19680426
000320 8b 70 af bc e6 da e5 3d cc b0 9d 3d d3 84 35 3d
       -0.02141597 0.11223392 0.07699737 0.044316124
000330 db 10 06 3d 36 ad 0e 3e 8a 00 16 bd c4 bc e3 bd
       0.03273092 0.13933262 -0.036621608 -0.111199886
000340 3c 01 d2 bd 88 e1 0d ba eb 53 93 bd e8 78 9b 3d
       -0.10254142 -0.000541233 -0.071937405 0.075914204
000350 a9 1e 0c be d1 2e 04 3d 4f 6c 26 be f8 17 30 bd
       -0.13683571 0.03227121 -0.16252254 -0.04299161
000360 4f b0 19 bd 6e 40 49 3d 1f 97 2e 3e f2 a7 f3 3d
       -0.037521657 0.04913371 0.17049836 0.118972674
000370 aa 38 c6 3d 07 1c 1d bd 30 47 93 be e4 14 6d be
       0.096787766 -0.038356807 -0.2876525 -0.231525
000380 c8 ed ae bd 04 75 01 bc 8c e9 ae bd a5 31 64 3e
       -0.08541447 -0.007901434 -0.08540639 0.22284563
000390 61 d4 e2 bd e2 d9 aa 3d 01 bc ba 3d 81 0a e6 bd
       -0.11075664 0.08342339 0.0911789 -0.11232472
0003a0 75 7e 7b 3d eb b1 a6 bd d4 1f f9 bd 0e f0 0d be
       0.061399896 -0.08139404 -0.12164274 -0.13861105
0003b0 a0 fe ac 3c 26 0e 25 3e 2a 34 5b 3e bf eb 17 3d
       0.021117508 0.16118678 0.21406618 0.03709006
0003c0 a9 b2 bb 3a fc 7a 7e bd a8 fc e6 bd 5a 6e f7 3b
       0.0014320213 -0.062129006 -0.11278659 0.0075509967
0003d0 1c eb 85 3b 2b e1 95 bd 40 0c 95 3d 1f d5 e7 3c
       0.004086865 -0.07318338 0.07277727 0.028299866
0003e0 ea e7 f8 3b df 1b 0d be 3c ba 26 3d 2e e5 38 bd
       0.0075960057 -0.13780163 0.04070495 -0.045140438
0003f0 81 ed 83 3e ab 07 c3 3d 1b 01 68 bd d6 86 1d 3e
       0.2576714 0.09522947 -0.05664168 0.15383467

conv01.bias f4 [16]
000000 f8 2c 6a bd 14 e8 d6 3b 9f 32 f6 bc c3 ea 6c 3e
       -0.05717179 0.0065584276 -0.030053435 0.2313643
000010 e0 c2 7a be a7 38 ac 3c cb ca 1d be 53 97 2c be
       -0.24488401 0.021023108 -0.1540939 -0.168546
000020 72 06 b8 3d 7f 43 e5 bc 08 c7 51 bd 3c b2 08 bd
       0.08985604 -0.027986286 -0.0512152 -0.033373103
000030 2a 53 da bd 40 ef da bd 77 e9 19 be 22 fb de 3c
       -0.106603935 -0.106901646 -0.15030466 0.027219359

conv02.weight f4 [22, 16, 3, 3]
000000 3c 33 18 3c 5f 4c c1 3c b0 14 5a bd 30 61 c5 3d
       0.009289559 0.023595987 -0.053242385 0.09637678
000010 45 a4 de 3d 47 27 69 bc 21 85 92 3d 14 63 98 bd
       0.10871176 -0.014230556 0.071542986 -0.07440773
000020 b3 44 e2 bd b0 b1 2e 3e 56 75 17 bd 20 a3 7b b9
       -0.110482596 0.1705997 -0.036977135 -0.00023997994
000030 38 c3 24 be 31 44 83 be 4c 42 4c be 35 c1 93 bd
       -0.16090095 -0.25637963 -0.19947165 -0.07214586
000040 cf b6 b8 bd c6 6b 45 bd 95 41 d0 3d 7c ff 39 3e
       -0.09019243 -0.048198484 0.10168759 0.18163866
000050 50 37 aa bd 93 b1 33 bd 8e 97 28 bd 63 1f c2 3d
       -0.08311331 -0.04387052 -0.04116016 0.09478643
000060 a6 32 6c be e4 89 8f 3a f3 6e 1b bc 7b 1c 86 3c
       -0.23066196 0.0010951129 -0.009486902 0.016371002
000070 f3 f6 f0 3b df fc 5e be 07 71 99 3d 6a b3 6f bd
       0.0073536574 -0.2177615 0.074922614 -0.058520712
000080 9b cd 9d 3d 43 9d b1 3d 8e e7 14 be c0 5d f4 bd
       0.07705232 0.086725734 -0.14541456 -0.11931944
000090 c1 6a 45 be de 8c 6c 3b 3d 37 a9 bd e1 1e f7 bc
       -0.19279005 0.0036094706 -0.08262489 -0.030166091
0000a0 98 fa 7b 3e 8b 05 43 3e 81 dd 7d 3e 51 5c 44 3e
       0.24607313 0.19045083 0.24791528 0.19175841
0000b0 14 37 86 3d 4e a4 b6 3d 69 40 8f bd a4 87 5f 3c
       0.06553474 0.089180574 -0.06994707 0.013643179
0000c0 77 c5 98 bd 5e 8b 50 3e 10 ce c6 3d 58 64 c0 bc
       -0.074595384 0.20365664 0.09707272 -0.023485348
0000d0 cf 63 ee bd 63 15 42 bd 51 f5 3c 3c d2 75 0a bd
       -0.11640131 -0.047383677 0.011533097 -0.03380377
0000e0 a3 36 05 3e b7 0a 50 bd e2 03 0b 3e 1d f9 8f bd
       0.13009124 -0.05079147 0.135757 -0.070299365
0000f0 30 dd 37 3c b6 29 f8 bd e5 eb eb bc fa 0a 33 3c
       0.011222169 -0.12117331 -0.028799007 0.01092791
000100 d2 80 f2 bd a9 41 5f bd a5 84 a2 bc c5 0b c1 3c
       -0.11840977 -0.054505978 -0.01983864 0.023565182
000110 8f 68 0e be b5 d7 01 3e e5 60 8f be 1a bb 40 bc
       -0.13907073 0.12679942 -0.28003612 -0.0117633585
000120 60 98 8b bd 5b 8d 85 3c 38 b7 63 bd c3 d8 3a be
       -0.068161726 0.016302755 -0.055594653 -0.1824675
000130 40 62 d1 3c ff ac a1 bd 93 c0 b4 bd e6 b1 24 be
       0.025559545 -0.078943245 -0.08825793 -0.16083488
000140 7d 1e 12 bd b7 43 9f bd b5 e8 f5 bd a3 b4 e1 bd
       -0.035673607 -0.077765875 -0.12007276 -0.11020782
000150 89 ac 92 3c 97 37 ea bd 14 58 9a 3c 47 17 01 3d
       0.017904537 -0.11436384 0.018840827 0.03151634
000160 f7 e8 62 3e b6 6a 01 be 28 b9 14 3d 61 9e 0a bd
       0.22159182 -0.12638363 0.03630939 -0.03384245
000170 0c d2 15 3d 5d f1 55 3d 69 4b bb 3d be d5 21 bd
       0.03657727 0.052232135 0.09145243 -0.03951048
000180 c3 b5 1d be ca 37 42 3e c6 a0 63 3e 62 2d 8f bd
       -0.15401368 0.18966594 0.22229299 -0.06991078
000190 d4 de d7 3b 99 be 2f 3d 12 97 a5 bd ce 14 de 3b
       0.0065878425 0.042906377 -0.08085455 0.0067773825
0001a0 b4 5b 22 be 7b f3 2f 3c 71 57 66 bc c8 7c f1 3d
       -0.15855294 0.010739203 -0.014058934 0.11791378
0001b0 5a c5 a6 bd 4f 68 d2 3c 95 c7 53 3c ae 9f 04 3e
       -0.081431106 0.025684504 0.012926002 0.12951538
0001c0 9d fd 9f bd 7d 13 c6 3d 76 75 7a bd af 8b 8c be
       -0.07812045 0.09671686 -0.061147176 -0.2745032
0001d0 a4 7b d9 3d 17 59 d6 bc 11 ea 64 3e 21 d0 a4 3d
       0.10619286 -0.026165528 0.22354914 0.0804751
0001e0 c9 d9 57 3d 8d f5 db 3d bd e0 c3 3c d3 f1 34 be
       0.05269793 0.107401945 0.023910875 -0.17670374
0001f0 7f b6 1b be c0 bd 5e 3e c9 3d 3d 3d 15 33 e0 3d
       -0.15206335 0.21752071 0.0462015 0.10947243
000200 91 96 23 3e 59 c9 f3 bd 8d c7 99 bd 43 d6 ac bc
       0.15975405 -0.119036384 -0.075087644 -0.021098262
000210 5a e9 46 3e c8 9e ac 3b 30 71 c8 bd c6 d2 4a 3d
       0.19424954 0.0052679516 -0.09787214 0.049517415
000220 a6 ed b9 3d 3d 51 6a bd 2c 64 f0 3d 5e 80 43 bd
       0.09078531 -0.05720638 0.11737856 -0.047729842
000230 71 03 0e bd 4f 74 cc bd a4 6d ce bd b9 1e 82 3d
       -0.03467125 -0.099831216 -0.10079506 0.06353516
000240 d3 5b d5 bd c1 d7 4f b9 c7 e4 57 bd 25 3a 82 be
       -0.10417905 -0.00019821433 -0.052708413 -0.25434986
000250 9c 66 aa 3c 73 b7 90 bb a7 58 25 bb 13 6c a0 be
       0.020800881 -0.0044164 -0.0025229843 -0.31332454
000260 72 53 ce 3d 3a f1 d7 bc 14 2f fd bc 4a f1 e0 3d
       0.1007451 -0.026360143 -0.030906238 0.10983522
000270 31 09 04 bd 52 04 f1 3c 72 76 dd 3d cd 04 07 3c
       -0.032235328 0.029421005 0.10813607 0.008240891
000280 d7 ed 40 be 35 2a 28 bd 97 0a 9d 3d d0 05 aa bd
       -0.18840729 -0.041055877 0.076680355 -0.0830189
000290 c3 e1 54 3d 79 89 39 3d 3a f9 0c 3e 54 40 f2 3b
       0.051973116 0.04529712 0.13766947 0.0073929224
0002a0 6f e3 1d be 30 1b e7 3c 00 59 21 3e c8 f3 08 be
       -0.1541879 0.028211206 0.15756607 -0.13374245
0002b0 31 4d 03 3d 32 30 a3 3d 1e 00 2c 3d f7 94 8a bd
       0.032056037 0.07968177 0.0419923 -0.06766694
0002c0 b1 ba 7d 3d 39 95 d6 bc 3b b1 4b 3e d1 86 11 3e
       0.06194562 -0.026194202 0.19891827 0.14211585
0002d0 70 1c 09 be dc 17 b6 3d d3 4f 69 be 9a 3d 75 3d
       -0.13389754 0.088912696 -0.22784357 0.0598732
0002e0 78 f6 c2 3d ca ea 74 bd d6 17 96 3d 04 1b 81 be
       0.095196664 -0.059794225 0.07328765 -0.25215924
0002f0 e9 61 84 3c 50 9b f2 3d 86 ef 96 bc 25 ae be 3d
       0.016159968 0.1184603 -0.01842476 0.09310559
000300 d3 b3 ea 3d b1 85 28 be 4c 33 1c be b3 df 07 bc
       0.1146008 -0.16457249 -0.15253943 -0.00829308
000310 ed 0d 9c bd e1 27 23 3e 9e c8 d9 3d f9 fb ad bd
       -0.07619844 0.15933181 0.10633968 -0.084953256
000320 aa 8a 0d bd ef 3b 18 3d c1 b2 f0 3d 57 58 0c be
       -0.03455607 0.037166532 0.117528446 -0.13705574
000330 fe 4b 4a 3d 90 ed c4 3d f8 d7 ca bc f6 fe a1 ba
       0.049388878 0.09615624 -0.024761185 -0.001235931
000340 74 a3 a1 bc b9 e7 a8 bd f9 0c 56 3e 5d 06 09 bc
       -0.01973126 -0.082473226 0.20903386 -0.0083633335
000350 8d 1a 0b bd b7 3a 34 be d0 8f 35 3d 48 a2 0f be
       -0.033960868 -0.17600523 0.044326603 -0.14026749
000360 89 94 8d 3e bb 13 56 3c 6c 15 80 bd fd ab a2 bd
       0.27652386 0.013066228 -0.06254086 -0.079429604
000370 9c 1c 1b 3e 34 5b cc bd ae 4c 3a bd 93 b5 09 3d
       0.15147632 -0.09978333 -0.045483284 0.03362043
000380 eb aa 39 3d 1e 99 74 3c 22 f5 93 3b c3 6d 1a be
       0.045329016 0.014929084 0.004515306 -0.15080933
000390 6c ff 38 bb f7 2b 15 be 0b 91 f1 ba 9f 62 9a bc
       -0.0028228415 -0.14567553 -0.0018430067 -0.018845854
0003a0 61 27 bd 3d ca 80 17 3d f6 f5 fd 3d 74 83 f4 3b
       0.092360266 0.036988057 0.12400429 0.0074619595
0003b0 7e ac ab bd d4 dc e4 bd 15 04 cf bd c0 1f 21 be
       -0.0838251 -0.11174932 -0.101082005 -0.15734768
0003c0 dd 35 a9 bb a7 01 63 be f6 55 33 3d 88 cc 0b bd
       -0.0051638917 -0.22168599 0.04378315 -0.034130603
0003d0 1c 03 93 3d c6 4b ed 3c 74 b6 8c 39 68 9e 92 bd
       0.071783274 0.028966796 0.0002683882 -0.0715912
0003e0 7c 28 2f 3d f9 60 16 be 3d 5f de bd 07 de b9 3d
       0.04276322 -0.1468543 -0.10858009 0.090755515
0003f0 ab 30 a6 3d 35 92 45 be 7f b6 37 3d c9 ce 41 3e
       0.081147514 -0.19294055 0.044851776 0.18926539

conv02.bias f4 [22]
000000 0d 65 a8 3d 97 50 f3 bd bc a1 9c bd 2a 5e df bd
       0.08222399 -0.11880606 -0.07648036 -0.10906632
000010 31 15 94 be f5 96 05 be 0b f8 89 be 9b f2 4d be
       -0.28922418 -0.13045867 -0.26947054 -0.20112078
000020 ad ee 2d be 5a b9 b0 be 92 cc 4f be 3e af 9b be
       -0.16985579 -0.34516412 -0.20292881 -0.30407137
000030 8b 3a 05 be 23 ec bf be 03 3c 5b 3d 6c 91 a0 be
       -0.13010614 -0.37484846 0.05352403 -0.31360948
000040 e6 67 f2 bd ba 61 a3 bd 97 22 ba bd 28 25 84 be
       -0.11836223 -0.07977624 -0.09088629 -0.25809598
000050 d1 83 e7 bd d9 08 94 bd
       -0.11304439 -0.0722825
