weights/2. triplet loss model - marks/3. 1154 epochs/fully_connect_best_var.pt (torch, 566340 bytes, 10 tensors)

linear00.weight f4 [256, 352]
0	0xbc3da50e	-0.011574997
1	0x3c677eba	0.014129335
2	0x3cdf334f	0.027246146
3	0xbd242d2d	-0.040082145
4	0xbda29301	-0.07938195
5	0x3dba83d0	0.091071725
6	0x3ccea3f3	0.025224661
7	0x3ce7a7b8	0.028278217
8	0xbd297a82	-0.0413766
9	0x3cf88443	0.030336505
10	0x3df093f7	0.11746972
11	0x3c9f97b1	0.019481512
12	0x3dc1a93c	0.09456107
13	0xbbe6131a	-0.00702132
14	0xbe523815	-0.20529206
15	0x3d736242	0.059419878
16	0x3c516803	0.012781146
17	0xbdcff2f6	-0.10153763
18	0x3d925d92	0.07146753
19	0x3cd66721	0.026172223
20	0x3c833b6f	0.016019551
21	0x3d8bd19b	0.068270884
22	0xbd2278ce	-0.03966599
23	0x3c0d44ac	0.00862233
24	0x3ccf3449	0.025293486
25	0x3e197457	0.14985786
26	0x3db04a09	0.08607871
27	0x3cea3646	0.028590333
28	0xbdbac5ad	-0.09119735
29	0xbda884c2	-0.082284465
30	0x3d521888	0.051292926
31	0x3d570dfd	0.052503575
32	0xbe09f3fd	-0.1347198
33	0xbc4ec018	-0.012619041
34	0x3d156b12	0.036479063
35	0xbd551b64	-0.052028075
36	0xbd928341	-0.07153941
37	0xbe268e7c	-0.16265291
38	0x3db9ed1c	0.09078428
39	0xbb630811	-0.003464226
40	0x3d3ec4aa	0.046574272
41	0xbbc86712	-0.0061158026
42	0xbe74f1d1	-0.2392037
43	0x3c4a2041	0.0123367915
44	0x3d430828	0.0476152
45	0xbdc7d549	-0.09757478
46	0xbdf070cc	-0.11740264
47	0xbcc2c3be	-0.023774978
48	0x3d1ee209	0.038789783
49	0x3c923dc2	0.017851714
50	0x3db900a8	0.09033328
51	0x3cfb1b0b	0.030652544
52	0xbab4c114	-0.0013790452
53	0xbc24114d	-0.01001389
54	0x3dc380a0	0.09546018
55	0xbe525e24	-0.20543724
56	0x3da7c282	0.08191396
57	0xbd14fd15	-0.03637417
58	0xbb2ab28d	-0.0026046366
59	0xbd5532b8	-0.052050322
60	0xbd912e40	-0.070888996
61	0xbe10266a	-0.14077154
62	0xbe58d4df	-0.21174954
63	0xbc20810c	-0.009796392
64	0xbd707435	-0.058704574
65	0xbe17772f	-0.14791559
66	0x3cbe2cd5	0.023214737
67	0x3d792233	0.06082363
68	0xbbdecd51	-0.006799378
69	0xbe58a05b	-0.21154921
70	0x3dd7b2bd	0.105321385
71	0xbcc6f27c	-0.024285547
72	0xbc6ad1c5	-0.0143322395
73	0x3e08720e	0.13324758
74	0xbda3da85	-0.08000664
75	0xbe0d590f	-0.13803504
76	0xbd516810	-0.051124632
77	0xbda42f01	-0.08016778
78	0xbdf48216	-0.119388744
79	0x3e8df1d2	0.27723557
80	0x3da2e8c3	0.07954552
81	0x3d17d1b8	0.037065238
82	0x3d4fad27	0.05070224
83	0xbc9110f2	-0.017708275
84	0x3d625e90	0.055265963
85	0xbdaae090	-0.08343613
86	0x3dabc5f7	0.08387368
87	0x3d24af63	0.040206324
88	0x3dd2fad4	0.10301748
89	0x3d0ddda7	0.034635212
90	0x3cb9cacf	0.022679714
91	0x3d8911c8	0.06692845
92	0xbdc07634	-0.093975455
93	0x3dbca5c5	0.092113055
94	0xbd4ad9da	-0.049524166
95	0xbd416404	-0.047214523
96	0xbc95f9c7	-0.01830758
97	0xbe0bc18e	-0.13648054
98	0xbdde0d18	-0.10842341
99	0xbdc5d115	-0.0965902
100	0x3d36409c	0.04449521
101	0x3d6d4117	0.057923403
102	0x3d1e9f25	0.03872599
103	0xbc7728fa	-0.015085453
104	0xbd2121bb	-0.03933881
105	0xbcc8108d	-0.024421955
106	0xbd2aec32	-0.04172916
107	0xbd964170	-0.073367
108	0x3dba2394	0.09088817
109	0x3dae771f	0.08518814
110	0xbd921496	-0.07132833
111	0x3e08d4a8	0.13362372
112	0x3e3ba636	0.18325123
113	0xbcfdb7ff	-0.030971525
114	0xbcd9154f	-0.026499419
115	0x3ba01d04	0.0048862714
116	0x3cefabb4	0.02925668
117	0x3db6faa4	0.08934525
118	0x3d654972	0.055978246
119	0x3dc79bb3	0.09746494
120	0x3b3721e4	0.0027943784
121	0x3da4fb84	0.08055785
122	0x3dc8eaf9	0.098104425
123	0xbd8739bc	-0.06602809
124	0xbdc4e8c8	-0.09614712
125	0xbcebae61	-0.028769674
126	0x3de64fb7	0.11245673
127	0x3e13a56e	0.14418575
128	0x3d963565	0.07334403
129	0x3d50e1fa	0.050996758
130	0xbd376994	-0.04477842
131	0xbd1d9503	-0.038472187
132	0xbd70f5ed	-0.058828283
133	0x3d5015c4	0.050802007
134	0x3d1c50e0	0.038163066
135	0x3d06a8e9	0.03287593
136	0x3c648b7c	0.013949271
137	0xbdc7c312	-0.097540036
138	0xbdad1913	-0.08452048
139	0xbdf1d66f	-0.11808478
140	0x3c39ba33	0.011335897
141	0x3d071354	0.032977417
142	0x3bee561c	0.0072734486
143	0xbdda6d25	-0.10665349
144	0xbd335a77	-0.043787446
145	0x3d120f31	0.03565902
146	0x3c8541cb	0.016266724
147	0x3d58cb25	0.05292811
148	0xbb8b9fc0	-0.004260987
149	0xbd7e411d	-0.062073816
150	0xbd0f9369	-0.03505269
151	0xbd3ee905	-0.046608943
152	0x3c9108de	0.017704424
153	0xbc89301d	-0.016746575
154	0xbca5a8a6	-0.02022202
155	0xbd878020	-0.06616235
156	0x3d248117	0.040162172
157	0xbd84afa4	-0.06478813
158	0xbbb0fea2	-0.0054014483
159	0x3d5db847	0.05413082
160	0x3dd0ae30	0.10189474
161	0xbc7a60cf	-0.01528187
162	0xbd5b463c	-0.053533778
163	0xbc655dbb	-0.013999398
164	0x3d9a1c49	0.07524926
165	0xbd8e88de	-0.06959699
166	0xbd3d2b85	-0.04618408
167	0x3e06b59d	0.13155217
168	0x3dfbba1d	0.12291358
169	0xbc92197d	-0.01783442
170	0x3dd2c71b	0.102918826
171	0x3ce7a7a2	0.028278176
172	0x3ce688c0	0.02814138
173	0xbd5ce23a	-0.053926684
174	0xbd83d799	-0.06437606
175	0xbe0dec8e	-0.1385977
176	0x3d76d2dc	0.060259685
177	0xbd9f2d7d	-0.07772348
178	0x3db2fa3a	0.08739133
179	0xbd0014d7	-0.031269874
180	0xbe11f69d	-0.14254232
181	0xbd90a0b4	-0.07061902
182	0x3e227572	0.15865114
183	0xbe281bcf	-0.16416858
184	0xbcd5392a	-0.026028235
185	0xbcec2d88	-0.028830305
186	0xbe4931a4	-0.19647843
187	0xbd27ce98	-0.040968508
188	0x3d1184a8	0.0355269
189	0xbdb897f2	-0.09013356
190	0x3e8830ab	0.2659963
191	0x3daaf386	0.0834723
192	0x3d8e4acf	0.06947862
193	0xbd4542d6	-0.048159443
194	0xbcdd55fe	-0.027018543
195	0xbb9b7062	-0.0047436217
196	0x3c9614e8	0.018320516
197	0x3dbe9d89	0.09307391
198	0x3d28ba13	0.04119308
199	0x3cbf6520	0.02336365
200	0x3dffe1bf	0.124942295
201	0xbe495688	-0.19661915
202	0x3e3b5b4e	0.18296549
203	0xbdfc502d	-0.1231998
204	0xbdb1c9e0	-0.08681083
205	0x3d6a5cf2	0.057217546
206	0xbe2e0775	-0.16995032
207	0x3d4a8312	0.049441405
208	0xbcb22ba6	-0.021749329
209	0x3d38e7bf	0.045142885
210	0xbb824e3a	-0.0039766105
211	0xbda3aff6	-0.07992546
212	0xbd558da1	-0.05213702
213	0x3920b710	0.00015326985
214	0xbdf08746	-0.11744551
215	0x3d46ad3c	0.048505053
216	0xbc2f62d5	-0.010704716
217	0xbe523744	-0.20528895
218	0x3e7529b5	0.23941691
219	0xbd62f098	-0.05540523
220	0x3d98f464	0.07468489
221	0xbdc9a8dc	-0.098466605
222	0x3d1c76fd	0.038199414
223	0x3e15aabe	0.14615914
224	0xbc166b20	-0.009180814
225	0x3c8d3b68	0.017240241
226	0x3d2ee083	0.04269458
227	0xbbf14fe7	-0.0073642614
228	0xbb88bad4	-0.0041726623
229	0x3d27da8a	0.0409799
230	0x3db7add1	0.089687
231	0x3d906c46	0.070519015
232	0xbd7907d8	-0.060798496
233	0x3ccab24a	0.024743218
234	0xbd7de48b	-0.061985534
235	0xbde73846	-0.1129003
236	0x3cf7462e	0.030184831
237	0xbc0002f2	-0.007813202
238	0xbe5cb266	-0.21552429
239	0x3ce56fc5	0.028007397
240	0xbcd0dc7d	-0.025495762
241	0x3ca707ec	0.02038952
242	0x3c62eac4	0.013849918
243	0xbcbbd471	-0.022928448
244	0x3e23961f	0.15975235
245	0x3d8aef70	0.0678395
246	0x3d9fead0	0.07808459
247	0xbde0a061	-0.1096809
248	0xbda905c9	-0.082530566
249	0xbdf323bb	-0.118720494
250	0x3df7bb72	0.12096299
251	0x3d0c9abc	0.034327254
252	0x3e8fb54b	0.28068003
253	0xbe004f8c	-0.12530345
254	0x3da449ee	0.080219135
255	0xbdbeade0	-0.09310508

linear00.bias f4 [256]
0	0xbc4639c2	-0.0120987315
1	0xbdcaca86	-0.099019095
2	0xbd2147bf	-0.039375063
3	0xbc9b9565	-0.018992135
4	0xbd82d677	-0.06388562
5	0xbd19cb29	-0.037547264
6	0xbe59731e	-0.2123532
7	0xbd8b0cfa	-0.067895845
8	0xbe286937	-0.16446386
9	0xbca0e2ed	-0.019639457
10	0xbd3cacad	-0.046063114
11	0xbd47ce05	-0.04878046
12	0xbda10f5c	-0.07864258
13	0xbdcadb9b	-0.09905168
14	0x3cfffdab	0.031248888
15	0xbe3e5bc1	-0.18589689
16	0x3bc68578	0.006058391
17	0x3dd84aba	0.10561128
18	0xbe0a0491	-0.13478304
19	0x3cb1ffe8	0.02172847
20	0xbe1ac122	-0.15112737
21	0xbd8daded	-0.06917939
22	0xbe21e08c	-0.15808314
23	0xbd60667d	-0.05478524
24	0xbce3ef73	-0.02782414
25	0xbdd70892	-0.104996815
26	0x3c8df28f	0.017327575
27	0x3e010786	0.12600526
28	0xbdb97261	-0.09055019
29	0xbdef316d	-0.11679349
30	0xbc4b0380	-0.012390971
31	0x3c9b5173	0.018959736
32	0xbcca9f9d	-0.024734313
33	0x3c1ee76c	0.00969873
34	0xbcca1c14	-0.024671592
35	0xbd846955	-0.06465403
36	0xbd962045	-0.07330374
37	0x3ab0d793	0.001349198
38	0xbdbff4a5	-0.09372834
39	0xbe0b1339	-0.13581552
40	0x3bc5dba0	0.006038144
41	0x3b207387	0.0024482922
42	0x3d39303a	0.045212008
43	0x3dac368e	0.08408843
44	0xbcf3a04c	-0.029739521
45	0xbe37f1c9	-0.17963327
46	0x3cf88e03	0.030341154
47	0xbc04835f	-0.008087962
48	0xbc1a6212	-0.009422796
49	0xbd1588e6	-0.03650751
50	0x3ae06d25	0.0017122371
51	0xbe3aa516	-0.18227038
52	0xbdbfa89f	-0.09358334
53	0xbbf2a10c	-0.007404452
54	0x3ceec020	0.029144347
55	0x3c6fbf1a	0.0146329645
56	0x3d825866	0.06364517
57	0xbd4b2e26	-0.049604557
58	0x3da52cf9	0.080652185
59	0x3c9f3617	0.019434972
60	0xbd3da924	-0.046303883
61	0xbe03a6ce	-0.128566
62	0xbc215e83	-0.0098491935
63	0x3d951f67	0.0728138
64	0x3da1edce	0.07906686
65	0xbd5fe51c	-0.054661855
66	0xbd6cd9ae	-0.057824783
67	0xbd76dc15	-0.06026848
68	0xbe149156	-0.14508566
69	0xbb77a66c	-0.0037788404
70	0xbe49674e	-0.19668314
71	0xbc7b5775	-0.015340676
72	0x3d451555	0.048116047
73	0xbce8bc81	-0.028410198
74	0xbd9a75f2	-0.075420275
75	0x3d8750b2	0.06607188
76	0xbdb0d9d6	-0.08635299
77	0x3de06bce	0.10958062
78	0xbdfe0c27	-0.124046616
79	0xbd90d3f8	-0.0707168
80	0xbd34ff82	-0.044188984
81	0x3c8f58d9	0.01749842
82	0xbe1bf91d	-0.15231748
83	0x3da031a3	0.078219675
84	0xbdc7b3aa	-0.09751065
85	0xbe5d7555	-0.2162679
86	0xbd4a1478	-0.049335927
87	0xbdbf35d4	-0.09336439
88	0xbdffcfa3	-0.124907754
89	0xbdddb76a	-0.10825999
90	0xbdb1640f	-0.08661663
91	0xbdf9c52a	-0.12195809
92	0xbe2614f6	-0.16218933
93	0xbe012d51	-0.12614943
94	0xbdca3970	-0.098742366
95	0xbdec2fef	-0.1153258
96	0x3e022eff	0.1271324
97	0x3d628117	0.05529889
98	0x3de793f9	0.113075204
99	0xbb81dff1	-0.0039634635
100	0x3d53f7e3	0.051750075
101	0xbdcb6e10	-0.09933102
102	0xbc868d7b	-0.016424885
103	0xbe7a8e83	-0.24468426
104	0xbd987d46	-0.07445769
105	0xbc614470	-0.013749227
106	0xbd51efb4	-0.05125399
107	0x3d36597b	0.04451893
108	0x3d2d8d28	0.042370945
109	0xbe49822c	-0.19678563
110	0xbdbecb59	-0.09316129
111	0xbd8eddc6	-0.06975894
112	0xbde11f86	-0.10992341
113	0x3c435d0b	0.011924039
114	0xbdfaf4cd	-0.12253723
115	0xbdabe246	-0.083927676
116	0xbd76a2ee	-0.060213976
117	0xbc9bf6bf	-0.019038556
118	0xbd165ac3	-0.03670765
119	0x3d3e4a5b	0.04645763
120	0xbd3b5b5f	-0.045741435
121	0xbe06dac2	-0.13169387
122	0xbe1e5507	-0.15462123
123	0xbd2124bf	-0.039341684
124	0x3d7ee05a	0.062225677
125	0xbd09aa66	-0.03360977
126	0x3d44cde4	0.048047915
127	0xbc90bc40	-0.01766789
128	0xbdcc81d3	-0.099856995
129	0xbd3be5b5	-0.045873363
130	0x3d148e02	0.03626824
131	0x3c6489a2	0.01394883
132	0xbd67dc3a	-0.05660651
133	0x3cbcf8ff	0.02306795
134	0xbc99b802	-0.0187645
135	0xbd1e8d42	-0.038708933
136	0xbe29ded3	-0.16588907
137	0xbdd7e924	-0.10542515
138	0xbd72c5d3	-0.05927069
139	0xbd11b022	-0.035568364
140	0xbd26e0de	-0.040741794
141	0x3d4e5a31	0.050378982
142	0xbda8c633	-0.082409285
143	0xbe2a425a	-0.16626874
144	0x3da54a36	0.08070795
145	0xbb3490de	-0.0027552168
146	0x3a9d374e	0.0011994631
147	0x3ca773ac	0.020440899
148	0xbc9903ab	-0.018678507
149	0xbdd00152	-0.10156502
150	0xbd345e06	-0.04403498
151	0xbd418fa5	-0.04725613
152	0x3d8ec29c	0.069707125
153	0xbd03acea	-0.032147326
154	0x3d8f937f	0.070105545
155	0xbd476f3c	-0.048690066
156	0x3c64a264	0.013954733
157	0x3b9a7c85	0.004714551
158	0xbd5e57a8	-0.054282814
159	0xbce1c1bf	-0.027558206
160	0xbd3354e5	-0.043782134
161	0xbe07a0db	-0.13244955
162	0xbda77801	-0.08177186
163	0xbd159fe6	-0.036529444
164	0xbc6073bd	-0.013699469
165	0xbd869fd8	-0.065734565
166	0xbe094e4c	-0.13408774
167	0xbda570ea	-0.08078177
168	0xbd6179d2	-0.055047818
169	0xbdc54ab1	-0.09633387
170	0x3bb03ff5	0.005378718
171	0xbcb7f4bd	-0.022455567
172	0xbdaf73a8	-0.085669816
173	0x3d2c3f6c	0.04205267
174	0xbcaf65b4	-0.0214108
175	0xbda169bb	-0.078814946
176	0xbb86b7c5	-0.0041112625
177	0xbdc3ab15	-0.09554116
178	0xbdb47818	-0.088119686
179	0x3c3356f7	0.010946027
180	0xbd22882f	-0.039680656
181	0xbe44797f	-0.19186972
182	0xbe0f6493	-0.1400321
183	0xbe5ca4d6	-0.21547255
184	0xbde2e789	-0.11079318
185	0xbc7187ad	-0.01474182
186	0xbc8fb554	-0.017542519
187	0xbe03b8cb	-0.12863462
188	0xbe3337ba	-0.17501727
189	0xbdcda86a	-0.10041888
190	0xbc148092	-0.009063857
191	0x3ce20d7d	0.027594322
192	0xbe19e64d	-0.15029259
193	0xbc28ff2c	-0.010314744
194	0x3d723686	0.05913403
195	0xbe243a60	-0.16037893
196	0x3b84ed84	0.0040566344
197	0x3cdcf9b9	0.026974546
198	0xbab082a4	-0.0013466668
199	0x3d5dfdc7	0.0541971
200	0x3cf97a9d	0.030453974
201	0xbc1728e3	-0.009226057
202	0xbd358dc7	-0.044324663
203	0xbd68ef99	-0.056869123
204	0xbe151bb3	-0.14561348
205	0xbe36373f	-0.17794512
206	0xbced1b75	-0.028943757
207	0x3d1a58aa	0.037682213
208	0xbca280c6	-0.019836795
209	0xbd22932c	-0.039691135
210	0x3d00ef4d	0.031478215
211	0x3cba5b1e	0.022748526
212	0x3c8b3e4b	0.016997477
213	0x3db1faff	0.08690452
214	0xbd85e06f	-0.06536948
215	0x3cbb908c	0.022896074
216	0xbdccc2a9	-0.09998066
217	0xbe57a720	-0.21059847
218	0x3cee6d4b	0.02910485
219	0xbbd27f7c	-0.0064238887
220	0xbdd70dc7	-0.10500675
221	0x3d4450a6	0.047928475
222	0xbd1588be	-0.03650736
223	0xbe29960d	-0.16561146
224	0xbe0bc9d1	-0.13651206
225	0xbd34162d	-0.04396646
226	0xbd91968f	-0.07108795
227	0xbe573b09	-0.21018614
228	0x3d06f2e8	0.032946497
229	0xbd15c86c	-0.03656809
230	0x3ced7d11	0.0289903
231	0xbd3738aa	-0.044731773
232	0xbce27324	-0.027642794
233	0xbbb18e3e	-0.005418568
234	0x3bea20e9	0.0071450365
235	0x3c811694	0.015757836
236	0xbd3f9350	-0.046771348
237	0xbb1e9691	-0.0024198631
238	0xbd5ad56c	-0.05342619
239	0xbe095067	-0.13409577
240	0x3c076da9	0.008265891
241	0xbde87826	-0.113510415
242	0x3beb1120	0.0071736723
243	0xbd6e0834	-0.05811329
244	0xbdb47b88	-0.08812624
245	0xbdf58f25	-0.11990193
246	0xbdd158fd	-0.10222051
247	0xbd0df5ce	-0.034658246
248	0xbc1232f3	-0.00892328
249	0x3c32b427	0.0109072095
250	0xbe505ea7	-0.20348607
251	0x3c37cf1f	0.011218815
252	0xbde382ad	-0.11108909
253	0x3c17e91e	0.009271888
254	0xbc9c9c22	-0.019117419
255	0x3d0a95e4	0.033834353

batch_norm00.weight f4 [256]
0	0x3fc3ae8f	1.5287646
1	0x3fbc6aca	1.472009
2	0x3fc6f477	1.5543355
3	0x3fd17cab	1.6366171
4	0x3fd0e215	1.6318995
5	0x3fce5002	1.6118166
6	0x3fcedaf7	1.6160573
7	0x3fbe7aa1	1.4881173
8	0x3fdbed5f	1.7181815
9	0x3fcdd7b0	1.6081448
10	0x3fd1e9cf	1.6399478
11	0x3fbe2f9b	1.4858278
12	0x3fc7167a	1.5553734
13	0x3fc7aabe	1.5598981
14	0x3fbfe5d2	1.499201
15	0x3fd4a8e0	1.6614037
16	0x3fc0efa9	1.5073138
17	0x3fb31d52	1.3993323
18	0x3fded614	1.7409081
19	0x3fbed603	1.4909061
20	0x3fd7f504	1.6871648
21	0x3fd2dc40	1.6473465
22	0x3ff6443e	1.9239576
23	0x3fbcbcdd	1.4745136
24	0x3fbd5e39	1.479438
25	0x3fc00aca	1.5003293
26	0x3fb9dec0	1.4521103
27	0x3fba1bab	1.4539694
28	0x3fd1734d	1.6363312
29	0x3fcd5db9	1.6044227
30	0x3fc8e5f7	1.569518
31	0x3fc0cd86	1.5062721
32	0x3fbc3ffe	1.4707029
33	0x3fbea343	1.4893574
34	0x3fc5dc27	1.545781
35	0x3fcc65d8	1.596858
36	0x3fc2e9fe	1.5227659
37	0x3fb8181b	1.4382356
38	0x3fc331a8	1.5249529
39	0x3fc2c3d9	1.5216018
40	0x3fc5f85e	1.5466421
41	0x3fb9ec56	1.4525249
42	0x3fc809cb	1.5627989
43	0x3fc3b4bf	1.5289534
44	0x3fbaa4b9	1.4581519
45	0x3fc686a1	1.5509835
46	0x3fbaa4dd	1.4581562
47	0x3fc60184	1.5469213
48	0x3fc25900	1.5183411
49	0x3fd24fe4	1.6430631
50	0x3fc6d90e	1.553499
51	0x3fcdbfec	1.6074195
52	0x3fc5e8c3	1.5461658
53	0x3fd708e9	1.6799594
54	0x3fb583a0	1.4180794
55	0x3fcf1b7f	1.6180266
56	0x3fc085b8	1.5040808
57	0x3fcae9b3	1.5852569
58	0x3fbebe38	1.49018
59	0x3fc7f83d	1.5622631
60	0x3fc6b720	1.5524635
61	0x3fc92aa3	1.5716137
62	0x3fc55854	1.5417581
63	0x3fbfb7f4	1.4978013
64	0x3fbdfa8e	1.4842088
65	0x3fc95f14	1.573214
66	0x3fdbafe9	1.7163059
67	0x3fbf2a82	1.4934847
68	0x3fb18509	1.3868724
69	0x3fc7ac53	1.5599464
70	0x3fb39227	1.4028977
71	0x3fdbcebb	1.7172464
72	0x3fceb4b6	1.6148899
73	0x3fd67d20	1.6756935
74	0x3fccb1d6	1.5991771
75	0x3fbd0c90	1.4769459
76	0x3fcc2626	1.5949142
77	0x3fbdbffc	1.4824214
78	0x3fc6a1ee	1.5518167
79	0x3fb6e14c	1.4287505
80	0x3fc075b6	1.5035923
81	0x3fc852e5	1.5650297
82	0x3fc9fad0	1.5779667
83	0x3fbb43bd	1.4630047
84	0x3fd6ac09	1.6771251
85	0x3fceaed1	1.61471
86	0x3fcb1e18	1.5868559
87	0x3fd16796	1.6359737
88	0x3fc5e1cc	1.5459533
89	0x3fc3dbad	1.5301415
90	0x3fd605b1	1.6720487
91	0x3fcfc95f	1.6233329
92	0x3fcdb557	1.6070966
93	0x3fded235	1.74079
94	0x3fb98fbb	1.4496988
95	0x3fc2f40b	1.5230726
96	0x3fafd6fd	1.3737484
97	0x3fbb9054	1.465342
98	0x3fbcc436	1.4747379
99	0x3fca5d6c	1.580976
100	0x3fca0b6d	1.5784737
101	0x3fd3ea55	1.6555887
102	0x3fcd9879	1.6062156
103	0x3fbdaaa0	1.4817696
104	0x3fbef268	1.4917727
105	0x3fc57b8b	1.5428327
106	0x3fd07b59	1.6287643
107	0x3fc9067b	1.5705103
108	0x3fc1c60a	1.5138562
109	0x3fbea001	1.4892579
110	0x3fdd3fa5	1.7285048
111	0x3fba33e2	1.4547083
112	0x3fd94459	1.6973983
113	0x3faf9a09	1.3718883
114	0x3fded547	1.7408837
115	0x3fba0808	1.4533701
116	0x3fc5e0dc	1.5459247
117	0x3fbfd5d1	1.4987127
118	0x3fd20f74	1.6410966
119	0x3fc83593	1.564135
120	0x3fcb6eb6	1.5893161
121	0x3fd7fc7c	1.6873927
122	0x3fc7b90d	1.5603348
123	0x3fc8bcab	1.5682577
124	0x3fbbff4c	1.4687285
125	0x3fc18eb3	1.5121673
126	0x3fc82f65	1.5639464
127	0x3fc25f08	1.5185251
128	0x3fd2cf7e	1.6469572
129	0x3fbf0f71	1.4926587
130	0x3fc20b27	1.5159653
131	0x3fc27b4f	1.5193881
132	0x3fb4171b	1.4069551
133	0x3fc929f9	1.5715934
134	0x3fd4f2eb	1.6636633
135	0x3fc91816	1.5710475
136	0x3fc822ef	1.5635661
137	0x3fcdc0c1	1.6074449
138	0x3fc9c7d6	1.576411
139	0x3fc90603	1.570496
140	0x3fc8fd35	1.5702273
141	0x3fbe8d73	1.4886917
142	0x3fbf6f86	1.4955909
143	0x3fe05472	1.7525771
144	0x3fbc7fce	1.4726503
145	0x3fbd2f81	1.4780122
146	0x3fba035e	1.4532278
147	0x3fb8af3f	1.4428481
148	0x3fd0a995	1.6301752
149	0x3fbd39b0	1.478323
150	0x3fc551ad	1.541555
151	0x3fc9b7c7	1.5759209
152	0x3fb7fe61	1.4374505
153	0x3fb7c3f4	1.4356675
154	0x3fb6fec0	1.4296494
155	0x3fbf8a3d	1.4964062
156	0x3fc6dbe3	1.5535854
157	0x3fc25cb6	1.5184543
158	0x3fd63c78	1.6737204
159	0x3fc76607	1.5578011
160	0x3fceeb2d	1.616552
161	0x3fc1ff29	1.5155994
162	0x3fc15f95	1.5107294
163	0x3fd1b14d	1.6382233
164	0x3fc687b7	1.5510167
165	0x3fca7d15	1.5819422
166	0x3fe5c372	1.795027
167	0x3fbacfd3	1.4594673
168	0x3fb5a79d	1.4191777
169	0x3fcf455c	1.6193042
170	0x3fc659de	1.5496175
171	0x3fb54dfb	1.4164423
172	0x3fc3aa9c	1.5286441
173	0x3fd0e02d	1.6318413
174	0x3fd20035	1.6406313
175	0x3fbb6d39	1.4642707
176	0x3fcad150	1.5845127
177	0x3fcb6db6	1.5892856
178	0x3fc55585	1.5416723
179	0x3fdb2bb6	1.7122715
180	0x3fc46073	1.5341934
181	0x3fcda3c8	1.6065607
182	0x3fd27d04	1.6444402
183	0x3fcb23e3	1.5870327
184	0x3fc0f3fa	1.5074456
185	0x3fc9e996	1.577441
186	0x3fc66225	1.5498701
187	0x3fce4ecb	1.6117796
188	0x3fc94285	1.5723425
189	0x3fc0a74e	1.5051057
190	0x3fc4fda5	1.5389906
191	0x3fc1dc7f	1.5145415
192	0x3fe201e2	1.7656825
193	0x3fceb608	1.6149302
194	0x3fcac6be	1.5841901
195	0x3fc6c3fe	1.5528562
196	0x3fd2d503	1.6471256
197	0x3fc7cd9c	1.5609622
198	0x3fcc7bd6	1.5975292
199	0x3fc63446	1.5484703
200	0x3fbce4d1	1.4757329
201	0x3fcbab40	1.5911636
202	0x3fc0b8af	1.5056361
203	0x3fcd0062	1.6015742
204	0x3fd431c9	1.6577693
205	0x3fd0a174	1.6299272
206	0x3fc837ea	1.5642064
207	0x3fbee58d	1.4913803
208	0x3fd2f64c	1.6481414
209	0x3fd6bbe0	1.6776085
210	0x3fd599f8	1.6687613
211	0x3fb8b50e	1.4430254
212	0x3fc50f66	1.5395324
213	0x3fc55e2a	1.5419362
214	0x3fcec8a9	1.6154987
215	0x3fb8580f	1.4401873
216	0x3fcb6464	1.5890012
217	0x3fd05f95	1.6279169
218	0x3fb96e0b	1.4486707
219	0x3fb88a13	1.4417137
220	0x3fd783f9	1.683715
221	0x3fbfa873	1.4973282
222	0x3fc432e8	1.5328035
223	0x3fbf0d30	1.49259
224	0x3fc343b9	1.5255042
225	0x3faae43e	1.3350904
226	0x3fc1b468	1.5133181
227	0x3fcf2cf6	1.6185596
228	0x3fcac0c0	1.5840073
229	0x3fc4974a	1.535867
230	0x3fbaf603	1.4606327
231	0x3fbb8d0e	1.4652421
232	0x3fbca93a	1.4739144
233	0x3fb754a4	1.4322705
234	0x3fb5a880	1.4192047
235	0x3fb6a457	1.4268903
236	0x3fbfc1e9	1.4981052
237	0x3fc9a632	1.5753844
238	0x3fbf5c47	1.4950036
239	0x3fc3ae70	1.5287609
240	0x3fc5396d	1.540815
241	0x3fd1bf63	1.6386532
242	0x3faaa42c	1.3331351
243	0x3fca5f2c	1.5810294
244	0x3fd6105b	1.6723741
245	0x3fd98144	1.6992574
246	0x3fd9853b	1.6993784
247	0x3fb38e6d	1.402784
248	0x3fc4e6da	1.538295
249	0x3fd3ce2e	1.6547296
250	0x3fc6809d	1.5508
251	0x3fcb465d	1.5880848
252	0x3fbefbe5	1.4920622
253	0x3fc7135a	1.5552781
254	0x3fb9df98	1.452136
255	0x3fb672e6	1.4253814

batch_norm00.bias f4 [256]
0	0x3e8d9613	0.2765356
1	0x3d4cadba	0.049970366
2	0x3e15139f	0.14558266
3	0xbd51eebd	-0.05125307
4	0x3e5c779b	0.21530001
5	0xbb0bfffa	-0.002136229
6	0x3dbbb5e2	0.09165551
7	0xbe804785	-0.25054565
8	0x3e0e0e5f	0.1387267
9	0x3df3d8e2	0.119066015
10	0x3e8f0a24	0.27937424
11	0x3d63b413	0.055591654
12	0xbe08bf52	-0.13354233
13	0x3e1f3c58	0.15550363
14	0xbe1e95f3	-0.15486889
15	0x3e3f87d2	0.18704155
16	0xbe0366ba	-0.12832156
17	0x3d838114	0.06421104
18	0x3e221357	0.1582769
19	0xbdfa280d	-0.1221467
20	0xbddc77d7	-0.10765045
21	0xbd2a3a54	-0.041559532
22	0x3ddee809	0.10884101
23	0x3e8491cb	0.2589248
24	0x3e26b6a1	0.16280605
25	0xbc6f9321	-0.014622481
26	0x3ea95f3c	0.3308047
27	0xbdb628f6	-0.088945314
28	0x3e2c4d1c	0.1682629
29	0x3cd9a2cb	0.026566884
30	0x3e8f7508	0.28018975
31	0x3e848e56	0.25889844
32	0x3edf234b	0.43581614
33	0x3d853e76	0.06506054
34	0xbc0fcab8	-0.008776359
35	0xbd9cb07e	-0.07650851
36	0x3e99bc99	0.300267
37	0xbd9724de	-0.07380079
38	0xbdef9bee	-0.11699663
39	0xbe6eca78	-0.23319423
40	0x3ec861b0	0.3913703
41	0xbe6e1716	-0.23250994
42	0xbcd8e7e4	-0.026477762
43	0xbebaf121	-0.36512092
44	0xbde30af5	-0.11086074
45	0x3cfcaaaf	0.030843107
46	0x3edd2283	0.43190393
47	0xbe76d8e1	-0.2410617
48	0x3e641e75	0.22277243
49	0xbd444e2d	-0.047926117
50	0x3de3dc3a	0.11125989
51	0xbd4b6d3f	-0.049664732
52	0xbda38616	-0.07984559
53	0x3e247a9d	0.16062398
54	0xbc17fb31	-0.009276197
55	0x3e335851	0.17514159
56	0x3e7e5827	0.24838315
57	0xbe0f5b8a	-0.13999763
58	0xbe72a06f	-0.23694013
59	0x3df1d056	0.11807315
60	0x3dbc89a9	0.09205944
61	0x3e2f984a	0.17147937
62	0xbd9f33d1	-0.07773555
63	0x3d184df3	0.037183713
64	0x3dea75df	0.114482634
65	0x3dc99680	0.09843159
66	0x3d15e0f2	0.036591478
67	0x3d538176	0.051637135
68	0x3d9ebb20	0.07750535
69	0x3e05caad	0.13065596
70	0x3eda97ab	0.42693838
71	0x3f0737f8	0.52819777
72	0xbe2c7397	-0.16840969
73	0xbe3613e1	-0.1778102
74	0xbde1b07c	-0.1101999
75	0xbd998ea8	-0.07497913
76	0xbe48206a	-0.19543615
77	0x3d8caa7b	0.06868454
78	0xba921bc8	-0.0011147195
79	0x3e461c99	0.19346847
80	0x3e0d2e40	0.13787174
81	0x3e417f82	0.18896297
82	0x3e69e57e	0.2284145
83	0x3c7ea94c	0.015543293
84	0x3e1deb05	0.15421684
85	0xbde686ea	-0.112562016
86	0x3e18a472	0.14906481
87	0x3df563a3	0.11981895
88	0xbdcf7613	-0.10129943
89	0xbd860f7d	-0.06545923
90	0x3e17214e	0.14758798
91	0xbdddba9a	-0.10826607
92	0x3d88ed95	0.0668594
93	0x3e7676d3	0.24068765
94	0x3e9d1a47	0.3068411
95	0xbdda5db2	-0.10662402
96	0x3eb0c2a8	0.3452351
97	0xbd5cf032	-0.053940006
98	0x3e512c5f	0.20427082
99	0x3ebae4d9	0.36502722
100	0x3e6b6786	0.2298871
101	0x3d3a5447	0.04549053
102	0xbe75c935	-0.24002536
103	0xbed2e08a	-0.41186935
104	0xbe1ba8ef	-0.15201162
105	0x3c6c519a	0.014423752
106	0x3cb83866	0.02248783
107	0xbe6e3870	-0.23263717
108	0x3c624dbd	0.01381248
109	0x3d86e015	0.06585709
110	0xbe85036d	-0.25979176
111	0xbd2754fa	-0.040852524
112	0x3e72e2b8	0.23719299
113	0xbeb8cd01	-0.36093906
114	0xbe859410	-0.26089525
115	0xbeb6a7b2	-0.35674816
116	0xbe6a9eed	-0.22912188
117	0xbe2447e1	-0.16043045
118	0x3d9b9258	0.07596272
119	0xbdc9bbfa	-0.09850307
120	0x3e5cae35	0.2155083
121	0x3dd21e20	0.10259652
122	0x3d017e9b	0.03161488
123	0x3e6b43a6	0.22975025
124	0xbe182449	-0.14857592
125	0x3eb725b1	0.35770944
126	0x3d552059	0.052032802
127	0xbe6db49b	-0.23213427
128	0x3e1eebb2	0.15519598
129	0xbd805e85	-0.06268028
130	0xbe0c9ec9	-0.13732447
131	0x3e36898d	0.17825909
132	0x3d8414b4	0.06449261
133	0x3eb2d612	0.34928948
134	0x3e973b12	0.29537255
135	0x3da9bd2f	0.08288037
136	0x3d6db8c1	0.058037523
137	0x3ed2047d	0.4101905
138	0x3dc740cb	0.09729155
139	0x3e8e956b	0.27848372
140	0xbd8b4fb4	-0.068023115
141	0x3ecff23a	0.40614492
142	0x3e8dc84e	0.27691883
143	0x3e2d07ce	0.16897509
144	0x3e3b9531	0.18318631
145	0xbdc2d706	-0.09513669
146	0xbe32690b	-0.17422883
147	0x3eaaba6f	0.33345363
148	0x3dc2f843	0.095200084
149	0x3e1fc8b4	0.15603906
150	0x3e8b12a9	0.27162674
151	0x3e5c12ef	0.21491598
152	0x3da80c3d	0.08205459
153	0xbe5599ca	-0.20859447
154	0xbe16016c	-0.1464898
155	0xbe1ab505	-0.15108116
156	0xbeab7a1d	-0.33491603
157	0x3ebe5407	0.37173483
158	0x3ebe6464	0.37185967
159	0x3dcbc7e1	0.09950233
160	0x3e467ffc	0.1938476
161	0xbd7334d0	-0.059376538
162	0xbe7388c9	-0.23782648
163	0x3e0fece6	0.14055213
164	0xbec890ab	-0.39172873
165	0xbe7582b1	-0.23975636
166	0xbe4c17e1	-0.19930984
167	0x3dda1add	0.10649655
168	0xbe8c5612	-0.27409416
169	0xbdeee6ea	-0.11665137
170	0xbe96589a	-0.29364473
171	0x3e59c17e	0.21265218
172	0xbc8c4d66	-0.01712675
173	0xbec03cc4	-0.3754636
174	0xbe0f665a	-0.14003888
175	0xbe5f2ee3	-0.2179523
176	0xbe67f6c5	-0.22652729
177	0x3d3c8fc6	0.04603555
178	0xbdde14d5	-0.10843817
179	0x3e159e6e	0.14611217
180	0x3ea858bf	0.32880208
181	0x3dee661a	0.11640568
182	0xbec8a2f4	-0.39186823
183	0xbe2b4f86	-0.16729555
184	0x3e6921c5	0.22766788
185	0x3e0b7ebc	0.13622564
186	0xbe073c00	-0.13206482
187	0x3d7e5d2a	0.062100567
188	0x3f040337	0.51567405
189	0xbe17f0da	-0.14837971
190	0x3e332729	0.17495407
191	0xbd30ffaf	-0.04321259
192	0x3e26606b	0.16247718
193	0xbe156faf	-0.14593385
194	0xbeec4454	-0.4614588
195	0x3ee98311	0.45607808
196	0x3d234502	0.039860733
197	0xbe804da0	-0.25059223
198	0x3b8ed2ea	0.004358639
199	0xbea78881	-0.32721332
200	0xbd70a550	-0.058751404
201	0xbe8bf74c	-0.2733711
202	0xbd8e2256	-0.06940143
203	0x3b2244cf	0.0024760251
204	0x3e2035cd	0.15645523
205	0xbe1c0162	-0.15234903
206	0x3ad7948a	0.0016447466
207	0xbd95c184	-0.07312301
208	0x3dab0889	0.08351237
209	0x3e313db9	0.17308702
210	0x3e10f57a	0.14156142
211	0xbd82abd0	-0.06380427
212	0xbe44a3e5	-0.19203146
213	0xbd372990	-0.04471737
214	0xbca95bbe	-0.020673629
215	0x3e1c1849	0.15243639
216	0x3d74e34d	0.059787083
217	0x3df5da20	0.12004495
218	0xbd5a5ecd	-0.053313065
219	0x3cd8cec2	0.026465777
220	0x3e0e0240	0.13868046
221	0x3ccec749	0.025241511
222	0x3db7b202	0.08969499
223	0x3ed01849	0.40643528
224	0xbe0a0ca1	-0.1348138
225	0x3d922c3c	0.07137343
226	0xbe4adbd6	-0.19810423
227	0x3e1e6984	0.15469939
228	0xbd868412	-0.06568159
229	0xbe13f174	-0.14447576
230	0xbe01a57e	-0.12660787
231	0xbe91fe2d	-0.28514233
232	0x3ee179f9	0.4403837
233	0xbd380f8c	-0.0449367
234	0x3de8fca6	0.11376314
235	0x3d14fa57	0.036371555
236	0x3f0886dd	0.53330785
237	0x3e92cb54	0.28670752
238	0x3d232711	0.03983218
239	0x3e8f214a	0.27955085
240	0xbd484c1c	-0.04890071
241	0x3e0cee11	0.1376269
242	0xbe8b59e0	-0.27217007
243	0x3d8e034f	0.06934225
244	0xbe2280d7	-0.15869461
245	0x3eb6ce5c	0.35704315
246	0x3ecc6fa6	0.3992893
247	0xbe6b7180	-0.22992516
248	0x3e56f648	0.20992386
249	0xbe4598aa	-0.19296518
250	0xbdfd5f34	-0.12371674
251	0x3d9f4512	0.07776846
252	0x3ee7a1c5	0.45240608
253	0x3c1a71e8	0.009426571
254	0x3eba72d7	0.3641574
255	0xbe2077ab	-0.1567065

batch_norm00.running_mean f4 [256]
0	0x3d91b645	0.07114843
1	0x3d7a84db	0.061161857
2	0x3c8c3d38	0.017119035
3	0x3c50663e	0.012719689
4	0x3c23ff07	0.010009534
5	0xba31109a	-0.0006754488
6	0x3d1539b9	0.036432
7	0x3cedf49f	0.029047308
8	0x3d7b202a	0.06130997
9	0x3da49656	0.08036487
10	0x3d98a229	0.074528046
11	0x3d80da00	0.0629158
12	0x3d724d5b	0.059155803
13	0x3cc2c73e	0.023776647
14	0xbc9296c7	-0.017894162
15	0x3d84a26e	0.064762935
16	0x3d5fbff4	0.05462642
17	0xbbc9ed9f	-0.00616236
18	0x3d8715c4	0.06595948
19	0x3cb05fac	0.021529995
20	0x3d880bd0	0.06642878
21	0x3d4a2e62	0.04936064
22	0x3dd3101d	0.10305808
23	0x3c5296f4	0.012853373
24	0x3d414200	0.047182083
25	0x3d9fcefa	0.078031495
26	0x3d59d3f1	0.05318064
27	0x3d158078	0.03649947
28	0x3dc1aa90	0.0945636
29	0x3d855e55	0.06512133
30	0x3d8ca76b	0.0686787
31	0x3cca44f1	0.024691077
32	0x3d5b989a	0.05361233
33	0x3d367256	0.044542633
34	0x3d87e348	0.06635147
35	0x3d406ed1	0.046980683
36	0x3c0f2416	0.008736631
37	0x3d1baf98	0.038009256
38	0x3d2164ba	0.0394027
39	0x3cbf689a	0.023365308
40	0x3cf71634	0.030161954
41	0x3c33d056	0.010974964
42	0x3b82a9f4	0.003987545
43	0xbbba7fff	-0.005691528
44	0x3cfa8963	0.03058309
45	0x3d4a9a03	0.049463283
46	0x3c7f56cb	0.015584658
47	0x3d7c10ae	0.061539344
48	0x3d1f9b4b	0.03896646
49	0x3d35a93e	0.044350855
50	0x3d81d428	0.06339294
51	0x3d76a3d7	0.060214844
52	0x3cd6a032	0.026199434
53	0x3d9f632c	0.077825874
54	0x3c56eda8	0.013118185
55	0x3cfcb1c4	0.030846484
56	0x3d590ddf	0.052991744
57	0x3dd506f1	0.104017146
58	0x3b014f99	0.0019731282
59	0x3b8a4745	0.004219922
60	0x3dab5e14	0.08367553
61	0x3da4639c	0.080268115
62	0x3da08668	0.07838136
63	0x3cc0837e	0.0235002
64	0x3d09bdfc	0.03362845
65	0x3d03b90a	0.03215889
66	0x3e070daf	0.13188814
67	0x3cac1f59	0.021011041
68	0x3c571931	0.013128565
69	0x3d165361	0.03670061
70	0x3d5056c2	0.05086399
71	0x3dbac90b	0.09120377
72	0x3cc42c80	0.023947
73	0x3cd59ea6	0.026076626
74	0x3d16a117	0.03677472
75	0x3d6b8c6d	0.057506967
76	0x3c57d4fc	0.013173338
77	0x3d2ecb51	0.042674366
78	0x3d9da4b4	0.0769743
79	0x3cdbe33f	0.026841758
80	0x3d10f364	0.035388365
81	0x3d8b566f	0.06803595
82	0x3c7c49cb	0.015398453
83	0x3c632fab	0.013866345
84	0x3d80d433	0.06290474
85	0x3d94fc2e	0.07274662
86	0x3da8a170	0.08233917
87	0x3d9421a0	0.07232976
88	0x3d92ff0f	0.07177555
89	0x3d3cff74	0.046142057
90	0x3cd5ca79	0.026097523
91	0x3caaaca1	0.020834269
92	0x3ddf0e94	0.108914524
93	0x3d89fa2c	0.067371696
94	0x3cfc9690	0.030833513
95	0x3d468461	0.04846609
96	0x3d62620e	0.055269293
97	0x3d56c6e0	0.052435756
98	0x3c094ffa	0.008380884
99	0x3d5a0f3c	0.053237185
100	0x3dcf38a8	0.10118228
101	0x3d871c79	0.065972276
102	0x3d09c90a	0.03363899
103	0x3d78c64e	0.060735993
104	0x3d8014d8	0.06253976
105	0x3db78d8a	0.08962543
106	0x3d925b0e	0.071462736
107	0x3d6b14ef	0.05739301
108	0x3d1edb09	0.038783107
109	0x3d02eaf9	0.03196237
110	0x3dc0624f	0.09393751
111	0x3d6a2f7c	0.05717419
112	0x3d80692a	0.062700585
113	0x3d0d9dfb	0.03457449
114	0x3d9e6b04	0.07735255
115	0x3d696dd1	0.056989495
116	0xbb810caf	-0.0039382796
117	0x3cd10a08	0.025517479
118	0x3d76d5ce	0.060262494
119	0xbd163909	-0.036675487
120	0x3de1cf29	0.11025841
121	0x3d42fc80	0.047604084
122	0x3d8d1604	0.06888965
123	0x3e1ce28e	0.15320799
124	0x3d77e519	0.06052122
125	0x3d5d4e22	0.05402959
126	0x3c80f0c6	0.01573981
127	0x3c96f7b7	0.018428667
128	0x3dcc0c8a	0.09963329
129	0xbca89628	-0.020579413
130	0x3d1665c0	0.03671813
131	0x3d95c574	0.07313052
132	0x3cc7bc52	0.02438179
133	0x3d25e232	0.04049892
134	0x3dae6e6d	0.08517156
135	0x3d2187e5	0.03943624
136	0x3b92f188	0.004484359
137	0x3dafa41c	0.08576223
138	0x3d319b6c	0.043361112
139	0x3cb867e1	0.02251047
140	0x3dab8b0f	0.08376133
141	0x3cad8316	0.02118067
142	0x3da02d79	0.07821173
143	0x3dbf978d	0.09355078
144	0x3d2ddc84	0.04244663
145	0x3ce0227c	0.027360193
146	0x3cbae80d	0.022815729
147	0x3c86338d	0.016382003
148	0x3dd310c8	0.10305935
149	0x3d9d5d8a	0.07683857
150	0x3ce159cb	0.027508637
151	0x3d43e727	0.047827866
152	0x3bf1c8d5	0.0073786774
153	0x3d5d272e	0.053992443
154	0xbbe6404e	-0.0070267087
155	0x3b0811bf	0.002076253
156	0x3d5d3318	0.054003805
157	0x3c2b8d7e	0.010470746
158	0x3d9561c8	0.07294041
159	0x3c4a6e42	0.012355389
160	0x3d8c6b98	0.068564594
161	0x3d5202f9	0.051272366
162	0x3e00e234	0.1258629
163	0x3d8d91ad	0.06912551
164	0x3d9bf4f4	0.076150805
165	0x3d4f6a49	0.05063847
166	0x3db822d0	0.08991015
167	0x3d974731	0.073866256
168	0x3db02896	0.08601491
169	0x3d1692fa	0.03676126
170	0x3ca3d13a	0.019997228
171	0xbb46bc1c	-0.0030324524
172	0x3d0f7488	0.035023242
173	0x3d9474ed	0.07248864
174	0x3da321b8	0.07965416
175	0x3c95a2a2	0.018266026
176	0x3d01eaa1	0.0317179
177	0x3d8dce35	0.069240965
178	0x3d377a95	0.044794638
179	0x3dafa3a2	0.08576132
180	0xbafcaf6f	-0.0019278358
181	0x3d455c9d	0.048184026
182	0x3d9bd95f	0.076098196
183	0x3d698541	0.057011846
184	0x3d89edb8	0.067347944
185	0x3d3160c5	0.043305177
186	0x3d6bc0fe	0.0575571
187	0x3d9baef5	0.0760173
188	0x3dca5979	0.09880347
189	0x3d408622	0.04700292
190	0x3d90142e	0.07035099
191	0x3cf697cf	0.030101685
192	0x3d991d03	0.07476237
193	0x3da67433	0.08127632
194	0x3cd3b8bb	0.025844922
195	0x3ce6ae3e	0.028159257
196	0x3db31b5c	0.08745453
197	0xbc5e6cf6	-0.013575783
198	0x3b9a090d	0.004700786
199	0x3c0e351b	0.0086796535
200	0x3ae157ef	0.0017192344
201	0x3d6f678f	0.05844837
202	0x3de0bc09	0.10973365
203	0x3d1807ff	0.037117
204	0x3d7d667e	0.061865322
205	0x3d6f9827	0.058494713
206	0x3db20a69	0.08693392
207	0xbbc41473	-0.005983883
208	0x3ce87fc4	0.028381236
209	0x3e0462d3	0.12928323
210	0x3df0cb15	0.11757485
211	0x3bcc443f	0.0062337215
212	0x3d861644	0.065472156
213	0x3cae4bd8	0.0212764
214	0x3d63bf7d	0.05560254
215	0x3cb43bed	0.022001231
216	0x3c8744d5	0.016512314
217	0x3d09d0f7	0.03364655
218	0xbc54f3d4	-0.012997586
219	0x3caa0ec9	0.020759003
220	0x3da843dd	0.08216069
221	0x3d3398d1	0.04384691
222	0x3c8ce008	0.01719667
223	0x3d48e0f3	0.049042653
224	0x3d683aac	0.05669658
225	0x3cf9dc70	0.03050062
226	0x3d8b02a0	0.0678761
227	0x3d90719e	0.07052921
228	0x3be2523e	0.0069067767
229	0x3cec8fff	0.028877256
230	0xbc8a2d3b	-0.01686727
231	0x3bbed478	0.005823668
232	0x3d2e89cb	0.04261188
233	0x3cfbe998	0.030751035
234	0xbc0886ac	-0.0083328895
235	0x3d1ec03d	0.03875755
236	0x3da12e23	0.07870128
237	0x3d8c4a16	0.06850068
238	0x3bf1cc3f	0.0073790844
239	0x3d383232	0.044969745
240	0x3d1c131c	0.03810416
241	0x3ce9e115	0.02854971
242	0xbc8cdaf9	-0.017194258
243	0x3d154177	0.036439385
244	0x3db2319b	0.08700868
245	0x3d7d5ed1	0.061858002
246	0x3dafe26a	0.08588107
247	0x3c5021cb	0.012703369
248	0x3d408a9d	0.047007192
249	0xbc26feae	-0.010192556
250	0x3d0fc542	0.03510023
251	0x3d17ab56	0.037028633
252	0x3d5e06e9	0.05420581
253	0x3dc1e4a1	0.09467436
254	0x3d0ce4ed	0.03439801
255	0x3cfb9bfe	0.030714031

batch_norm00.running_var f4 [256]
0	0x3d78449f	0.060612317
1	0x3dcbcc72	0.09951104
2	0x3ccbac4d	0.024862433
3	0x3cb84ac2	0.022496585
4	0x3cb8e0bf	0.022568105
5	0x3c88a877	0.016681893
6	0x3d395689	0.045248542
7	0x3d051144	0.03248717
8	0x3d8c2e6e	0.06844793
9	0x3d8da765	0.069166936
10	0x3da3e9b4	0.0800356
11	0x3d714170	0.058900297
12	0x3d6e983c	0.05825065
13	0x3d0dcea9	0.034620915
14	0x3bd2c712	0.0064324224
15	0x3d8ad082	0.06778051
16	0x3d772934	0.06034203
17	0x3c8e05ff	0.017336844
18	0x3da6463e	0.081188664
19	0x3ce93e99	0.028472232
20	0x3da035c2	0.078227535
21	0x3d35cb48	0.044383317
22	0x3dcfe9ec	0.10152039
23	0x3cb4dab1	0.022076936
24	0x3d2d304e	0.042282395
25	0x3d8fb72a	0.07017358
26	0x3d2d5833	0.04232044
27	0x3d3efd98	0.046628565
28	0x3d9517c8	0.072799265
29	0x3d93e4a6	0.072213456
30	0x3d7dd95a	0.06197486
31	0x3d0781f9	0.033082936
32	0x3d5ddbfc	0.05416487
33	0x3d55393a	0.05205653
34	0x3da053b0	0.07828462
35	0x3d2b29ad	0.041787792
36	0x3ca4fd6b	0.02014037
37	0x3d1dd33c	0.038531527
38	0x3d243050	0.040085137
39	0x3d0d06a8	0.034430176
40	0x3d19cc27	0.03754821
41	0x3ce3a15f	0.027786909
42	0x3c9f09c6	0.01941384
43	0x3c9224ef	0.017839877
44	0x3cefc8ab	0.02927049
45	0x3d89dadb	0.067311965
46	0x3cbfb4f3	0.023401713
47	0x3d52a8c3	0.051430475
48	0x3d1173d6	0.03551086
49	0x3d47a969	0.048745546
50	0x3d70aadd	0.058756698
51	0x3d840ece	0.06448136
52	0x3d17a828	0.0370256
53	0x3d9e25bb	0.0772204
54	0x3ca63d1b	0.02029281
55	0x3d2cf500	0.042225838
56	0x3d7a8a71	0.061167184
57	0x3dc650bd	0.09683368
58	0x3d02217e	0.031770222
59	0x3ca76aaf	0.020436613
60	0x3d9eafc3	0.07748368
61	0x3d9bc5d6	0.076060936
62	0x3da727ec	0.08161911
63	0x3d008f6e	0.031386785
64	0x3d158cd8	0.036511272
65	0x3d09be75	0.0336289
66	0x3e0ff579	0.14058484
67	0x3cf2fdcd	0.029662037
68	0x3cf45e2c	0.02983006
69	0x3d1e6bed	0.038677145
70	0x3d5519bf	0.052026507
71	0x3da7ce7d	0.081936814
72	0x3ce82f57	0.028342886
73	0x3d14f952	0.036370583
74	0x3d1c50da	0.038163044
75	0x3d7fbaf4	0.06243415
76	0x3cbc1e1e	0.02296358
77	0x3d404a72	0.046945997
78	0x3d908360	0.07056308
79	0x3d1846d6	0.03717693
80	0x3d20a1ac	0.039216682
81	0x3d946179	0.07245154
82	0x3caf6574	0.021410681
83	0x3ca215df	0.01978582
84	0x3d6433e0	0.055713534
85	0x3da19b7c	0.078909844
86	0x3d91d318	0.07120341
87	0x3d58c763	0.052924525
88	0x3d947318	0.07248515
89	0x3d508d55	0.050916035
90	0x3cf9893c	0.030460946
91	0x3cd2683e	0.025684472
92	0x3dcfaf40	0.10140848
93	0x3d80cb8e	0.06288825
94	0x3cfe5664	0.031047054
95	0x3d5ef3f8	0.054431885
96	0x3d50c27d	0.05096673
97	0x3d2669b4	0.04062815
98	0x3ca96f9c	0.020683102
99	0x3d6dd25e	0.05806195
100	0x3dd3fe94	0.10351291
101	0x3da8008a	0.08203228
102	0x3d1445ce	0.036199383
103	0x3d80a784	0.06281951
104	0x3d8dc7f3	0.06922903
105	0x3d9d05fa	0.076671556
106	0x3d98c264	0.07458952
107	0x3d78c2a6	0.060732506
108	0x3d6d1577	0.0578818
109	0x3d0c6ccd	0.034283448
110	0x3dd4a47f	0.10382938
111	0x3d9dbd1b	0.07702085
112	0x3d9eb275	0.07748882
113	0x3d249a25	0.040186066
114	0x3d9853c0	0.07437849
115	0x3dacbd92	0.08434595
116	0x3c858ad6	0.016301554
117	0x3d35c992	0.044381686
118	0x3d86bf19	0.06579418
119	0x3c341aa9	0.010992684
120	0x3dd26953	0.10273995
121	0x3d5c3a08	0.05376628
122	0x3d7f05c0	0.062261343
123	0x3e0c0e0d	0.13677235
124	0x3d9b6fd3	0.07589688
125	0x3d7f8a3d	0.062387694
126	0x3d01710a	0.031601943
127	0x3cda36d7	0.026637478
128	0x3dd4d0fd	0.10391424
129	0x3c3ced4d	0.011531186
130	0x3d2cb762	0.042167075
131	0x3d9dd8c4	0.077073604
132	0x3d24a79b	0.040198904
133	0x3d0b904a	0.03407315
134	0x3d919dd7	0.07110184
135	0x3d3e1652	0.046408005
136	0x3cb74296	0.022370618
137	0x3d99c6c7	0.07508617
138	0x3d0d77a8	0.03453794
139	0x3d1afebb	0.037840586
140	0x3da731e3	0.08163812
141	0x3d0c4022	0.03424085
142	0x3d9972d5	0.074926056
143	0x3dde3504	0.10849956
144	0x3d1047ac	0.0352246
145	0x3d1ffb4e	0.039058022
146	0x3cf1b89c	0.029506974
147	0x3ce3d832	0.02781305
148	0x3dc4e941	0.09614802
149	0x3da7f998	0.08201903
150	0x3d298eca	0.04139594
151	0x3d6af300	0.05736065
152	0x3c834a1c	0.016026549
153	0x3d3a6a30	0.045511425
154	0x3c411393	0.011784452
155	0x3c8ca180	0.017166853
156	0x3d645bf0	0.05575174
157	0x3cba629b	0.022752097
158	0x3d81432c	0.0631164
159	0x3cd4d0d3	0.025978481
160	0x3d98fd4b	0.07470187
161	0x3da80063	0.08203199
162	0x3e11b895	0.14230569
163	0x3d83b323	0.06430652
164	0x3da66d69	0.08126337
165	0x3d768ef9	0.060194943
166	0x3dbbeadc	0.09175655
167	0x3d94ccb4	0.072656065
168	0x3dbea257	0.093083076
169	0x3d34dd4b	0.044156354
170	0x3ced3f26	0.028960776
171	0x3c90aa11	0.017659219
172	0x3d22e884	0.039772525
173	0x3db7e762	0.0897968
174	0x3de4558c	0.11149129
175	0x3d052d96	0.032514177
176	0x3d4ec8a1	0.050484303
177	0x3d9629f2	0.07332219
178	0x3d3ef0f9	0.04661653
179	0x3daa7bed	0.08324418
180	0x3c8707b6	0.016483169
181	0x3d78a9c2	0.06070877
182	0x3d95c661	0.073132284
183	0x3d8c0ccf	0.068383805
184	0x3da9cdb8	0.08291191
185	0x3d4de0a8	0.050263077
186	0x3d68d7f2	0.056846566
187	0x3d935bfe	0.071952805
188	0x3dbefef1	0.0932597
189	0x3d4e2653	0.050329518
190	0x3d5c7ef9	0.053832028
191	0x3d118d7b	0.035535317
192	0x3d92631d	0.071478106
193	0x3dbd1b42	0.09233715
194	0x3d10d4f3	0.035359334
195	0x3d0dee6a	0.034651197
196	0x3db265d5	0.08710829
197	0x3c61440b	0.013749133
198	0x3cbdaa89	0.023152607
199	0x3cb02538	0.021502122
200	0x3c31e5ab	0.01085798
201	0x3d96d588	0.073649466
202	0x3dedbaee	0.1160792
203	0x3d4040ef	0.046936926
204	0x3d4b72e6	0.049670123
205	0x3d81f831	0.06346167
206	0x3de1362b	0.1099666
207	0x3c5b8cdc	0.013400283
208	0x3d30378b	0.04302172
209	0x3e1c6983	0.15274625
210	0x3dbd0ac5	0.0923057
211	0x3c8dc377	0.017305119
212	0x3d7feab7	0.0624797
213	0x3cdc0cf2	0.026861642
214	0x3d70bb14	0.05877216
215	0x3cd3547f	0.025797127
216	0x3cc65cfb	0.024214258
217	0x3d3a6576	0.045506917
218	0x3c7d6696	0.015466353
219	0x3ce83814	0.028347053
220	0x3d98425a	0.074345306
221	0x3d2f4cd6	0.042797886
222	0x3cdea3c6	0.027177703
223	0x3d691716	0.056906782
224	0x3d33fb69	0.043940935
225	0x3cf64c1e	0.030065592
226	0x3d9e14fe	0.07718848
227	0x3da7eef1	0.08199871
228	0x3cc99c1f	0.024610577
229	0x3d21200b	0.0393372
230	0x3c5b5591	0.0133871
231	0x3cb97d36	0.022642713
232	0x3d3aaccf	0.04557496
233	0x3d84dae7	0.06487065
234	0x3c9bd59f	0.01902276
235	0x3d53e89b	0.0517355
236	0x3db88579	0.09009833
237	0x3d8fda7d	0.07024095
238	0x3ced220d	0.0289469
239	0x3d5a30ac	0.053269073
240	0x3d2dfc48	0.042476922
241	0x3d12d0c6	0.035843633
242	0x3c8eda0c	0.017437957
243	0x3d3df635	0.04637738
244	0x3da291a1	0.07937933
245	0x3d926e60	0.071499586
246	0x3da74f34	0.08169404
247	0x3c99e3b6	0.018785339
248	0x3d2c6de6	0.042096995
249	0x3c8b7762	0.0170247
250	0x3d200b06	0.039073013
251	0x3d09a5e4	0.03360547
252	0x3d578321	0.05261529
253	0x3d99e784	0.07514861
254	0x3d04e3f7	0.032443967
255	0x3d896697	0.067090206

linear01.weight f4 [128, 256]
0	0xbe299cb1	-0.1656368
1	0xbe56fd9d	-0.20995183
2	0xbc27388f	-0.010206356
3	0xbe82d153	-0.25550327
4	0x3e7281ce	0.23682329
5	0xbd87f8d5	-0.06639258
6	0xbe0b5007	-0.13604747
7	0xbe000946	-0.12503538
8	0xbef41852	-0.47674805
9	0xbe56ad74	-0.20964605
10	0x3e3f457b	0.18678848
11	0x3e7e078f	0.24807571
12	0xbe8d5920	-0.2760706
13	0xbb8b6814	-0.0042543504
14	0xbe19a882	-0.15005687
15	0xbecfe3ed	-0.4060358
16	0xbdea9700	-0.11454582
17	0xbc5b33b0	-0.0133790225
18	0x3e0342f1	0.12818505
19	0x3d8893e0	0.0666883
20	0x3da7698d	0.08174429
21	0xbe49d48f	-0.19709991
22	0xbea52759	-0.32256582
23	0x3dcf0863	0.101090215
24	0xbe943af5	-0.2895123
25	0x3b8541d5	0.0040666857
26	0x3ce1690b	0.027515909
27	0xbecf43cb	-0.4048141
28	0xbcf637fa	-0.030055989
29	0x3e0ee780	0.13955498
30	0x3e57372e	0.21017143
31	0xbd91183c	-0.070847005
32	0x3dfb59d6	0.12272994
33	0xbca35495	-0.019937793
34	0xbeade173	-0.33961067
35	0xbd53179e	-0.051536195
36	0xbe07db63	-0.13267283
37	0xbd32218f	-0.043489035
38	0x3dde7a8e	0.10863219
39	0xbc664cf8	-0.014056437
40	0xbd8ca995	-0.06868283
41	0xbdb04d47	-0.086084895
42	0xbe464363	-0.19361643
43	0x3e3d47b6	0.18484387
44	0x3dd42b3e	0.1035981
45	0x3d71fe94	0.059080675
46	0xbe92df30	-0.28685904
47	0xbdd1a931	-0.10237349
48	0xbe3cd343	-0.18439965
49	0x3d83d37d	0.064368226
50	0xbc96da6b	-0.018414697
51	0xbec6f3cc	-0.38857877
52	0x3e2bec88	0.16789448
53	0xbe4e5f7d	-0.20153613
54	0xbd943774	-0.07237139
55	0x3da84527	0.08216315
56	0xbd57d3b5	-0.052692134
57	0x3d1f2c3f	0.038860556
58	0xbd961b15	-0.07329384
59	0xbe25e085	-0.16198929
60	0x3ceca6d1	0.028888138
61	0xbeafa492	-0.34305245
62	0xbe6229df	-0.22086285
63	0x3c70100e	0.014652265
64	0x3d274b33	0.0408432
65	0xbd3efe6d	-0.046629358
66	0x3e29a67a	0.16567412
67	0x3e92eaed	0.2869486
68	0x3be563aa	0.0070004063
69	0xbd4632a2	-0.04838813
70	0x3ddc9e1f	0.10772347
71	0xbd5f19c5	-0.054467935
72	0xbd7c8b37	-0.061656203
73	0x3e816da1	0.25278953
74	0x3c8ce6c8	0.017199889
75	0x3e4bf80d	0.19918843
76	0x3dd20d89	0.10256488
77	0xbd61832e	-0.055056743
78	0x3dc778c0	0.09739828
79	0x3e50e475	0.2039965
80	0x3e5b1f95	0.21398766
81	0xbb9a4757	-0.0047082114
82	0x3c3a2aae	0.011362715
83	0xbec88d3d	-0.39170256
84	0x3defbe65	0.11706237
85	0x3b287955	0.0025707085
86	0xbd4faa68	-0.05069962
87	0x3e53533e	0.20637223
88	0xbd8df400	-0.06931305
89	0x3e49648e	0.19667265
90	0xbd28c5e0	-0.041204333
91	0x3e587d3e	0.21141526
92	0x3c80be92	0.015715871
93	0xbe71bc36	-0.23606953
94	0x3d5bc2a1	0.05365241
95	0xbe7f3204	-0.24921423
96	0x3e0ec7b3	0.13943367
97	0x3de65fc2	0.11248733
98	0x3e60ad22	0.21941045
99	0xbcc752e1	-0.024331512
100	0x3e241160	0.16022253
101	0x3df1f3ee	0.11814104
102	0xbe806497	-0.25076744
103	0x3d218e2e	0.039442234
104	0xbdb43a67	-0.08800202
105	0x3ce41f1e	0.02784687
106	0xbdd68933	-0.104753874
107	0xbdb0c159	-0.08630628
108	0xbdfab8c2	-0.12242271
109	0x3e61b87e	0.22043034
110	0xbe402ae2	-0.18766358
111	0x3de8a77c	0.1136007
112	0xbe621579	-0.22078504
113	0x3ea402c9	0.32033375
114	0xbdb41e89	-0.087948866
115	0x3da21796	0.07914655
116	0x3daf4c33	0.08559456
117	0xbdf8335c	-0.12119171
118	0xbe2867f3	-0.16445903
119	0xbde9f530	-0.11423719
120	0x3d80d86b	0.062912785
121	0xbe639cb0	-0.2222774
122	0xbda98972	-0.08278169
123	0xbe8caae7	-0.27474138
124	0x3e20200a	0.15637222
125	0xbeddb1fc	-0.43299854
126	0x3da2adac	0.079432815
127	0xbe2ee28e	-0.17078611
128	0xbc74b7d2	-0.014936404
129	0x3d39ddd9	0.045377586
130	0xbd991fd1	-0.074767716
131	0xbd29d397	-0.041461553
132	0x3d3dbbf8	0.04632184
133	0xbe388cc9	-0.18022455
134	0x3d88f922	0.06688143
135	0x3da5f327	0.08103018
136	0x3e28d316	0.16486773
137	0x3d76bf46	0.060241006
138	0xbe51d84d	-0.20492668
139	0xbda6db15	-0.08147255
140	0xbdc39114	-0.09549156
141	0x3e11be25	0.1423269
142	0x3e34b586	0.1764737
143	0xbe2522ed	-0.16126604
144	0xbea0b13b	-0.31385216
145	0x3dd1601d	0.1022341
146	0xbde87d69	-0.11352045
147	0x3c519812	0.012792604
148	0xbe811d46	-0.25217646
149	0x3db69948	0.08915955
150	0xbdb53286	-0.08847527
151	0xbe4602dd	-0.1933703
152	0x3daa74e2	0.08323075
153	0xbd805e8e	-0.06268035
154	0x3e450f3b	0.19244091
155	0x3e3134ab	0.17305247
156	0x3bbcc78c	0.0057610925
157	0xbe9cac89	-0.30600384
158	0xbe449307	-0.19196711
159	0x3cbd4d61	0.023108186
160	0x3dee91c6	0.11648898
161	0x3e59436f	0.2121713
162	0xbe67f8bd	-0.2265348
163	0xbdb67f92	-0.08911051
164	0x3e50d21c	0.2039265
165	0x3e43fb96	0.19138941
166	0xbe69992d	-0.22812338
167	0x3e0e001e	0.13867232
168	0x3d432679	0.047644112
169	0x3e2e7df6	0.17040238
170	0xbcb7bd26	-0.02242906
171	0xbdfd4c23	-0.123680376
172	0x3a0433dc	0.0005043128
173	0x3e278b53	0.16361742
174	0xbdf51631	-0.11967123
175	0xbe7d68f1	-0.24747063
176	0xbe18febf	-0.14940928
177	0x3c4748fb	0.012163396
178	0xbdec8659	-0.11549062
179	0xbe875d8d	-0.2643856
180	0xbe19c105	-0.15015037
181	0x3de05315	0.10953347
182	0x3d38a5d6	0.04508003
183	0x3e0827b5	0.13296397
184	0x3e2fd196	0.17169794
185	0x3dfe276d	0.124098636
186	0x3dc9bbe7	0.09850293
187	0xbd9b38b7	-0.07579177
188	0xbd0de3b3	-0.03464098
189	0x3e379568	0.17928088
190	0xbedf9971	-0.43671754
191	0xbe62ee7c	-0.22161287
192	0xbe00c02f	-0.12573312
193	0xbe0c5cac	-0.13707227
194	0x3c94edf5	0.018179873
195	0xbecad30d	-0.39614144
196	0x3d6a334a	0.05717782
197	0x3c550d7b	0.013003702
198	0xbd78d1d2	-0.060746975
199	0x3db8b881	0.09019566
200	0xbc06f6e6	-0.008237576
201	0xbde5327f	-0.11191272
202	0xbe73c6ec	-0.23806351
203	0xbcd361d0	-0.025803477
204	0xbe54340b	-0.20722978
205	0xbdede087	-0.11615091
206	0x3d962563	0.0733135
207	0xbe6a0b5d	-0.22855897
208	0xbd61aedf	-0.05509841
209	0x3e6da39f	0.23206948
210	0x3bf4a603	0.007466079
211	0xbc1338f5	-0.008985748
212	0xbe7d9123	-0.24762397
213	0x3c867f3b	0.01641809
214	0x3e0e2a18	0.13883245
215	0xbe23d672	-0.15999773
216	0xbeac4da8	-0.33652997
217	0xbe2d8509	-0.1694528
218	0xbd0fed9a	-0.035138704
219	0xbe96bc7c	-0.29440677
220	0xbc37b047	-0.011211461
221	0x3ca9a074	0.020706393
222	0x3da6db8c	0.08147344
223	0x3dfc9b08	0.12334257
224	0xbe9e91bc	-0.30970562
225	0x3d4ad7b0	0.049522102
226	0x3d1dd62b	0.038534325
227	0x3bb58e46	0.005540642
228	0xbe87215f	-0.26392648
229	0xbe1506e8	-0.14553416
230	0xbe4124e8	-0.18861735
231	0x3be4e51e	0.0069853207
232	0xbe182b9b	-0.14860384
233	0xbe889390	-0.2667508
234	0x3df69102	0.12039377
235	0xbc8e6e1c	-0.017386489
236	0xbea5fbce	-0.32418674
237	0xbd9a4c0d	-0.07534037
238	0xbd1f79a6	-0.038934372
239	0x3e0fa19f	0.14026497
240	0xbeabd0ea	-0.33557826
241	0x3e542a96	0.2071937
242	0xbdcbf3df	-0.09958624
243	0x3e17d342	0.14826682
244	0x3d237425	0.039905686
245	0x3e7d2466	0.24720916
246	0x3ad59cc3	0.0016297329
247	0xbdfe23fe	-0.12409209
248	0x3d2c40fd	0.042054165
249	0x3dd24383	0.10266783
250	0x3e621206	0.22077188
251	0x3e6ed34a	0.23322788
252	0xbe947e21	-0.2900248
253	0xbeaf4a93	-0.34236583
254	0x3e9ec1ea	0.3100732
255	0x3e09a54d	0.13441963

linear01.bias f4 [128]
0	0x3d157446	0.03648784
1	0x3ec1217d	0.37720862
2	0x3e737ab6	0.2377728
3	0x3dbad728	0.09123069
4	0xbda517b1	-0.080611594
5	0x3d18b0e8	0.037278086
6	0x3ea7d47f	0.3277931
7	0x3dbe0e7d	0.09280107
8	0x3b1b9f21	0.0023745971
9	0x3e0748bb	0.13211338
10	0x3e3a40c7	0.18188773
11	0x3e690bb5	0.22758372
12	0x3db60a4f	0.08888685
13	0x3d3cd950	0.046105683
14	0x3ea5f7b4	0.32415545
15	0x3e8a17fc	0.26971424
16	0x3f6766c5	0.9039119
17	0x3e5ded81	0.21672632
18	0x3eac290a	0.3362506
19	0x3df5ff5d	0.12011597
20	0x3e4dc34f	0.20094036
21	0xbd9d60cb	-0.076844774
22	0x3de6cdec	0.11269745
23	0x3e5d856f	0.21632932
24	0x3e660ff2	0.2246702
25	0x3dd2cd91	0.10293115
26	0xbe5ef0d7	-0.2177156
27	0x3ede6441	0.43435863
28	0x3e83e9cc	0.2576431
29	0xbeeb04e1	-0.4590216
30	0x3ccfd8f9	0.025372015
31	0x3d13dccd	0.036099244
32	0x3dcb9f54	0.09942499
33	0x3ec246d4	0.37944663
34	0x3ece3f52	0.40282685
35	0xbdd3e589	-0.10346515
36	0x3e77d426	0.24202022
37	0x3eb81c27	0.3595898
38	0x3e950847	0.29107878
39	0x3e83a5bb	0.2571238
40	0x3e4807e1	0.19534256
41	0x3e696489	0.22792257
42	0x3e3469f2	0.1761854
43	0x3db2bd70	0.087275386
44	0x3d9e3217	0.07724398
45	0x3dd3251b	0.10309812
46	0x3e8c790a	0.27436095
47	0x3e989127	0.29798242
48	0x3e2b38d5	0.16720898
49	0x3e8e31ce	0.27772373
50	0x3d0b0fce	0.03395062
51	0x3e2a05a3	0.16603713
52	0x3e24a86c	0.16079873
53	0x3e3cfa87	0.18454944
54	0x3e3c06eb	0.18362014
55	0x3e8a84be	0.270544
56	0x3e5fa8d6	0.2184175
57	0xbdd9068c	-0.10596952
58	0xbe08d2b1	-0.13361622
59	0x3e8faa66	0.2805969
60	0xbd39a0d5	-0.045319397
61	0x3da8dfd9	0.082458206
62	0x3e5d6f39	0.2162446
63	0x3e99483c	0.29937923
64	0x3a1db6bc	0.0006016304
65	0x3ea4f560	0.32218456
66	0x3ed6d9e0	0.419631
67	0xbd05b5e7	-0.03264418
68	0xbbb886ce	-0.0056313043
69	0x3eae5855	0.34051767
70	0xbd5a32c6	-0.053271078
71	0x3c1f4e6e	0.009723289
72	0x3e350356	0.17677054
73	0x3d59207f	0.053009506
74	0xbd7d2f1c	-0.061812505
75	0x3eeca6ab	0.46220908
76	0x3d32d8f6	0.04366394
77	0x3e83851e	0.25687498
78	0x3e957f06	0.29198474
79	0x3ed804f6	0.42191285
80	0x3e9941d8	0.29933047
81	0x3d108c2d	0.035289932
82	0x3ef36d75	0.47544447
83	0x3d8f81ee	0.07007204
84	0x3dc71348	0.097204745
85	0x3deeb350	0.11655295
86	0x3e365cd0	0.17808843
87	0x3e9d1bfd	0.30685416
88	0x3e118bc0	0.14213467
89	0x3d64b2c5	0.05583455
90	0x3e695eb6	0.22790036
91	0xbe2eca0b	-0.17069261
92	0xbcd47553	-0.02593485
93	0x3ea5f0af	0.3241019
94	0x3e452ace	0.1925461
95	0x3f0cacd2	0.549512
96	0xbd9f6bae	-0.0778421
97	0x3f00b79a	0.50280154
98	0xbe03894f	-0.12845348
99	0xbd665d65	-0.05624141
100	0x3e0ca0ba	0.13733187
101	0x3e6a34f5	0.22871764
102	0x3e510f63	0.20416026
103	0xbde4ed5e	-0.11178087
104	0x3f35173a	0.70738566
105	0x3dfa8264	0.12231901
106	0xbe2b16f4	-0.16707975
107	0x3ce633b1	0.02810082
108	0x3e460fc0	0.19341946
109	0x3b91120b	0.0044271997
110	0x3d9639ea	0.07335265
111	0xbd85f564	-0.06540945
112	0x3e8ab0d9	0.2708805
113	0x3ec23963	0.37934408
114	0x3da8743b	0.08225294
115	0x3e4f9e65	0.20275266
116	0x3e75ba7a	0.23996916
117	0x3dd1f8df	0.102525465
118	0x3eaabbd1	0.33346418
119	0x3ddb9210	0.107212186
120	0x3cfb834a	0.030702252
121	0x3e203167	0.15643845
122	0x3e680b6d	0.22660609
123	0xbe94b8eb	-0.2904733
124	0x3ecefc90	0.40427065
125	0x3e4949f0	0.19657111
126	0x3e2f183e	0.17099091
127	0x3e7bd9f5	0.24594863
