weights/2. triplet loss model - marks/3. 1154 epochs/fully_connect_last.pt (torch, 566340 bytes, 10 tensors)

linear00.weight f4 [256, 352]
0.021527415 0.049603444 0.06412458 -0.0417347 -0.07144439 0.14664483 0.05340981 0.0020599065
0.03439788 0.030495547 0.084085606 -0.012028547 0.15110454 -0.0074080206 -0.2472608 0.14916858
0.016160173 -0.11488223 0.056045763 0.01025528 0.017292863 0.091865815 -0.01809915 -0.03931959
0.04029336 0.1617715 0.089785345 0.083833165 -0.050631687 -0.03539359 0.02447899 0.071868196
-0.14177653 0.050497662 0.02614354 -0.090006106 0.0016807081 -0.21887407 0.0799304 0.03078266
0.058026843 -0.041637897 -0.21852688 0.04883929 0.0867278 -0.1134764 -0.16620338 -0.060028177
-0.0073757237 0.012113907 0.09961801 0.090742506 -0.08235063 0.0118162045 0.09972523 -0.19176967
0.09491643 -0.012735208 0.028709494 -0.031497177 -0.0550676 -0.1680318 -0.24257061 0.025695201
-0.043345027 -0.17346907 -0.03961159 0.07486973 0.0017504867 -0.24884896 0.0368027 -0.014141642
0.020336144 0.12091196 -0.025939664 -0.1895337 -0.040428363 -0.1142694 -0.08005752 0.31349534
0.10095603 0.03776299 0.095325366 -0.005561414 0.03270247 -0.0831947 0.091677144 0.036441803
0.076503985 0.045775414 0.029483344 0.090612166 -0.11774551 0.10274142 -0.030098815 -0.066100426
0.035575137 -0.084999606 -0.13819231 -0.08849951 0.09440813 0.08698774 0.012947882 -0.0004800601
-0.010231399 -0.032453816 -0.035475895 -0.09639188 0.09015013 0.08535957 -0.03596368 0.14442085
0.12825225 -0.03174726 -0.031180067 -0.038842805 0.019614052 0.1123374 0.07654424 0.050412383
-0.049815122 0.08199616 0.10633789 -0.07229366 -0.14217664 0.04563158 0.06776026 0.1147572
0.059720576 0.10297534 -0.0012828355 -0.026278844 -0.06103393 0.03007844 0.05210127 0.03578871
0.12753975 -0.11358792 -0.109901324 -0.07556183 0.022139857 0.016222887 -0.0076195304 -0.12432801
-0.032474868 0.095500164 0.0017038949 0.055667203 0.026913662 -0.062089354 0.01242423 0.002765377
0.06982388 0.01722745 0.028548075 -0.08716121 -0.018498808 -0.054845095 0.01999046 0.053953335
0.13800597 -0.026560629 -0.038290363 -0.055139314 0.10248999 -0.09170576 -0.02569468 0.1586206
0.0816027 -0.04115684 0.057827245 0.010730781 0.0668055 -0.09657108 -0.006253359 -0.08469422
0.020567808 -0.1418025 0.08934095 -0.0662423 -0.13224305 -0.05700438 0.1853693 -0.20961806
-0.0030201746 -0.05117115 -0.19626422 -0.10694597 -0.008550633 -0.06596749 0.27720022 0.11134287
0.058290172 -0.07348718 0.024940792 -0.08228621 0.045001637 0.1278359 0.044973064 0.04730046
0.11479305 -0.14918828 0.19689691 -0.12366228 -0.039878 0.05748899 -0.16999988 0.09533089
-0.04701043 -0.0006932928 -0.031760294 -0.13706468 -0.033995204 -0.024508648 -0.14186518 0.08651554
-0.04998888 -0.21728073 0.29604554 -0.08160354 0.09249784 -0.090701506 0.038630445 0.1341549
0.008297735 0.0065430063 0.029679136 -0.0407259 0.034297947 0.03893393 0.13109028 0.06727952
-0.07447855 0.048770178 -0.005793207 -0.13286786 0.013631677 -0.015135993 -0.23578484 0.04560495
-0.009325968 0.01575777 -0.009558244 -0.02777762 0.17704068 0.06946376 0.12857427 -0.1221528
-0.078371875 -0.12585346 0.10714187 0.08725871 0.28282228 -0.14336921 0.13545564 -0.10286222
00000000: 435a b03c fb2c 4b3d bf53 833d 01f2 2abd
00000010: 7051 92bd 102a 163e 3fc4 5a3d 7fff 063b
00000020: cbe4 0c3d ccd1 f93c 1335 ac3d 6213 45bc
00000030: 26bb 1a3e fbbe f2bb ef31 7dbe a6bf 183e
00000040: 5762 843c 6047 ebbd 3e90 653d c305 283c
00000050: c3a9 8d3c 2524 bc3d ab44 94bc 940d 21bd
00000060: a60a 253d 6ea7 253e 61e1 b73d b9b0 ab3d
00000070: 2c63 4fbd def8 10bd 2a88 c83c a22f 933d
00000080: de2d 11be a3d6 4e3d fa2a d63c 1f55 b8bd
00000090: 354b dc3a 8620 60be 8db2 a33d eb2b fc3c
000000a0: 8ead 6d3d 808c 2abd 83c5 5fbe b50b 483d
000000b0: 589e b13d 5166 e8bd 3831 2abe 1be0 75bd
000000c0: 0eb0 f1bb 6979 463c 8704 cc3d 35d7 b93d
000000d0: 72a7 a8bd c198 413c be3c cc3d 455f 44be
000000e0: 8c63 c23d 55a7 50bc 2c30 eb3c 2f03 01bd
000000f0: 908e 61bd 8710 2cbe 6e64 78be be7e d23c
00000100: 8e8a 31bd e0a1 31be c33f 22bd 4d55 993d
00000110: 9670 e53a 43d2 7ebe 6ebe 163d 58b2 67bc
00000120: fc97 a63c b1a0 f73d 6b7f d4bc 1f15 42be
00000130: 3698 25bd 1306 eabd 32f5 a3bd 7682 a03e
00000140: 09c2 ce3d 5dad 1a3d f239 c33d 863c b6bb
00000150: 06f3 053d fc61 aabd 3ac1 bb3d 0044 153d
00000160: 1fae 9c3d 007f 3b3d 0e87 f13c df92 b93d
00000170: 8f24 f1bd 186a d23d ca91 f6bc a95f 87bd
00000180: 3cb7 113d 4614 aebd 4982 0dbe 3b3f b5bd
00000190: 0d59 c13d a126 b23d 5a23 543c 93b0 fbb9
000001a0: 99a1 27bc 4bee 04bd 2c4f 11bd 1b69 c5bd
000001b0: a2a0 b83d 00d1 ae3d a74e 13bd 0fe3 133e
000001c0: 8f54 033e 6a09 02bd 576d ffbc a219 1fbd
000001d0: a6ad a03c 2711 e63d 3ac3 9c3d 377d 4e3d
000001e0: f10a 4cbd 9aed a73d aec7 d93d b30e 94bd
000001f0: c196 11be 2ee8 3a3d e4c5 8a3d d305 eb3d
00000200: 909d 743d bce4 d23d d124 a8ba bb46 d7bc
00000210: b7fe 79bd 1067 f63c 2468 553d 2f97 123d
00000220: c899 023e c9a0 e8bd f213 e1bd 29c0 9abd
00000230: a55e b53c dce5 843c 41ad f9bb af9f febd
00000240: 5e04 05bd 9795 c33d 3a55 df3a 4b03 643d
00000250: 0a7a dc3c 6851 7ebd ff8e 4b3c 543b 353b
00000260: d3ff 8e3d 9520 8d3c a7dd e93c 9481 b2bd
00000270: d08a 97bc 40a5 60bd 08c3 a33c 2cfe 5c3d
00000280: 7051 0d3e ad95 d9bc 5bd6 1cbd c3d9 61bd
00000290: 46e6 d13d 3bd0 bbbd a67d d2bc 706d 223e
000002a0: 511f a73d 1394 28bd 43dc 6c3d 28d0 2f3c
000002b0: 52d1 883d 0fc7 c5bd fae8 ccbb 2a74 adbd
000002c0: d27d a83c ad34 11be 63f8 b63d 0baa 87bd
000002d0: b96a 07be 6d7d 69bd 73d1 3d3e 1ea6 56be
000002e0: 1fee 45bb d798 51bd 7df9 48be 7d06 dbbd
000002f0: f417 0cbc f719 87bd 30ed 8d3e bb07 e43d
00000300: adc1 6e3d 7280 96bd a250 cc3c ac85 a8bd
00000310: a353 383d 6ae7 023e ad35 383d 21be 413d
00000320: 9e18 eb3d d0c4 18be 589f 493e a642 fdbd
00000330: 1d57 23bd 9379 6b3d 7314 2ebe d73c c33d
00000340: 028e 40bd 18be 35ba 1517 02bd af5a 0cbe
00000350: 8e3e 0bbd 5cc6 c8bc 1b45 11be 0f2f b13d
00000360: 24c1 4cbd d77e 5ebe 4893 973e c21f a7bd
00000370: 826f bd3d b6c1 b9bd f53a 1e3d e75f 093e
00000380: 39f3 073c b766 d63b a921 f33c 34d0 26bd
00000390: 017c 0c3d 2f79 1f3d 883c 063e d8c9 893d
000003a0: 3688 98bd 3dc3 473d f1d4 bdbb 830e 08be
000003b0: 6657 5f3c f5fc 77bc 9571 71be 42cc 3a3d
000003c0: f2cb 18bc 7016 813c 2e9a 1cbc e48d e3bc
000003d0: 274a 353e 0443 8e3d f9a8 033e 3f2b fabd
000003e0: 6f81 a0bd bbdf 00be 326d db3d b2b4 b23d
000003f0: 15ce 903e 61cf 12be e2b4 0a3e 6da9 d2bd

linear00.bias f4 [256]
0.0014974762 -0.15798394 -0.03943586 -0.033778727 -0.08976241 -0.03232671 -0.21623603 -0.07215562
-0.18719816 -0.053112157 -0.054810565 -0.067736395 -0.091075845 -0.12982759 0.0544469 -0.20685586
-0.02324218 0.1459829 -0.16522236 -0.0013190671 -0.19739656 -0.0847904 -0.21445693 -0.078624815
-0.029475428 -0.12520352 0.0028033175 0.15626614 -0.10616163 -0.15417624 -0.056961477 0.02640647
-0.012166258 0.0028160587 -0.06671834 -0.107261516 -0.08690046 -0.00029118196 -0.13495263 -0.16272366
0.038829528 -0.0054153083 0.046811353 0.12452018 -0.057033118 -0.23126395 0.019239215 0.01272217
-0.02273622 -0.09078791 -0.0058563403 -0.20795086 -0.11692372 -0.058555383 0.03966059 0.020887213
0.028833661 -0.07245423 0.094215095 0.02255206 -0.08648752 -0.15480365 -0.037281606 0.11180733
0.07585519 -0.08501145 -0.06563536 -0.06383741 -0.16977584 -0.01062416 -0.22467633 -0.02131797
0.039582442 -0.02608964 -0.119305424 0.07834002 -0.10432405 0.10845037 -0.16119635 -0.09203554
-0.07916439 0.022934515 -0.18318023 0.07021237 -0.13706344 -0.2552283 -0.09178536 -0.08157292
-0.15220517 -0.12766254 -0.108045295 -0.14541355 -0.2556839 -0.1469184 -0.14230052 -0.15186292
0.12543182 0.060592387 0.1169378 -0.0059556514 0.021059496 -0.117918685 -0.040093962 -0.30896917
-0.10288821 -0.051276423 -0.07879094 0.030675385 0.025548289 -0.24045731 -0.12692878 -0.072019346
-0.12231494 0.056576136 -0.18372053 -0.10554395 -0.10125051 -0.016266022 -0.06388965 0.0779777
-0.076076105 -0.1638063 -0.19862014 -0.08047083 0.0867022 -0.018109135 0.057718687 -0.017251255
-0.1290389 -0.023025196 0.054941658 0.011135717 -0.07726096 0.014675852 -0.051504042 -0.061279364
-0.20927063 -0.14980826 -0.09732247 -0.03806903 -0.064433016 0.039104827 -0.11814718 -0.21037717
0.07131315 -0.008117462 -0.008742336 -0.029237261 -0.02619695 -0.11679902 -0.053219855 -0.10582923
0.085320406 -0.0704622 0.07645143 -0.024274414 0.005891927 -0.020374713 -0.097584546 -0.041177515
-0.06889994 -0.15296766 -0.15158226 -0.0717829 -0.056006774 -0.1280324 -0.17942825 -0.108228244
-0.09844634 -0.11706582 -0.02262303 -0.017521113 -0.121698506 0.012737685 -0.06549075 -0.100136206
0.008112334 -0.13640046 -0.102055736 -0.0063670888 -0.055208955 -0.21156012 -0.16985193 -0.28548858
-0.13276175 -0.024116613 -0.026192779 -0.1981214 -0.22518694 -0.17630021 0.00829418 0.020020578
-0.21795951 -0.058695327 0.019582292 -0.2361509 0.010359114 0.031554867 -0.011252886 0.07666453
0.040879592 -0.016860003 -0.08460577 -0.07890424 -0.21038572 -0.20598091 -0.017427236 0.06575241
-0.016220992 -0.07836297 0.022236906 0.03904377 -0.010974094 0.084975265 -0.079209186 0.047989056
-0.07960018 -0.2218433 0.04759202 -0.0039398144 -0.14775522 0.027252968 -0.044815823 -0.20757784
-0.18065114 -0.0573508 -0.11929866 -0.22329189 0.04740099 -0.037152667 0.05832915 -0.052878946
-0.034938384 -0.026525209 0.01786114 0.026034573 -0.054985207 -0.033907916 -0.057960697 -0.20807645
0.015238775 -0.1288761 0.022402076 -0.09034372 -0.0971907 -0.14812964 -0.116219394 -0.051418573
-0.0038492358 0.03733511 -0.27465636 0.009658154 -0.13985366 -0.022790425 -0.02356834 0.045359906
00000000: f746 c43a 8bc6 21be 7f87 21bd 905b 0abd
00000010: 5bd5 b7bd 0369 04bd fa6c 5dbe 53c6 93bd
00000020: e0b0 3fbe 228c 59bd 0b81 60bd 61b9 8abd
00000030: f985 babd 86f1 04be b603 5f3d 06d2 53be
00000040: 6266 bebc 8b7c 153e 0d30 29be 8ce4 acba
00000050: 5322 4abe 97a6 adbd 999a 5bbe 0c06 a1bd
00000060: 7476 f1bc 5a35 00be ddb7 373b 3b04 203e
00000070: 456b d9bd 60e0 1dbe 7050 69bd 6252 d83c
00000080: fc54 47bc a08d 383b a0a3 88bd edab dbbd
00000090: def8 b1bd c8a9 98b9 0631 0abe 08a1 26be
000000a0: b60b 1f3d e672 b1bb 43bd 3f3d 7004 ff3d
000000b0: 8f9b 69bd 75d0 6cbe 8f9b 9d3c a670 503c
000000c0: 4f41 babc 03ef b9bd 8be6 bfbb 12f1 54be
000000d0: b475 efbd c5d7 6fbd 2573 223d a91b ab3c
000000e0: 9234 ec3c e262 94bd d8f3 c03d 19bf b83c
000000f0: 5e20 b1bd d984 1ebe 99b4 18bd 3efb e43d
00000100: f759 9b3d 7c1a aebd d56b 86bd 30bd 82bd
00000110: b8d9 2dbe f510 2ebc 8d11 66be 06a3 aebc
00000120: 3321 223d f1b9 d5bc 6756 f4bd bb70 a03d
00000130: d9a7 d5bd 3a1b de3d a810 25be 217d bcbd
00000140: f120 a2bd 2ae1 bb3c 9993 3bbe 81cb 8f3d
00000150: 5c5a 0cbe 49ad 82be f6f9 bbbd b40f a7bd
00000160: acdb 1bbe f8b9 02be da46 ddbd 4ae7 14be
00000170: 00e9 82be c771 16be 3ab7 11be f481 1bbe
00000180: 3371 003e b92f 783d 167d ef3d a027 c3bb
00000190: f784 ac3c 5a7f f1bd 9139 24bd 3531 9ebe
000001a0: 0eb7 d2bd 3a07 52bd 255d a1bd f24a fb3c
000001b0: a54a d13c 713a 76be 9ef9 01be e17e 93bd
000001c0: 4180 fabd 61bc 673d 3c21 3cbe 6d27 d8bd
000001d0: 6d5c cfbd 5240 85bc 94d8 82bd c6b2 9f3d
000001e0: cacd 9bbd d7bc 27be 1463 4bbe e4cd a4bd
000001f0: ec90 b13d 9c59 94bc 6e6a 6c3d 8152 8dbc
00000200: c622 04be 569f bcbc 810a 613d 9572 363c
00000210: ff3a 9ebd fc72 703c e7f5 52bd 1200 7bbd
00000220: 0a4b 56be 5667 19be 0151 c7bd 45ee 1bbd
00000230: 75f5 83bd 622c 203d 26f7 f1bd 1d6d 57be
00000240: a10c 923d 1aff 04bc 043c 0fbc fb82 efbc
00000250: fc9a d6bc 5334 efbd 10fd 59bd ffbc d8bd
00000260: 77bc ae3d 7c4e 90bd 9192 9c3d 23db c6bc
00000270: 1111 c13b dfe8 a6bc 68da c7bd c1a9 28bd
00000280: 691b 8dbd 8ea3 1cbe 6138 1bbe ea02 93bd
00000290: 5c67 65bd ed1a 03be 0abc 37be c5a6 ddbd
000002a0: 3c9e c9bd 34c0 efbd ef53 b9bc 7088 8fbc
000002b0: 113d f9bd b9b1 503c 0420 86bd 3614 cdbd
000002c0: 98e9 043c 90ac 0bbe 9902 d1bd 03a3 d0bb
000002d0: c922 62bd 37a3 58be aaed 2dbe 8f2b 92be
000002e0: b2f2 07be 3490 c5bc 3d92 d6bc 56e0 4abe
000002f0: 6897 66be 0b88 34be 50e4 073c 3202 a43c
00000300: c730 5fbe 836a 70bd 0b6b a03c 8bd1 71be
00000310: 46b9 293c ad3f 013d 065e 38bc 4b02 9d3d
00000320: 5c71 273d fd1d 8abc ca45 adbd 8c98 a1bd
00000330: 5b6f 57be a9ec 52be 90c3 8ebc 33a9 863d
00000340: e3e1 84bc c47c a0bd 2c2a b63c 5cec 1f3d
00000350: b0cc 33bc 8307 ae3d 6d38 a2bd 2c90 443d
00000360: 6b05 a3bd e42a 63be daef 423d 8f19 81bb
00000370: 254d 17be 9e41 df3c cc90 37bd 498f 54be
00000380: 9dfc 38be ace8 6abd db52 f4bd a1a6 64be
00000390: 8a27 423d 652d 18bd 8cea 6e3d 9897 58bd
000003a0: 8d1b 0fbd 654b d9bc 8751 923c 7546 d53c
000003b0: 2b38 61bd 07e3 0abd 3268 6dbd fe11 55be
000003c0: 0eac 793c 19f8 03be 8f84 b73c 2106 b9bd
000003d0: eb0b c7bd 4caf 17be 6f04 eebd 489c 52bd
000003e0: 7643 7cbb b3ec 183d c29f 8cbe 3c3d 1e3c
000003f0: cc35 0fbe fcb2 babc 6412 c1bc 4fcb 393d

batch_norm00.weight f4 [256]
1.5979704 1.5127398 1.6115328 1.6731902 1.6669581 1.609898 1.6573076 1.5792633
1.7818762 1.6078712 1.6515517 1.5328591 1.6757648 1.6383393 1.5755706 1.7171625
1.5456297 1.4671938 1.7652975 1.567161 1.7062896 1.6469109 1.9317086 1.5392878
1.5612382 1.5148793 1.4891759 1.5266676 1.603083 1.6080875 1.5875136 1.5491279
1.5437794 1.5982844 1.6105189 1.6869102 1.5470785 1.4883716 1.5278525 1.5584878
1.5578185 1.5323268 1.5955662 1.5339265 1.5067908 1.6201482 1.4920669 1.5559913
1.5275276 1.6511712 1.5975713 1.6913476 1.6086786 1.7511371 1.4527416 1.6652145
1.5863422 1.6526128 1.5671406 1.590248 1.6241449 1.7286488 1.6024015 1.5516325
1.6152153 1.6769812 1.7373496 1.5722886 1.4249203 1.6032149 1.4567467 1.745793
1.6544027 1.6572359 1.6511496 1.5162736 1.6495031 1.5145696 1.6135796 1.5146644
1.545261 1.6291645 1.6017647 1.5324578 1.668834 1.6682945 1.6434361 1.7003275
1.6287632 1.5801102 1.6428258 1.6597065 1.6527025 1.7562627 1.5579475 1.5938767
1.3964108 1.5392239 1.511501 1.6192169 1.5887598 1.8277537 1.6640592 1.528208
1.5005009 1.6375679 1.6585344 1.673299 1.6377951 1.5355633 1.7289987 1.5668006
1.7465994 1.4257956 1.7978001 1.5768474 1.6231971 1.5572718 1.7045755 1.5556033
1.5967097 1.7459952 1.6292181 1.6643116 1.4789486 1.482071 1.6885654 1.5730444
1.7128026 1.548864 1.5562842 1.5487182 1.498843 1.6888978 1.6465176 1.6800722
1.6319659 1.7115397 1.6220793 1.6397053 1.687438 1.5174714 1.6163571 1.837802
1.5069581 1.5261391 1.5276433 1.4756483 1.6675766 1.5628536 1.627178 1.5698755
1.4983646 1.4844308 1.4462914 1.5175207 1.5383382 1.5904242 1.6521852 1.5768614
1.6848831 1.5648048 1.5814995 1.6712167 1.6007029 1.6291698 1.8651283 1.5196797
1.504226 1.6308222 1.6120104 1.4495882 1.6224793 1.6432028 1.6939493 1.4992983
1.6651225 1.6007683 1.6064866 1.7594694 1.6048281 1.651526 1.6343061 1.6526194
1.577477 1.6322936 1.5905224 1.7230768 1.5921177 1.5578862 1.5412189 1.5830327
1.796108 1.6040139 1.58409 1.5709878 1.7059873 1.5886881 1.57519 1.5700083
1.5048244 1.609944 1.5935619 1.6585171 1.8056732 1.5923381 1.6382799 1.5672432
1.6636885 1.765914 1.7080922 1.5243868 1.5872368 1.5970178 1.7198483 1.4741976
1.6173965 1.6946706 1.4860317 1.4511143 1.7138842 1.5070745 1.625936 1.5153824
1.6016104 1.3651345 1.5588136 1.699522 1.5835428 1.5834457 1.4604484 1.5399228
1.536952 1.4785223 1.4376817 1.4997298 1.5217406 1.7188234 1.5297025 1.5496738
1.6065434 1.6828233 1.3549551 1.6345495 1.8073549 1.6716814 1.7571627 1.4661782
1.5499142 1.729265 1.5813515 1.6863979 1.5666716 1.6298207 1.5767175 1.5006648
00000000: 4b8a cc3f 75a1 c13f b546 ce3f 192b d63f
00000010: e25e d53f 2311 ce3f a822 d43f 4d25 ca3f
00000020: 8514 e43f b9ce cd3f 0c66 d33f ba34 c43f
00000030: 767f d63f 1ab5 d13f 4cac c93f fbcb db3f
00000040: 32d7 c53f 02cd bb3f 45f5 e13f bb98 c83f
00000050: b367 da3f facd d23f 3a42 f73f 6207 c53f
00000060: a7d6 c73f 91e7 c13f 519d be3f d869 c33f
00000070: d331 cd3f d0d5 cd3f a533 cb3f d349 c63f
00000080: 909a c53f 9594 cc3f 7c25 ce3f acec d73f
00000090: ab06 c63f f682 be3f ac90 c33f 877c c73f
000000a0: 9966 c73f 4923 c43f 833b cc3f b457 c43f
000000b0: 85de c03f 0461 cf3f 0cfc be3f b92a c73f
000000c0: 0686 c33f 9459 d33f 377d cc3f 147e d83f
000000d0: 2ee9 cd3f 4325 e03f 70f3 b93f c025 d53f
000000e0: 430d cb3f d188 d33f 1098 c83f 3f8d cb3f
000000f0: fbe3 cf3f 5d44 dd3f 7e1b cd3f e59b c63f
00000100: 60bf ce3f 52a7 d63f 7961 de3f c140 c93f
00000110: ca63 b63f 2536 cd3f ad76 ba3f 2576 df3f
00000120: 78c3 d33f 4e20 d43f df58 d33f 4115 c23f
00000130: eb22 d33f 6bdd c13f c789 ce3f 86e0 c13f
00000140: 1dcb c53f 7688 d03f a006 cd3f 9427 c43f
00000150: 5a9c d53f ad8a d53f 1d5c d23f 55a4 d93f
00000160: 507b d03f 0d41 ca3f 1e48 d23f 4371 d43f
00000170: c18b d33f 37cd e03f d36a c73f 2704 cc3f
00000180: 97bd b23f 4a05 c53f dd78 c13f 8042 cf3f
00000190: 7b5c cb3f d5f3 e93f e4ff d43f 529c c33f
000001a0: 6a10 c03f d39b d13f db4a d43f a92e d63f
000001b0: 45a3 d13f 578d c43f d44f dd3f ec8c c83f
000001c0: 9290 df3f 7880 b63f 501e e63f 23d6 c93f
000001d0: ecc4 cf3f af54 c73f 882f da3f 021e c73f
000001e0: fc60 cc3f c57c df3f 388a d03f 2a08 d53f
000001f0: 304e bd3f 81b4 bd3f e922 d83f 8559 c93f
00000200: 1e3d db3f 2d41 c63f 5234 c73f 663c c63f
00000210: 16da bf3f ce2d d83f 17c1 d23f 9b0c d73f
00000220: 42e4 d03f bc13 db3f 4ba0 cf3f dde1 d13f
00000230: f8fd d73f 813c c23f cae4 ce3f 193d eb3f
00000240: 01e4 c03f 8758 c33f d189 c33f 0be2 bc3f
00000250: 2673 d53f 960b c83f 5e47 d03f aef1 c83f
00000260: 69ca bf3f d401 be3f 1420 b93f 1e3e c23f
00000270: 44e8 c43f 0593 cb3f ce7a d33f 98d6 c93f
00000280: 40aa d73f 864b c83f 936e ca3f 6eea d53f
00000290: d5e3 cc3f a388 d03f 86bc ee3f dd84 c23f
000002a0: 7a8a c03f c8be d03f 5b56 ce3f 1b8c b93f
000002b0: 67ad cf3f 7854 d23f 55d3 d83f 02e9 bf3f
000002c0: bc22 d53f fae5 cc3f 5aa1 cd3f 4b36 e13f
000002d0: 026b cd3f 3465 d33f f130 d13f 0889 d33f
000002e0: c4ea c93f ffee d03f 3d96 cb3f c88d dc3f
000002f0: 83ca cb3f d168 c73f a946 c53f d1a0 ca3f
00000300: dee6 e53f 5450 cd3f 76c3 ca3f 2116 c93f
00000310: cb5d da3f 225a cb3f d39f c93f 08f6 c83f
00000320: 169e c03f a512 ce3f d6f9 cb3f 4a4a d43f
00000330: 4d20 e73f bcd1 cb3f 28b3 d13f 6d9b c83f
00000340: bff3 d43f 7809 e23f c4a2 da3f 1b1f c33f
00000350: 932a cb3f 146b cc3f fd23 dc3f 82b2 bc3f
00000360: d906 cf3f f7ea d83f 4936 be3f 1dbe b93f
00000370: 8f60 db3f d1e7 c03f ac1e d03f 0df8 c13f
00000380: 9201 cd3f babc ae3f 3487 c73f f089 d93f
00000390: 88b1 ca3f 59ae ca3f f9ef ba3f 311c c53f
000003a0: d8ba c43f 3840 bd3f f405 b83f 25f7 bf3f
000003b0: 65c8 c23f 6802 dc3f 4bcd c33f b65b c63f
000003c0: 37a3 cd3f c166 d73f 2b6f ad3f eb38 d13f
000003d0: 6857 e73f a8f9 d53f b5ea e03f baab bb3f
000003e0: 9763 c63f 8e58 dd3f ba69 ca3f e3db d73f
000003f0: b288 c83f f79d d03f e1d1 c93f c915 c03f

batch_norm00.bias f4 [256]
0.32106805 0.099433936 0.19829188 -0.018811809 0.28010628 0.03766511 0.17489296 -0.28787118
0.1850597 0.17992938 0.28662154 0.08723184 -0.10818349 0.21336205 -0.23214398 0.24639575
-0.10824163 -0.0020639335 0.20204213 -0.12499266 -0.11490412 0.06746911 0.22695926 0.25355446
0.18939094 0.029376632 0.40796697 -0.09604818 0.24620058 0.04277225 0.25544465 0.3266239
0.5533606 0.086830944 -0.0073909424 -0.06893501 0.3719884 -0.13567543 -0.12705372 -0.24361394
0.49646947 -0.25200516 -0.055446696 -0.41813514 -0.108598314 0.08230426 0.48994398 -0.24397361
0.21138783 -0.06732961 0.19852905 0.0027098693 -0.01800709 0.16150545 -0.012521823 0.18663111
0.2673549 -0.1192896 -0.26440364 0.20094235 0.13027035 0.19533849 -0.08385501 -0.026109004
0.13971353 0.14314973 0.046523955 0.0564819 0.16308922 0.20209406 0.5029057 0.5981612
-0.21503137 -0.21964279 -0.09062828 -0.07800251 -0.2333966 0.050505668 0.03026678 0.1353519
0.14582948 0.25549 0.32920605 -0.05280671 0.2478426 -0.14940555 0.13444631 0.17079706
-0.10568143 -0.051470548 0.12634307 -0.12329206 0.17409153 0.3148591 0.3692283 -0.09110531
0.39109626 0.0009698679 0.22307625 0.40630227 0.20914373 0.17742415 -0.27031708 -0.5037483
-0.16631444 0.040272158 0.023079308 -0.23415808 0.018803185 0.122179665 -0.3119418 0.010725575
0.3121333 -0.4059408 -0.26343235 -0.4649385 -0.23124307 -0.18151727 0.11774867 -0.15135092
0.28540808 0.14159885 0.060462702 0.285844 -0.21456651 0.4343751 0.12582971 -0.29056776
0.20656161 -0.10134762 -0.16134994 0.1445431 0.038149454 0.44230664 0.40161574 0.16605398
0.07353727 0.48720083 0.14730357 0.39782456 -0.09003195 0.444793 0.35366362 0.22144508
0.24130541 -0.076510325 -0.1646462 0.3615088 0.18267708 0.26408905 0.36285806 0.2445842
0.0695728 -0.25720182 -0.13061073 -0.15243202 -0.3595575 0.43830907 0.4662188 0.1259623
0.2864313 -0.13746727 -0.25313142 0.20482391 -0.43373147 -0.24002504 -0.13085328 0.20958725
-0.35067338 -0.050808437 -0.35671318 0.17146713 -0.010334691 -0.41415384 -0.15239753 -0.23864509
-0.2115864 0.11809246 -0.10436949 0.21628319 0.43662977 0.18080056 -0.4239997 -0.110160194
0.31495258 0.11682768 -0.15001588 0.021029843 0.64242923 -0.121005416 0.19097726 -0.04763379
0.18678467 -0.11040529 -0.44787905 0.55336 0.04997281 -0.32413068 0.00077683927 -0.38401017
-0.067133725 -0.2978724 -0.10399762 0.041883495 0.24262771 -0.1849255 -0.0038021402 -0.051386643
0.059795294 0.20961766 0.1462336 -0.039820943 -0.21746048 -0.016111493 0.002098533 0.15637289
0.11946295 0.26205596 -0.057075188 0.077881515 0.18552771 0.036259416 0.1866573 0.545261
-0.13765593 0.049999863 -0.20332327 0.18686298 -0.09236124 -0.089326695 -0.17123885 -0.3335442
0.5292939 -0.018601667 0.13258298 0.060688265 0.65470815 0.26597816 0.07856679 0.40865114
-0.0753688 0.24928714 -0.25826585 -0.0021223053 -0.16085152 0.40158603 0.5364193 -0.21621929
0.27757555 -0.17743088 -0.13732646 0.09051159 0.53139323 0.008860078 0.39357612 -0.1438263
00000000: 0863 a43e 05a4 cb3d 070d 4b3e 391b 9abc
00000010: 176a 8f3e bb46 1a3d 2417 333e da63 93be
00000020: 4a80 3d3e 683f 383e 0fc0 923e 9ba6 b23d
00000030: 4e8f ddbd 957b 5a3e 27b7 6dbe 2b4f 7c3e
00000040: caad ddbd 0f43 07bb 22e4 4e3e 27fc ffbd
00000050: da52 ebbd 3f2d 8a3d 0268 683e e4d1 813e
00000060: b3ef 413e 43a7 f03c 0ce1 d03e e8b4 c4bd
00000070: 011c 7c3e f431 2f3d a4c9 823e 3f3b a73e
00000080: 0aa9 0d3f 6cd4 b13d b82f f2bb cc2d 8dbd
00000090: 4375 be3e 80ee 0abe 5f1a 02be ef75 79be
000000a0: 3f31 fe3e d206 81be 131c 63bd cf15 d6be
000000b0: cb68 debd 238f a83d f0d9 fa3e 38d4 79be
000000c0: 0d76 583e 1be4 89bd 334b 4b3e 1098 313b
000000d0: 9b83 93bc af61 253e 5528 4dbc 3a1c 3f3e
000000e0: bee2 883e 1b4e f4bd ea5f 87be d5c3 4d3e
000000f0: 9765 053e d006 483e 2dbc abbd 8de2 d5bc
00000100: 1011 0f3e d895 123e e78f 3e3d 9159 673d
00000110: dc00 273e bff1 4e3e 6ebe 003f 1821 193f
00000120: 2f31 5cbe 0aea 60be 529b b9bd c8bf 9fbd
00000130: 85ff 6ebe 08df 4e3d 0af2 f73c b099 0a3e
00000140: 5354 153e 96cf 823e b28d a83e d94b 58bd
00000150: 73ca 7d3e c5fd 18be 4bac 093e 6de5 2e3e
00000160: 816f d8bd c8d2 52bd 1460 013e 8c80 fcbd
00000170: 0d45 323e 3635 a13e 7e0b bd3e 6c95 babd
00000180: c53d c83e bc3e 7e3a 1a6e 643e da06 d03e
00000190: c629 563e adae 353e 0067 8abe a6f5 00bf
000001a0: 554e 2abe 6bf4 243d d110 bd3c 23c7 6fbe
000001b0: 2309 9a3c 5539 fa3d d6b6 9fbe 52ba 2f3c
000001c0: f0cf 9f3e 79d7 cfbe 9be0 86be 6b0c eebe
000001d0: fcca 6cbe aadf 39be 3726 f13d bcfb 1abe
000001e0: 0221 923e 4aff 103e bda7 773d 255a 923e
000001f0: 53b7 5bbe 6a66 de3e 81d9 003e 4cc5 94be
00000200: e384 533e 578f cfbd eb38 25be 1b03 143e
00000210: 9a42 1c3d 0476 e23e 94a0 cd3e 0e0a 2a3e
00000220: b59a 963d 6372 f93e bfd6 163e a9af cb3e
00000230: ac62 b8bd e8bb e33e 6613 b53e 80c2 623e
00000240: c418 773e 72b1 9cbd 0399 28be ae17 b93e
00000250: b30f 3b3e ae36 873e 88c8 b93e 4874 7a3e
00000260: 2f7c 8e3d f5af 83be d2be 05be 2417 1cbe
00000270: ec17 b8be 0c6a e03e 3bb4 ee3e 43fc 003e
00000280: 20a7 923e 38c4 0cbe 719a 81be 5cbd 513e
00000290: 0d12 debe 20c9 75be 67fe 05be 0a9e 563e
000002a0: 768b b3be 821c 50bd 1ca3 b6be 1495 2f3e
000002b0: d652 29bc f90b d4be 190e 1cbe 615f 74be
000002c0: 1baa 58be 76da f13d acbf d5bd 5779 5d3e
000002d0: f08d df3e c823 393e 7d16 d9be ab9b e1bd
000002e0: 7741 a13e 5a43 ef3d c39d 19be c746 ac3c
000002f0: 3e76 243f b0d1 f7bd 8b8f 433e a61b 43bd
00000300: 7b44 3f3e 2b1c e2bd 6750 e5be 00a9 0d3f
00000310: 4ab0 4c3d 75f4 a5be cda4 4b3a fb9c c4be
00000320: 687d 89bd bb82 98be b4fc d4bd 078e 2b3d
00000330: 6673 783e 1c5d 3dbe 542d 79bb cd7a 52bd
00000340: e9eb 743d 03a6 563e 43be 153e 491b 23bd
00000350: f6ad 5ebe 40fc 83bc 8b87 093b 3720 203e
00000360: fea8 f43d 332c 863e acc7 69bd 5880 9f3d
00000370: fafa 3d3e c184 143d 1723 3f3e 3a96 0b3f
00000380: adf5 0cbe a8cc 4c3d fa33 50be 0259 3f3e
00000390: e427 bdbd eaf0 b6bd 3d59 2fbe 4ec6 aabe
000003a0: ce7f 073f 8662 98bc d5c3 073e 4294 783d
000003b0: f49a 273f 4a2e 883e a0e7 a03d b93a d13e
000003c0: f55a 9abd 2145 7f3e 6c3b 84be 6016 0bbb
000003d0: 43b6 24be af9c cd3e c652 093f 9768 5dbe
000003e0: 621e 8e3e 71b0 35be 4f9f 0cbe 245e b93d
000003f0: 6309 083f dc29 113c cf82 c93e 3447 13be

batch_norm00.running_mean f4 [256]
0.07133991 0.053663507 0.10276759 0.060330085 0.03287466 0.015550085 0.06801586 0.06698955
0.06802094 0.10760645 0.06650072 0.043759465 0.089216694 0.010411301 0.006271161 0.10858669
0.04847102 0.010268886 0.06834502 0.051030014 0.06260227 0.077331655 0.06428161 0.071517594
0.100488834 0.061311387 0.011084736 0.023416828 0.038279567 0.061211407 0.05157134 0.07840347
0.07323924 0.09542421 0.0906036 0.07629659 0.039669182 0.09771019 0.06346358 0.029815441
0.07992469 0.059025183 0.039318934 -0.016086608 0.038780686 0.04907799 0.04440673 0.06580655
0.064917535 0.05867982 0.0681713 0.061867926 0.077443264 0.16240776 0.024185173 0.045153514
0.06973883 0.07598489 -0.01250831 0.022795629 0.0731054 0.10709116 0.07330549 -0.009288619
0.07227486 0.10202245 0.13090582 0.028790565 0.032636274 0.05192591 0.02414805 0.08425471
0.09591376 0.011506915 0.05733976 0.027294472 0.035752106 0.010674622 0.042760063 0.040018696
0.08260258 0.032519538 0.088322915 0.07660676 0.0744675 0.09782406 0.0862083 0.14790866
0.0538925 0.038170032 0.0724538 0.13200346 0.08391571 0.07894292 0.012225309 0.014603717
0.063565224 0.03608889 0.0003681437 0.11054807 0.09119316 0.095347926 0.048134774 0.11378279
0.051904514 0.073296286 0.10746128 0.041746095 0.10477448 0.067749485 0.087185524 0.109885074
0.16419393 0.029386641 0.08712041 0.08137707 0.060438883 0.03816713 0.16698216 -0.028019777
0.07662092 0.049898133 0.08257613 0.17198235 0.048867524 0.04666195 0.01142397 -0.012173906
0.16514066 -0.003996345 0.06253263 0.06850086 0.091561235 0.07570793 0.054213963 0.046496935
0.034118485 0.08608436 0.027439492 0.0351063 0.09626481 0.004840509 0.10372649 0.13406348
0.045428004 -0.013242482 0.008511925 0.008447649 0.04790119 0.06638706 0.033171013 0.13041925
0.0037672676 0.06833766 -0.0049692364 0.09473525 0.08594128 0.017605122 0.031082869 0.056524854
0.11798435 0.0339721 0.05775459 0.09275879 0.1445131 0.03917647 0.06716953 0.04153721
0.039452933 0.05749466 0.08411725 0.031045718 0.05873843 0.11817416 0.17950282 0.07351107
0.07568842 0.15521736 0.06065019 0.16789268 0.04389989 0.04358727 0.120125294 0.060602926
0.07026166 0.09286957 0.05544406 0.12119007 0.08230572 0.07872403 0.13120553 0.018447734
0.09734722 0.09263983 0.09337925 0.02514538 0.088185534 -0.012590254 0.006581939 -0.00785457
0.06654877 0.052287906 0.08907601 0.05376285 0.12430359 0.017779294 0.080777064 0.040329196
0.059099432 0.087557256 0.10774455 0.04535426 0.06256082 0.043976232 0.04093554 0.017545667
0.05689732 0.10637765 -0.010069919 0.06546573 0.07729934 0.0582586 0.08475353 0.074182294
0.050870515 0.017888928 0.13499723 0.12414592 -0.030272836 0.008823881 -0.04160793 0.059276793
0.063257664 0.03379411 -0.03526485 0.091096036 0.029012546 0.14732847 0.043602005 0.046765547
0.053853076 0.10366044 -0.015135494 0.07408351 0.10982602 0.05139933 0.0979808 0.056138508
-0.0061049405 0.053669017 0.08912873 0.05879926 0.03996578 0.071126536 0.045303777 0.019453174
00000000: a91a 923d 44ce 5b3d d077 d23d ae1c 773d
00000010: 94a7 063d c9c5 7e3c e64b 8b3d d131 893d
00000020: 904e 8b3d c560 dc3d 8831 883d 203d 333d
00000030: 3eb7 b63d 2994 2a3c 507e cd3b b362 de3d
00000040: 8c89 463d d43e 283c 79f8 8b3d d904 513d
00000050: 9e35 803d 0f60 9e3d 14a6 833d d177 923d
00000060: 17cd cd3d a621 7b3d c19c 353c a6d4 bf3c
00000070: 09cb 1c3d d0b8 7a3d 783c 533d 0092 a03d
00000080: 74fe 953d c56d c33d 618e b93d 6341 9c3d
00000090: 277c 223d 481c c83d 32f9 813d 833f f43c
000000a0: 8eaf a33d 64c4 713d e40c 213d 10c8 83bc
000000b0: 7fd8 1e3d 0106 493d d5e3 353d 96c5 863d
000000c0: 7cf3 843d 405a 703d 659d 8b3d 3969 7d3d
000000d0: 939a 9e3d 384e 263e fc1f c63c e4f2 383d
000000e0: 3bd3 8e3d f79d 9b3d a8ef 4cbc e6bd ba3c
000000f0: 49b8 953d 9c52 db3d 3021 963d 4b2f 18bc
00000100: d804 943d 25f1 d03d 2d0c 063e 31da eb3c
00000110: 9dad 053d 43b0 543d 22d2 c53c bc8d ac3d
00000120: 6f6e c43d 8087 3c3c 19dd 6a3d a898 df3c
00000130: cd70 123d 9ce4 2e3c 2d25 2f3d a5ea 233d
00000140: 8b2b a93d 3533 053d a5e2 b43d 01e4 9c3d
00000150: 6b82 983d fb57 c83d fa8d b03d 5e75 173e
00000160: 62be 5c3d 2e58 1c3d a862 943d ea2b 073e
00000170: 00dc ab3d d3ac a13d aa4c 483c 6e44 6f3c
00000180: 7c2e 823d f2d1 133d 6903 c139 0767 e23d
00000190: 7bc3 ba3d c645 c33d f828 453d f406 e93d
000001a0: d499 543d 5d1c 963d a914 dc3d f4fd 2a3d
000001b0: 0194 d63d 3ec0 8a3d 538e b23d 6d0b e13d
000001c0: 7422 283e 41bc f03c 2f6c b23d 05a9 a63d
000001d0: c38e 773d 2355 1c3d 5ffd 2a3e bb89 e5bc
000001e0: 6eeb 9c3d fc61 4c3d ad1d a93d 241c 303e
000001f0: 5029 483d 9a20 3f3d 9a2b 3b3c 1075 47bc
00000200: a21a 293e c6f3 82bb 1c11 803d 2e4a 8c3d
00000210: 7584 bb3d c20c 9b3d 760f 5e3d 9273 3e3d
00000220: d3bf 0b3d ff4c b03d c9c8 e03c a0cb 0f3d
00000230: 7c26 c53d 229d 9e3b 8e6e d43d f047 093e
00000240: b712 3a3d fff6 58bc 9a75 0b3c 0268 0a3c
00000250: 0a34 443d f0f5 873d 54de 073d a08c 053e
00000260: 43e4 763b 9df4 8b3d fad4 a2bb 8e04 c23d
00000270: fb01 b03d 9e38 903c 80a1 fe3c 9b86 673d
00000280: c7a1 f13d 5426 0b3d 1490 6c3d 52f8 bd3d
00000290: 3efb 133e 8277 203d 2e90 893d ec22 2a3d
000002a0: 6699 213d 857f 6b3d aa45 ac3d 9753 fe3c
000002b0: b597 703d 4b05 f23d 96cf 373e f98c 963d
000002c0: 8802 9b3d 4df1 1e3e 556c 783d 0fec 2b3e
000002d0: 5fd0 333d 9188 323d 4004 f63d c63a 783d
000002e0: 58e5 8f3d 6732 be3d 5019 633d 8032 f83d
000002f0: e78f a83d 103a a13d be5a 063e b41f 973c
00000300: fb5d c73d f4b9 bd3d 9f3d bf3d affd cd3c
00000310: 9e9a b43d 5a47 4ebc 4ead d73b 74b0 00bc
00000320: b94a 883d d82b 563d 7c6d b63d 6f36 5c3d
00000330: e192 fe3d e2a5 913c 726e a53d 3a30 253d
00000340: 3f12 723d 3851 b33d 2da9 dc3d 63c5 393d
00000350: e31f 803d 6c20 343d 06ac 273d eebb 8f3c
00000360: 2a0d 693d 86dc d93d 4dfc 24bc e612 863d
00000370: 1e4f 9e3d 92a0 6e3d 4293 ad3d e3ec 973d
00000380: 9a5d 503d cd8b 923c b73c 0a3e 3740 fe3d
00000390: bdfe f7bc 0a92 103c 146d 2abd 39cc 723d
000003a0: 3c8d 813d b16b 0a3d e071 10bd 8f90 ba3d
000003b0: b8ab ed3c 46dd 163e 0498 323d 3b8d 3f3d
000003c0: 0b95 5c3d ed4b d43d ddfa 77bc 18b9 973d
000003d0: 77ec e03d 1b88 523d 28aa c83d 7ef1 653d
000003e0: f40b c8bb 0bd4 5b3d 2089 b63d 7ed7 703d
000003f0: 28b3 233d caaa 913d 7490 393d 435c 9f3c

batch_norm00.running_var f4 [256]
0.07011468 0.066467844 0.11317182 0.07195754 0.080289654 0.051280178 0.09395588 0.08464779
0.082523786 0.13208117 0.08463331 0.05587422 0.11824661 0.038474683 0.030028794 0.13112415
0.06862954 0.04031544 0.103341796 0.056956336 0.08724064 0.0784932 0.11538317 0.094864555
0.13250042 0.06481177 0.02650777 0.031959914 0.060329113 0.080445275 0.054743726 0.08774001
0.07661155 0.15969259 0.10901278 0.10446375 0.057044048 0.14798595 0.08134946 0.03624232
0.1043424 0.06394545 0.050101455 0.017432533 0.06775018 0.06743481 0.056024935 0.06290113
0.07586104 0.0650583 0.08223467 0.07386351 0.11866558 0.21417554 0.05104251 0.058261972
0.069529 0.092413105 0.020967558 0.035258256 0.091048926 0.13424397 0.08947391 0.018112244
0.085633725 0.097774215 0.16600454 0.03838808 0.07177242 0.062177602 0.036661778 0.0757434
0.11077719 0.027818186 0.092915624 0.03801917 0.049596168 0.028696947 0.051600873 0.055867784
0.099110715 0.055132505 0.10487433 0.07370138 0.096467435 0.11621991 0.115657516 0.14054976
0.057368603 0.06511315 0.07286575 0.14787665 0.11097665 0.09440787 0.024331963 0.0299162
0.073176995 0.048020065 0.021991486 0.12280854 0.12945747 0.13621868 0.071097486 0.14221017
0.07053009 0.06523141 0.114593774 0.07074102 0.12709604 0.09220662 0.14638908 0.15562667
0.22624856 0.049446788 0.12150815 0.12510565 0.078972995 0.07384305 0.19683778 0.016788078
0.08789345 0.0685198 0.08124594 0.18082415 0.07089827 0.04631989 0.035434484 0.017679611
0.17090324 0.02041242 0.07882211 0.09486314 0.15962353 0.09010462 0.08723985 0.06465009
0.04749961 0.09963284 0.039881844 0.04848322 0.14361498 0.034998924 0.12672184 0.17641033
0.05681907 0.0255831 0.028586851 0.033008803 0.065345794 0.101813555 0.06639008 0.13407032
0.02053681 0.09462755 0.015083068 0.12705219 0.09484402 0.046148483 0.04705018 0.069479205
0.14774865 0.054021694 0.08941933 0.12979572 0.16716991 0.055523288 0.083134785 0.05259132
0.06567544 0.06850032 0.096353635 0.051317085 0.07873978 0.15143837 0.28509107 0.09584478
0.10343394 0.16527215 0.081709966 0.19514173 0.048971895 0.06217923 0.15543605 0.08297003
0.08768006 0.10862663 0.043472756 0.12721545 0.084852666 0.106829844 0.14056416 0.036194183
0.14778942 0.11154932 0.119559735 0.050073806 0.10961126 0.02342321 0.032212242 0.026450962
0.07157257 0.079012156 0.100970715 0.06568414 0.12552565 0.040295858 0.10153857 0.05002568
0.066700384 0.097821705 0.15602452 0.050406773 0.07117954 0.05451451 0.061931353 0.0353563
0.06952596 0.14579177 0.018132191 0.078952186 0.07259997 0.07879521 0.10150803 0.10249862
0.05898888 0.038724598 0.15545173 0.14713071 0.007151593 0.026044108 0.0071372855 0.08991815
0.09394712 0.053564087 0.010548918 0.12390486 0.043279577 0.18881185 0.068303466 0.0764967
0.06458103 0.13542031 0.02120396 0.106984414 0.11166827 0.06394766 0.14129716 0.0647418
0.015766732 0.062505946 0.101558976 0.07386651 0.037930876 0.090061344 0.046615332 0.046422143
00000000: 4998 8f3d 4b20 883d a1c6 e73d 7a5e 933d
00000010: e76e a43d 2a0b 523d f16b c03d d25b ad3d
00000020: 3b02 a93d 4940 073e 3b54 ad3d 5edc 643d
00000030: 472b f23d a197 1d3d f2fe f53c 6945 063e
00000040: a58d 8c3d ce21 253d dda4 d33d 0c4b 693d
00000050: 38ab b23d 0bc1 a03d 034e ec3d 5948 c23d
00000060: 31ae 073e 09bc 843d d326 d93c 66e8 023d
00000070: a91b 773d 7ec0 a43d f53a 603d 09b1 b33d
00000080: 84e6 9c3d 7486 233e 1842 df3d 17f1 d53d
00000090: 05a7 693d a189 173e 8c9a a63d d472 143d
000000a0: 78b1 d53d d5f5 823d 2f37 4d3d acce 8e3c
000000b0: 9bc0 8a3d 431b 8a3d 677a 653d 4fd2 803d
000000c0: 085d 9b3d 493d 853d a76a a83d c045 973d
000000d0: f106 f33d d550 5b3e f311 513d 1ba4 6e3d
000000e0: 3865 8e3d 1543 bd3d 28c4 ab3c f66a 103d
000000f0: dc77 ba3d 4077 093e 193e b73d 2160 943c
00000100: bc60 af3d d93d c83d 18fd 293e d23c 1d3d
00000110: 6bfd 923d f1ad 7e3d a92a 163d 5b1f 9b3d
00000120: 27df e23d f7e2 e33c 8c4a be3d fdb9 1b3d
00000130: 5a25 4b3d dc15 eb3c 705b 533d 9ed5 643d
00000140: 8ffa ca3d 9fd2 613d 5ac8 d63d c0f0 963d
00000150: b890 c53d b404 ee3d d9dd ec3d 47ec 0f3e
00000160: 57fb 6a3d 0b5a 853d a33a 953d fa6c 173e
00000170: ba47 e33d ea58 c13d d353 c73c d212 f53c
00000180: d2dd 953d b0b0 443d 7d27 b43c 0b83 fb3d
00000190: 8090 043e e97c 0b3e 8f9b 913d 8b9f 113e
000001a0: 1472 903d 0c98 853d 24b0 ea3d abe0 903d
000001b0: 7725 023e d3d6 bc3d 05e7 153e 995c 1f3e
000001c0: b4ad 673e b788 4a3d 44d9 f83d b21b 003e
000001d0: 98bc a13d 063b 973d d88f 493e 2787 893c
000001e0: 7b01 b43d 1c54 8c3d 4564 a63d f729 393e
000001f0: 1d33 913d edb9 3d3d c023 113d d5d4 903c
00000200: 4201 2f3e f337 a73c 7d6d a13d 9b47 c23d
00000210: 5a74 233e c588 b83d ceaa b23d 4467 843d
00000220: f38e 423d 4d0c cc3d 255b 233d 5796 463d
00000230: ce0f 133e 085b 0f3d 5fc3 013e e9a4 343e
00000240: 1dbb 683d a693 d13c f92e ea3c 3d34 073d
00000250: 04d4 853d a083 d03d 86f7 873d bb49 093e
00000260: d03c a83c 17cc c13d f91e 773c f819 023e
00000270: 953d c23d 3106 3d3d b1b7 403d 1d4b 8e3d
00000280: 6c4b 173e da45 5d3d 7b21 b73d 2be9 043e
00000290: 972e 2b3e 636c 633d 9242 aa3d ff69 573d
000002a0: d880 863d e549 8c3d 0e55 c53d dd31 523d
000002b0: 5242 a13d a912 1b3e 75f7 913e 454a c43d
000002c0: 2cd5 d33d 1a3d 293e 8e57 a73d 3cd3 473e
000002d0: c196 483d a6af 7e3d a12a 1f3e 31ec a93d
000002e0: 9a91 b33d a377 de3d 7d10 323d c444 023e
000002f0: 3cc7 ad3d 9bc9 da3d 0df0 0f3e 5a40 143d
00000300: 1c56 173e f873 e43d bcdb f43d 311a 4d3d
00000310: de7b e03d 08e2 bf3c fcf0 033d b0af d83c
00000320: a494 923d 20d1 a13d bcc9 ce3d 6885 863d
00000330: cc89 003e 450d 253d 74f3 cf3d bae7 4c3d
00000340: 369a 883d bf56 c83d e4c4 1f3e 5577 4e3d
00000350: 94c6 913d 9b4a 5f3d bbab 7d3d c5d1 103d
00000360: a063 8e3d 704a 153e f689 943c afb1 a13d
00000370: 4baf 943d 625f a13d 71e3 cf3d ccea d13d
00000380: 539e 713d af9d 1e3d bd2e 1f3e 6fa9 163e
00000390: e957 ea3b 745a d53c e4df e93b 0227 b83d
000003a0: 5967 c03d 0466 5b3d 5ed5 2c3c d5c1 fd3d
000003b0: ed45 313d e557 413e b0e2 8b3d 4daa 9c3d
000003c0: 0f43 843d 9fab 0a3e edb3 ad3c a51a db3d
000003d0: 55b2 e43d fef6 823d 34b0 103e 5997 843d
000003e0: 3c29 813c 1e03 803d 27fe cf3d 5347 973d
000003f0: 685d 1b3d 1572 b83d b8ef 3e3d 2525 3e3d

linear01.weight f4 [128, 256]
-0.12051338 -0.19864105 -0.042402487 -0.27663016 0.21350655 -0.031747233 -0.1698257 -0.074131854
-0.52922094 -0.18762277 0.24663694 0.18997991 -0.30779135 0.0054966137 -0.20311795 -0.3920478
-0.08617119 0.022655278 0.112575844 0.056981374 0.04379814 -0.18023773 -0.2576162 0.07086376
-0.3973033 0.06502326 0.022403706 -0.43101338 0.068271816 0.11178319 0.17872085 -0.07481422
0.1716506 0.046244364 -0.34340867 -0.11855256 -0.234721 -0.1681087 0.11699531 -0.1002313
-0.13389538 -0.058246735 -0.18474954 0.15119965 0.15329732 0.04881819 -0.28066406 -0.12876862
-0.12623176 0.084794946 -0.040949527 -0.5270346 0.072196916 -0.20246778 -0.05676111 0.09823323
-0.07815301 0.03732372 -0.092306145 -0.15204275 0.03755732 -0.44228363 -0.25232545 -0.06815931
0.10483976 -0.053452685 0.21435516 0.2559892 0.11298719 -0.04987279 0.068154104 -0.09685509
-0.037433382 0.22779025 0.041093644 0.21095024 0.07542037 -0.13771659 0.15826705 0.13877976
0.17236514 -0.015780522 -0.12400262 -0.47946593 0.0134612955 -0.019973805 -0.016246261 0.24031666
-0.11159189 0.21586174 -0.004710146 0.0837596 0.04734796 -0.16312195 0.10014334 -0.22538148
0.0705519 0.24111013 0.2714985 -0.0043124994 0.19155525 0.08721722 -0.33681488 -0.086178415
-0.032192104 0.021395823 -0.11029386 -0.15079898 -0.15049157 0.17730626 -0.21623424 0.11392361
-0.2717499 0.25103617 -0.083711974 0.11167588 0.05695619 -0.13562 -0.10922424 -0.14080809
0.08130253 -0.30925268 -0.09451452 -0.21065712 0.08982171 -0.43761387 0.10325349 -0.12869944
-0.024561672 0.047695767 -0.023572288 -0.057635106 -0.04749322 -0.1743841 0.15154621 -0.049609784
0.20026152 0.0899868 -0.15197444 -0.0622358 -0.07445074 0.059020646 0.20721065 -0.26686937
-0.24624817 0.06120535 -0.21197549 0.09858199 -0.16616385 0.07359189 -0.08597423 -0.28032312
0.08988361 -0.055464085 0.16806336 0.19108166 -0.03291266 -0.31678283 -0.27626142 -0.013845805
0.21767594 0.15445751 -0.15526022 0.022426775 0.19445924 0.21850695 -0.12561862 0.12905511
0.1498965 0.13576211 -0.06758002 -0.16924976 -0.112235926 0.12058492 -0.09481783 -0.14824745
-0.20590661 -0.086132 -0.13071021 -0.3224244 -0.15426207 0.20822674 0.062274806 0.2784611
0.18631686 0.087237775 0.016401518 -0.15854877 -0.031868894 0.1648618 -0.3819685 -0.40443775
-0.08674474 -0.16409862 -0.020298814 -0.43338785 -0.012432736 0.036909595 -0.13612224 0.013822936
-0.053206608 -0.08091691 -0.27536446 -0.06951228 -0.28625265 -0.1037282 0.035049446 -0.27026197
-0.024696909 0.30211717 0.004658894 0.0659492 -0.26095146 0.072186135 0.120496005 -0.19914679
-0.39656228 -0.15760963 -0.034478873 -0.3726281 -0.1020009 0.033954326 0.15919581 0.11851837
-0.27879763 0.022955025 0.047649793 0.012138169 -0.23186326 -0.17192538 -0.13529587 0.0006774701
-0.10557905 -0.33848706 0.029845633 -0.014098014 -0.36835587 -0.090997085 0.009484244 0.0771699
-0.39409956 0.15998012 -0.12647519 0.1371837 0.07055327 0.22921115 0.015284254 -0.17054242
0.09659509 -0.027958404 0.14334053 0.34705922 -0.22740197 -0.4006171 0.34661523 0.15315141
00000000: b8cf f6bd 8f68 4bbe 3bae 2dbd 78a2 8dbe
00000010: 76a1 5a3e 6309 02bd cae6 2dbe 71d2 97bd
00000020: 067b 07bf 2f20 40be 658e 7c3e 188a 423e
00000030: d496 9dbe f01c b43b 27fe 4fbe 7dba c8be
00000040: 857a b0bd 9097 b93c 2a8e e63d 4d65 693d
00000050: ae65 333d 3d90 38be 45e6 83be 0521 913d
00000060: 576b cbbe ea2a 853d fa87 b73c c9ad dcbe
00000070: 18d2 8b3d 96ee e43d 9902 373e 3338 99bd
00000080: 2dc5 2f3e bb6a 3d3d 43d3 afbe afcb f2bd
00000090: b45a 70be b024 2cbe 3d9b ef3d 1146 cdbd
000000a0: df1b 09be 2194 6ebd fc2e 3dbe 15d4 1a3e
000000b0: f9f9 1c3e 95f5 473d 33b3 8fbe ecdb 03be
000000c0: e642 01be f9a8 ad3d b1ba 27bd bdeb 06bf
000000d0: fadb 933d b753 4fbe 567e 68bd 812e c93d
000000e0: af0e a0bd c2e0 183d 010b bdbd 18b1 1bbe
000000f0: b4d5 193d 0073 e2be cd30 81be 1c97 8bbd
00000100: 3ab6 d63d 34f1 5abd eb7f 5b3e 0411 833e
00000110: d465 e73d 6947 4cbd 6194 8b3d f65b c6bd
00000120: bf53 19bd d941 693e cf51 283d 5703 583e
00000130: ff75 9a3d 9405 0dbe c210 223e 481c 0e3e
00000140: 7d80 303e 2746 81bc 16f5 fdbd 8f7c f5be
00000150: c48c 5c3c 1ba0 a3bc e116 85bc 9215 763e
00000160: 4a8a e4bd dc0a 5d3e 9257 9abb 278a ab3d
00000170: efef 413d 7109 27be f417 cd3d 67ca 66be
00000180: 847d 903d 93e5 763e da01 8b3e de4f 8dbb
00000190: 0f27 443e f19e b23d 0073 acbe 4f7e b0bd
000001a0: dedb 03bd 4b46 af3c bfe1 e1bd 0c6b 1abe
000001b0: 761a 1abe c68f 353e 826c 5dbe c850 e93d
000001c0: ce22 8bbe d087 803e 2f71 abbd 53b6 e43d
000001d0: e54a 693d f8df 0abe f5b0 dfbd ff2f 10be
000001e0: f181 a63d 5e56 9ebe d490 c1bd 80b6 57be
000001f0: 72f4 b73d ed0e e0be 9176 d33d c9c9 03be
00000200: 8f35 c9bc a35c 433d ac1a c1bc ca12 6cbd
00000210: 4088 42bd bf91 32be ee2e 1b3e a133 4bbd
00000220: 5b11 4d3e 004b b83d 309f 1bbe f7ea 7ebd
00000230: a179 98bd a2bf 713d 072f 543e 1aa3 88be
00000240: 7b28 7cbe 76b2 7a3d 1a10 59be 5be5 c93d
00000250: db26 2abe 58b7 963d 4213 b0bd 8386 8fbe
00000260: e614 b83d 4f2e 63bd cd18 2c3e e9aa 433e
00000270: 6dcf 06bd 5c31 a2be 2372 8dbe 84d9 62bc
00000280: 71e6 5e3e 1c2a 1e3e 89fc 1ebe 5bb8 b73c
00000290: 5320 473e 49c0 5f3e 2ba2 00be 0627 043e
000002a0: 787e 193e 3905 0b3e 6567 8abd cf4f 2dbe
000002b0: f3db e5bd 3af5 f63d da2f c2bd 2ece 17be
000002c0: 2fd9 52be f965 b0bd e6d8 05be d014 a5be
000002d0: e0f6 1dbe 6439 553e de13 7f3d 7492 8e3e
000002e0: d9c9 3e3e b8a9 b23d 7a5c 863c 9c5a 22be
000002f0: f588 02bd 88d1 283e 6091 c3be 7712 cfbe
00000300: 3aa7 b1bd 7809 28be b349 a6bc 03e5 ddbe
00000310: adb2 4bbc 842e 173d a163 0bbe 9979 623c
00000320: 2cef 59bd c4b7 a5bd 92fc 8cbe 745c 8ebd
00000330: b58f 92be 736f d4bd 0290 0f3d c75f 8abe
00000340: 2c51 cabc 1aaf 9a3e a3a9 983b 6010 873d
00000350: 6e9b 85be 53d6 933d 9cc6 f63d 23ed 4bbe
00000360: 360a cbbe 6b64 21be b839 0dbd 1cc9 bebe
00000370: d9e5 d0bd b113 0b3d 3a04 233e c2b9 f23d
00000380: 90be 8ebe 2d0c bc3c 6e2c 433d 2cdf 463c
00000390: 906d 6dbe 350d 30be 008b 0abe 4098 313a
000003a0: d439 d8bd 2d4e adbe d47e f43c 5bfb 66bc
000003b0: 2499 bcbe ae5c babd cd63 1b3c 410b 9e3d
000003c0: 6bc7 c9be d4d1 233e b682 01be e279 0c3e
000003d0: 3c7e 903d 54b6 6a3e cf6a 7a3c aca2 2ebe
000003e0: a6d3 c53d 0609 e5bc dcc7 123e bfb1 b13e
000003f0: 10dc 68be af1d cdbe 8d77 b13e b9d3 1c3e

linear01.bias f4 [128]
-0.04510041 0.33078662 0.21502878 -0.1201613 -0.113296896 -0.0075368173 0.29927412 0.0014654377
-0.017120667 -0.047778953 0.030576168 0.23688494 0.009197351 -0.11576601 0.34053242 0.2979777
1.1064745 0.2140204 0.38719505 0.10274158 0.10011665 -0.09906473 0.13827597 0.27257583
0.19550493 0.04454586 -0.26752266 0.50496167 0.1983338 -0.53829914 -0.114935175 -0.02513078
0.16391043 0.3589516 0.5322188 -0.09537809 0.26833823 0.5471872 0.2958488 0.24468566
0.2571542 0.29005533 0.212098 0.10079005 0.08711235 0.11119843 0.36559784 0.2185093
0.13221043 0.25237265 -0.082211815 0.17161189 0.21997502 0.10314014 0.06926416 0.18700927
0.29568717 -0.23002852 -0.27933925 0.34723634 -0.100821674 0.06390718 0.25239685 0.32011005
-0.063981324 0.30399844 0.42143786 -0.14564124 -0.024626235 0.42822054 -0.14247201 -0.020387897
0.006650691 -0.11591552 -0.096737735 0.5120607 0.049916044 0.4543291 0.24850635 0.46908873
0.25343627 0.013141957 0.49946368 -0.018666634 0.09935059 0.016665192 0.23529202 0.30936718
0.16615474 0.11463026 0.1503523 -0.22510155 -0.10658752 0.3696696 0.12665856 0.80747795
-0.08305552 0.3930451 -0.27937996 -0.11316592 0.10563894 0.17166936 0.2147412 -0.18001634
0.7987683 0.03325953 -0.25155047 -0.025046576 0.1964265 -0.007438535 0.0043147583 -0.09866586
0.30060387 0.4534186 0.010585517 0.1627497 0.27466312 0.18735653 0.42990252 -0.08313162
-0.04801451 0.24099295 0.24195479 -0.367572 0.44376674 0.18034662 0.19285882 0.24602242
00000000: 35bb 38bd dd5c a93e 8130 5c3e 2117 f6bd
00000010: 3408 e8bd 68f7 f6bb 753a 993e ee13 c03a
00000020: a440 8cbc ddb3 43bd df7a fa3c f791 723e
00000030: 7cb0 163c bb16 edbd 445a ae3e 8890 983e
00000040: f5a0 8d3f 2a28 5b3e 6e3e c63e 2d6a d23d
00000050: f509 cd3d 73e2 cabd 3798 0d3e 0f8f 8b3e
00000060: 7232 483e b875 363d bbf8 88be 2b45 013f
00000070: 0418 4b3e f9cd 09bf 2263 ebbd 11df cdbc
00000080: 23d8 273e 81c8 b73e 7e3f 083f 9755 c3bd
00000090: a163 893e 7614 0c3f 7e79 973e e18e 7a3e
000000a0: b7a9 833e 2282 943e 3830 593e 046b ce3d
000000b0: f667 b23d 01bc e33d a42f bb3e e7c0 5f3e
000000c0: 2c62 073e fd36 813e ab5e a8bd 07bb 2f3e
000000d0: 2241 613e 233b d33d 5eda 8d3d 5c7f 3f3e
000000e0: 4f64 973e 998c 6bbe 8e05 8fbe f6c8 b13e
000000f0: 987b cebd c5e1 823d 293a 813e 77e5 a33e
00000100: a408 83bd afa5 9b3e b4c6 d73e fa22 15be
00000110: f5bc c9bc b93f db3e 2fe4 11be 8504 a7bc
00000120: 0aee d93b 1e65 edbd 6f1e c6bd 6916 033f
00000130: c474 4c3d d39d e83e 7378 7e3e 662c f03e
00000140: 66c2 813e 5d51 573c b4b9 ff3e c5ea 98bc
00000150: 5278 cb3d 7185 883c 64f0 703e 6065 9e3e
00000160: 7824 2a3e 45c3 ea3d f4f5 193e 0581 66be
00000170: 8f4a dabd 5545 bd3e c8b2 013e e0b6 4e3f
00000180: 0319 aabd 353d c93e e40a 8fbe 89c3 e7bd
00000190: 3b59 d83d 18ca 2f3e 1ee5 5b3e 3456 38be
000001a0: 147c 4c3f 253b 083d 39cb 80be 7a2e cdbc
000001b0: 0724 493e f4be f3bb d162 8d3b 5411 cabd
000001c0: c0e8 993e 7c26 e83e e06e 2d3c dba7 263e
000001d0: a5a0 8c3e 64da 3f3e 2f1c dc3e e940 aabd
000001e0: ddaa 44bd dbc6 763e ffc2 773e 6632 bcbe
000001f0: 6535 e33e c9ac 383e c87c 453e 4ded 7b3e
