weights/4. triplet loss model - models/3. trained old/conv2Dfeatures.pt (torch, 21719 bytes, 5 tensors)

conv00.bias f4 [4]
0.8416212 -4.784367 0.48900634 0.4235298
00000000: 7d74 573f 8919 99c0 0a5f fa3e e6d8 d83e

conv01.weight f4 [16, 4, 5, 5]
-0.8859866 -0.55183315 0.26400787 -0.26116395 -0.17974958 -1.2641066 -1.1282988 -0.9161035
-0.6957783 -0.69891036 1.3288742 0.94867617 0.60601807 0.24697666 0.013849873 0.43115643
0.23941156 0.8094758 0.18218742 -0.04861946 0.090664454 0.0056646047 0.42214698 -0.17593485
-0.10085288 -0.6861539 -0.8883196 -0.86289793 -0.60010195 -0.31786585 0.5661375 0.9740799
0.764583 -0.0034323295 0.37345 0.6394645 0.6183769 0.9586878 1.087523 0.44709542
-0.46829447 0.19241701 -0.0033347558 0.19591625 0.5236539 -0.7975982 -1.2974656 -1.1423513
-0.3433839 -0.6748835 -1.0398115 -1.420645 -0.6225495 -1.1948466 -0.63237625 0.9121532
0.12562455 0.37937135 0.10024792 0.071621835 1.1879307 0.7956636 0.9563975 1.3427546
0.7866544 -0.7570676 -0.49983665 -0.18263158 -0.3138555 0.01107766 0.15338181 0.18638147
0.10982793 -0.05969016 0.20583583 -1.1225194 -1.0122747 -0.21094224 -0.58485615 -0.6753259
0.3579442 0.5568946 0.39060467 0.0013339963 -0.022700645 0.7453735 0.62949115 0.5031917
0.6511107 0.44425386 -0.3270016 0.26109135 -0.12832958 0.026109261 -0.16248214 -0.08366724
0.39452145 0.0022283997 -0.26250297 -0.47285774 0.28609115 1.3201436 0.5042025 0.15794688
-0.024134805 0.21621478 0.99963075 0.13747412 0.16008426 0.05337847 0.115656406 0.47647312
0.41636026 0.49240375 -0.13344947 0.31574512 -0.3418871 -0.7585505 -0.3781714 -0.629074
-0.6865635 -1.0325314 -0.26520282 -1.0511936 -0.3985787 -0.0039237104 0.8421463 1.448231
0.8339085 0.7443369 0.14055315 0.6558768 0.60688764 0.22753195 -0.12546739 0.04721988
0.117896445 0.24799876 -0.29618672 -0.3771805 -0.4809087 -0.83051497 -0.7424282 -1.0065405
-1.0347219 -0.9918998 -1.5931491 -0.7742792 -0.36868247 -1.0797276 0.3380286 0.9687774
0.84612083 0.94112545 0.33901405 0.0020394218 0.5597294 0.28930783 0.3410385 -0.022732161
0.4200705 0.2597294 0.12310501 0.21436487 -0.31073022 -0.34049118 -0.45225728 -0.2396723
-0.57833403 -0.41131055 0.32149878 -0.36211798 -0.56530464 -0.96079206 -0.77744645 0.2329324
0.73797643 0.8815984 0.2904678 0.19624257 0.3112841 0.9851082 0.45288733 0.33540946
0.14180793 0.29390922 0.32534897 0.105783105 0.19588526 -0.3571611 -0.29630458 -0.6553041
-0.08038019 -0.4373946 -0.6249594 0.4279308 -0.74419546 -0.11563253 -1.2813848 -1.2711656
-0.52811 0.26278663 -0.16123171 0.8172219 0.7365501 0.39951217 0.094440274 -0.020314915
0.2595213 0.81544304 -0.23997258 0.7382589 0.860963 0.045921102 0.38536915 0.612363
0.033723716 -0.17034452 0.9341074 0.64783466 -0.43533367 -1.6374943 -1.7927439 -2.2090445
-1.34214 -2.8300755 -2.257304 -2.2742593 -1.4354938 -2.4101553 -2.7146525 -2.8816414
-2.5269587 -1.7371057 -1.2943369 -2.8937817 -3.0603828 -2.7425158 -2.4963005 -1.7111219
-3.6526208 -3.6484547 -4.1394415 -2.947765 -2.9013383 -3.8582268 -3.5615053 -3.4259295
-3.2109652 -2.8992844 -0.17125382 0.12856005 0.009619996 0.85899085 0.36078542 0.54641724
00000000: 05d0 62bf f044 0dbf 0a2c 873e 48b7 85be
00000010: 4610 38be 3fce a1bf 186c 90bf c285 6abf
00000020: 871e 32bf caeb 32bf 8d18 aa3f 71dc 723f
00000030: 0024 1b3f 73e7 7c3e 94ea 623c 89c0 dc3e
00000040: 4e28 753e ce39 4f3f 578f 3a3e 3325 47bd
00000050: 49ae b93d 269e b93b a623 d83e 4428 34be
00000060: f48b cebd c8a7 2fbf ea68 63bf e1e6 5cbf
00000070: 48a0 19bf 50bf a2be 63ee 103f 4d5d 793f
00000080: b6bb 433f eff0 60bb d734 bf3e f2b3 233f
00000090: f34d 1e3f 906c 753f f433 8b3f b1e9 e43e
000000a0: 4bc4 efbe f708 453e eb8b 5abb 459e 483e
000000b0: 2f0e 063f 652f 4cbf 5a13 a6bf 9138 92bf
000000c0: 04d0 afbe 2ac5 2cbf 8b18 85bf b2d7 b5bf
000000d0: 675f 1fbf bcf0 98bf 69e3 21bf df82 693f
000000e0: b9a3 003e f63c c23e c84e cd3d 78ae 923d
000000f0: 1d0e 983f 9cb0 4b3f 77d6 743f 62df ab3f
00000100: 2f62 493f 2fcf 41bf 97ea ffbe c603 3bbe
00000110: abb1 a0be 137f 353c 1f10 1d3e c9da 3e3e
00000120: 77ed e03d ab7d 74bd a1c6 523e b7ae 8fbf
00000130: 3892 81bf 3e01 58be 22b9 15bf 28e2 2cbf
00000140: 7644 b73e a590 0e3f 56fd c73e 7dd9 ae3a
00000150: b4f6 b9bc ccd0 3e3f 5526 213f 2cd1 003f
00000160: 31af 263f 3e75 e33e c16c a7be c4ad 853e
00000170: d468 03be 17e3 d53c b861 26be bb59 abbd
00000180: b7fe c93e 580a 123b ca66 86be 691a f2be
00000190: 8a7a 923e 77fa a83f 6a13 013f d4bc 213e
000001a0: 5bb6 c5bc 6867 5d3e cde7 7f3f 04c6 0c3e
000001b0: 21ed 233e 62a3 5a3d 44dd ec3d 49f4 f33e
000001c0: 2c2d d53e 581c fc3e faa6 08be 58a9 a13e
000001d0: d30b afbe 5e30 42bf af9f c1be fe0a 21bf
000001e0: a0c2 2fbf fd29 84bf aac8 87be 838d 86bf
000001f0: 8212 ccbe 7892 80bb e696 573f a25f b93f
00000200: 077b 553f dd8c 3e3f 2aed 0f3e 8be7 273f
00000210: fd5c 1b3f 23fe 683e 867a 00be a269 413d
00000220: b173 f13d 63f3 7d3e c9a5 97be cd1d c1be
00000230: aa39 f6be a19c 54bf c60f 3ebf 52d6 80bf
00000240: c471 84bf 25ed 7dbf 4fec cbbf 2937 46bf
00000250: f3c3 bcbe 8434 8abf 1612 ad3e cc01 783f
00000260: 609b 583f 99ed 703f 4093 ad3e d2a7 053b
00000270: 6d4a 0f3f 2820 943e 999c ae3e cc38 babc
00000280: 7b13 d73e 40fb 843e 7b1e fc3d 7782 5b3e
00000290: 0818 9fbe dc54 aebe 448e e7be a86c 75be
000002a0: b30d 14bf 4c97 d2be 7d9b a43e 8767 b9be
000002b0: ceb7 10bf 78f6 75bf bb06 47bf d585 6e3e
000002c0: 06ec 3c3f 6fb0 613f 32b8 943e d0f3 483e
000002d0: a160 9f3e 0d30 7c3f d9e0 e73e caba ab3e
000002e0: 1936 113e 457b 963e 2494 a63e d0a4 d83d
000002f0: 2596 483e d2dd b6be 3cb5 97be 02c2 27bf
00000300: 5e9e a4bd 2ff2 dfbe 57fd 1fbf bf19 db3e
00000310: 9883 3ebf bfd0 ecbd 6b04 a4bf 8eb5 a2bf
00000320: 3832 07bf f88b 863e ed19 25be 7435 513f
00000330: 8c8e 3c3f dc8c cc3e e769 c13d 776b a6bc
00000340: fadf 843e e0c0 503f 5fbb 75be 89fe 3c3f
00000350: 1268 5c3f c417 3c3d 1b4f c53e d2c3 1c3f
00000360: e121 0a3d cb6e 2ebe aa21 6f3f 7ed8 253f
00000370: 0ee4 debe 6a99 d1bf a278 e5bf fc60 0dc0
00000380: 3ecb abbf f51f 35c0 ab77 10c0 778d 11c0
00000390: 43be b7bf fc3f 1ac0 debc 2dc0 d06c 38c0
000003a0: b1b9 21c0 7b59 debf d5ac a5bf b833 39c0
000003b0: 50dd 43c0 6185 2fc0 63c3 1fc0 0b06 dbbf
000003c0: 8ac4 69c0 4880 69c0 4e76 84c0 2fa8 3cc0
000003d0: 87af 39c0 30ed 76c0 b4ef 63c0 6e42 5bc0
000003e0: 7480 4dc0 e08d 39c0 295d 2fbe 3fa5 033e
000003f0: 309d 1d3c d3e6 5b3f deb8 b83e 00e2 0b3f

conv01.bias f4 [16]
1.5232912 1.5439922 4.1113405 0.54475427 0.4810885 5.436003 1.7947778 1.605172
0.7055188 1.1879535 0.16751234 0.52545553 0.49738812 -0.16845994 -0.13356195 1.0374281
00000000: 35fb c23f 89a1 c53f 1a90 8340 0475 0b3f
00000010: 3b51 f63e bdf3 ad40 47bb e53f 4776 cd3f
00000020: e19c 343f dc0e 983f 5b88 2b3e 4184 063f
00000030: a8a9 fe3e c380 2cbe 77c4 08be 72ca 843f

conv02.weight f4 [22, 16, 3, 3]
-0.18658675 -1.5786748 0.3358845 -0.18924432 -0.28361127 0.5204689 -0.2846729 0.691209
-0.32401532 0.46779677 0.55151266 0.1309434 0.6346854 0.22945581 0.33582193 0.9985851
0.58816195 0.45186445 0.83054656 1.3146094 1.3909037 -0.80507374 0.7336672 0.5693124
0.8527838 0.81530297 0.9164351 0.3097595 0.3690005 0.44108316 0.5036877 0.3935852
-0.89665157 0.33293107 0.5618548 0.35380173 -0.17978594 0.17572056 -0.021446863 -0.8094213
-0.84720904 -0.7948839 -0.3342603 -0.053094435 0.0690368 0.039862655 0.8118017 1.8089665
0.0889918 1.8392786 0.29889232 -0.77006745 0.38739428 1.1901697 1.3876791 1.2079523
0.8123196 0.63121533 -0.25189015 0.26921287 1.4577312 0.84835815 1.0409302 0.85546213
-0.00036734596 -0.938894 0.5444107 0.86482894 0.19668569 -0.8213879 0.85165864 0.7265902
0.34811783 0.71063817 -0.98968405 1.0878599 1.1619166 -1.3388584 -0.0587992 -0.42731273
-2.1299348 -0.99967736 -0.050873138 -0.72582626 0.23770171 -0.52239794 1.3006729 -0.9193394
0.40641996 -0.06420048 -0.5722407 -0.54710406 0.8311277 0.32720038 -0.39051855 0.15009879
0.21409419 0.60917646 -0.10388373 0.7604468 1.0244458 0.2686348 0.020231128 -0.3354069
0.73430324 0.33844626 -0.1051857 1.1442968 0.25740257 -0.5901723 -0.56925094 0.39292312
-0.60476005 -0.71757394 0.4186725 -0.34066823 0.66935843 -0.914314 -0.2985622 -0.6541016
-1.0594696 0.009761858 -0.651845 -0.072109565 -0.45514554 1.3818152 -0.12577976 -0.7419867
0.19422525 -0.25252554 0.02410518 0.33115947 0.49218357 0.95394194 0.07559949 0.31073576
0.61230135 0.70282614 -0.28905374 0.20826684 -0.66095436 -0.35064062 1.3193322 1.3591799
-0.45612618 0.00945376 0.6405089 -0.4297798 0.7575553 -0.89685214 0.71737605 -0.3118568
1.1239552 -0.11389872 0.37372702 1.2529075 0.608362 0.7971902 0.39686406 -0.6284065
-0.54983735 -1.9982616 -0.7658594 0.55694926 -1.911095 0.37410054 0.74311453 2.0716503
-0.17390892 -1.2830908 -0.4976219 0.07365868 -0.2771459 0.39337143 0.770062 -0.5037545
-1.0177075 -0.23767853 0.5842594 -0.45683137 0.5245112 0.58503366 0.6701808 -0.16342087
-1.0751648 -1.1966856 -0.22311907 -0.42812285 0.84103817 -0.60709053 -0.48646584 -0.16815361
0.7473393 1.2003127 1.2587898 0.11250143 0.33620188 -0.46806067 -0.3979107 -0.08299756
0.47775796 -0.121361315 -1.5191563 -1.3943005 -1.1729001 -0.38547313 1.1720228 -0.6119397
-1.1965231 -1.3613063 0.62966865 0.29499203 1.2879196 0.38984615 -0.718025 -1.4095658
0.2912792 -0.4963994 -1.7659504 0.46188885 1.1427592 0.29959485 0.26792994 0.359876
0.8287097 -0.23495531 1.1503677 -0.53861976 -0.66437244 0.36320853 -1.9449667 -0.25720665
-0.3033472 -0.10887281 0.33683407 0.5682273 -0.04927065 -0.3372781 -0.9656447 -0.25320962
0.39022025 0.50106245 1.0929512 0.6451407 0.044078797 -0.3636348 -0.25720435 0.041626792
-0.03687123 -0.10884322 -0.4740182 -0.10318446 0.2764055 -0.11118664 0.43491226 -0.32765436
00000000: 9910 3fbe 0412 cabf 0ef9 ab3e 43c9 41be
00000010: 7f35 91be 733d 053f a5c0 91be 13f3 303f
00000020: 56e5 a5be 0f83 ef3e ef2f 0d3f 0716 063e
00000030: be7a 223f 77f6 6a3e daf0 ab3e 46a3 7f3f
00000040: c891 163f c75a e73e b39e 543f 1f45 a83f
00000050: 2209 b23f 5019 4ebf 9dd1 3b3f 75be 113f
00000060: 0a50 5a3f b2b7 503f 7e9b 6a3f cc98 9e3e
00000070: a2ed bc3e a7d5 e13e adf1 003f 0084 c93e
00000080: f58a 65bf f175 aa3e b7d5 0f3f 8025 b53e
00000090: ce19 38be 17f0 333e 55b1 afbc 3c36 4fbf
000000a0: b1e2 58bf 837d 4bbf 2b24 abbe 8d79 59bd
000000b0: 2a63 8d3d 0647 233d 3cd2 4f3f 378c e73f
000000c0: 5541 b63d 7b6d eb3f 6a08 993e 2423 45bf
000000d0: 8b58 c63e 7b57 983f 789f b13f 2e9e 9a3f
000000e0: 2df4 4f3f 5497 213f bff7 80be 45d6 893e
000000f0: f096 ba3f 002e 593f 333d 853f 91ff 5a3f
00000100: 5798 c0b9 5b5b 70bf 805e 0b3f 6e65 5d3f
00000110: f967 493e 7a46 52bf 4d06 5a3f d101 3a3f
00000120: 803c b23e 62ec 353f ef5b 7dbf fe3e 8b3f
00000130: afb9 943f b65f abbf 6ed7 70bd bcc8 dabe
00000140: da50 08c0 dbea 7fbf 5a60 50bd c0cf 39bf
00000150: 1468 733e dfbb 05bf 737c a63f d459 6bbf
00000160: 4716 d03e 8b7b 83bd 5e7e 12bf 030f 0cbf
00000170: c9c4 543f cf86 a73e 0cf2 c7be 7fb3 193e
00000180: 823b 5b3e fdf2 1b3f fec0 d4bd a4ac 423f
00000190: 0a21 833f 808a 893e c0bb a53c 74ba abbe
000001a0: 4cfb 3b3f d448 ad3e 9a6b d7bd 5178 923f
000001b0: 45ca 833e 8815 17bf 6eba 11bf 382d c93e
000001c0: 8ed1 1abf edb2 37bf 3e5c d63e 116c aebe
000001d0: 135b 2b3f 7b10 6abf 25dd 98be 3473 27bf
000001e0: b39c 87bf 33f0 1f3c 50df 26bf 2eae 93bd
000001f0: d608 e9be 52df b03f 69cc 00be d7f2 3dbf
00000200: fce2 463e 074b 81be 3a78 c53c bc8d a93e
00000210: 7cff fb3e 8a35 743f e8d3 9a3d c218 9f3e
00000220: c8bf 1c3f 6aec 333f dafe 93be e743 553e
00000230: 4e34 29bf 2b87 b3be e1df a83f 9bf9 ad3f
00000240: 5f89 e9be f2e3 1a3c 64f8 233f 190c dcbe
00000250: 25ef 413f 1a98 65bf f5a5 373f b2ab 9fbe
00000260: c4dd 8f3f bb43 e9bd 2659 bf3e 465f a03f
00000270: 9dbd 1b3f a814 4c3f c431 cb3e 40df 20bf
00000280: 24c2 0cbf 09c7 ffbf 5d0f 44bf 3a94 0e3f
00000290: c39e f4bf 1b8a bf3e c13c 3e3f eb95 0440
000002a0: 2e15 32be 523c a4bf 4cc8 febe 5dda 963d
000002b0: 11e6 8dbe fb67 c93e c922 453f 0ef6 00bf
000002c0: 3d44 82bf 0062 73be 0692 153f cde5 e9be
000002d0: 5e46 063f c4c4 153f f890 2b3f cd57 27be
000002e0: 009f 89bf fe2c 99bf 5379 64be eb32 dbbe
000002f0: 474e 573f 496a 1bbf 0d12 f9be 7630 2cbe
00000300: a151 3f3f d9a3 993f 0620 a13f 2667 e63d
00000310: a722 ac3e a6a5 efbe f4ba cbbe a0fa a9bd
00000320: b19c f43e 488c f8bd b773 c2bf 7078 b2bf
00000330: 9721 96bf bc5c c5be d804 963f 15a8 1cbf
00000340: ab27 99bf 493f aebf f731 213f 3209 973e
00000350: 8dda a43f ea99 c73e 7dd0 37bf a76c b4bf
00000360: 8c22 953e 1028 febe aa0a e2bf b27c ec3e
00000370: ef45 923f 7f64 993e 1d2e 893e ab41 b83e
00000380: 5226 543f 2098 70be 403f 933f fce2 09bf
00000390: 5014 2abf 78f6 b93e abf4 f8bf 97b0 83be
000003a0: 5350 9bbe b5f8 debd 8475 ac3e 5877 113f
000003b0: 05d0 49bd b7af acbe 7e34 77bf b1a4 81be
000003c0: f3ca c73e a145 003f d3e5 8b3f f127 253f
000003d0: f88b 343d 572e babe 4ab0 83be db80 2a3d
000003e0: 4906 17bd 32e9 debd 83b2 f2be 6052 d3bd
000003f0: 0685 8d3e d2b5 e3bd d2ac de3e 50c2 a7be

conv02.bias f4 [22]
0.55210835 -2.0851846 0.9063979 -1.2941293 0.26493677 -0.93495005 2.792458 0.40272006
-1.9945856 0.4246508 -0.35268936 -0.06127821 -1.1382257 0.3386945 -0.042047214 0.7050709
-0.89220506 1.6044769 -0.2275388 -1.4010224 -2.0658238 -0.1365817
00000000: f956 0d3f aa73 05c0 b109 683f 07a6 a5bf
00000010: cba5 873e e358 6fbf a2b7 3240 5331 ce3e
00000020: 954e ffbf d46b d93e b393 b4be dcfe 7abd
00000030: 61b1 91bf 5e69 ad3e b339 2cbd 877f 343f
00000040: 8d67 64bf 805f cd3f eeff 68be b454 b3bf
00000050: 7536 04c0 13dc 0bbe
