weights/4. triplet loss model - models/3. trained old/fully_connect.pt (torch, 533444 bytes, 10 tensors)

D01.weight f4 [256, 352]
000000 cc 5d 1e 3f 5b ef 0d 3f 1b 52 13 3e 47 c7 b8 3e
       0.6186187 0.5544335 0.1438679 0.36089537
000010 b3 b2 31 be c0 06 3f bd 7e b2 9f bd 71 4a 6a bd
       -0.17353325 -0.046637297 -0.077977166 -0.0571999
000020 35 91 1a 3d 11 81 0c be c4 3f 7b 3e 3c 62 a7 bc
       0.037736136 -0.1372111 0.24536043 -0.020432584
000030 ec 3d d2 3c 66 1f 7f 3e 58 1b ec 3d 44 e7 d2 3d
       0.025664292 0.24914321 0.11528653 0.10298017
000040 d0 00 bb be c7 6a a3 bd d4 3d 93 be b6 52 02 bd
       -0.36524057 -0.079793505 -0.2875811 -0.03181716
000050 98 4e 84 bf b9 c0 02 3e 30 88 aa be ee ae 6d be
       -1.0336485 0.1276883 -0.33307028 -0.23211262
000060 e2 99 94 bd dc ce d0 bd fc 8a 8a 3f 97 9f f0 bd
       -0.07255913 -0.10195705 1.0823665 -0.11749189
000070 4a 81 f8 ba 28 fc ad be 11 61 a3 3d fd 6b 3f 3f
       -0.001895943 -0.33981442 0.07977498 0.7477415
000080 d5 88 1a 3f b8 dc 8c 3e d3 2c 05 be db 97 b0 bd
       0.6036504 0.27512145 -0.1300538 -0.08622714
000090 8c 8c 0b 3e 66 ac 9c 3e 4b a9 1a 3e 05 d3 ef 3d
       0.13627833 0.3060028 0.15103643 0.11710171
0000a0 1e e2 91 bb 31 af bd be bb 45 82 be 09 0e 2a 3e
       -0.004452004 -0.37047723 -0.25443825 0.16606916
0000b0 de cf a0 3e bf 4d 59 3e eb 4e 4c be 8a 75 79 be
       0.3140859 0.21221064 -0.1995198 -0.24361244
0000c0 ed 56 94 be 50 93 f2 be bb be ce be 6d 3d 6e 3e
       -0.2897257 -0.47378016 -0.4037989 0.2326562
0000d0 93 55 f9 be ed dd 71 bf 66 0d 41 be 74 b4 51 be
       -0.486981 -0.94479257 -0.18852767 -0.20478994
0000e0 7c 36 a0 be 05 ec d6 be 75 68 49 3f bd ab 7f 3e
       -0.31291568 -0.41976944 0.78675014 0.24967857
0000f0 56 6c 11 bf e3 c8 a2 be 3f 2c a1 be 98 24 3f 3f
       -0.5680593 -0.3179389 -0.3147907 0.7466521
000100 5c a0 1c bf fa 69 44 bd cd d2 11 bf b7 7f 98 3e
       -0.6118219 -0.04795263 -0.5696228 0.2978494
000110 a4 25 bf 3e ac 20 36 bf 7b f5 97 3c f0 92 93 be
       0.37333405 -0.71143603 0.018549671 -0.28823042
000120 9f 58 3e 3f 28 ec 2d 3f 25 86 66 bd c4 5d e1 be
       0.74353975 0.6793847 -0.056280274 -0.4401685
000130 44 13 9e 3e 6f ff 8e 3d ca f6 17 3e 90 37 0e 3e
       0.30874074 0.06982314 0.14840236 0.13888383
000140 a5 bb 93 be af 92 9b ba 4f 01 54 bf 24 9c b6 be
       -0.288541 -0.0011869277 -0.82814497 -0.35666
000150 f9 9f fb 3e fa 75 35 bd 67 ef 20 3e a5 31 79 3e
       0.49145487 -0.044301964 0.15716325 0.24335344
000160 da 52 ce bd 09 10 d1 3e 3b 02 8e be 67 74 ec bc
       -0.100743964 0.40832546 -0.27736077 -0.028864099
000170 24 fe c7 3e d6 d4 91 be c7 d1 26 be 79 3c 0a be
       0.3906108 -0.28482693 -0.16290961 -0.13499631
000180 34 84 9e 3c 99 5f 07 3f 35 57 78 3e 11 87 44 3f
       0.019350149 0.52880245 0.24252017 0.76768595
000190 0d 56 50 3f 31 56 16 bf 66 b8 0f bf 7f a0 41 be
       0.81381303 -0.5872527 -0.56140745 -0.1890888
0001a0 7a 7d a1 be 0b db 09 bf 12 00 bc 3e 84 58 03 3e
       -0.31541044 -0.5384986 0.36718804 0.12826735
0001b0 ce e7 32 be 62 87 87 bf 34 9b 81 3d 02 08 06 3d
       -0.17471239 -1.058819 0.06328431 0.03272248
0001c0 b6 e7 fb be fb 5c d7 be 9e fb 18 be 73 45 93 be
       -0.4920022 -0.42063126 -0.14939734 -0.28763923
0001d0 bd 7e 53 bf af cf 6e be a4 74 c9 3e a6 7a 7b be
       -0.8261526 -0.23321413 0.39346802 -0.24558505
0001e0 df c2 27 bf 15 a2 2a 3e bb b1 82 3e e4 76 2a be
       -0.65531725 0.16663392 0.25526223 -0.16646916
0001f0 c5 bb ca bd 3a 79 22 3f 1d 07 e1 3c d5 e4 8d be
       -0.098990954 0.6346623 0.027469212 -0.27713647
000200 96 6e c9 bd 0c d2 35 bd f9 b2 7c 3e 93 70 ed 3e
       -0.09835546 -0.04438977 0.24677648 0.4637495
000210 95 74 7f 3e 56 67 4a 3f 11 2d 5a 3f 74 32 83 be
       0.24946816 0.7906393 0.85225016 -0.2562443
000220 8e c4 86 bd c1 cd 07 3f a6 40 fe bd ac 3e a2 bd
       -0.065804586 0.5304833 -0.124146745 -0.0792211
000230 53 7a df bd 3a 5b 07 3f 64 23 6a bf 3b 80 d8 3e
       -0.10912003 0.52873576 -0.9146025 0.42285332
000240 75 c8 61 3e 6b 59 a2 be 4d e3 9f 3e fe b8 2d 3f
       0.22049125 -0.31708845 0.31228104 0.678604
000250 15 c5 a1 3d 2d b7 7a bf 6f 14 a0 bc 6c 71 32 bf
       0.078989185 -0.97935754 -0.019540993 -0.6970432
000260 63 e4 e1 3d d3 27 d7 be c2 69 14 be eb 19 0a bf
       0.110298894 -0.4202257 -0.14493468 -0.539458
000270 30 13 00 3f de 50 23 3d d5 6e 15 3e f1 4e a3 bd
       0.5002928 0.039872043 0.1459306 -0.07974041
000280 4d d6 5b 3d cd 88 ca 3e c8 87 94 3e ad 9b 6b be
       0.05367117 0.39557496 0.29009843 -0.23008604
000290 30 6d 39 bf 1c cc 23 bf 7f 29 47 3f 62 0e f6 3e
       -0.7243223 -0.6398332 0.77797693 0.48057848
0002a0 65 53 f7 3e 2c 61 ce 3e 1e 59 ae be 5d 2c 0f be
       0.48305812 0.4030851 -0.34052366 -0.13981767
0002b0 81 57 15 be cf db c9 be ac ae 09 3d c1 2d 9d 3e
       -0.14584161 -0.39425513 0.033613846 0.3069897
0002c0 84 09 1c 3e 81 28 63 3e 49 51 4a 3f fb 03 35 bf
       0.15238005 0.2218342 0.7903028 -0.707092
0002d0 35 bf 99 be 10 a1 25 3f b7 0c 65 3e 26 c9 4d bf
       -0.30028692 0.64698887 0.22368132 -0.80385053
0002e0 5e 36 73 3e 62 19 45 bd bd 5c 96 3e 2c 68 74 3e
       0.23751208 -0.04811991 0.2936763 0.23867863
0002f0 ca 1e f2 3d 59 9c 03 3f 4d d2 c7 3d 5b c7 b6 be
       0.11822279 0.5141044 0.097569086 -0.3569897
000300 a1 09 41 be 8e 16 74 3e d3 7d fe 3d d4 b0 10 be
       -0.1885133 0.23836729 0.12426343 -0.14129955
000310 85 ca 41 3d da 01 f8 3e 56 27 35 3f 4a b2 c3 bd
       0.04731228 0.48438913 0.70763147 -0.0955549
000320 8c 0d 50 bf 5c 83 d6 be 6b 3a 1a be de 16 01 bf
       -0.8127067 -0.41897094 -0.15061347 -0.5042552
000330 7b c0 10 3d 3a fd c6 be 74 68 08 3f 13 c8 fd 3e
       0.035339814 -0.38865072 0.5328438 0.49566707
000340 12 ab 16 be 7f 74 90 3d 14 3c 19 3d c8 c7 b3 be
       -0.14713696 0.0705347 0.03741081 -0.35113358
000350 b3 8d 11 3d 51 95 09 bf ed d1 06 3f ee 83 05 3e
       0.035535526 -0.53743464 0.5266407 0.13038608
000360 ce b5 6a 3f 12 22 86 3c 84 77 41 bf 88 e6 d4 bc
       0.9168366 0.016373668 -0.7557299 -0.025988832
000370 61 e7 5b 3f 0b 55 0d 3f 45 c6 b7 3a 05 47 b6 be
       0.8589993 0.5520789 0.0014020881 -0.3560106
000380 28 a5 9a 3d af af 8e 3e c5 33 b0 3c 98 60 30 3f
       0.07551032 0.2786841 0.02150906 0.6889739
000390 d6 86 63 3e c3 0e 62 3d bc a9 47 3f dc 15 3c be
       0.22219405 0.05518986 0.7799337 -0.18367714
0003a0 33 3c c5 bd d2 6d 1c be e4 bd dc 3d 11 e8 a2 bd
       -0.09630623 -0.15276268 0.10778406 -0.079544194
0003b0 92 12 05 3f 6f 85 b7 3e 21 c4 85 bd 71 d6 a4 bd
       0.5198146 0.3584399 -0.06531549 -0.08048714
0003c0 3e 11 6a bf 02 21 2c 3f df f7 53 3c 09 5f bb 3e
       -0.9143256 0.67237866 0.012937515 0.36595944
0003d0 31 bc 93 bf 7b 33 47 bf 2f 12 0a be 00 bd 76 be
       -1.1541806 -0.7781293 -0.13483499 -0.24095535
0003e0 9f 71 77 bf 24 22 e6 bd ac db 1d 3c ec 43 a7 3e
       -0.9665775 -0.112369806 0.009634893 0.32669008
0003f0 ae 63 62 bf d0 86 8b bc 3e 75 f5 3d 0a b3 4d bf
       -0.8843335 -0.017032057 0.11985253 -0.80351317

D01.bias f4 [256]
000000 e9 7b 82 3f b8 9b 22 3f c0 19 84 bd b0 e9 b2 3e
       1.0194064 0.6351886 -0.06450224 0.34943914
000010 d2 6e 36 be 07 63 1b 3e 69 a9 20 bf 04 da dd be
       -0.17815712 0.15174495 -0.627585 -0.43330395
000020 b1 c0 70 3c d5 42 25 3b b3 6a ba 3e 69 90 76 3f
       0.014694379 0.0025216837 0.3640953 0.963141
000030 a2 fe 87 3e b1 94 11 bf 41 ab 31 3f 4b 02 a8 3e
       0.26561457 -0.5686751 0.6940194 0.3281425
000040 b8 6d d1 3e 69 56 73 3f e9 1c 21 3f d5 1f c1 3e
       0.4090402 0.95053726 0.6293474 0.37719598
000050 9e 29 4c bf d6 c0 54 bd aa ce 57 be f0 b3 89 3f
       -0.79751 -0.051941715 -0.2107493 1.0758038
000060 fc 75 83 3e cf a9 90 3e a4 3f 22 3e 7b 82 b2 3e
       0.25675952 0.28254554 0.1584459 0.34865174
000070 4c 95 f2 3e 50 eb d5 be 4a 68 35 3f cf 40 48 3e
       0.4737953 -0.41781092 0.7086226 0.19555973
000080 df 3b 5c be 81 d0 f8 bd 7c bd eb be 44 f7 38 be
       -0.21507214 -0.12149144 -0.46043003 -0.18063074
000090 6d cd dc 3d fc 9c 38 3e 73 f1 8d 3e 1f bb c7 bd
       0.10781369 0.18028635 0.27723274 -0.097524874
0000a0 a0 9c a1 3e 31 19 38 3f 57 34 b4 be 92 04 1d 3e
       0.31564808 0.7191344 -0.35196182 0.15333775
0000b0 a0 0b 5c be 0e d7 cb 3e a8 5e ca 3e a9 f9 ee 3e
       -0.2148881 0.3981251 0.39525342 0.4667485
0000c0 9d a4 07 3e 9c 6d ae 3e f8 31 eb 3e 5d c7 bb 3e
       0.13246389 0.34068 0.4593656 0.3667554
0000d0 7f 57 9c be 35 95 f0 3e 5b 3b 13 3f 59 9e 5d 3f
       -0.30535504 0.46988836 0.57512444 0.86569744
0000e0 b3 b9 81 bc 43 6f c8 3d a7 a4 6f 3f 1b 35 1b be
       -0.015835619 0.097868465 0.93610615 -0.15156977
0000f0 3f a6 70 3d 1b 8c 62 3e 3f eb bd 3e 5c 6d 07 3f
       0.058752295 0.22123758 0.3709354 0.52901244
000100 62 0f aa be 89 78 87 be 96 8e 02 bf f5 02 11 3f
       -0.3321486 -0.2645915 -0.5099882 0.5664514
000110 03 86 2c 3e cb d8 2d 3f d3 36 24 3f 2d a8 73 be
       0.16847996 0.67908925 0.64146155 -0.23794623
000120 c4 33 ab 3e 76 c1 7b be fa 74 34 3f c4 a2 23 3f
       0.33437932 -0.24585518 0.7049099 0.63920236
000130 84 60 3d be 6c 2c bb 3c 70 6d 5d be 31 98 1e be
       -0.18493849 0.02284833 -0.21623778 -0.15487744
000140 67 60 41 3f f0 ee 9b 3e ac 33 76 3f f3 12 7e ba
       0.75537723 0.30455732 0.96172595 -0.00096921547
000150 83 b7 10 bd 57 a4 dc 3e be 72 98 3e e4 fc 1f 3f
       -0.03533126 0.4309413 0.2977504 0.62495255
000160 40 85 15 be c3 a4 9a be b2 bc 76 bd aa aa 37 3e
       -0.14601612 -0.30203828 -0.060238548 0.17936197
000170 18 08 a6 3e 2b 36 51 3f 38 c2 dc 3d 11 a3 2f 3f
       0.3242805 0.8172328 0.10779232 0.68608195
000180 eb 1b 47 bc a5 e3 e7 3e de 3c 7c 3e cc f6 48 3f
       -0.012152652 0.45290866 0.24632594 0.7850158
000190 af 94 a1 3b f2 03 85 3e 9b 74 10 be 4a 89 39 3f
       0.0049310545 0.25979573 -0.14106981 0.7247511
0001a0 7d 15 90 3e d2 55 46 bd 8a 77 13 3f 82 cd ee 3e
       0.28141394 -0.04842169 0.5760428 0.46641165
0001b0 d1 81 95 3d 26 af a2 3d 63 62 55 3e b1 c4 43 3f
       0.07300151 0.07943563 0.20838313 0.76472
0001c0 9f d5 b9 3e 15 f1 3a 3f 38 a0 c5 3d d2 2a 99 3e
       0.36295792 0.7302411 0.096497 0.29915482
0001d0 ea fd 88 be 21 06 68 3f 69 39 9a 3d a9 7c da 3e
       -0.2675622 0.9063435 0.07530481 0.42673233
0001e0 53 25 12 3e b7 a2 b6 3e 8a 9f 05 be 4a d5 b7 be
       0.1427205 0.35671017 -0.1304914 -0.35904914
0001f0 24 d6 0e bf d1 c6 95 be f6 21 43 3e 87 55 12 3f
       -0.557955 -0.29253247 0.19055924 0.57161754
000200 49 aa 91 3e d3 e2 b4 3d 86 88 2e 3f 7c 29 cc be
       0.2845023 0.08832326 0.6817707 -0.398754
000210 e0 f9 5c 3f 58 d4 af be 07 f7 bc 3e 07 a5 43 3e
       0.8631878 -0.34341693 0.36907217 0.19105922
000220 b3 ed 51 bd 59 b8 46 3d 26 47 8a 3f 66 35 88 be
       -0.05125208 0.04851565 1.0802963 -0.2660324
000230 a7 2c a8 3d ce 16 49 3e ea ff 35 3e 3d 2d 22 3d
       0.08211642 0.19637606 0.17773405 0.039593924
000240 4f 42 89 be 88 a5 f3 3d 2e e9 bc 3d ec a4 16 3e
       -0.26808402 0.11896807 0.09224163 0.1471135
000250 a3 a1 34 3f fe 2e c3 3e 2b b8 bd 3e 4d 36 c1 bd
       0.7055914 0.3812179 0.37054572 -0.09434185
000260 ad a6 30 3e 38 4a cc 3e 83 e6 1f be df 60 20 3e
       0.17251082 0.39900374 -0.15615277 0.15661953
000270 6b 63 ed 3e 20 cf 5d 3f f1 f4 07 3f 00 60 0c 3e
       0.46364912 0.8664417 0.53108126 0.13708496
000280 0c 97 63 3f 4c d3 72 3e ae cf 92 be c9 e4 3b 3f
       0.88902354 0.23713416 -0.28674072 0.73395973
000290 be 9d 7b 3f ac c6 a3 3e 3e e4 86 be 75 f2 96 3e
       0.9828757 0.31987512 -0.2634601 0.29481855
0002a0 21 ea 9b be 0e 2a 89 3e fe 20 b5 bd 05 9c 37 be
       -0.30452064 0.26789898 -0.088441834 -0.1793061
0002b0 f7 fa b6 3e 7f 74 75 3e 2c b9 89 3e 44 8f e5 bc
       0.35738346 0.23970221 0.26899087 -0.028022416
0002c0 6d c2 d9 3e 38 6e 9a 3e 3a f2 1b 3e 6c ff 75 3e
       0.42531148 0.30162215 0.15229121 0.24023217
0002d0 1c e2 6d 3f 2b 4e 34 3f 09 75 48 bf 6a 22 23 bf
       0.9292314 0.70431775 -0.7830358 -0.63724387
0002e0 4b 65 58 3d c9 cb 87 3e 96 20 e2 bd 87 47 5a 3e
       0.052830976 0.26522663 -0.110413715 0.21316348
0002f0 90 b9 f4 3e 70 ef 8e bd da d4 45 3e 6c d2 ed 3e
       0.47797823 -0.06979263 0.19319478 0.46449602
000300 59 73 9e 3c e0 2c eb 3e 95 a1 09 bf 32 9b 3e 3e
       0.019342111 0.45932674 -0.5376218 0.1861389
000310 3c e1 43 bd af 00 9d 3e f6 ed a1 3d 3d 4a eb 3e
       -0.047822222 0.30664584 0.079067156 0.45955077
000320 62 2f 31 bd 0f 53 a7 3d 79 9d 61 be cd 82 e6 3e
       -0.04325808 0.08170139 -0.22032727 0.45021668
000330 aa 81 3f 3d ae d6 03 3e c0 03 4c 3e 61 ca bb 3e
       0.046754517 0.12874863 0.19923306 0.3667784
000340 8c 5e 58 3f 15 97 b8 3b b6 32 00 3e 8a 2d b0 3e
       0.8451927 0.0056332448 0.12519345 0.34409744
000350 d9 58 07 3d 1c 8d 08 3e f8 b4 51 3f d8 dd 0f 3e
       0.033043716 0.13335079 0.8191676 0.1404947
000360 6d fe c5 3e b8 2e a3 3e c4 17 c5 3e 96 25 c0 be
       0.38670674 0.3187158 0.38494694 -0.37528676
000370 25 f0 45 be ac 97 3f 3e 4a 79 fd 3e a0 d0 45 3f
       -0.19329889 0.18710202 0.495066 0.7727146
000380 c9 45 94 3f 4b 4f 5a 3f 09 57 ab 3e 51 d7 a5 3e
       1.1583797 0.8527724 0.3346484 0.32390836
000390 86 3f 4d 3e f6 a1 b6 be 52 c1 02 bf 36 9b 38 3f
       0.20043764 -0.3567044 -0.51076233 0.72111833
0003a0 08 f1 4c 3e c6 cb 74 3f bf 5a 82 3e 25 f3 48 be
       0.20013821 0.95623434 0.2545986 -0.19624002
0003b0 34 69 60 3d ca e8 48 3e e5 6b 05 3f 66 c7 72 bd
       0.05478783 0.19620052 0.5211776 -0.059272192
0003c0 a2 ad c3 3e a0 50 84 3e a8 56 8d 3e 9f d3 ec 3e
       0.3821841 0.25842762 0.27605176 0.46255204
0003d0 bb 24 a0 3e d3 c5 5c 3f d9 23 69 3e d2 1e b4 bd
       0.31278023 0.86239356 0.22767581 -0.08794941
0003e0 3e 41 1b bf 3d 7c 84 3e 61 00 13 3f ea 58 48 3f
       -0.60646427 0.25876036 0.57422453 0.7826067
0003f0 fc c4 2b 3d 7c 76 07 bf 23 54 19 3e 92 b3 c2 be
       0.041935906 -0.5291517 0.14973502 -0.38027626

layer_batch_norm.weight f4 [256]
000000 41 6e de 3d 06 a6 fb bd 96 c9 c0 bd 92 f1 b2 3d
       0.10860873 -0.12287526 -0.094134495 0.08737482
000010 fd 5a a2 3d 52 d6 bc bd a6 85 f2 3d 68 50 e0 3d
       0.07927511 -0.09220566 0.11841898 0.10952836
000020 ac 8b ad 3d 05 9a 0e be 1f 14 cd bd c2 35 d4 3d
       0.08473906 -0.13925941 -0.100136034 0.10361816
000030 5d b8 08 3e 67 15 06 be 6f fe db bd e1 41 93 bd
       0.13351579 -0.13094102 -0.10741889 -0.071903
000040 4f 3d 0e 3e b6 bf 40 be fa f6 d3 3d 11 a4 b9 3d
       0.13890575 -0.18823132 0.103498414 0.09064496
000050 da f6 d5 bd b7 7b ec bd e0 a2 83 bd 1b 0d 16 be
       -0.10447474 -0.11547034 -0.0642755 -0.14653437
000060 85 8d c7 3d c7 58 fc bd 76 4e ef bd 9c 7a ef bd
       0.097437896 -0.123216204 -0.11684887 -0.11693308
000070 d5 82 16 be f0 fb e4 bd a5 20 06 be 09 25 0e be
       -0.14698346 -0.11180866 -0.1309839 -0.13881315
000080 20 bf ef bd e1 a9 ee bd 78 6e ed bd c9 64 e7 bd
       -0.11706376 -0.116534956 -0.11593336 -0.1129852
000090 a6 fb 12 be 22 46 c7 bd b9 d3 01 be 67 95 8f bd
       -0.14353809 -0.09730174 -0.12678422 -0.07010918
0000a0 64 d9 bc bd b9 a5 2c be 0c 22 b6 3d b6 64 cb 3d
       -0.092211515 -0.16860093 0.08893213 0.099313185
0000b0 b8 c9 bb bd 13 5e c5 bd 57 05 1b be 39 96 f2 3d
       -0.09169334 -0.09637084 -0.15138756 0.11845059
0000c0 35 bf 9c 3d 1f 98 83 3d 30 1b c5 bd 56 68 af 3d
       0.07653657 0.06425499 -0.09624326 0.085648224
0000d0 2a 80 0f be 2d 7a ff 3d 05 e2 c5 3d a2 54 3c 3e
       -0.14013734 0.12474475 0.096622504 0.1839166
0000e0 73 50 b8 bd e4 89 0d be 9b 20 07 3e 27 8a f7 bd
       -0.089997195 -0.13822132 0.13196032 -0.12086897
0000f0 21 15 a3 bd b1 e9 b7 3d 45 d5 b3 3d 29 72 ad bd
       -0.079630144 0.0898012 0.08780912 -0.0846904
000100 53 9e d7 bd 13 62 0a be 9d 23 12 3e 1e 3f 00 3e
       -0.10528245 -0.13513975 0.14271398 0.12524077
000110 ff 76 ef 3d f2 bd 02 3e d1 58 cb 3d 7a a5 18 3e
       0.116926186 0.12767771 0.0992905 0.14906874
000120 b9 84 d1 3d 3e 32 c1 3d 8a 00 f6 3d 5d 8c d9 bd
       0.10230393 0.09433411 0.120118216 -0.10622475
000130 53 d0 c6 bd f3 c3 d2 bd 12 d9 f7 bd 15 36 e3 3d
       -0.097077034 -0.102912806 -0.1210195 0.110943
000140 a7 e3 e2 bd cb dc 96 3d 09 aa c9 bd 61 85 06 3e
       -0.110785775 0.07366332 -0.09846885 0.13136818
000150 83 a7 d0 bd f5 be c1 bd bc 3b dc bd a6 77 8d bd
       -0.101882 -0.0946025 -0.10753581 -0.06907587
000160 69 6d c6 bd 80 41 d6 bd 1a ce a8 3d 5d 26 12 be
       -0.09688837 -0.10461712 0.08242436 -0.14272447
000170 b1 df b8 3d fd 39 e1 bd 39 bf b1 3d d5 42 22 be
       0.09027041 -0.109973885 0.08679051 -0.15845807
000180 09 ee 05 be 88 10 d9 bd 17 29 f0 bd 6d 43 0e 3e
       -0.13079084 -0.10598856 -0.11726587 0.13892908
000190 d4 85 b4 3d d0 00 f8 bd 67 be a7 3d 18 7f 08 3e
       0.08814588 -0.1210953 0.08190613 0.13329732
0001a0 00 74 e5 bd 09 44 d9 3d 6e 32 1a be db bd f3 bd
       -0.11203766 0.1060868 -0.150583 -0.119014464
0001b0 cb dc d8 3d 97 e6 e9 3d 56 19 b9 bd 32 ee 29 3e
       0.10588988 0.11420935 -0.090380356 0.1659477
0001c0 b3 18 d4 bd 60 3b ba 3d 6f 7e b9 bd 57 f0 24 be
       -0.103562735 0.09093356 -0.090573184 -0.16107307
0001d0 a3 0b b1 3d 7b 45 ec bd 1c 2e d6 3d c7 fd 96 bd
       0.08644798 -0.1153669 0.104580134 -0.07372623
0001e0 64 92 bb bd 12 83 b2 bd 63 cb 89 3d e0 e4 bc bd
       -0.09158781 -0.08716406 0.06728246 -0.09223342
0001f0 d5 97 02 be 20 01 0e 3e d6 32 fd bd bc 3f c7 3d
       -0.12753232 0.13867617 -0.12363212 0.09728953
000200 14 cf b5 bd c1 fe ea 3d e7 6f 07 3e de 2a 03 3e
       -0.08877388 0.11474372 0.13226281 0.12809321
000210 09 80 0e be bd c7 fb 3d a2 3e e5 bd 65 55 e1 bd
       -0.13916029 0.122939564 -0.11193587 -0.11002616
000220 7a b3 04 be 4a 19 ed 3d 95 b3 ed bd c2 93 c6 bd
       -0.1295909 0.11577089 -0.11606518 -0.09696151
000230 06 6f 9e bd 06 b2 a9 3d 3e 1e c8 bd 1c d3 cd bd
       -0.0773602 0.082859084 -0.09771393 -0.100500315
000240 bf d1 0b 3e 62 58 a9 bd ad 41 e4 bd a1 c2 e9 bd
       0.1365423 -0.08268811 -0.11145339 -0.11414076
000250 8c db ff bd 56 cd 97 3d 00 ac c8 bd 71 5a 1c be
       -0.12493047 0.074122116 -0.097984314 -0.15268876
000260 60 3b 82 bd 7a 44 d2 3d cd 55 d2 3d c2 cb cd bd
       -0.06358981 0.10266967 0.102702715 -0.10048629
000270 2e f7 18 be f6 bd 11 be 46 64 f6 3d 21 0b 07 3e
       -0.14938042 -0.1423262 0.120308444 0.13187839
000280 ed 52 39 be 74 89 bd bd 0e c5 d8 3d f2 26 35 be
       -0.1809804 -0.09254733 0.1058446 -0.17690638
000290 02 f1 02 3e d6 f5 93 bd f9 6a c0 3d e8 8c f9 3d
       0.1278725 -0.07224624 0.093954034 0.12185079
0002a0 3a 9a 07 3e 1e b5 bd bd 2e 2b af 3d e4 32 2c 3e
       0.13242427 -0.09263061 0.08553158 0.16816288
0002b0 3b f7 e2 3d a0 79 27 be d8 eb bd 3d 76 57 d3 3d
       0.11082312 -0.1635499 0.09273499 0.10319416
0002c0 1e 4c 02 be 32 3a 1b 3e b5 0a e2 3d bc 96 da 3d
       -0.12724349 0.15158918 0.110371985 0.106732816
0002d0 c0 63 0b be 95 e0 a0 bd 58 bf 0e be fa 03 08 3e
       -0.1361227 -0.078553356 -0.1394018 0.13282767
0002e0 0b d8 c0 3d 52 be 04 3e a6 e0 e8 3d 5e 5d 0d 3e
       0.09416207 0.12963226 0.11370973 0.13805148
0002f0 d3 1d f2 bd 39 68 c0 bd 7f 80 d0 3d 25 35 04 3e
       -0.11822095 -0.09394879 0.10180759 0.12910898
000300 7b d3 e4 bd b3 cd cb bd 63 47 ef bd 0a 6e ac bd
       -0.11173149 -0.099513434 -0.11683538 -0.08419426
000310 6e 70 23 3e 3f 17 cb 3d 69 75 91 bd 99 9b 90 3d
       0.15960857 0.09916543 -0.07102472 0.07060928
000320 85 38 dd bd 18 5b c1 bd 2a de c4 3d eb 0e f0 3d
       -0.10801796 -0.09441203 0.09612687 0.117215954
000330 cd 0d aa bd 29 ee a7 3d bb c1 d8 bd 69 76 1f be
       -0.083034135 0.08199722 -0.10583826 -0.15572514
000340 63 11 1b 3e ac cc d9 bd 86 e6 a8 3d e7 21 04 3e
       0.15143351 -0.10634741 0.08247094 0.12903558
000350 3b 32 fe 3d 31 f6 e4 bd d4 67 24 be f2 a9 d2 3d
       0.124119245 -0.1117977 -0.16055232 0.10286321
000360 c1 8c f2 3d 47 5a 19 3e d6 7a 11 3e ac fd d9 bd
       0.11843253 0.14975844 0.14207014 -0.10644087
000370 83 2e e2 3d ab 4c d4 bd bd bf bd 3d 12 2c 3d 3e
       0.11044028 -0.10366186 0.09265087 0.18473843
000380 bf 97 c4 3d 18 5b ee bd c4 bf 0b be ed aa d8 bd
       0.09599256 -0.116384685 -0.13647372 -0.105794765
000390 30 52 d3 bd 37 e3 07 3e f4 dc ee 3d 53 85 e2 3d
       -0.103184104 0.1327027 0.11663237 0.11060586
0003a0 9a 9e b7 bd 6c cd fd bd 26 5f dd 3d 8a a6 9f bd
       -0.08965798 -0.12392697 0.10809164 -0.07795437
0003b0 82 66 ab bd 85 c4 e2 bd 5c 34 d9 bd af f3 c4 bd
       -0.08369161 -0.110726394 -0.1060569 -0.096167915
0003c0 bd 9a b4 3d 50 f3 bc 3d cf f6 99 bd f0 cd c3 bd
       0.088185765 0.09226096 -0.07517778 -0.09560764
0003d0 f3 62 db bd 7e 7d 44 be af a8 c6 bd a6 1e e8 bd
       -0.107122324 -0.19188496 -0.097001426 -0.11333971
0003e0 12 ed df bd 7a e3 aa 3d 76 57 de 3d ba 40 37 be
       -0.109338894 0.08344169 0.108565256 -0.17895785
0003f0 00 5d e2 bd f0 1f cd 3d 89 01 d7 bd 21 39 da bd
       -0.110528946 0.10015857 -0.1049834 -0.10655428

layer_batch_norm.bias f4 [256]
000000 bc 87 db bc c3 64 9f bc 7f 49 cd 3c 92 2a a6 bc
       -0.026798122 -0.019457227 0.02505946 -0.020283971
000010 f4 2b fa bc d8 72 67 be 8f 5e 31 3e 05 b7 00 bd
       -0.030538537 -0.22602403 0.17321227 -0.03142454
000020 46 5a 52 be 2c 55 43 be a3 ef 0f 3d a6 08 11 bd
       -0.20542249 -0.19075459 0.035140645 -0.03540864
000030 ae e3 8f 3d 48 dd ca bd 62 bc 82 3d 4c ef 74 3d
       0.07025848 -0.09905487 0.063835874 0.059798524
000040 cf a6 2f 3d 60 05 cf bd 94 b8 df 3d b7 0c 82 bc
       0.04288369 -0.10108447 0.10923877 -0.015875204
000050 6b de 0d bd da 7f 81 bd 94 7e 76 be 0b 12 90 bd
       -0.034635942 -0.06323214 -0.24071723 -0.070346914
000060 aa f8 8e 3d 97 5b bc 3d be 5b 90 bd 75 76 b5 bd
       0.06981023 0.09197157 -0.070487484 -0.088604845
000070 21 8f 57 bc 98 65 4b bd b1 24 9b bc 31 26 67 bc
       -0.013156683 -0.049657434 -0.018938394 -0.014108227
000080 02 72 9e bd 9c 58 19 3e b6 09 8e be 8e ec 87 bd
       -0.07736589 0.14975208 -0.27741784 -0.06636916
000090 8e 60 30 3e 9c 3b 63 bd ab b4 f8 bc 6e b3 21 3d
       0.17224333 -0.05547677 -0.030359587 0.039477758
0000a0 95 63 50 3e f6 59 8f bd a3 4b c7 bd 22 75 b0 bc
       0.20350488 -0.069995806 -0.097312234 -0.021540228
0000b0 e7 6d c8 bd b8 e9 14 3a 57 87 da bc 29 d3 c9 3d
       -0.09786587 0.0005680579 -0.026675863 0.09854729
0000c0 c6 78 f8 3d 87 fb c7 3d e2 33 d4 3d 6b 97 f4 bd
       0.12132411 0.09764772 0.10361458 -0.11942943
0000d0 71 9e be 3c d6 e4 ea 3d 27 7d 4f be 36 11 ab 3d
       0.02326891 0.11469428 -0.20262586 0.08352892
0000e0 87 d0 96 bd 89 b2 29 3d 5f 59 6f 3d 50 e2 c3 bc
       -0.07363992 0.04143003 0.05843484 -0.023911625
0000f0 ff d3 ae 3d 39 13 8c bd fa 65 a6 bd 69 97 5c bc
       0.08536529 -0.06839604 -0.08124919 -0.013463833
000100 dc 80 18 bd 29 16 25 bb da 80 49 3d b7 06 b6 bd
       -0.037232265 -0.002519021 0.049195148 -0.088879995
000110 b9 30 f8 39 28 44 40 3d 22 d4 14 3d c6 04 f2 3d
       0.00047338547 0.04694 0.036335118 0.11817317
000120 a1 51 b3 bc 6f 83 65 3d 6f cc 02 be b6 37 70 bc
       -0.02188951 0.056033548 -0.12773298 -0.01466172
000130 8b b4 23 be 53 7d 06 3e 62 27 3e bd 02 05 f7 3d
       -0.1598684 0.13133745 -0.046424277 0.12061502
000140 97 b1 b1 bd 8a 1e 6f 3d 65 2a 87 3d ec 3a 0a 3e
       -0.08676451 0.058378734 0.06599883 0.1349904
000150 ab 76 80 3d ee a2 28 3e 6d 11 a3 bd 0c 47 2e be
       0.06272634 0.16468403 -0.07962308 -0.1701929
000160 cd 9b 9e bd 3c 41 4b bc b9 9a ec bc 72 a9 85 3d
       -0.077445604 -0.01240569 -0.028882371 0.0652646
000170 fd 20 4b 3e 1c 29 e4 3c 4a 84 69 3d be dc 00 bd
       0.19836803 0.027851634 0.057010926 -0.031460516
000180 4b ef 90 bd 5d 8e 52 bd b7 80 27 bd 79 0f 7b 3d
       -0.070768915 -0.0514053 -0.040894236 0.061294053
000190 5c f0 c6 3c ab d2 00 3e cc 33 53 bd fd d0 b5 bd
       0.024284534 0.12580363 -0.05156307 -0.08877752
0001a0 30 4d 3c be f8 fc fc 3c 41 3a 56 3c 8a 5d 68 3c
       -0.1838882 0.030882344 0.013075412 0.014182458
0001b0 cb d4 ac bd b9 1c b0 3d 66 01 cb 3c 74 88 ec 3c
       -0.084390245 0.085992284 0.02478094 0.02887366
0001c0 6b f2 1a 3d a5 eb cd 3d 8d 92 d4 ba 0c b8 e1 bd
       0.037828844 0.10054711 -0.0016217992 -0.11021432
0001d0 5b 1d fd bd 6a 9a d7 3c 0e 92 95 3d fe e6 e0 bc
       -0.12359115 0.026318748 0.07303248 -0.027453896
0001e0 63 0d c8 bc 47 37 91 ba 90 f2 ca 3e 43 7d 32 bd
       -0.024420446 -0.0011079096 0.39638186 -0.04357649
0001f0 47 65 e8 bd a8 e5 b6 3d 29 4e 91 bd 0f 7c 3d 3d
       -0.11347442 0.08930522 -0.07094986 0.04626089
000200 80 2c 7c 3d 52 2e 9d 3c c9 a9 01 39 2a ac f1 3d
       0.061565876 0.019187126 0.00012365649 0.11800416
000210 ea e1 3b 3c 9a bd da bd 90 93 b8 bd 32 c7 ec 3d
       0.011467436 -0.10680695 -0.0901252 0.11561431
000220 5d fa 32 bd 7c 2d 7c bd 4b 22 03 be 5b ed 56 3e
       -0.043695796 -0.061566815 -0.1280605 0.20988981
000230 d5 72 e6 ba df c9 07 bc 4a 97 fc 3d 02 e0 0b 3d
       -0.001758183 -0.008287876 0.123335436 0.034149177
000240 47 24 0d ba d5 17 05 3c 2f 07 31 bd a0 93 d4 3c
       -0.0005384129 0.008123358 -0.04321974 0.0259493
000250 9d b7 4d 3c d2 6e 69 bc 40 02 1e 3d b0 1a ca bd
       0.012555984 -0.014247613 0.038576365 -0.098683715
000260 04 f0 38 3d 54 09 9d bd 7c c4 ce 3b 5e 92 84 3c
       0.04515077 -0.07667795 0.006310044 0.016183075
000270 52 98 f6 bd 42 7d f2 bd a0 3d 01 3e 57 04 05 3e
       -0.120407715 -0.11840297 0.12621164 0.12989937
000280 0a 86 08 be 63 01 b0 ba 65 c9 e3 3d 0a 5f d2 3d
       -0.13332382 -0.0013428148 0.11122397 0.102720335
000290 32 43 9e 3d 8b f5 b5 bd 40 de 27 bd df 57 6d 3d
       0.0772766 -0.08884724 -0.04098344 0.05794513
0002a0 f3 27 15 3d 0d 41 3d 3e 9c a8 d9 3d f0 72 f3 3d
       0.03641505 0.18481846 0.10627863 0.11887157
0002b0 dd 6f 95 bd 6e 47 f9 bd e2 d7 29 3e 60 fd a3 bd
       -0.07296727 -0.12171827 0.16586259 -0.08007312
0002c0 59 21 da bd 45 b3 1f 3d c9 20 08 be 5b bb 48 3e
       -0.10650892 0.038989324 -0.13293757 0.1960272
0002d0 95 87 63 3d 77 8a 86 3e fc 52 0c bc b0 a4 16 3e
       0.055549223 0.26277515 -0.008564707 0.14711261
0002e0 88 69 b9 3c 79 21 17 3e 49 aa 12 3e 5e a8 2d bd
       0.022633329 0.14758863 0.14322771 -0.042396896
0002f0 95 ff 15 3d 5d b1 6d 3d 2c 1a 9b 3d d0 6f c3 3d
       0.036620695 0.058030475 0.07573351 0.09542811
000300 a3 70 13 3d 17 35 e9 bd 65 8c 02 3e 74 f0 33 bd
       0.03599609 -0.11387079 0.12748869 -0.043930486
000310 4e 97 0c 3e ca 92 fe bc 37 58 e7 3d 89 36 60 3e
       0.13729593 -0.031075854 0.112961225 0.21895804
000320 33 a9 d0 3d db a8 74 3d 50 ba 2a 3d 60 ee 3a 3d
       0.10188522 0.059731346 0.041681588 0.04563749
000330 8b cb 7c bd a6 ef 46 be d1 d2 af bc 62 b6 b1 bd
       -0.06171755 -0.19427356 -0.02146283 -0.08677365
000340 42 6d 02 3e 3a 7b fa 3c 19 d2 d7 3c 81 b9 43 3c
       0.12736991 0.030576337 0.0263453 0.011946083
000350 b8 58 a9 bd e9 4d d1 bc 78 cc 7f bd ac 79 1b 3d
       -0.08268875 -0.025549846 -0.062450856 0.037957832
000360 75 48 b2 3b 42 4a 3c 3d 8e e7 29 3e 07 11 a9 bc
       0.0054407665 0.045969255 0.16592237 -0.020638002
000370 ce 6e 3b 3c f4 fe 0d bc 4b 62 a9 bd 58 56 29 bc
       0.011439992 -0.008666743 -0.08270701 -0.010335527
000380 21 71 1b 3d 16 55 5f bd 57 2c 24 3d 5b 73 a0 3d
       0.037949685 -0.054524504 0.04008135 0.07834502
000390 f6 5f 41 bd 23 96 2e 3e 5f 36 c6 bd 48 0c b9 bd
       -0.047210656 0.1704946 -0.09678339 -0.090355456
0003a0 25 fa 68 3b 1b f5 0e 3e 50 fa 81 3d e7 f0 88 3c
       0.0035549488 0.13960688 0.063465714 0.016716434
0003b0 2e 35 87 bd 8f c3 84 bd fd 21 b3 3d 07 4a d0 3d
       -0.0660194 -0.06482612 0.08746717 0.101703696
0003c0 6f c8 c8 bc 89 2d a3 3c 4e 14 c3 3d 13 99 1e 3d
       -0.024509637 0.019919174 0.09525357 0.0387202
0003d0 98 49 dd 3d 5e 49 bf bd 96 3a 29 be f1 e6 83 bd
       0.108050525 -0.093401656 -0.16526255 -0.06440533
0003e0 4f ba 02 be 98 61 98 bd 1a f4 90 3d 34 ae 8d bd
       -0.12766384 -0.074404895 0.07077809 -0.06917992
0003f0 2f 11 8f bd 6c 32 38 3d 9c f6 d0 bd 8d 8f 0d 3e
       -0.069856994 0.04496996 -0.10203287 0.13824292

layer_batch_norm.running_mean f4 [256]
000000 38 5b a8 42 21 32 02 42 54 c7 89 42 bd a8 3f 42
       84.17816 32.548954 68.88931 47.914783
000010 b3 b8 f1 41 2f 35 6c 42 5c 4f ec 42 b6 7e b2 42
       30.215185 59.051937 118.155 89.24748
000020 df 70 84 42 45 b2 87 42 bb 6a 2c 42 26 4d 1c 42
       66.22045 67.84818 43.10423 39.07534
000030 3a 27 23 42 d8 cb 9e 42 18 0b 23 42 bd 69 03 42
       40.788307 79.39813 40.760834 32.85326
000040 40 a8 70 42 3b da 35 43 be ac ac 3f b9 7e 84 41
       60.164307 181.85246 1.3490217 16.561876
000050 52 01 82 42 38 96 eb 42 17 67 b1 c0 c6 a4 52 43
       65.00258 117.793396 -5.543834 210.64365
000060 2a 13 67 41 43 28 01 43 d1 0a 86 40 58 74 82 42
       14.442179 129.15727 4.1888204 65.227234
000070 97 4d 13 42 fd ec ad 42 3f 71 85 42 04 4f c6 42
       36.82577 86.96287 66.72118 99.15433
000080 04 48 90 42 d4 b3 6a 42 98 36 46 42 d7 96 80 42
       72.140656 58.675613 49.553314 64.29461
000090 85 b3 54 42 b8 e0 ff 3d aa b5 fb 41 8c bb a4 42
       53.175312 0.124940336 31.463703 82.3663
0000a0 ee b6 a0 41 bd 13 2e 43 80 3b 3b 42 e8 09 93 41
       20.089321 174.0771 46.808105 18.379837
0000b0 6f ee d4 41 51 f2 4f 42 06 7d 69 42 3c c0 91 42
       26.616423 51.986637 58.372093 72.87546
0000c0 15 21 ec 41 db 38 d8 40 16 80 53 41 1c e5 b1 41
       29.516153 6.7569404 13.218771 22.23687
0000d0 5f 52 af 42 9c c9 ce 41 10 f8 24 41 1d 36 25 43
       87.66088 25.848442 10.310562 165.21138
0000e0 d1 20 49 41 88 eb b8 42 4c dd 7f 42 9d 98 9e 42
       12.570512 92.46002 63.96611 79.29807
0000f0 cb 8c 64 c0 92 35 13 42 3a de 11 42 a0 73 3c 42
       -3.5710933 36.802315 36.46702 47.112915
000100 46 32 7e 42 3e 5d a6 42 b1 68 71 42 e4 6c 4a 42
       63.549095 83.18211 60.352238 50.60634
000110 a9 39 f4 41 e3 b4 a7 41 44 8f 85 41 04 a9 d0 42
       30.528154 20.963324 16.694954 104.33011
000120 ef f1 c9 42 f2 27 ca 41 0f e2 7f 42 98 d8 3c 42
       100.97253 25.269505 63.97076 47.211517
000130 22 f7 e8 41 1f 93 9d 42 5c 82 32 42 83 12 bf 41
       29.12067 78.787346 44.627304 23.884039
000140 4d dc 46 42 b1 35 17 42 98 0e 9a 42 7e e5 97 42
       49.715137 37.802433 77.0285 75.94823
000150 52 26 27 42 ad 93 5e 41 d6 39 ad 41 b1 ed 08 c0
       41.787422 13.911054 21.65324 -2.1395075
000160 80 7f 12 41 12 07 22 42 72 aa ac 41 79 00 ab 42
       9.156128 40.506905 21.583225 85.50092
000170 2d 16 3a 42 63 39 45 42 68 8f 3a 42 12 e3 19 43
       46.521656 49.30604 46.640045 153.887
000180 b5 17 6b 42 04 c3 3b 41 5d 30 80 41 aa cd e7 42
       58.77315 11.735111 16.023615 115.90169
000190 a8 f0 38 42 7a 5c eb 41 06 d3 d8 41 08 90 df 40
       46.235016 29.420155 27.103039 6.986332
0001a0 03 4c 3b 42 f2 57 98 42 ed 69 a1 42 21 4c 71 42
       46.82423 76.17177 80.70689 60.324345
0001b0 da cb 03 42 ee 68 df 41 1d af 8d 42 38 89 45 43
       32.949074 27.926235 70.84202 197.53601
0001c0 4e 61 1d 42 87 7d eb c0 7d fb 72 42 50 f7 46 43
       39.345024 -7.359073 60.745594 198.96606
0001d0 11 de 12 41 c4 45 a7 41 46 dd 4e 42 b9 2f 98 c0
       9.179215 20.909065 51.716087 -4.7558255
0001e0 0c b5 32 42 c3 44 22 42 62 09 f4 40 c1 67 b3 42
       44.676804 40.56715 7.6261454 89.702644
0001f0 93 6e 63 42 4a 6f b2 42 6f 09 c4 41 3d 82 96 41
       56.857983 89.21736 24.504606 18.813593
000200 8a 2b 50 41 bb b7 6f 42 3d 2e 40 41 0b ab 99 42
       13.01063 59.929424 12.011289 76.83407
000210 e2 2d d1 41 53 0a aa 42 d9 71 45 42 4d f0 5f 41
       26.147404 85.020164 49.36118 13.996167
000220 cd 35 a5 42 a1 ea c0 40 47 60 4d 42 0e a8 bf 41
       82.60508 6.028641 51.34402 23.957058
000230 0a d3 16 41 48 a5 1c 42 8a 54 76 41 fb 71 90 42
       9.426523 39.161407 15.395639 72.22262
000240 4f 6d e3 42 09 83 94 42 45 f9 7f 41 43 93 b2 41
       113.71349 74.25593 15.998357 22.321905
000250 85 4c e0 41 70 34 8c bf 46 2b 1f c0 e5 c6 ab 42
       28.037363 -1.0953503 -2.4870162 85.888466
000260 8a 52 99 c0 bd e1 48 bf 57 8f 13 41 f2 0f d9 41
       -4.7913256 -0.7846945 9.222495 27.132786
000270 82 a3 91 42 f8 7b 47 42 a9 97 52 42 07 ec c7 42
       72.81935 49.871063 52.648106 99.96099
000280 3f 65 df 42 ac 72 92 42 3c f1 2f 42 43 c8 cf 40
       111.69775 73.22397 43.98558 6.493196
000290 f0 6c a4 42 c3 40 a2 3f 53 91 86 42 8d 7f d2 41
       82.21277 1.2676014 67.28384 26.31228
0002a0 72 83 89 42 a1 e6 46 41 f9 85 75 42 04 43 9f 42
       68.75673 12.431306 61.380833 79.63089
0002b0 19 1a 9a 40 95 e3 c8 42 c6 4d 3b bf 99 c8 66 42
       4.8156857 100.444496 -0.7316555 57.695896
0002c0 32 be 1b 42 e8 42 e4 42 b6 2e d1 42 1c 39 a5 42
       38.935738 114.13068 104.59123 82.61154
0002d0 6d 47 79 42 6c 8d 1f 42 0e d9 41 42 03 99 96 42
       62.31975 39.888107 48.461967 75.29885
0002e0 2c f4 e9 41 f9 80 5f 42 77 47 b1 42 6c 6d 70 42
       29.244225 55.87595 88.63958 60.106857
0002f0 57 9f e9 41 58 f7 74 42 d2 cb a8 41 1a 86 d6 42
       29.202803 61.241547 21.099522 107.26192
000300 7a ad b7 42 26 2d 60 42 93 af c7 42 3c 44 d1 41
       91.83882 56.04409 99.84292 26.158318
000310 36 65 56 42 df 53 1f 42 7b e5 38 42 e8 a6 dd bf
       53.59884 39.831905 46.224102 -1.7316561
000320 a8 ea 46 42 54 70 36 42 b1 ba f4 41 59 0c eb 41
       49.729156 45.609695 30.591158 29.38103
000330 b1 cb b9 41 2e f6 13 42 20 46 b4 42 0a 3a 3e 42
       23.224459 36.99041 90.13696 47.55668
000340 03 2b 71 42 8f bd bf 41 86 db af 41 44 d5 84 42
       60.292004 23.967558 21.98219 66.416534
000350 48 09 d0 41 fb 81 99 42 c5 0d 0f 42 d2 04 84 41
       26.004532 76.75387 35.763447 16.502354
000360 e5 2a 3d 42 61 5e 90 42 de be c8 42 ed ae e8 41
       47.29189 72.18433 100.37279 29.085413
000370 68 5c 45 42 42 fa d8 42 e1 61 4f 41 c8 1f 0c 42
       49.34024 108.488785 12.961396 35.031036
000380 b7 65 cd 41 a6 77 a4 41 2a a6 58 42 a4 21 1c c1
       25.674665 20.558422 54.16227 -9.758213
000390 89 a3 f1 41 6d 59 e9 42 0b 52 5f 42 7f dd 97 41
       30.204851 116.67466 55.83012 18.983152
0003a0 bd b7 2a c0 2e ac 64 42 5b 0b 31 42 48 b5 6e 42
       -2.6674645 57.168144 44.26109 59.677032
0003b0 0e 58 cd 40 0e f8 19 41 17 62 47 42 c6 96 2d 42
       6.416999 9.62306 49.84579 43.39724
0003c0 7c c0 98 42 01 c7 74 42 d1 f3 a2 41 f9 f4 51 42
       76.375946 61.19434 20.369051 52.48923
0003d0 31 35 59 42 c4 df 36 43 f5 90 12 42 7d cb 86 42
       54.301945 182.87408 36.64156 67.39744
0003e0 ae bb 76 42 54 ed 68 42 2d 31 05 42 e2 f3 f9 42
       61.68328 58.231766 33.298023 124.97633
0003f0 14 76 c8 41 eb c5 3b 42 cf 8f 0d 42 df bc 4f 42
       25.057655 46.94328 35.390438 51.934444

layer_batch_norm.running_var f4 [256]
000000 2c b5 3a 47 d4 42 89 46 09 5f ff 46 27 f7 d3 46
       47797.17 17569.414 32687.518 27131.576
000010 3b 6b 9a 46 31 fd 02 47 38 69 82 47 29 f5 8c 47
       19765.615 33533.19 66770.44 72170.32
000020 1d 44 05 47 b9 08 1a 47 ba b9 a0 46 cc 69 95 46
       34116.113 39432.723 20572.863 19124.898
000030 e4 52 c9 46 3e bf 40 47 91 08 8a 46 ea ec 8c 46
       25769.445 49343.242 17668.283 18038.457
000040 75 82 09 47 0e 6b f3 47 59 57 1e 46 12 e8 2d 46
       35202.457 124630.11 10133.837 11130.018
000050 03 ba 08 47 a2 93 8f 47 e9 49 df 45 14 37 06 48
       35002.01 73511.266 7145.239 137436.31
000060 29 7a 72 46 36 35 b3 47 2e ca ac 45 f0 cf f9 46
       15518.54 91754.42 5529.2725 31975.969
000070 f6 55 88 46 8b 73 44 47 88 3f f0 46 0e 45 67 47
       17450.98 50291.543 30751.766 59205.055
000080 a9 ef 19 47 33 48 dd 46 cd 1e e6 46 3f 19 fc 46
       39407.66 28324.1 29455.4 32268.623
000090 18 52 01 47 be d6 b6 45 01 c9 77 46 7b d1 73 47
       33106.094 5850.843 15858.251 62417.48
0000a0 ef a0 88 46 15 e1 e2 47 10 66 ff 46 e5 a1 5e 46
       17488.467 116162.164 32691.031 14248.474
0000b0 9d 25 55 46 f4 5c ba 46 e8 2d 05 47 7d e8 3d 47
       13641.403 23854.477 34093.906 48616.49
0000c0 ab 39 81 46 5b 8f 53 46 86 4e 19 46 00 e6 5f 46
       16540.834 13539.839 9811.631 14329.5
0000d0 3d 9f 46 47 08 0c 71 46 9e 1d 44 46 0e f6 d7 47
       50847.24 15427.008 12551.404 110572.11
0000e0 76 98 0d 46 37 e5 39 47 d8 b5 03 47 fd 0b 33 47
       9062.115 47589.215 33717.844 45835.99
0000f0 d9 6d cb 45 5b dc b6 46 41 39 8c 46 04 58 b8 46
       6509.731 23406.178 17948.627 23596.008
000100 cc 45 00 47 4d 3f 2d 47 99 7a 1e 47 da f3 db 46
       32837.797 44351.3 40570.598 28153.926
000110 21 ef 61 46 dd da 5b 46 df b4 56 46 39 a0 5e 47
       14459.782 14070.716 13741.218 56992.223
000120 8b 4d 76 47 66 33 30 46 51 8f 0c 47 73 42 b3 46
       63053.543 11276.85 35983.316 22945.225
000130 cb e9 8b 46 0f a4 38 47 50 d9 d4 46 29 57 97 46
       17908.896 47268.06 27244.656 19371.58
000140 b1 8e a9 46 0d 4a c0 46 c7 a3 2b 47 03 1a 1e 47
       21703.346 24613.025 43939.777 40474.01
000150 00 83 c8 46 d2 1c f4 45 21 fd 2a 46 1f 26 97 45
       25665.5 7811.6025 10943.282 4836.765
000160 66 ba 46 46 8c 16 95 46 70 73 30 46 67 35 6f 47
       12718.6 19083.273 11292.859 61237.402
000170 78 66 bd 46 96 4a d9 46 c1 3a cb 46 1a 5a c0 47
       24243.234 27813.293 26013.377 98484.2
000180 6f 1d ee 46 57 1f f2 45 28 a0 19 46 40 db 9c 47
       30478.717 7747.9175 9832.039 80310.5
000190 b8 d3 c0 46 87 75 58 46 50 0f be 46 93 36 12 46
       24681.86 13853.382 24327.656 9357.644
0001a0 8a 60 b4 46 9b d0 1d 47 32 db 29 47 67 49 f7 46
       23088.27 40400.605 43483.195 31652.701
0001b0 4f 6e 8a 46 b2 36 a2 46 7f 36 20 47 25 1a 09 48
       17719.154 20763.348 41014.496 140392.58
0001c0 b7 07 8f 46 53 fa 02 46 95 1c 20 47 ba a9 00 48
       18307.857 8382.581 40988.582 131750.9
0001d0 f1 55 31 46 89 45 77 46 d9 fc e0 46 b1 b0 d9 45
       11349.485 15825.384 28798.424 6966.0864
0001e0 4a 82 b3 46 68 b1 bf 46 57 76 13 46 a5 97 85 47
       22977.145 24536.703 9437.585 68399.29
0001f0 56 30 ed 46 58 77 5e 47 45 a3 5f 46 79 b3 37 46
       30360.168 56951.344 14312.817 11756.868
000200 7a 7d ef 45 ee 9c 12 47 3e 27 16 46 46 c3 0c 47
       7663.6846 37532.93 9609.811 36035.273
000210 6f 15 75 46 35 37 62 47 14 ae 06 47 1d 52 00 46
       15685.358 57911.207 34478.08 8212.528
000220 be 8b 14 47 c9 e3 b1 45 e7 37 c9 46 81 5a 85 46
       38027.742 5692.473 25755.951 17069.252
000230 ee c4 ed 45 d5 10 7b 46 cc 3d 07 46 71 b0 40 47
       7608.616 16068.208 8655.449 49328.44
000240 6b a2 92 47 7c 67 08 47 28 6d f2 45 3b 2e 9d 46
       75076.836 34919.484 7757.6445 20119.115
000250 ef cf 60 46 a8 fa 00 46 45 a1 85 45 df da 50 47
       14387.983 8254.664 4276.1587 53466.87
000260 e6 dd 8c 45 bb 07 31 46 a1 8e 00 46 4d aa 69 46
       4507.7373 11329.933 8227.657 14954.575
000270 08 6c 33 47 a7 e5 d6 46 49 f3 ba 46 5a ec 7b 47
       45932.03 27506.826 23929.643 64492.35
000280 da 83 72 47 9b 24 1d 47 30 ad cf 46 28 0c 13 46
       62083.85 40228.605 26582.594 9411.039
000290 5e 8c 37 47 da 0f 0a 46 2e cc 25 47 e6 09 8d 46
       46988.367 8835.963 42444.18 18052.95
0002a0 2a 09 15 47 9a 7e 11 46 db e1 04 47 57 10 3b 47
       38153.164 9311.65 34017.855 47888.34
0002b0 e8 2f 02 46 2e 30 44 47 f4 70 ea 45 5c 77 15 47
       8331.977 50224.18 7502.119 38263.36
0002c0 c2 c3 b9 46 9e 42 84 47 8d 9f 4b 47 9d c4 58 47
       23777.879 67717.234 52127.55 55492.613
0002d0 0c 94 05 47 14 ee 73 46 77 aa b8 46 a3 5f 24 47
       34196.047 15611.52 23637.232 42079.637
0002e0 a3 3e 97 46 22 ca f6 46 1b b9 6a 47 db 69 0e 47
       19359.318 31589.066 60089.105 36457.855
0002f0 0e 3a 78 46 f9 d4 08 47 a1 66 5c 46 b0 f1 6e 47
       15886.514 35028.973 14105.657 61169.688
000300 cc 62 44 47 81 ae a0 46 30 42 5e 47 8b 92 3e 46
       50274.797 20567.252 56898.188 12196.636
000310 62 ef dc 46 e4 c4 be 46 de 0b d0 46 95 a6 af 45
       28279.691 24418.445 26629.934 5620.8228
000320 55 7e d1 46 4e 06 c7 46 72 10 8a 46 63 9b 9b 46
       26815.166 25475.152 17672.223 19917.693
000330 86 8f 45 46 5e 39 85 46 4d 49 55 47 bb 3a c5 46
       12643.881 17052.684 54601.3 25245.365
000340 0f 06 29 47 ab c5 3c 46 d0 97 39 46 2b c6 09 47
       43270.06 12081.417 11877.953 35270.168
000350 a0 38 3e 46 f8 5d 1b 47 ba c3 a2 46 ca ca 3d 46
       12174.156 39773.97 20833.863 12146.697
000360 c5 ed b2 46 d4 0f 16 47 f3 ff 40 47 29 95 4b 46
       22902.885 38415.83 49407.95 13029.29
000370 d2 63 07 47 5b 18 7e 47 f8 6f 39 46 02 45 74 46
       34659.82 65048.355 11867.992 15633.252
000380 fa 13 95 46 0c 89 82 46 2f ed 14 47 0d a6 e8 45
       19081.988 16708.523 38125.184 7444.7563
000390 34 2d 94 46 33 7e 82 47 b1 3d de 46 29 9b 5f 46
       18966.602 66812.4 28446.846 14310.79
0003a0 85 bb 02 46 f3 27 ec 46 9a 32 ae 46 09 9d 0a 47
       8366.88 30227.975 22297.3 35485.035
0003b0 c7 5c d2 45 9b 05 dc 45 81 1d bb 46 0c 5f b5 46
       6731.597 7040.7007 23950.752 23215.523
0003c0 49 9d 1a 47 dc bb ef 46 b0 72 2c 46 cc 06 fd 46
       39581.285 30685.93 11036.672 32387.398
0003d0 27 f0 d4 46 84 b5 06 48 02 9c a8 46 78 b2 fd 46
       27256.076 137942.06 21582.004 32473.234
0003e0 a2 ea 08 47 47 e6 d4 46 da 62 87 46 97 d1 9b 47
       35050.633 27251.139 17329.426 79779.18
0003f0 2c 76 47 46 3b 83 12 47 b1 22 a8 46 d9 7a cf 46
       12765.543 37507.23 21521.346 26557.424

D02.weight f4 [128, 256]
000000 9a bd 8f be 0a 8b f4 bd 5a ea 7c 3f 8d 97 89 3e
       -0.28074342 -0.11940582 0.9879509 0.26873437
000010 40 62 87 3e ac b5 f8 3c a3 e0 c1 bd 6d 21 21 3f
       0.26442146 0.030360065 -0.09466674 0.6294163
000020 a2 4f 9f bd 40 7d 34 3d fd 0f 38 be 9a 8b c2 be
       -0.07778861 0.04406476 -0.17974849 -0.37997133
000030 1e 85 ef bd 6c ea 1d 3e 4f b8 d7 bd af db f6 3e
       -0.11695312 0.15421456 -0.10533201 0.4821448
000040 f7 a2 96 bd ba 26 ce 3f 0a 91 4c 3e f8 4a 56 bf
       -0.07355302 1.6105568 0.19977203 -0.83708143
000050 b8 af 82 be d4 3e 7f 3e 86 04 10 bf 74 e0 30 40
       -0.25524688 0.24926311 -0.562569 2.7636995
000060 4d 27 72 be 2d 02 94 3f ad 93 a8 3e 54 95 aa 3e
       -0.23647805 1.1563164 0.32925168 0.33317053
000070 aa b1 51 3e 3f 0f 81 be 0b e7 df 3d 49 7d ae 3d
       0.2047793 -0.25206944 0.1093274 0.0851999
000080 a9 24 a1 bd 63 7b 5d be 75 06 00 be 5d 37 9a be
       -0.078683205 -0.216291 -0.12502463 -0.30120364
000090 c5 a6 eb be dd ac 5a be 65 91 ff bd d5 54 4e be
       -0.46025673 -0.21355005 -0.12478904 -0.20149548
0000a0 47 c6 e0 bc be d1 2c 40 74 23 b0 be 4e 57 81 be
       -0.027438296 2.7003016 -0.3440205 -0.2526192
0000b0 28 d4 87 bd e4 d3 5a 3e 97 df 1c 3b 5f 06 de be
       -0.066322625 0.21369892 0.002393698 -0.43364236
0000c0 9d 50 f2 bc 90 e4 1e 3e ee 2d 6b bd d5 dc 39 be
       -0.029579455 0.15516877 -0.05741685 -0.18150647
0000d0 4c 73 1d bf 7a e6 4d 3e e2 9f 3d bf 87 b1 2b c0
       -0.61504054 0.20107451 -0.74072087 -2.6827104
0000e0 07 bb fa 3e 31 a4 ca be 45 37 05 bd 29 79 76 3c
       0.48970816 -0.39578393 -0.032523412 0.015043535
0000f0 fa da 25 3f e9 2c ab bd 18 43 01 3d 6c ef 37 3e
       0.64787257 -0.08358175 0.031558126 0.17962426
000100 62 fe 12 bf 18 7e 16 bf 3a 9c 36 3f 13 88 bc bd
       -0.5741941 -0.58786154 0.7133213 -0.092056416
000110 11 aa 9c 3e af db 14 bf 80 07 7f bd 93 20 a6 3e
       0.305985 -0.5814771 -0.062263012 0.32446727
000120 2c e8 5c bd 22 12 d1 be c3 b1 bc be b2 1d c8 bc
       -0.053932354 -0.40834147 -0.3685437 -0.024428222
000130 57 34 50 3d bd 52 53 3f 74 8f b6 3f cd 56 f1 3e
       0.050831165 0.82548124 1.4262528 0.47136536
000140 f0 6c 0c bf ee 0d 01 3f 2d cc fb 3e 8b 4b 77 bf
       -0.54853725 0.5041188 0.4917921 -0.96599644
000150 a4 24 c9 be 6c 60 99 be 63 6d 82 3d 1b 1e 0d 3f
       -0.39285767 -0.29956377 0.0636852 0.5512406
000160 64 61 de bc dd b2 67 3e c8 dd 96 3e 56 41 ab bc
       -0.027146049 0.22626825 0.2946608 -0.020905178
000170 5f 18 aa 3d 0a 91 0d 3f 96 ab 0c be 5a 05 21 40
       0.0830543 0.5529944 -0.1373733 2.5159516
000180 38 d5 11 bd e8 1a 09 bf e4 7b 4a be eb 4b 72 bf
       -0.035603732 -0.5355668 -0.19773823 -0.9464709
000190 7d ec cd 3e db 5e fd bc 27 b4 0e 3f fe c9 1a be
       0.4021949 -0.03092902 0.5574364 -0.15116116
0001a0 77 ff 30 3f 3e ce 2c 3f 8c bf 61 3e 2f 0f 97 bc
       0.6913981 0.675022 0.22045726 -0.018439857
0001b0 cc 6e 8d 3e b5 c9 77 3e 84 dc de be bb 56 f0 bf
       0.27623594 0.24198039 -0.43527615 -1.8776468
0001c0 fa ef dd bd 6d 60 7d be b4 00 8a bd 17 cd 19 40
       -0.108367875 -0.24743815 -0.06738415 2.4031427
0001d0 cf 57 94 3e a2 cd 49 3e 09 16 34 bf 35 ce 55 3e
       0.28973243 0.19707349 -0.7034612 0.20879443
0001e0 52 fb 75 bb 43 04 02 3f 8e f8 ed 3c f1 a1 5b 3e
       -0.0037533832 0.5078775 0.029049184 0.21448494
0001f0 65 73 1b bf 56 d6 82 bf 70 21 a1 be 1d f8 22 3e
       -0.60722953 -1.022166 -0.31470823 0.1591496
000200 24 55 89 3e 17 2b ab 3d 04 57 c5 bc 6b 44 c1 3d
       0.2682277 0.08357828 -0.024089344 0.09436878
000210 5d 0c 41 3f 66 0c 46 3f 88 50 9c be b8 4d cf bd
       0.7540949 0.7736267 -0.3053019 -0.101222456
000220 d0 94 80 bd f7 38 c3 3e bc 23 e0 3e 5a 70 b8 3e
       -0.06278384 0.38129398 0.43777263 0.36023217
000230 8a de 61 3d c9 35 32 bc 78 06 52 3d f1 bf 77 be
       0.05514387 -0.010877081 0.0512757 -0.24194314
000240 91 1d 5b 3f f7 be e8 3c a4 be d2 bd d9 be 98 be
       0.8559199 0.028411372 -0.10290268 -0.29833105
000250 6e f9 65 bd b0 2d ac be 1c f1 a8 be a8 80 15 be
       -0.056146078 -0.33628607 -0.32996452 -0.1459986
000260 c4 90 cb be 79 81 8e be bb fc 7c 3e c7 09 cf be
       -0.39758885 -0.27833155 0.24705784 -0.40437147
000270 d3 b0 3c 3e 5f b3 8a 3d 91 84 4e bd 79 b1 4e be
       0.18426828 0.067724936 -0.050419394 -0.20184888
000280 1e 87 93 3f 3b 55 2a 3e 9a 31 b2 3e cf a3 9f 3e
       1.152561 0.16634075 0.34803468 0.31179664
000290 0f f2 c2 bf 07 82 c2 be e6 d4 80 be 0d 74 03 3d
       -1.523012 -0.37989828 -0.2516243 0.032093097
0002a0 e0 69 f1 3d c4 7d a7 3e 07 86 a4 3e 36 39 4c 3f
       0.11787772 0.3271314 0.32133505 0.79774797
0002b0 9e 7f 85 bd 41 1f fb 3d 79 69 17 bd 44 5c d9 be
       -0.06518482 0.122618206 -0.03696582 -0.42453206
0002c0 1b 5c 7d 3e e5 0f b2 bf 86 42 99 be a5 86 8a 3d
       0.24742167 -1.3911101 -0.29933566 0.06763963
0002d0 d7 6e 4f 3f c5 ee c9 3e 91 43 44 3e f5 9b 7d 3e
       0.81028503 0.3943998 0.191664 0.24766524
0002e0 c4 67 ff bc cb 94 5d bd 7b 7a 95 be b8 1d bf bf
       -0.031177409 -0.05409698 -0.29195008 -1.4930944
0002f0 90 2b 97 be 59 59 85 bd 07 18 fd 3d 80 a3 9c bf
       -0.29525423 -0.06511182 0.123580985 -1.2237396
000300 99 42 29 be a2 93 83 3e f7 d6 09 be e5 c4 07 be
       -0.16529311 0.25698572 -0.13460909 -0.13258703
000310 21 74 0c 3e 3e 5f 12 be 75 21 d1 3d 1e 7f 8c 3e
       0.13716175 -0.14294145 0.102114595 0.27440733
000320 f1 dd d3 be af 59 16 3e a7 e6 95 3e 3f d7 b6 be
       -0.41380265 0.14682649 0.29277536 -0.35711095
000330 9f 13 89 bd 36 ab 82 3e d9 1c d8 bd 99 68 bd bb
       -0.066931956 0.2552125 -0.10552377 -0.0057802913
000340 9f f8 ee be b5 8c 11 bf 33 7c b0 be b8 86 a2 3d
       -0.46674058 -0.56855327 -0.34469756 0.07935852
000350 8b a8 78 be ea dc c9 3d 4d 0a 33 3e fe 8c e7 bc
       -0.24283044 0.09856589 0.17484398 -0.028265473
000360 88 c0 13 3c 4e cf 84 bd f4 ef c4 be 12 00 ab bd
       0.009018071 -0.06484853 -0.3846432 -0.08349623
000370 17 ea 1b be 15 48 b9 3d 16 89 92 be 08 44 03 bd
       -0.15226017 0.09046952 -0.28620213 -0.0320473
000380 37 3b 6f bf d8 99 fc 3e 46 c8 70 be ca 59 44 be
       -0.9344973 0.49336123 -0.23513898 -0.19174877
000390 45 72 70 bf c1 e9 2c 3e 4d 4b d7 3e 01 6e f4 be
       -0.9392436 0.16886045 0.42049637 -0.47740176
0003a0 8f 77 76 be 29 82 3b 3f 97 c8 27 3b 62 ee c3 bd
       -0.24069045 0.73245484 0.0025601739 -0.09566952
0003b0 df d6 80 be ac d6 d8 be 10 80 d1 3e 34 f8 1b be
       -0.25163934 -0.42351282 0.40918016 -0.152314
0003c0 ec ab 17 bf 3d d6 7e bd 1e 94 79 3e af d0 3c 3d
       -0.59246707 -0.062216032 0.24372908 0.046097454
0003d0 19 34 3e 3e 96 e4 1b 40 7c d1 b2 3e 57 67 e7 bb
       0.18574561 2.4358268 0.3492545 -0.0070618796
0003e0 65 ad bc be 93 0e 12 bd 83 64 1a 3c 01 0c e1 3f
       -0.3685104 -0.03565843 0.009423378 1.7581788
0003f0 fe c5 ed be 9b ca bc bd 7f 4c 43 bc ec cd 17 3e
       -0.4644012 -0.092183314 -0.011920094 0.14824647
