weights/3. classify for triplet loss - models/conv2Dfeatures.pt (torch, 21655 bytes, 6 tensors)

conv00.weight f4 [4, 1, 5, 5]
000000 83 47 5b 3c 56 6a 05 bd 7b 1e 95 bc ba 28 d1 bd
       0.013383749 -0.032572113 -0.01820301 -0.10212846
000010 06 9d da bd 0f 52 0e 3d 09 84 61 bd 56 65 1d be
       -0.10674481 0.034746226 -0.05505756 -0.15370688
000020 34 56 1b be ba 68 2a be 72 24 00 3e 66 76 9c 3d
       -0.15169603 -0.16641513 0.12513903 0.0763977
000030 8c f5 22 3d 3d e0 f2 bd 8c d9 e7 bd 04 74 2f 3d
       0.039784953 -0.11859176 -0.11320791 0.04283525
000040 82 ea 14 bc a9 5a 04 bd 35 90 16 3d 38 d7 f7 bc
       -0.009089114 -0.032313023 0.03675862 -0.030253991
000050 9b 63 68 3c 68 20 09 3c c3 7e a8 3d 55 3c 40 bd
       0.014183904 0.008369543 0.08227303 -0.046932537
000060 f2 6d f3 3b 37 2b b8 3c 2e 6a fb bd 60 91 36 be
       0.007428878 0.022481544 -0.122761115 -0.17828894
000070 92 5b 3a be e9 cf 63 be ae e5 b1 3c 9d 83 66 bc
       -0.18198994 -0.2224728 0.021715965 -0.014069465
000080 23 c2 3f bc 1f 7f 39 be 63 18 0d be 5d d8 35 3b
       -0.011704001 -0.18114899 -0.13778834 0.002774737
000090 ed 59 93 3d ef 2e 33 3d 13 01 79 3d 55 75 06 3e
       0.07194886 0.04374593 0.06079204 0.13130696
0000a0 ba 0c 42 3d 4c cf de 3c 3e 69 f7 3d 49 e3 1e 3e
       0.04737542 0.027198456 0.1208062 0.1551639
0000b0 33 ce 26 3e 80 9f 0e bd 51 46 a6 ba a0 40 98 3d
       0.16289596 -0.03482008 -0.0012685751 0.07434201
0000c0 2c 62 42 3d c0 4c 6c 3d ad 04 50 3c 73 4d 9b 3d
       0.047456905 0.057690382 0.012696427 0.07583132
0000d0 33 b8 52 3d 72 15 2d 3d 2d a6 13 3d 54 80 94 3d
       0.051445197 0.04225678 0.03604715 0.07251039
0000e0 63 4e a5 3d 66 b3 c2 3d 70 40 87 3d b0 54 83 3c
       0.08071592 0.09506874 0.06604087 0.016031593
0000f0 11 db 7c 3d d8 f4 b0 3d a0 c8 c6 3d d8 72 cb 3d
       0.061732356 0.0864045 0.09706235 0.09934014
000100 a4 23 ff 3c 57 c9 b9 3d e7 5b 69 3d b7 24 87 3d
       0.031144924 0.09071606 0.05697241 0.065988
000110 0d 62 e6 3d d3 49 1a 3d cf ef b0 3d 14 8e 21 3d
       0.112491705 0.03766806 0.0863949 0.039442137
000120 31 5d 4b 3d cd 40 62 3d 0d a9 da bc 11 2d 21 bd
       0.04964942 0.05523758 -0.026691938 -0.03934962
000130 cb 76 65 bd 8b 75 93 bd ef c9 c3 bc 63 d1 71 bc
       -0.056021493 -0.07200154 -0.0239 -0.014759394
000140 d2 19 72 bd 47 a4 e6 bd 18 c1 b6 bd 12 63 91 bd
       -0.059106655 -0.11261802 -0.089235485 -0.07098974
000150 4f 40 14 bd 16 7d d0 bd 38 46 ee bd 43 50 f7 bd
       -0.036194142 -0.10180108 -0.11634487 -0.120758556
000160 4d ac 84 bd 42 b3 f8 bc 17 d0 aa bd 62 db ba bd
       -0.06478176 -0.030358914 -0.08340471 -0.09123875
000170 f0 3f b4 bd 01 bf d1 bd d5 e7 50 bc 45 23 35 bd
       -0.088012576 -0.10241509 -0.012750586 -0.04422309
000180 d4 fb bc bc d2 ff ce bc b6 b1 f3 3b 9c 97 73 3b
       -0.0230693 -0.025268469 0.0074369563 0.0037169224

conv00.bias f4 [4]
000000 a9 81 57 bf a1 ae d3 bc 61 d7 5e be 9e fa 32 3e
       -0.8418222 -0.025840105 -0.21761848 0.17478415

conv01.weight f4 [16, 4, 5, 5]
000000 da 1c d3 3c 33 32 f7 bd 9a 9b 0e bd 58 f6 a2 3d
       0.025770593 -0.120701216 -0.034816362 0.079571426
000010 4c 84 e4 ba 8b 72 f4 3d c0 c3 2f 3e 3b 6e 1c 3e
       -0.0017434447 0.1193591 0.17164516 0.15276425
000020 3b 10 f1 3c 74 4c 8d bd 03 18 c6 3c aa d6 ba 3d
       0.029426685 -0.06899348 0.024181372 0.09122975
000030 ab e9 b9 bc 65 30 69 bd d1 2e 49 bd a0 4b d6 3b
       -0.02269443 -0.05693092 -0.049116913 0.006539777
000040 56 0f a2 bd d8 aa ca bd 6e 2b 07 be ec 41 ef bd
       -0.07913081 -0.09895867 -0.13200161 -0.116824955
000050 49 de e3 3c bf 37 36 bd 85 dd cf 3d 5d 7c 53 bc
       0.027815955 -0.044486757 0.10149673 -0.0129080685
000060 09 c9 4f bc 4f d8 6f be 38 f6 aa bd 66 87 d2 3c
       -0.012682208 -0.23422359 -0.08347744 0.025699329
000070 ac 70 a3 bd f0 6b cc bd f1 7c 4c 3d 7a 2b 40 bc
       -0.07980475 -0.09981525 0.04992384 -0.011729116
000080 8b 47 54 3d 66 7a ab 3d ed 3b b3 3c 32 a5 86 3c
       0.05182604 0.08372955 0.02187916 0.016436193
000090 29 ed 20 bd a4 f6 58 bd 2a 63 26 bd 0b fb e5 3d
       -0.039288674 -0.05296959 -0.040621914 0.11229523
0000a0 c9 10 4f be 68 31 02 bc bf 8d cd 3d d4 23 17 be
       -0.20221247 -0.00794635 0.100368015 -0.14759761
0000b0 07 43 61 bc c1 db 38 3d 27 05 97 3d 65 56 8b 3d
       -0.013748891 0.04513145 0.073740296 0.06803588
0000c0 e0 ce 94 bc 15 1e 48 3e ca c5 41 be 13 fa 95 3b
       -0.018165052 0.19542725 -0.18923107 0.0045769303
0000d0 4d e8 74 3d fd d1 aa 3c 74 7f 45 bc 1e dd 85 bd
       0.05979185 0.020852083 -0.012054313 -0.065363154
0000e0 a9 58 14 be 6a 80 cc bd f4 8a c9 bd 24 97 18 3b
       -0.14486946 -0.099854305 -0.09840956 0.0023283446
0000f0 27 fc dc 3d 26 41 7e 3d 6f 9b 7a bd 07 15 18 3e
       0.10790282 0.06207385 -0.06118339 0.14851771
000100 85 88 72 3e ee 2d 87 3d f5 c9 20 3e c4 00 3a 3d
       0.2368489 0.06600557 0.1570204 0.045410886
000110 b0 f2 1f 3e f9 a0 b5 3d cf b9 a3 3c fb 03 8d bd
       0.15619922 0.08868594 0.019986061 -0.06885525
000120 41 05 8a bd 8d 3a 2d be b1 52 07 be 88 3f 50 3e
       -0.06739283 -0.16916867 -0.13215138 0.20336735
000130 0a a3 5d 3d 0d 33 2f be de 16 4c 3d cb 1b 06 3d
       0.054110564 -0.17109318 0.049826495 0.03274135
000140 1f a5 81 3d 5d d0 88 3c 3c a6 4b 3e 31 e4 b7 3c
       0.063303225 0.016700918 0.19887632 0.022447677
000150 44 be 33 3d d0 a5 b1 bc 95 ee a6 3b 79 5a 10 bd
       0.043882623 -0.02168551 0.005094359 -0.03524253
000160 c7 c3 c2 bd d7 8f 33 be 40 40 3d 3c 8f f8 e9 bd
       -0.09509998 -0.1753534 0.011550963 -0.11424362
000170 b0 4f aa bc 37 b2 23 bd 26 14 c0 bd 2c 3e 67 bc
       -0.020789951 -0.03996488 -0.09378843 -0.014113944
000180 dc b0 b8 3c a5 58 01 bd 2c c4 01 3e d8 73 15 3e
       0.02254527 -0.03157868 0.1267249 0.14594972
000190 35 ff 7b 3d 70 6a 22 3d ef 84 8d 3d c1 a3 4e be
       0.06152268 0.039652288 0.06910121 -0.20179655
0001a0 95 c4 a7 3c f9 ea f1 bc da f7 22 bd fe f0 87 bd
       0.02047948 -0.029530989 -0.03978715 -0.066377625
0001b0 4a 6a 25 be 8f 82 75 3b ec 11 d5 bc ec 8d 6e bd
       -0.16153827 0.0037461852 -0.026009522 -0.058240816
0001c0 5c a4 a4 bd ed c3 e1 3d 8f a1 ab 3c 59 e3 04 3d
       -0.080391616 0.11023698 0.02095106 0.032443378
0001d0 ac e2 38 3b 58 03 ce 3d 0b c1 92 3d b8 ae a4 3d
       0.002821128 0.100592315 0.07165726 0.080411375
0001e0 ab 22 cc 3d 72 26 55 3e f3 68 2d 3e 12 ef 24 bd
       0.0996755 0.20815447 0.16934566 -0.040267058
0001f0 22 7b d1 bd ae 7f 10 bd 03 90 8f 3b ed 56 59 3d
       -0.10228564 -0.035278015 0.004381181 0.053061415
000200 f7 10 b9 bd 23 69 f1 bd 56 30 22 3d 48 da 1b bd
       -0.09036439 -0.11787631 0.039596878 -0.038049966
000210 c6 47 b7 3c b1 75 50 bd 71 1a e3 3d 2d 6a ed 3c
       0.022373091 -0.05089349 0.11089028 0.028981293
000220 ee 9b 2e 3e b3 cd 96 bd cb fd 1a be 01 d2 ac 3d
       0.1705167 -0.07363453 -0.15135877 0.084384926
000230 78 a2 5c be f3 53 60 bd 84 4e 1f be 18 7d 3c bd
       -0.21546352 -0.05476756 -0.15557295 -0.046017736
000240 a7 87 58 bd 1a 9c 06 bd 09 70 08 3d e2 cf d3 bd
       -0.052863743 -0.032863714 0.03330997 -0.10342385
000250 e9 69 05 bd eb 82 9f 3d eb 5c 88 bd 35 29 38 3e
       -0.032571707 0.077886425 -0.06658348 0.17984469
000260 be 06 26 3e 7d 0b d7 3d 0f 7f c9 3d 10 dc 9d 3b
       0.1621351 0.10500238 0.09838688 0.0048174933
000270 45 6e 96 bd 2f 97 44 bc 51 87 a9 bc ce 9f 0f 3d
       -0.07345251 -0.011998936 -0.020694407 0.03506451
000280 15 a1 6e 3b af e9 34 3e b9 40 3c 3d e3 79 49 3d
       0.003641193 0.17667268 0.04596016 0.049188506
000290 99 7d d0 bd 9d 25 10 be 96 9b 9f bd 6a 11 21 be
       -0.10180206 -0.14076848 -0.077933475 -0.15729299
0002a0 ae ce 6a bd 63 2f 37 be 91 f3 c3 bc 55 8d 85 3c
       -0.05732601 -0.1788917 -0.023919852 0.016302744
0002b0 bd 46 ce bd d8 af 82 3d d9 d8 e8 3d 4a 50 9a bd
       -0.10072086 0.06381196 0.113694854 -0.07534845
0002c0 70 19 28 be d1 b2 d9 bd 95 da 18 be de 0b 17 be
       -0.16415954 -0.1062981 -0.14927132 -0.1475062
0002d0 03 98 f0 3b 5e fc 6c bc 46 6a 8a 3d 34 27 26 3d
       0.00734234 -0.014464466 0.06758551 0.04056473
0002e0 e7 24 e6 bd 70 e0 f9 3c c4 78 0c be fb 1d 98 bd
       -0.11237507 0.030502528 -0.13717943 -0.07427593
0002f0 ff 8a 5f 3b ae e8 8f 3d ba ec 2d 3e aa 91 08 3e
       0.0034109948 0.07026802 0.16984835 0.13336816
000300 09 5b e7 3c 86 ae 89 3d b8 0b 54 3e 6c 14 a1 3d
       0.028241651 0.06722741 0.20707595 0.07865223
000310 2b 6a 58 3d 1b d3 2b 3e 47 ca 15 bc 23 95 d2 bd
       0.052835625 0.16779749 -0.009142465 -0.10282352
000320 47 eb 71 3d 94 09 83 3e b8 0a ff 3d eb 3b f6 3c
       0.05906227 0.25593245 0.12453216 0.030057868
000330 37 99 48 3d 49 18 d8 bd 6f e8 80 be 82 bc 45 be
       0.048974242 -0.10551507 -0.25177333 -0.19310191
000340 57 b0 f6 3b 7e 48 11 be c3 04 67 3e 07 f8 56 3d
       0.0075283456 -0.1418781 0.2256041 0.05248263
000350 e2 74 51 3d 08 1b 56 3e ef d2 f1 bd 50 b5 cf 3b
       0.05113686 0.20908749 -0.118078105 0.006338753
000360 49 7a 18 3d 73 7f 07 bd 63 39 78 3d d5 9b 16 3c
       0.037225995 -0.03308053 0.060601603 0.009192427
000370 f0 78 14 3c bc 94 0d 3e 7e 0a ab 3c 23 78 93 bd
       0.009062037 0.13826269 0.020879027 -0.07200649
000380 42 f0 f2 3c 00 60 fe 3d e3 c3 f9 3d 15 bc 0e 3e
       0.02965558 0.12420654 0.121955656 0.13938935
000390 e0 1f 9d 3c d5 3d 22 bc f2 38 e6 bd 95 4a 5b bd
       0.019180238 -0.009902437 -0.1124133 -0.053537924
0003a0 3f 4f ba bc 69 4e 87 bd 7e 64 f7 bd 75 f1 91 3d
       -0.022742866 -0.066067524 -0.12079714 0.071261324
0003b0 52 81 16 3d 29 e7 d9 bd 13 3e 61 bd 4c df 3b 3e
       0.036744423 -0.106397934 -0.05499084 0.183469
0003c0 02 0b aa 3d e2 01 d7 3d 82 09 e0 3d a5 0c 36 3e
       0.08302881 0.10498406 0.109393135 0.17778261
0003d0 6d a1 41 bc 63 47 4c 3b 19 61 db bd 85 0c 33 be
       -0.011818272 0.003117048 -0.10711879 -0.17485245
0003e0 0a 85 dd 3c fd 18 7d 3d 20 5b 42 3c 28 93 7b bd
       0.027040977 0.06179141 0.011862546 -0.061419636
0003f0 96 5f 35 be 36 b1 db bd 14 57 64 bd de e0 1e 3e
       -0.17712244 -0.1072716 -0.055747107 0.15515468

conv01.bias f4 [16]
000000 3d 2f 1f 3c 78 09 58 3c b5 4b 27 be 17 3b 6f 3c
       0.009715852 0.013185851 -0.16337474 0.01460149
000010 e2 fb 17 be 49 f0 e7 bc 43 af c5 3d 28 c5 3a 3e
       -0.1484218 -0.02831282 0.09652569 0.18239272
000020 07 67 9a 3d 92 78 3b be 7f 03 bf bd b1 dc 06 3f
       0.07539182 -0.18307713 -0.09326839 0.526805
000030 22 86 a8 3c d7 42 71 3e d7 f1 94 3d 6f a6 d3 3e
       0.020571772 0.23560654 0.0727269 0.41337916

conv02.weight f4 [22, 16, 3, 3]
000000 5f 1a 8c bd 33 f9 ae bd 6f ef 8b 3c 8c d0 3f 3e
       -0.068409674 -0.08543625 0.017081944 0.18731898
000010 2c 9a 4c 3e 89 9d fb 3d 95 c7 92 bd a7 6a dd b8
       0.19980687 0.12285907 -0.071669735 -0.00010557967
000020 fc ec 96 3c de 77 0f bc 1b b7 2a 3d e0 7e e8 3d
       0.01842355 -0.008756606 0.04167853 0.113523245
000030 3f e5 c8 bd c9 08 8b be c4 93 b5 3d f9 18 40 bd
       -0.0980935 -0.2715514 0.08866075 -0.046898816
000040 e7 8e d4 bc 23 88 03 be 10 58 47 bc ae 9f 63 3b
       -0.025947047 -0.12844901 -0.012166992 0.0034732628
000050 d5 f8 1b be ba 73 1d bd ba 3e 6a 3d bd 82 8a bd
       -0.1523164 -0.038440444 0.057188727 -0.067632176
000060 36 0b 64 3c a5 07 9d 3d f7 e4 a2 3d f2 5f 49 3d
       0.0139186885 0.07667474 0.07953828 0.049163766
000070 40 93 48 bb ff 55 f8 3c 0c e1 80 bd f6 f1 05 3e
       -0.0030605346 0.030314444 -0.06292924 0.13080582
000080 05 89 e5 bc d1 b6 48 3e 48 0b 83 3d a3 ba 1d 3d
       -0.028019438 0.19600989 0.06398636 0.03850807
000090 eb be 95 3d 2d c0 e8 bc e3 fb a9 bc e7 90 19 3e
       0.07311805 -0.028411949 -0.020749992 0.14996682
0000a0 f8 32 f9 bc a8 ec ea 3c 24 54 ff 3d 01 2e 38 3e
       -0.030419812 0.0286773 0.124672204 0.17986299
0000b0 72 a6 f8 3d ad b3 e9 bd 56 6f 4c bd 98 a9 09 3e
       0.12141122 -0.114112236 -0.049910866 0.13443601
0000c0 59 ba 07 3e f3 0f a8 3c 40 fd f9 3c 9b ba 92 be
       0.1325468 0.020515418 0.030516267 -0.28657994
0000d0 23 65 8e be dc 6b 1d bd 04 39 62 3b 07 dd 63 3c
       -0.27811536 -0.03843294 0.0034518847 0.0139076775
0000e0 f1 65 37 bd 1d 00 db bd 23 b1 98 3c e5 b8 ab bb
       -0.044774953 -0.10693381 0.018639153 -0.005240547
0000f0 52 57 0c bd 4c f3 03 bc 54 21 96 3c 4c 4a 3f 3d
       -0.034262963 -0.008053612 0.018326439 0.046701714
000100 c5 a5 ab bc 31 6a b5 bd 53 0d a0 bc 1e 59 83 3d
       -0.020953069 -0.08858145 -0.019537603 0.06413482
000110 5a 4c 60 bc f4 8d 9d 3c 80 bf 0e 3c 2b a6 4d bd
       -0.013690079 0.019232728 0.008712649 -0.0502073
000120 d1 1d 9c bd 26 82 8f 3c a8 65 64 3d e4 9f fa bc
       -0.076228745 0.017518114 0.05576101 -0.03059382
000130 7f 49 2f be 04 7a 94 3d bd 0d ca 3d bc 95 61 bc
       -0.1711788 0.07249835 0.098659016 -0.01376861
000140 ad bb 30 3e fb 7f d6 bd 1a 62 de bd c0 a3 f5 bd
       0.17259093 -0.10473629 -0.10858555 -0.119941235
000150 d4 7a d8 3c da 01 48 3e 0b 44 53 be 74 3e 36 3d
       0.026425757 0.19531956 -0.20631425 0.044493154
000160 17 2f 5b 3d 94 32 5b bc e9 62 95 bd 9d f7 d7 3c
       0.053511705 -0.013378758 -0.07294256 0.026363188
000170 71 16 48 bd cd cc 9f 3d a2 28 98 bd 74 34 f2 bc
       -0.048849527 0.078027345 -0.07429625 -0.029566027
000180 3c 23 1f be 30 23 90 3b 26 e8 1e bd 4e 2e a8 bd
       -0.15540785 0.004398726 -0.038795613 -0.08211957
000190 a2 89 22 3c cc e8 52 bb 5d a3 2f be 78 6e 2f be
       0.0099205095 -0.0032182215 -0.17152162 -0.17131984
0001a0 6a 31 b5 bc 32 bd 7e 3d 78 5a 99 3d 97 c5 f5 3d
       -0.022118289 0.06219215 0.07487959 0.12000578
0001b0 ca 49 88 bc d7 9a dc bc 9c 97 c5 3d 9f 7b 08 3e
       -0.016636748 -0.026929302 0.09648058 0.13328408
0001c0 7a 5b 17 3e 82 a0 a7 3c 17 38 cc 3d 92 2b ac 3d
       0.1478099 0.020462278 0.09971636 0.08406748
0001d0 8d 4a 4c 3d 32 2a ae 3d b6 16 4b 3d c7 5b 12 bd
       0.049875785 0.08504142 0.049582206 -0.035732057
0001e0 35 7a 2b bd 16 3e 66 be 71 a4 9c 3d 75 a0 a0 bd
       -0.041864593 -0.22484621 0.07648552 -0.07843105
0001f0 63 2a 35 be 6e 55 52 3d 8b a4 ea bc c9 6e 90 bd
       -0.1769195 0.051351003 -0.028642913 -0.070523806
000200 ad 51 6d 3d 56 a4 1d 3d 41 ca 01 be 43 07 21 3e
       0.05793922 0.0384868 -0.1267481 0.15725426
000210 8e ff 3e be 2e d6 75 3d 88 d4 f5 ba 59 f1 66 bc
       -0.18652174 0.06001871 -0.0018755356 -0.014095628
000220 f0 4b 72 3c 08 32 08 3c a1 c7 e7 bd 85 80 2e be
       0.014788613 0.00831271 -0.11317373 -0.17041214
000230 d5 6b cd bc 92 df ff 3d 5f 89 a2 3d 9b 4e 5f 3c
       -0.025075832 0.124938145 0.07936358 0.013629581
000240 ab eb c4 3c 09 ca 05 3e 6c 6a 13 3c 04 a4 92 3d
       0.024038156 0.13065352 0.008997541 0.0716019
000250 f3 d1 0b 3d 92 83 7c 3c fc 85 15 bd 9d ad e3 bd
       0.03413577 0.015412228 -0.03650473 -0.111170985
000260 f4 bd 16 be b1 b6 26 be f7 3f 3c 3c 39 4a 70 3c
       -0.14720899 -0.16280629 0.01148986 0.014666134
000270 87 75 17 bd 5d c2 1d bd 39 c5 55 bd d9 6a 6f 3b
       -0.036977317 -0.038515437 -0.05219004 0.0036532192
000280 27 e8 18 3a 7a e3 7b 3c ec 9d 0c bd e1 2e 36 3c
       0.0005832933 0.015374059 -0.034330294 0.011119575
000290 15 5b 9f 3c fd bb ac bd 17 73 bf bd 53 c4 72 bd
       0.019452611 -0.084342934 -0.093481235 -0.05926926
0002a0 63 58 7b 3c d5 42 00 bd 61 24 07 3e 3b 41 0a 3c
       0.015340897 -0.031313736 0.13197471 0.008438404
0002b0 9b f0 2b 3e de a4 cf 3c 17 9f 43 bb 24 44 b4 bd
       0.16791002 0.02534717 -0.0029849464 -0.08802059
0002c0 be b4 98 3d 9f 63 31 3c 7d 00 9e be cf 3a d5 3c
       0.07456349 0.010826974 -0.30859748 0.026029019
0002d0 ce a5 10 3d 47 04 3e bd bd b5 2a 3e 02 7d 23 bc
       0.035314374 -0.046390798 0.1667089 -0.009978535
0002e0 1b c1 d7 bc 53 6c 92 3c 11 5f b8 3d 87 8c 98 bd
       -0.026337197 0.017873919 0.090025075 -0.074486785
0002f0 c0 c2 72 3c 81 1f 19 be bc ca a0 bc b3 2c b2 bc
       0.01481694 -0.14953424 -0.019627921 -0.02174983
000300 7a 03 cc bd 5e cd 98 bd 3c 56 1c be 7e 2e ae 3d
       -0.099616006 -0.07461046 -0.15267271 0.085049614
000310 6b 72 26 3e d8 65 08 be 56 fa 58 bd f9 8c e8 3d
       0.16254584 -0.133201 -0.052973114 0.113550134
000320 f1 e7 8f 3d 88 22 b8 3b b2 53 70 bd d6 4a 60 3d
       0.07026661 0.005619351 -0.058673568 0.05475887
000330 2b dc a5 3d 02 79 15 be 57 b3 be bd 90 5c 9d bb
       0.08098634 -0.14596942 -0.0931155 -0.004802294
000340 58 31 d2 bc d9 27 12 3e 0b 3c 93 3c 01 92 d3 3d
       -0.025658295 0.14273013 0.017972967 0.103305824
000350 52 41 dd 3d 68 86 71 be 65 f6 91 bd d1 9d 5c bd
       0.108034745 -0.23586428 -0.07127074 -0.053861443
000360 e5 34 1b 3e a3 23 cf 3d a8 b6 3c 3d e4 a0 9a bd
       0.15156896 0.10114219 0.046072632 -0.07550219
000370 11 25 74 bc 29 61 94 bd 58 db 6f 3c 6b 29 f8 3d
       -0.014901415 -0.07245094 0.014639698 0.12117275
000380 20 c4 cc 3d b6 1b 7a 3e 2c 56 b9 3c ca 4c ab bd
       0.099983454 0.24424633 0.022624098 -0.08364256
000390 93 8c db bd 69 07 3e bd 21 b4 3e 3d 93 ae e7 bd
       -0.10720172 -0.046393786 0.046558503 -0.11312594
0003a0 8a 21 b9 bb 71 58 83 bc ac 34 db bc 27 0f 3f 3d
       -0.00564975 -0.016033383 -0.026758514 0.04664531
0003b0 17 51 09 3e 81 d3 e2 bd 11 6e 43 be b1 a6 e5 3b
       0.1340984 -0.110754974 -0.19084956 0.0070083966
0003c0 cf ac 6f 3d 65 b8 c1 bc 35 b1 44 3e 45 7f 54 3c
       0.058514412 -0.023647496 0.19208224 0.012969797
0003d0 cd c0 a0 3c e1 95 04 3e dd 3d 3d 3c b8 b1 78 3d
       0.019623185 0.129478 0.011550394 0.06071636
0003e0 66 16 eb bc 03 bd 4e be d4 6d 5b be a7 54 e8 3d
       -0.028697204 -0.2018929 -0.21428615 0.11344271
0003f0 96 d0 99 bc 51 c9 26 3c 07 fe 4f 3d eb 54 27 bd
       -0.01877622 0.0101798335 0.05077937 -0.04085247

conv02.bias f4 [22]
000000 cc 9c 78 be ba 2a c6 bd e6 d2 05 be 02 98 e6 bd
       -0.24278563 -0.09676118 -0.13068733 -0.11259462
000010 0d d4 d6 bd a0 8f 9b be ab 0f c1 3c d6 15 63 be
       -0.10489664 -0.30383015 0.023567041 -0.22176298
000020 4f 43 4c be 89 bd d5 bc c2 98 ef bd 2a 82 bd bd
       -0.19947551 -0.026091354 -0.11699058 -0.092533424
000030 dd cd 24 3d 49 f5 c1 bd 23 13 3c be 7a 94 1a be
       0.04023539 -0.094706126 -0.18366675 -0.15095702
000040 99 a9 59 be 24 27 8c be 08 cd 3a bd 4a 53 77 be
       -0.21256103 -0.27373612 -0.04560569 -0.24152866
000050 20 f0 e8 be cd b6 a0 be
       -0.454957 -0.31389466
