weights/3. classify for triplet loss - models/fully_connect.pt (torch, 689668 bytes, 10 tensors)

linear00.weight f4 [256, 352]
000000 7d a8 48 3d 9a 61 62 3d 14 53 33 3c 84 a4 60 3d
       0.048988808 0.05526886 0.0109451 0.054844394
000010 3f 06 f6 bd 7e 87 de bc 64 c9 da bd d6 4a 28 bd
       -0.1201291 -0.027164217 -0.106829435 -0.041086994
000020 45 ea 13 bc fd f7 f3 bd cb 33 dd bc 88 1a 5c 3e
       -0.009028022 -0.119125344 -0.027002236 0.21494496
000030 5b 31 f4 3c d3 54 5c 3d ec 91 db bb 04 dc 60 3e
       0.02980869 0.053791832 -0.006700745 0.2195893
000040 2b 76 a0 bd bd d4 1f 3c b2 05 cd 3d 16 9c 1f 3e
       -0.07835039 0.009755311 0.10010852 0.15586886
000050 5a 81 ba 3d 4a 7a 64 3d c0 0f 7a 3c a6 37 ab 3d
       0.09106703 0.055780686 0.015262544 0.083602235
000060 8e c9 d7 3d 01 b7 eb bd df 33 96 3d d8 9d 71 bd
       0.105364904 -0.115095146 0.073341124 -0.058988422
000070 71 04 c1 3d b8 ba 69 3d d9 42 18 bd 1b d7 ef 3b
       0.09424675 0.057062835 -0.037173126 0.0073193437
000080 1d 1b 9c bc 8b 22 c6 bc ce 12 3f bd 8b f0 c1 bc
       -0.019055897 -0.024186393 -0.046648793 -0.02367427
000090 09 e5 37 3c fa da 8f bd b2 e5 13 bd e9 66 ed bd
       0.01122404 -0.07024188 -0.036107726 -0.11591894
0000a0 d5 3b 66 bd e1 85 ab 3d cc 15 fa bc f3 0a 0b bd
       -0.056209404 0.08375145 -0.030527972 -0.03394599
0000b0 66 e4 b1 bc 07 15 c2 3d ed 26 4a be 24 b9 0a 3c
       -0.021715354 0.09476667 -0.19741412 0.0084669925
0000c0 ad 27 e6 3b eb cc e4 3d 03 3d af 3c 84 3b 25 bd
       0.0070237727 0.111718975 0.021391397 -0.04033996
0000d0 e2 7f 88 3d 6c 02 2c bd f2 e9 1b bd b3 36 fc bd
       0.06665017 -0.041994497 -0.038064905 -0.123151205
0000e0 20 88 95 3d 21 3d 51 3b c6 70 8f bd bd c2 29 3e
       0.073013544 0.0031927305 -0.07003932 0.16578193
0000f0 a1 6f 92 3c bf 38 31 be 39 a8 18 be 59 29 00 3e
       0.017875494 -0.17306803 -0.14907922 0.12515773
000100 39 24 0e 3d 0a 37 7a 3d b8 fc 21 3e a2 e0 11 bc
       0.034702513 0.061087646 0.15819061 -0.008903654
000110 1e ff 6e 3d b0 22 64 3c 39 b4 15 bd e8 3d 11 3e
       0.058348767 0.013924286 -0.036548827 0.14183772
000120 46 68 e0 3d 5a f0 8b 3d ea 3d dd bc e3 95 6f 3c
       0.109573886 0.06832953 -0.027007062 0.014623138
000130 22 60 f8 3b 1f eb 8c bc e8 93 0f be c4 73 89 3d
       0.0075798193 -0.017201958 -0.14021266 0.06711534
000140 ad 73 1b bd 6a 58 83 bd 92 ac ae 3c 76 83 d8 3d
       -0.037952114 -0.06413348 0.021322522 0.10571949
000150 c7 18 99 bc 3c 3d 4b 3c d8 87 aa bc fe bd 6f 3d
       -0.018688573 0.012404736 -0.020816728 0.0585308
000160 2e e2 a4 3d 54 e3 0b 3b d1 5c 70 bc 5e 77 1f 3d
       0.08050953 0.0021345215 -0.014670567 0.038932197
000170 df 78 8a bd 65 fb 2e be 54 0b 26 be 75 61 d7 3d
       -0.067613356 -0.17088087 -0.16215259 0.10516635
000180 43 b7 f2 3d fc be c3 bc 19 7e 7d bc 4c 79 9b 3c
       0.11851361 -0.02389478 -0.015471959 0.018978737
000190 69 31 64 bd 4d 4e d7 bd d0 f5 b7 3c eb 3f 24 bd
       -0.055711184 -0.105129816 0.02245608 -0.04010002
0001a0 ff 0b b2 bd e1 73 36 3b 32 bc a4 3d 4b 9d 6d bc
       -0.08693694 0.0027840065 0.08043708 -0.014502834
0001b0 68 4e c6 3d 97 80 87 bc a6 35 ba 3d b9 52 de 3d
       0.096829236 -0.016540809 0.09092264 0.10855622
0001c0 84 d5 6e bd ba e0 cc bd 3d 66 8a 3d 95 08 d0 3c
       -0.058309093 -0.10003801 0.06757782 0.025394717
0001d0 e6 30 04 3e c9 3f e5 3d c3 06 e3 3d 97 fa 26 3e
       0.12909278 0.11193807 0.11085274 0.1630653
0001e0 98 d5 97 3d 6b 63 57 3d f0 6a 51 3d 5c cc 10 bd
       0.07413787 0.052585047 0.051127374 -0.035351142
0001f0 ab ef 55 3e 30 b2 ee bd e0 53 79 3c b8 18 44 3e
       0.20892207 -0.1165508 0.015217751 0.19150054
000200 0f 12 bd bd 1c cd 6f bd a9 fd 57 bd 22 3d 56 3d
       -0.0923196 -0.058545217 -0.052732144 0.052304395
000210 78 bf 80 bd b5 0a ff bc 3e 94 b6 3c 54 7a 37 bd
       -0.0628652 -0.031133035 0.022287484 -0.044794396
000220 7d 91 0c 3d 87 ae 1f be 11 c9 48 3c 33 7f b3 bc
       0.034318436 -0.1559392 0.012254969 -0.02191124
000230 96 76 4b 3d ae 9b e6 bd c5 fd 7a bb e3 c7 70 3d
       0.04967364 -0.11260162 -0.003829823 0.058784377
000240 03 6b dd bd 1e ea 43 3c 6b 93 35 bd 5d ea f5 3b
       -0.108114265 0.011957673 -0.04433004 0.007504745
000250 cc cd 92 3d 3b be 6b bc 05 39 5c bd a2 61 99 bd
       0.07168159 -0.014388616 -0.053765316 -0.07489325
000260 12 4e 19 3d f8 5a 99 3d 00 f0 7c 3c 03 94 32 bd
       0.03742797 0.07488054 0.01543808 -0.043598186
000270 f9 b8 2d bd e9 56 93 3d ee 39 8a 3d 30 51 a3 bc
       -0.04241273 0.07194311 0.067493305 -0.019936174
000280 64 8f b0 3d a4 e4 92 bd 73 0e 88 3d d7 cd 3b bd
       0.086210996 -0.07172516 0.06643381 -0.0458506
000290 21 51 a2 bd dd e5 5a bd ef 40 80 bd 96 fc 8e bd
       -0.0792563 -0.05344187 -0.06262385 -0.06981771
0002a0 e6 38 a6 3d b0 86 cb 3b 0a b1 ed bc c8 d1 23 bd
       0.08116321 0.0062111244 -0.029015083 -0.039994985
0002b0 79 7b 48 3e be 3f 37 bd 08 2c 5a be 28 f4 b5 3d
       0.19578351 -0.044738524 -0.21305859 0.0888446
0002c0 0d 7b 6f 3d 5b 6a b9 bc 96 b7 0a 3d 41 c2 67 3c
       0.05846696 -0.022633722 0.033866487 0.014145435
0002d0 40 07 27 be e1 af bc bd 40 e0 e2 bd a4 c5 e0 bd
       -0.1631136 -0.09213234 -0.110779285 -0.10975197
0002e0 70 47 ad 3d b3 87 22 3d e3 75 1b 3d 90 28 74 3d
       0.08460891 0.039680194 0.037954222 0.059608996
0002f0 74 26 8f 3d 2d 8c 4f 3d 8d 73 58 be 0c b6 7e bd
       0.06989756 0.05067079 -0.21137829 -0.062185332
000300 d4 43 22 3d b9 8f 1b bc cd 8e 5f 3e b1 7b b7 3c
       0.039615467 -0.009494715 0.21831818 0.022397848
000310 c6 73 83 bd c8 9a 1a bd 2c c6 c1 3d 10 1b d0 bd
       -0.064185664 -0.037745267 0.094616264 -0.10161412
000320 8e 39 a4 bc 84 42 a6 be 2f 97 9b bd 5f a6 e2 3c
       -0.020046975 -0.32472622 -0.07597195 0.027667223
000330 5c 14 9a bc b6 61 7e 3d 34 74 fa bc 7b 26 6d 3d
       -0.018808536 0.062104903 -0.030572988 0.057898026
000340 99 a0 0c 3e 29 7c a0 bd 94 d1 8a bd 5c c4 8d bc
       0.13733138 -0.07836182 -0.06778255 -0.017305546
000350 a7 0b 12 be 6f b0 ef 39 28 c1 03 bd 0a a3 24 3d
       -0.14262258 0.00045717086 -0.03216663 0.04019455
000360 d9 17 30 be 70 34 18 be ee 5f de bd 35 16 16 38
       -0.17196597 -0.14863753 -0.10858141 3.578347e-05
000370 68 f7 0c be 3f 29 15 bd 7b e8 8d be c6 83 10 bd
       -0.13766253 -0.03641629 -0.2771643 -0.03528192
000380 72 e9 66 3b 6c 95 b8 3d 6d b8 fc bd 18 72 b6 3d
       0.003523436 0.09012875 -0.12339864 0.089084804
000390 87 d8 0c bd 7c c3 ab bd 8f 12 22 3c 9e 83 7e 3c
       -0.034386184 -0.08386895 0.00989212 0.01553431
0003a0 e7 61 58 bc ab bc 4d bd 9c 65 36 3d 37 79 1a bd
       -0.0132069355 -0.050228756 0.044530496 -0.037713256
0003b0 e2 d5 56 3e 76 57 a9 bc c2 39 96 3d 89 c9 26 be
       0.20980027 -0.020671587 0.07335235 -0.16287817
0003c0 73 8e 18 3d 8d 40 02 3d 66 ee 75 bd d2 1c 3e 3d
       0.037245225 0.03179984 -0.060041808 0.046414204
0003d0 84 4a 2f bd d0 5f d8 bc fb 5b 81 bd 99 01 7b bc
       -0.042795673 -0.026412874 -0.06316372 -0.015320205
0003e0 ba 87 31 bc c9 7f c5 bd 55 32 2d be 60 18 f0 3b
       -0.010835582 -0.09643514 -0.16913731 0.0073271245
0003f0 d1 b3 77 3d 9a 25 e2 bd f3 5e c6 bd 9f 23 41 be
       0.06047422 -0.11042328 -0.09686079 -0.18861245

linear00.bias f4 [256]
000000 23 d6 89 bc 13 08 94 bb d7 9a a5 bc 81 ab 05 3d
       -0.016825741 -0.004517564 -0.020215435 0.032634262
000010 bd 51 51 bd 1f ae 58 3d e6 d7 0c be c9 09 87 bd
       -0.051103342 0.05290043 -0.13754234 -0.06593663
000020 f6 f1 ac bd 40 c0 1a bd a8 f8 ec bd 42 31 8d bd
       -0.08444588 -0.037781 -0.11570865 -0.06894161
000030 f8 e2 87 bc 29 5d d9 bd 4c d6 03 be 18 b5 7a bd
       -0.01658772 -0.10613472 -0.12874717 -0.06120786
000040 87 a5 ec bc 73 4b 27 be e5 05 49 3d 8b 77 2d bd
       -0.028887523 -0.16337375 0.049077887 -0.042350333
000050 ee e5 e3 bd 8f 41 b7 bd 2e b6 51 bd 1c 2a b3 3d
       -0.1112784 -0.08948051 -0.05119913 0.08748266
000060 9c fd f0 bc 7c 11 89 3d 57 a7 07 bd 9d d3 66 bd
       -0.029417805 0.06692788 -0.033118572 -0.056354154
000070 c1 6d 2f bd c1 df 86 bd 36 b9 85 bc 8c d1 7c bc
       -0.04282928 -0.065856464 -0.016323667 -0.015430819
000080 89 cb 21 3d 1f 47 1b bd ff 92 04 bd 86 fe 70 bd
       0.039500747 -0.037909623 -0.03236675 -0.058836482
000090 28 50 7f bd a8 06 65 ba 0b 72 ed 3d 1b 12 8c bd
       -0.062332302 -0.00087366486 0.115940176 -0.06839391
0000a0 17 1d fd bd 41 a2 aa 3d f9 02 9f 3b 74 c2 d5 bd
       -0.12359064 0.08331729 0.0048526493 -0.104374796
0000b0 78 15 0b bd d8 bd 22 be 4f 95 ea bd 4a f3 34 bd
       -0.03395602 -0.15892732 -0.114542596 -0.04417733
0000c0 ec bb 9f 3b 8f 30 5e bd 67 a7 c9 bc 24 69 d1 3c
       0.004874697 -0.054245528 -0.024615956 0.02556283
0000d0 ac 3a 79 bd df f4 2b bd fb 90 34 ba 24 1c 62 bc
       -0.06084697 -0.041981574 -0.0006888059 -0.013800655
0000e0 a7 2c ac 3c 2b 11 d5 3b bd 64 0a be c5 79 b8 3b
       0.021017386 0.0065022907 -0.13514991 0.0056297504
0000f0 eb 90 26 bc b6 24 82 3d cf 34 ff bd 19 4f ff 3c
       -0.010166387 0.06354658 -0.12461244 0.031165646
000100 3e 4a 84 bd 2b 1c 7b bd 17 c4 ac bd f4 ce c2 3c
       -0.06459473 -0.06130616 -0.08435839 0.023780324
000110 45 7d 9c bc c3 c2 b9 3c 24 c9 b3 3d 51 10 8f 3d
       -0.019102702 0.022675877 0.08778599 0.06985534
000120 68 17 0b be 41 22 f7 3a 44 5b 45 bd 41 0c 87 3b
       -0.13583148 0.0018854813 -0.04818274 0.004121334
000130 d2 8a e8 3c 53 d5 af 3d 1b ed 1f bd 1b 8b 88 bc
       0.028386507 0.0858561 -0.03904448 -0.016667893
000140 6b 13 53 bd 95 ab 6c 3d a6 9f 19 3d 08 9f a6 bc
       -0.05153219 0.05778082 0.03750577 -0.020339504
000150 d1 f2 83 bd b9 ec 26 bd 20 97 89 bc 0a 31 11 be
       -0.06442798 -0.0407531 -0.016795695 -0.14178863
000160 3f 5f f6 bc 1e d4 a9 3c a0 30 b3 bc 0d 6c 90 bc
       -0.030074714 0.020731028 -0.021873772 -0.017629648
000170 e8 c5 20 3c 0c 05 f9 bc 11 43 f9 bb a0 4f 3b 3b
       0.0098128095 -0.030397914 -0.007606872 0.0028581396
000180 93 6a 11 bc 5b 2f 57 bd 9d 56 18 bb e5 28 c0 bc
       -0.008875507 -0.052535396 -0.0023244985 -0.023457
000190 8a ad 1c bd 2f ee 3f be a9 8b 96 bd 94 cc 31 bc
       -0.038251437 -0.18743204 -0.07350857 -0.010851998
0001a0 b3 36 e7 bd f6 6a 07 3d cc f2 4d bd 29 46 0a 3d
       -0.1128973 0.03306099 -0.050280377 0.033758316
0001b0 b8 c6 63 bc a9 59 38 be c7 71 1a 3d 6c ed 07 be
       -0.013902359 -0.18002953 0.037706163 -0.13274163
0001c0 94 e4 1c be 87 e7 00 bc 1b 0a d8 bd 20 b1 3c bd
       -0.1532157 -0.0078677 -0.105488025 -0.046067357
0001d0 8b 1e aa 3d 39 6f 28 bd 35 48 0d be 8f 65 e3 bd
       0.08306607 -0.041121695 -0.13797076 -0.11103355
0001e0 98 b1 c6 bc 30 5e 5a bd ef 58 6b bd 00 49 1a 3c
       -0.024254605 -0.05331248 -0.05745786 0.009416819
0001f0 e8 f7 e2 bc 0c 46 94 3c 67 d1 bf bc 65 05 a3 bd
       -0.027706102 0.018099807 -0.02341528 -0.07960013
000200 42 94 55 3c 66 03 18 bd ef cc 04 be 00 83 32 bd
       0.013035836 -0.037112616 -0.12968801 -0.043581963
000210 92 8e a1 bc 87 e7 73 3d af 49 cb bc 48 ac 0b bd
       -0.019721303 0.059546974 -0.024815409 -0.034099847
000220 ba cb a0 bd 1c 4e d5 bd 5c 95 bc bd 20 16 fe 3c
       -0.07851358 -0.10415289 -0.092081755 0.03101641
000230 46 87 2f bd 31 ff 10 be 71 6e 1c bd fd 54 87 3c
       -0.042853616 -0.14159848 -0.038191263 0.016520018
000240 e8 9a 25 be df a9 f9 bd a8 0f 2a be 95 8d 10 bd
       -0.16172373 -0.121906035 -0.16607535 -0.035291273
000250 ed 23 43 bc 73 07 92 3c ac 2c f3 bd 2a df aa 3d
       -0.011910421 0.017825818 -0.11873755 0.083433464
000260 84 75 0d bd 0c a8 e6 bb 3a 44 99 bd 39 73 af 3d
       -0.0345359 -0.0070390757 -0.07483716 0.08566899
000270 26 b7 18 be a5 df 44 3c 61 44 92 3c 61 bb 79 bd
       -0.14913616 0.012016212 0.017854871 -0.060969714
000280 6b 3b cf bc 47 bb 1f be 6a a9 0d be 8b 4e b9 3c
       -0.025296887 -0.15598784 -0.13834158 0.02262046
000290 6f 0a 9f bd 14 0a 38 3c 18 9e 39 3d 03 6e 54 bd
       -0.07765662 0.011232872 0.045316786 -0.051862728
0002a0 85 30 c0 bd 59 76 16 3d 06 a8 0d bd 74 65 d8 3c
       -0.09384254 0.03673396 -0.034584068 0.026415564
0002b0 a6 dd 66 bd fd 43 16 bd fa 2d f2 3c 1c 5f 1d 3d
       -0.056363724 -0.036685932 0.029562939 0.03842078
0002c0 15 84 85 3c e8 c5 3f bd a7 47 01 be 1e fa 43 3c
       0.016298333 -0.046819597 -0.1262499 0.011961488
0002d0 d0 95 ae bd ee 3f 07 bd 57 d8 53 3d 26 f9 4d bd
       -0.08524668 -0.033019952 0.05171999 -0.050286435
0002e0 b8 25 d8 3d 80 98 8a 3d 16 7e 2f be e4 94 6c ba
       0.10554069 0.06767368 -0.17137942 -0.0009024872
0002f0 a3 2c df 3c 53 f5 9b bd ee b6 32 bd 0a ce 97 3d
       0.027242964 -0.07615151 -0.043631487 0.07412346
000300 07 54 b9 bc 6b 01 a7 bd 55 4a b7 3b c6 d3 28 bd
       -0.022623075 -0.08154567 0.005593578 -0.041217588
000310 75 28 a8 3d fd 78 5d 3b 1b 12 ae bb 7f f9 ba 3c
       0.082108416 0.0033794038 -0.005312217 0.022824047
000320 b6 67 87 bd 57 21 a8 3d d1 a9 5e bd 4b 50 43 3d
       -0.06611578 0.08209484 -0.05436117 0.047683995
000330 bf 8c dc 3c a6 dc a7 3b 0b 8a 7b bc d7 7b 89 bc
       0.026922582 0.005122739 -0.015352736 -0.016782684
000340 56 b4 1f bd be 0b b2 3d dc 77 d8 3b 19 39 6c bd
       -0.03899034 0.08693646 0.006606085 -0.05767164
000350 f7 24 44 3c 96 81 a3 3b 2c 00 18 bc c9 11 a5 bd
       0.011971704 0.004989813 -0.009277385 -0.08060033
000360 3f db 55 3d 19 23 a4 bd 1e 48 e2 b9 bf f3 1a be
       0.052211042 -0.08014507 -0.0004315981 -0.15132044
000370 7f 5c 4b 3d 2b 3a c0 bd 2a 10 e9 bd 17 28 7b bd
       0.049648758 -0.09386095 -0.11380036 -0.06131753
000380 ae 14 1e 3d 56 f6 5a bd 6a 70 42 bd c3 5b 01 be
       0.03859394 -0.05345758 -0.047470488 -0.1263266
000390 03 bd 4f bd 84 fe af bd 03 af ad bd 29 88 9b 3d
       -0.050717365 -0.08593467 -0.084806465 0.0759433
0003a0 9e e2 c6 bd 1b 09 57 3b 29 75 2b bd a6 c1 36 3c
       -0.097111925 0.0032811824 -0.04185978 0.011154568
0003b0 b2 d1 5c bd 89 1c 77 bc b6 8f 9d bd 19 9d fc bc
       -0.05391092 -0.015082487 -0.07693426 -0.030836629
0003c0 7c a3 44 bd 1f b7 58 bd 9f b1 04 be 71 01 bc 3d
       -0.048007473 -0.052909013 -0.12958382 0.091799624
0003d0 a7 6f dc 3c 96 81 8f 3b b0 7e 84 bd ae 2d 58 3d
       0.026908709 0.0043794615 -0.06469476 0.05277794
0003e0 b4 13 62 3d 15 4a df bc b0 d4 af bb 69 1d e9 3c
       0.05519457 -0.027257005 -0.0053659305 0.028456407
0003f0 09 38 e2 3d a1 bd b3 3c 24 1d 95 bd e6 d6 be bc
       0.11045844 0.021941008 -0.07280949 -0.023295831

batch_norm00.weight f4 [256]
000000 4f 6e fb 3f de 4c ec 3f c0 53 f6 3f f3 da e9 3f
       1.9643039 1.8460958 1.9244308 1.8269943
000010 25 75 f1 3f 96 fe db 3f 6b 04 e8 3f ed ad dc 3f
       1.8863875 1.7187068 1.8126348 1.7240578
000020 c6 5e e8 3f 3e b2 df 3f de 9c d7 3f 49 4c e9 3f
       1.8153923 1.747627 1.6844747 1.8226405
000030 e0 e5 e3 3f 85 3f ea 3f 7f fb e8 3f 22 61 de 3f
       1.7804527 1.8300635 1.820175 1.7373393
000040 b4 9c e7 3f 02 94 d4 3f 9f 23 e2 3f 87 9b e8 3f
       1.8094697 1.6607668 1.7667121 1.8172463
000050 01 0d dc 3f a9 f6 d4 3f 4b 26 e8 3f 0c 62 dc 3f
       1.7191468 1.6637775 1.8136686 1.7217422
000060 c9 41 e7 3f a9 02 de 3f f6 00 f7 3f 70 b9 f0 3f
       1.8066951 1.7344562 1.9297168 1.8806591
000070 79 42 e7 3f 13 66 dd 3f ed 04 e3 3f 05 1e da 3f
       1.8067161 1.7296776 1.7735878 1.7040411
000080 0a 92 de 3f 81 a4 de 3f 07 d3 e6 3f c4 d0 f0 3f
       1.7388318 1.7393953 1.803315 1.881371
000090 74 44 e4 3f ff 68 dc 3f 4a 49 e1 3f 35 35 eb 3f
       1.783339 1.7219542 1.7600491 1.8375612
0000a0 51 1b e2 3f b8 6c e3 3f 0c ae e8 3f 19 64 fc 3f
       1.7664586 1.7767553 1.8178115 1.9718047
0000b0 3c 85 fa 3f a2 61 ec 3f 4b 27 d6 3f ba ce cf 3f
       1.957191 1.8467295 1.6730741 1.6234963
0000c0 a6 82 e2 3f aa 42 dc 3f 25 79 f1 3f 9e 68 e2 3f
       1.7696121 1.7207844 1.8865095 1.7688177
0000d0 5f 1c d9 3f 1d 02 ee 3f 58 32 d1 3f d4 c5 f6 3f
       1.6961783 1.8594395 1.6343489 1.9279122
0000e0 b2 3d d9 3f 16 ea d8 3f 84 57 d3 3f ad 2b e1 3f
       1.6971953 1.6946437 1.6511083 1.7591454
0000f0 36 a4 da 3f 22 58 e4 3f 42 ea e9 3f 1f fe e0 3f
       1.7081363 1.7839396 1.8274615 1.7577552
000100 f8 b6 e1 3f 0b c6 e7 3f 94 06 dd 3f a0 ef f6 3f
       1.7633963 1.8107313 1.7267632 1.9291878
000110 f4 00 de 3f e9 43 d6 3f 41 ff e0 3f 3a b6 ed 3f
       1.7344041 1.6739475 1.7577897 1.8571236
000120 e6 df e0 3f 6a 07 f7 3f 4b 41 df 3f 09 6f e3 3f
       1.7568328 1.9299138 1.7441801 1.776826
000130 6f 10 ef 3f 2d 21 e5 3f 0e ec d4 3f c7 5c e2 3f
       1.867689 1.790075 1.6634538 1.7684563
000140 7c d5 dc 3f 7a b5 cb 3f 01 e3 e6 3f 66 5a ec 3f
       1.725265 1.5914757 1.8038026 1.8465087
000150 e0 b5 ef 3f 2a 35 d7 3f 51 6d fd 3f 28 7d e4 3f
       1.8727379 1.6813099 1.9798986 1.7850695
000160 1d fa e7 3f 44 cb e0 3f 8e 2c ee 3f 46 8f e6 3f
       1.8123204 1.7562032 1.8607347 1.8012474
000170 39 b6 f1 3f 3c 21 e0 3f 60 c7 f0 3f 27 5e ee 3f
       1.8883735 1.7510142 1.8810844 1.8622483
000180 72 05 e6 3f 33 f9 cd 3f 3a 1b d4 3f c5 3b f1 3f
       1.7970412 1.6091675 1.6570809 1.8846365
000190 c7 08 e6 3f b3 32 ec 3f 89 4b e1 3f 28 f1 e6 3f
       1.7971429 1.8452972 1.7601177 1.8042345
0001a0 15 08 fc 3f 6c fa eb 3f fc e0 f6 3f bc 20 de 3f
       1.9689966 1.8435798 1.928741 1.735374
0001b0 d7 21 e5 3f 69 98 d6 3f 58 c9 e3 3f 96 0a e1 3f
       1.7900952 1.6765262 1.779582 1.7581356
0001c0 0c b0 e2 3f 99 fc e3 3f ca f1 f3 3f f8 f9 d1 3f
       1.7709975 1.7811462 1.9058163 1.640441
0001d0 57 f5 ea 3f 48 66 e6 3f 1c 12 f8 3f d1 fc e7 3f
       1.8356122 1.7999964 1.9380527 1.8124028
0001e0 54 46 e3 3f db b3 df 3f eb fc ed 3f 2b 77 c9 3f
       1.7755837 1.7476763 1.859281 1.5739492
0001f0 20 3d eb 3f 9a 4e d9 3f 8b b8 e6 3f a9 a2 ee 3f
       1.8378029 1.6977112 1.8025068 1.864339
000200 08 84 d6 3f 34 af e8 3f 50 fc cd 3f 36 f7 ef 3f
       1.6759043 1.8178468 1.6092625 1.8747318
000210 e5 35 ea 3f 3d e9 e1 3f 33 3f df 3f d2 19 e5 3f
       1.8297697 1.7649304 1.7441162 1.7898505
000220 69 63 fc 3f a8 77 d5 3f 1d 22 f6 3f b1 21 cd 3f
       1.9717838 1.6677141 1.922916 1.6025907
000230 9b 2f ef 3f b1 1f dc 3f 7c 07 e4 3f 3f 4d f2 3f
       1.8686403 1.7197171 1.7814784 1.8929824
000240 39 26 f2 3f a0 31 e2 3f d6 f2 e4 3f 3a 34 e3 3f
       1.8917915 1.7671394 1.7886608 1.7750313
000250 ed 0e e3 3f c4 51 f2 3f 56 69 ef 3f 4d 94 f6 3f
       1.773893 1.8931203 1.8704021 1.9264008
000260 9c 55 c6 3f 6c 81 d5 3f d7 f5 ed 3f c2 39 e7 3f
       1.5494876 1.6680121 1.8590649 1.8064501
000270 23 e7 da 3f 80 de e5 3f 4a 2b eb 3f 1a 33 e3 3f
       1.7101787 1.7958527 1.8372586 1.774997
000280 6c d7 e9 3f 56 bb f6 3f 46 58 f8 3f 80 c1 ec 3f
       1.8268867 1.927592 1.9401939 1.8496552
000290 17 1e df 3f 0d c3 f9 3f dd c2 e8 3f 81 5a ed 3f
       1.7431058 1.951265 1.8184468 1.8543245
0002a0 aa 2b db 3f 08 41 df 3f bc 33 d8 3f 5e a1 e8 3f
       1.71227 1.7441721 1.6890788 1.8174245
0002b0 a3 af f6 3f 01 2f df 3f 80 bf db 3f f6 95 f3 3f
       1.927235 1.743622 1.7167816 1.903014
0002c0 15 63 f0 3f c3 a2 dc 3f 87 9b ee 3f 00 71 ea 3f
       1.8780237 1.7237171 1.8641213 1.8315735
0002d0 b6 29 e0 3f f2 d0 ee 3f a2 9f e4 3f 7d b6 f8 3f
       1.7512729 1.8657515 1.7861216 1.9430691
0002e0 f8 0b ed 3f 60 cd e0 3f b5 2c e8 3f 37 f7 d8 3f
       1.8519278 1.7562675 1.8138644 1.6950444
0002f0 19 1f cf 3f 6c 9b e1 3f 66 4b e7 3f 1c 01 e7 3f
       1.6181365 1.7625556 1.8069885 1.8047214
000300 9e 33 f0 3f 67 7e d4 3f 63 d2 d6 3f 19 25 df 3f
       1.8765752 1.6601075 1.6782955 1.7433196
000310 81 88 dd 3f 74 1c db 3f 50 23 dd 3f c7 6b c8 3f
       1.7307283 1.7118058 1.7276402 1.5657891
000320 1e c1 d5 3f 9b 57 d8 3f ee 8a e8 3f 18 30 e2 3f
       1.669956 1.6901735 1.8167398 1.7670927
000330 b3 e4 f8 3f 2c ca e3 3f c1 75 e8 3f 9b d3 db 3f
       1.9444793 1.7796073 1.8160936 1.7173952
000340 18 0f d0 3f af f9 e2 3f d1 b0 e6 3f 87 f2 e2 3f
       1.6254606 1.7732447 1.802271 1.7730263
000350 c6 e6 e6 3f 07 6e ee 3f 33 bb e7 3f 87 f6 dc 3f
       1.8039176 1.8627328 1.8104004 1.7262734
000360 97 e7 e5 3f 39 4c f0 3f cc 08 f6 3f 24 fc e2 3f
       1.7961301 1.8773261 1.9221435 1.7733197
000370 19 87 f8 3f d1 e3 dc 3f a4 da e3 3f 06 72 e5 3f
       1.9416229 1.7257024 1.7801099 1.7925422
000380 fb 6d e3 3f 41 33 dd 3f 8e 30 e0 3f 43 55 f5 3f
       1.7767938 1.7281266 1.7514818 1.9166645
000390 de ea ee 3f b0 9d dc 3f 53 8e e6 3f b1 18 e8 3f
       1.8665426 1.7235622 1.8012184 1.8132535
0003a0 df 09 ef 3f 2a 4e d7 3f 50 c5 e3 3f 63 53 e8 3f
       1.8674887 1.6820729 1.779459 1.8150448
0003b0 a8 77 e4 3f 0a df db 3f d2 a7 c6 3f 1d e7 e1 3f
       1.7849016 1.7177441 1.5519965 1.7648655
0003c0 ba f7 f0 3f b2 2f d1 3f 2a 90 df 3f d2 79 e8 3f
       1.88256 1.634268 1.746587 1.8162177
0003d0 d4 04 f3 3f 42 78 dd 3f 0d 5c ef 3f a5 54 f1 3f
       1.8985848 1.7302325 1.8699967 1.8853956
0003e0 72 7c eb 3f 78 f5 f9 3f 06 9f e1 3f 25 92 ee 3f
       1.8397353 1.9528036 1.7626655 1.863835
0003f0 eb 23 ec 3f 29 29 e6 3f a8 46 db 3f cf a5 e8 3f
       1.8448461 1.7981311 1.7130938 1.8175601

batch_norm00.bias f4 [256]
000000 fe 8c 48 3e 2d e0 c7 bd 02 d9 5b bf 05 7c b6 3d
       0.19585034 -0.09759555 -0.85878 0.089103736
000010 3e 02 73 3e 6e 8f ab be b2 b4 11 be 72 52 53 bf
       0.23731324 -0.33507866 -0.14229086 -0.82547677
000020 b6 73 ed 3d e6 ae a1 be 06 aa d6 3c a0 03 ad 3b
       0.11594336 -0.3157875 0.02620412 0.005279973
000030 f5 cf de be c8 df 63 be 98 dc 07 3e f2 33 55 bf
       -0.43518034 -0.22253335 0.13267744 -0.8328239
000040 e8 5d 3e 3e 7a 80 34 bf 0a ae 7f be 92 78 36 3f
       0.1859051 -0.7050854 -0.24968734 0.71277726
000050 ed 82 0b bf 3f f6 35 3f b7 61 5d 3e 59 8a ae be
       -0.5449665 0.71078867 0.21619307 -0.34089926
000060 d2 b5 40 be ea 9c f4 3d 7a b3 00 bf b0 ee 45 3e
       -0.18819359 0.119439915 -0.5027386 0.19329333
000070 82 6f 8d be 85 7f de 3c 90 f2 29 be 2f 6e 6e be
       -0.27624136 0.027160415 -0.16596437 -0.23284219
000080 0f 6d 9e be c3 49 ac 3d dd eb 10 be eb 39 5e 3e
       -0.3094258 0.084125064 -0.14152475 0.21701781
000090 a1 2a 33 bd 03 a8 ab be 08 aa a0 3d 83 67 03 be
       -0.043741826 -0.3352662 0.07844931 -0.12832455
0000a0 78 68 76 be 93 fe a2 3e ac 82 0e bf 7f e7 ee 3d
       -0.24063289 0.3183485 -0.5566814 0.11665248
0000b0 f0 82 f3 3d ff 17 30 3e 52 b2 20 bf 53 ed cc be
       0.11890209 0.17196654 -0.62772095 -0.40024814
0000c0 7f 41 35 3e 39 ba ee 3e a4 fd d9 be ad 48 02 3e
       0.17700766 0.46626452 -0.42576325 0.12723036
0000d0 a0 2d e1 be 21 47 e3 3e fc c8 c0 be 8f f4 a4 3e
       -0.43980122 0.44390205 -0.3765334 0.32217833
0000e0 72 7f 39 bf 02 a2 35 3e 58 21 57 bf be 80 d1 be
       -0.7246009 0.17737582 -0.84035254 -0.40918535
0000f0 9a 61 37 3e bd c9 b5 3e 67 72 f9 be 8e 66 3e bf
       0.17908326 0.35505477 -0.48720095 -0.74375236
000100 d8 ee e1 bd 56 00 d4 3e 4d 20 28 bf f2 c9 ac be
       -0.11031884 0.41406506 -0.6567429 -0.33747822
000110 98 85 3f bd 62 b1 a3 bc 0f 49 06 3f 02 3e b6 be
       -0.046758264 -0.019982044 0.5245523 -0.35594183
000120 ee cf 9d bd db 5e 0c be b2 cf e2 3e ef 30 bb be
       -0.07705675 -0.1370806 0.44299084 -0.3656077
000130 03 54 35 3e 70 37 88 3e 92 06 ef be 42 9b 56 bf
       0.17707829 0.26604795 -0.466847 -0.83830655
000140 67 3f eb 3c 76 54 7f bf 3a f7 a2 be ca d2 be 3e
       0.028716756 -0.9973825 -0.31829244 0.37270194
000150 51 db 95 bd 13 bb 34 bf ab 3c f4 3e 2f 23 78 be
       -0.07317222 -0.7059795 0.47702536 -0.24232171
000160 04 80 5b 3e ed a1 bc be 26 f1 a7 3e 8e 12 f2 bd
       0.21435553 -0.3684229 0.3280117 -0.11819945
000170 0d 5e 98 be eb e5 77 be 52 31 66 3d 9c 16 c0 be
       -0.29759255 -0.242088 0.05619938 -0.3751725
000180 d0 ec 1f be fd b6 59 bf ea 4b 81 bf 27 ea 93 3e
       -0.1561768 -0.8504484 -1.0101292 0.28889582
000190 d9 28 8a be a7 b4 14 be b5 d2 13 bf 02 81 df bd
       -0.2698429 -0.14522038 -0.5774339 -0.10913278
0001a0 3d 41 b3 bc f9 3f b6 3e d7 27 92 3e 93 17 30 3e
       -0.021881694 0.35595682 0.2854602 0.17196493
0001b0 f3 11 2d bb 28 b8 ad be c6 dc 56 3e 7f 6f 1b bf
       -0.0026408404 -0.33929563 0.20982656 -0.60717005
0001c0 04 62 f8 be a1 3a 81 3e 23 f6 07 3e 50 27 c3 be
       -0.4851228 0.25240043 0.13277487 -0.3811593
0001d0 60 7f 88 3e eb 09 61 3e 18 83 b8 be 41 d4 c2 3e
       0.2665968 0.2197644 -0.36037517 0.38052562
0001e0 76 75 bb be fe 8c d8 3d 75 a5 79 ba 9f 1d 75 3f
       -0.36613053 0.10573767 -0.0009523251 0.95748323
0001f0 9b 68 1c be 59 27 94 3e ad 95 62 3e 6d 99 1f 3f
       -0.15274279 0.2893627 0.2212741 0.62343484
000200 75 71 e4 be 50 8b 53 bf 7d b0 65 bf cb 84 09 3f
       -0.4461781 -0.8263445 -0.89722425 0.5371825
000210 47 64 83 3d c4 cc 77 3e 04 15 e9 be f4 5a 16 3f
       0.06415611 0.24199206 -0.45523846 0.58732533
000220 f1 6d 21 be 58 af bb bd bd cc 02 3e ce 33 3c be
       -0.15764596 -0.091643035 0.12773414 -0.18379137
000230 1c ad e5 be bd 2a 83 be 69 ec 5b 3d fb 6f 94 3e
       -0.44858634 -0.25618544 0.053692255 0.28991684
000240 51 a1 01 3e b3 c1 50 be 74 1b 09 3f 70 3b 57 bb
       0.12659194 -0.2038639 0.53557515 -0.0032841824
000250 5f dd b0 be 28 f0 11 3f 26 26 f6 bd 5b 15 9c be
       -0.34543893 0.57007074 -0.12018995 -0.30485043
000260 df 7e 3d bf 4b 53 c6 bc bb 8e 49 3f a0 03 ae bc
       -0.74021715 -0.024209639 0.78733414 -0.021241963
000270 02 3b 46 bf ad 7a e2 3e 6b 1c d9 3d 6a 06 cd be
       -0.7743379 0.4423422 0.106011234 -0.40043956
000280 8e 09 ae 3d ad 12 8c be 33 89 2b be fa cc 29 3e
       0.08497916 -0.27357998 -0.16751556 0.16582099
000290 bc 72 fc bd 1f ca 40 3d 7e 59 71 be e5 fe 85 3e
       -0.12326571 0.047067758 -0.23569295 0.26171032
0002a0 71 4f e9 bd 66 2b 83 3c 5d 05 2b bf ce de 78 3e
       -0.11392105 0.016011905 -0.6680506 0.24303743
0002b0 94 d9 7d 3d 90 0b b2 3e b5 2d 08 3e 8d 3b 1c bf
       0.061975077 0.34774446 0.13298686 -0.6102837
0002c0 79 f5 92 3e 84 ec 11 bd ce d3 0c 3c 45 87 c5 3d
       0.28702906 -0.03562595 0.00859542 0.09644941
0002d0 0f 90 f9 bc da 63 1c bf 10 0f d2 bb af 20 0f bf
       -0.0304642 -0.6108986 -0.006410487 -0.55909246
0002e0 eb fe 9d 3d 61 d4 20 3f 91 a4 ac 3e 1d 28 6e be
       0.07714637 0.62824064 0.33719304 -0.2325749
0002f0 39 31 92 3e 69 95 a1 be b1 87 7e bf 24 64 a4 3e
       0.2855318 -0.31559303 -0.994258 0.3210765
000300 75 13 78 3d 36 18 5b bf 50 68 fc 3e 4a b3 c3 3c
       0.06056543 -0.8558382 0.49298334 0.023889203
000310 cb cc 68 bf c5 bf 00 3c 5a d6 9b be 51 d9 43 bf
       -0.9093749 0.007858221 -0.30436975 -0.76503474
000320 2b 38 22 bf 74 ec 66 bd 58 92 a6 3d 67 c7 42 bd
       -0.63366956 -0.056377843 0.081333816 -0.047553446
000330 e7 2d d7 3e b5 7c 5b be 56 41 0a be c7 a1 d2 bd
       0.42027208 -0.2143429 -0.13501486 -0.10284763
000340 5a ac fd be 27 4c 5c 3e 80 23 1c 3f 9a 0d c7 bc
       -0.49545556 0.21513425 0.6099167 -0.024298478
000350 64 50 2d bf d1 73 48 3f 61 6e d6 bd 34 8a 6a be
       -0.6770079 0.7830172 -0.10470272 -0.22904283
000360 d5 ca 39 be cd df 39 be 06 5f 37 3e 94 7a 3c bf
       -0.1814378 -0.1815178 0.17907342 -0.7362454
000370 f6 4a 81 3d 68 8f a5 3d c0 56 37 3d 42 17 4c bb
       0.06313126 0.08083993 0.044760466 -0.0031141792
000380 3d 1f 2e 3f 79 a1 30 3f 7f c6 88 be 18 a0 96 bd
       0.68016416 0.6899639 -0.2671394 -0.07354754
000390 97 d1 d9 be 00 83 26 be 3b ad 20 bf 10 d5 8e bd
       -0.42542717 -0.1626091 -0.6276433 -0.06974232
0003a0 48 24 be 3d 28 0a 3b 3e 8e f1 b0 3e b2 46 d2 3e
       0.09284264 0.18265593 0.34559292 0.4106956
0003b0 4b 21 f6 be a4 6f 5b bf 06 30 6d bf 73 33 46 3d
       -0.48072276 -0.85717225 -0.926514 0.04838891
0003c0 63 be 0d bf fc 3f 1d bf 75 75 15 bf 5f ba 14 3e
       -0.5536863 -0.6142576 -0.5838235 0.1452422
0003d0 8f 5d a2 3e a3 66 29 bf 8c f5 f4 bd b2 57 2c bf
       0.31712005 -0.66172236 -0.11960897 -0.6732131
0003e0 f9 23 89 3e 89 af ea 3e 7b b3 5e 3e 3a 58 7f 3e
       0.26785257 0.45837048 0.21748154 0.24936
0003f0 66 5c 05 3f 18 30 10 3f cb 06 c9 bd f8 59 67 3d
       0.52094114 0.56323385 -0.09815749 0.056482285

batch_norm00.running_mean f4 [256]
000000 30 4f 0d 3c c3 2d 0b 3d e4 cf c3 3b bd 3b c5 3d
       0.008624837 0.03397919 0.00597571 0.09630535
000010 2a c3 1e 3d 25 63 de ba a2 59 ca 3d 08 3a 86 3d
       0.03876034 -0.0016966803 0.09880377 0.06554037
000020 2d 32 95 3d 9d 8a ad 3d de 59 54 3d 00 25 2d 3d
       0.07284961 0.08473704 0.051843517 0.042271614
000030 09 2c 1d bd 3c 0d 7f 3d 7a 12 71 3d 3e 91 6e 3d
       -0.038372073 0.06226848 0.05885551 0.058243982
000040 40 1a cd 3c d8 29 70 3d 46 17 e4 3c 29 b8 ce 3d
       0.025036931 0.058633655 0.027843129 0.100937195
000050 dc ae e5 3d b6 df a7 3d 34 54 d1 3c 36 8d 9d 3c
       0.112149924 0.08196966 0.025552846 0.019232374
000060 c5 62 40 bc 6c dd 86 3c 54 b9 8a 3d 02 73 f4 3b
       -0.0117422985 0.016463004 0.0677363 0.007459999
000070 2a 57 57 3c 2c d8 f8 3c 8c 1e 1d 3d 52 7a 36 3d
       0.01314334 0.030376516 0.03835921 0.044550247
000080 66 80 4c 3d b1 27 66 3d 5c a8 bf 3d 57 db ad bc
       0.049927138 0.056190196 0.09358284 -0.021222753
000090 8e e5 eb 3c cc 94 06 3d 76 4a 03 3d 99 7c 1d 3d
       0.028795984 0.032856748 0.032053433 0.038448904
0000a0 ff fd 82 3c 2a 11 32 3d eb b7 f9 3c b8 2c cc 3d
       0.015990255 0.0434734 0.030483207 0.09969467
0000b0 b8 ec 0c 3e 1a 6d f5 3d e1 33 88 3c 96 68 5e ba
       0.13762176 0.119837 0.0166263 -0.00084842124
0000c0 67 7e 4b 3d 74 70 8c 3d 46 e9 a6 3d b6 04 16 3d
       0.049681094 0.06857386 0.08149962 0.036625586
0000d0 51 75 1b 3c 20 29 86 3d 59 51 c1 3b ce c3 49 3c
       0.00948842 0.06550813 0.00589959 0.01231475
0000e0 20 eb da 3c 0a 13 40 bb 8f 7f 79 3d 2a a6 d7 3c
       0.026723444 -0.0029308223 0.060912665 0.02632435
0000f0 ff ff 10 3c de b7 a3 3c e7 6c b7 3c 98 7b 51 3d
       0.008850097 0.019985136 0.022390796 0.05114326
000100 43 e9 8e 3d 70 54 b7 3d a9 fb 50 3e a8 b2 99 3d
       0.06978085 0.08951652 0.204085 0.07504779
000110 1b 37 c7 3c d6 a8 dd 3d 4b 89 ad 3b 76 f1 09 3d
       0.024318269 0.108232185 0.0052959076 0.03367754
000120 ca 8e 34 3d d7 79 eb 39 ec d3 3c 3d 32 3e ce bb
       0.044081487 0.0004491347 0.046100542 -0.0062940354
000130 a0 3b 5c 3d 9c aa 3a 3d 19 82 06 3d 65 1d 7a 3d
       0.0537678 0.045572862 0.032838915 0.06106319
000140 80 6b d9 3c 72 8a d4 3d 45 ac fa 3c d7 a0 aa 3d
       0.026540518 0.10377969 0.030599723 0.08331459
000150 5f f0 b6 3d f0 5d 2e 3c 41 b6 c1 3d 60 b1 1f 3d
       0.08932566 0.010642514 0.0945859 0.038987517
000160 6c 06 ec ba aa d0 02 3d a8 11 b6 3d ae 21 1d 3d
       -0.0018007285 0.03193728 0.088900864 0.038362198
000170 2c 81 95 3d dd bf 0b 3d 7b 2b 5e 3d 5a 3a b5 3d
       0.07300028 0.034118522 0.054240685 0.0884902
000180 a7 b9 09 3d 5c 7e 18 3c 36 6c 84 3d 9c 1d 51 3d
       0.033624317 0.00930747 0.06465952 0.05105363
000190 cc 8d 89 bc 32 e8 af 3d 61 c0 0f 3d a4 f4 a1 3d
       -0.016791247 0.085892096 0.035095576 0.079079896
0001a0 72 56 12 3e 71 06 ad 3d 9a dd 3b 3d 18 f7 69 3c
       0.14290789 0.08448494 0.045865633 0.014280103
0001b0 64 77 3f 3c 8d e9 1f 3d ba a5 3f 3d c7 57 19 3d
       0.01168618 0.03904109 0.04678891 0.037437227
0001c0 cc 8b 48 3d 20 3c d1 3c 0e 86 a6 3d d4 82 b4 3c
       0.048961446 0.025541365 0.08131038 0.02203504
0001d0 30 6f 53 3d 5b 86 a7 3d 7c d1 96 3d fc 31 6f ba
       0.05161971 0.08179923 0.07364175 -0.0009124575
0001e0 78 28 bb 3c ed ac 3b 3e 24 00 a6 3d dc 7c 54 3d
       0.022846445 0.18327685 0.081054956 0.051876888
0001f0 29 78 38 3d 98 a5 3a 3d 1b 17 b5 3c 1b 7a 28 3d
       0.04503647 0.04556808 0.022105744 0.041132074
000200 0b 23 3e 3c c5 3c bf 3d 34 ba 32 3d 6a 68 d0 3d
       0.011605035 0.09337763 0.04363461 0.101761654
000210 e9 89 97 3c dc ed 84 3c a0 87 09 3d 42 1a 2b bc
       0.018498378 0.016226701 0.033576608 -0.010443272
000220 f2 fc b5 3d 18 aa 3b 3d c6 78 99 3d f0 83 68 3d
       0.08886136 0.04581651 0.07493739 0.05676645
000230 2f 90 6a 3d 0c d5 68 3d cb 6b 3f 3d 36 69 03 3e
       0.05726641 0.056843802 0.04673366 0.12833104
000240 7d d3 cf 3d be 17 16 3d 9f c3 1b 3d 6a fe 72 3b
       0.1014776 0.036643736 0.038028356 0.0037077912
000250 30 a3 16 3e d7 cd 2e 3c fc af a0 bc 6c a3 97 3d
       0.14710689 0.010669193 -0.019615166 0.07404217
000260 cc 2d b3 3c ed 59 1c bc 70 9c 64 3e a5 c9 10 3a
       0.021872424 -0.009542924 0.22325301 0.00055232114
000270 e9 0d 63 3d bd 7b c6 3d fa d0 08 3e 70 ba 5d 3d
       0.055433188 0.0969157 0.13360968 0.05413288
000280 71 de 58 3c 6e 18 10 3e 32 f7 90 3d db 8e d0 3d
       0.013236628 0.14071819 0.07078399 0.101834975
000290 b3 be ed 3d 38 be 82 3d 5f dc 0e 3e e8 6e 57 3d
       0.116086386 0.063839376 0.13951252 0.052596003
0002a0 82 22 1e 3d d2 56 b2 bb dc 2a 8b 3d 46 bc 4e 3b
       0.038607128 -0.0054424787 0.06795284 0.0031545325
0002b0 7e 48 d3 3d 72 cc 82 3c 2f 5b 44 3d 3a 2f 89 3c
       0.10316561 0.015966628 0.047938522 0.016746152
0002c0 ae 9e f7 3d 9e 70 d1 3c bd 07 95 3c e1 2e 80 3c
       0.120908126 0.025566395 0.018192166 0.015647354
0002d0 90 d4 e1 3c a0 f8 9c 3d 52 09 87 3c 67 eb 92 3d
       0.027567178 0.07664609 0.016483936 0.07173806
0002e0 48 63 b9 3d d2 98 67 3d a4 52 39 3d 7c fd a2 bb
       0.090521395 0.056542225 0.045244828 -0.0049740653
0002f0 58 ef 92 3c c3 dd af 3c bd eb 9b 3d f1 0f 3b bc
       0.017936394 0.021468049 0.07613323 -0.011417375
000300 bd e1 d5 3d 54 f4 60 bb 73 af 2b 3d d9 3c 2d 3d
       0.10443447 -0.0034325318 0.04191537 0.042294357
000310 d4 82 b5 3d 23 44 b6 bc 36 48 c6 3c 4f 01 a7 3d
       0.08862844 -0.022249287 0.024204355 0.081545465
000320 bc 82 15 3d cb d3 8d 3c 28 5c 06 3d 65 45 37 3d
       0.03650163 0.017312905 0.03280273 0.044743914
000330 29 0c 1e 3d ee cc 84 3d 00 bc 19 3c eb 21 c6 3c
       0.038585816 0.064844 0.009383202 0.024186095
000340 80 2f 22 3d dd 4f 01 3b 46 b6 1b 3d 0c da 75 3d
       0.03959608 0.001973144 0.038015626 0.0600224
000350 63 65 96 3c ae 03 43 3d 59 f8 4d 3d b1 65 5a 3d
       0.018358892 0.04761093 0.05028567 0.053319637
000360 76 9a 35 3a aa f1 88 3d e1 a0 ec 3d 21 4f 7a bc
       0.00069276185 0.06686719 0.11554123 -0.015277655
000370 af f0 28 3d ac 45 a6 3d 27 ff 75 3b 32 a1 80 bb
       0.04124516 0.081187576 0.0037536116 -0.003925466
000380 83 c0 20 3d 5e a4 83 3c e2 f2 62 3d 14 6b 7e 3d
       0.039246093 0.016069587 0.055407412 0.062113836
000390 08 e1 af 3d 76 24 d2 3d 56 07 4f 3d 00 99 8b 3d
       0.08587843 0.102608606 0.050544105 0.06816292
0003a0 56 1f 8b 3d e7 3c bb 3d 95 16 a2 3d d8 af 13 bc
       0.06793086 0.091424756 0.079144634 -0.009014092
0003b0 ed ff 28 39 68 de 4e 3c 6a ac 12 3d 48 05 83 3d
       0.00016117068 0.012626268 0.035808958 0.06397492
0003c0 a4 85 18 3d 60 e6 48 3d 24 1f 88 3d 5c 33 db 3d
       0.037236825 0.049047828 0.066465646 0.107031554
0003d0 af b1 58 3d d4 6b b8 3c 14 32 e2 bc 38 e3 1f 3e
       0.052903827 0.022512354 -0.02761177 0.15614021
0003e0 56 72 fc 3d a3 19 b8 3c 08 50 04 3e 9d d2 62 3d
       0.12326495 0.022473162 0.12921154 0.055376638
0003f0 5e 7b fd 3d df 8a 6c 3c 3f 10 e7 3c aa 1e f5 3d
       0.12377046 0.014437406 0.028205989 0.11968739

batch_norm00.running_var f4 [256]
000000 5e db 33 3d a7 3a 8c 3d 7b e2 fe 3c 74 53 06 3e
       0.043910377 0.068471245 0.031113854 0.13117772
000010 cf 23 5e 3d d3 ee e6 3c c8 85 02 3e 7d 48 a6 3d
       0.05423337 0.028190052 0.12746346 0.08119295
000020 1f c8 f9 3d 6f a2 cd 3d 60 19 af 3d f9 7d 6d 3d
       0.12196373 0.100407474 0.08549762 0.057981465
000030 d8 2d 5c 3c ea 67 b4 3d a1 7f ba 3d 4b 5b c1 3d
       0.013438664 0.088088825 0.091063745 0.09441241
000040 94 ea 6b 3d 44 2e b6 3d ee d6 58 3d 84 5b 13 3e
       0.057596758 0.08895543 0.052939348 0.14390379
000050 de ad 38 3e e8 4d d7 3d f2 b4 2b 3d 3c ff 4f 3d
       0.18035075 0.10512906 0.04192061 0.05078052
000060 0b 55 a8 3c 41 7b 22 3d aa ae bc 3d 19 52 25 3d
       0.020548364 0.039668325 0.09213002 0.040361498
000070 80 d5 06 3d 4f fd 52 3d f3 c2 58 3d c8 67 95 3d
       0.032918453 0.051511105 0.052920293 0.07295185
000080 4e 0f 9a 3d 15 5c 9c 3d b8 e3 f1 3d 66 08 9d 3c
       0.075224504 0.07634751 0.11811012 0.019169044
000090 a5 5a 5b 3d cc 55 70 3d f6 72 59 3d 99 c9 6d 3d
       0.053553242 0.058675572 0.05308815 0.058053587
0000a0 d7 20 13 3d e5 09 74 3d 25 24 70 3d 1a 5d ef 3d
       0.03591999 0.05957975 0.05862822 0.116876796
0000b0 0d cf 3b 3e 7c 38 24 3e a1 ad 3d 3d 4d fe 1f 3d
       0.18340702 0.16037172 0.046308164 0.03906088
0000c0 c7 ba 92 3d 6f e9 d7 3d fc a0 bb 3d 00 f0 8f 3d
       0.07164531 0.10542571 0.09161565 0.07028198
0000d0 a7 4d 1a 3d 49 ee b3 3d b4 88 03 3d 54 99 12 3d
       0.03767171 0.08785684 0.032112792 0.035790756
0000e0 98 1a 6d 3d ad 1e 37 3d f4 b1 bc 3d da 47 92 3d
       0.05788669 0.04470699 0.09213629 0.07142611
0000f0 d6 2d b8 3c 01 36 64 3d 79 c8 49 3d 94 4c 9e 3d
       0.022482794 0.055715565 0.04926345 0.0772945
000100 33 42 db 3d 33 7b 09 3e be 5b 9f 3e 77 9c 11 3e
       0.10705986 0.13425903 0.3112468 0.14219843
000110 ad 09 43 3d ba ec 23 3e 60 df 0d 3d de e7 77 3d
       0.04761665 0.16008273 0.034636855 0.06052386
000120 ec d8 8c 3d 87 25 1d 3d e8 99 8b 3d 21 71 0b 3d
       0.06877312 0.038365867 0.06816465 0.034043435
000130 df 71 93 3d 3c 81 84 3d 47 92 9e 3d 72 81 90 3d
       0.071994536 0.06469962 0.07742744 0.0705594
000140 b8 5e 54 3d 72 5f 2c 3e ff 96 70 3d 6c 46 fa 3d
       0.051848143 0.16833284 0.05873775 0.12220463
000150 6e 3f e1 3d b4 92 1d 3d 52 d5 db 3d 07 c3 b3 3d
       0.109984264 0.038469985 0.10734047 0.08777433
000160 88 78 b4 3c 9a f7 61 3d 70 12 d9 3d ba b0 79 3d
       0.02203013 0.055167772 0.1059922 0.060959555
000170 94 36 eb 3d 25 2c 89 3d bb b5 b2 3d f2 90 0d 3e
       0.11485019 0.06697873 0.087260686 0.13824823
000180 58 17 6d 3d 6d 73 25 3d e2 ef bb 3d 0f 48 bf 3d
       0.05788359 0.04039328 0.091766134 0.09339916
000190 1b e5 64 3c 88 50 e3 3d 54 85 56 3d 53 88 bb 3d
       0.013970639 0.110993445 0.052373245 0.09156861
0001a0 94 aa 76 3e f3 56 e3 3d c6 86 8f 3d ac 09 06 3d
       0.24088508 0.111005686 0.07008128 0.032724068
0001b0 d3 35 50 3d ee 32 9a 3d db 11 81 3d 81 b4 7d 3d
       0.05083258 0.07529245 0.06302234 0.06193972
0001c0 b6 62 8b 3d e4 20 30 3d 4d 15 db 3d a7 45 2e 3d
       0.06805937 0.043000117 0.10697422 0.042546894
0001d0 0c f4 ad 3d e9 38 02 3e dc 7b cb 3d 2c 57 22 3d
       0.08493814 0.12717022 0.09935734 0.039633915
0001e0 02 36 34 3d d9 de 78 3e 4e 06 c3 3d da 31 9b 3d
       0.04399682 0.2430376 0.09522687 0.07577868
0001f0 61 9e b1 3d 79 e0 8a 3d b9 29 2a 3d a1 1d a2 3d
       0.086727865 0.06781096 0.041543696 0.079158075
000200 d1 d2 0f 3d 8d 1d 16 3e 28 19 ad 3d b5 4b 08 3e
       0.03511316 0.1465971 0.08452064 0.1331013
000210 8a ad 5e 3d d5 11 08 3d 6f ac 92 3d 74 4a c1 3c
       0.05436472 0.03322013 0.07161795 0.023595072
000220 2d 80 16 3e db 86 90 3d 82 98 c0 3d f4 84 ab 3d
       0.14697333 0.07056972 0.094040886 0.08374968
000230 98 07 a6 3d 7d db ad 3d b1 53 b8 3d 3f a5 28 3e
       0.08106917 0.0848913 0.09000338 0.16469286
000240 c3 47 fe 3d cd a3 8c 3d ea 13 66 3d 5c b4 ba 3c
       0.12416031 0.0686718 0.056171335 0.02279108
000250 5e 33 68 3e 79 80 35 3d dc 59 5f 3c ac 55 d6 3d
       0.22675845 0.044311974 0.013632264 0.10465559
000260 b5 a9 42 3d a7 e4 fd 3c 7a 14 b0 3e a5 af 01 3d
       0.047525126 0.030992819 0.34390622 0.03166165
000270 e0 11 af 3d d4 fc e2 3d 2b 57 3e 3e 1e 8b ab 3d
       0.08548331 0.110833794 0.1858794 0.08376144
000280 d5 ff f8 3c 06 10 35 3e 37 a7 c7 3d 64 15 0b 3e
       0.030395428 0.17681894 0.097486906 0.13582379
000290 cf b2 17 3e 3d 79 86 3d e7 26 2e 3e 42 43 9a 3d
       0.14814304 0.06566093 0.17007028 0.0753236
0002a0 75 46 67 3d d1 a3 27 3d 28 86 b2 3d 74 25 20 3d
       0.056463677 0.040927712 0.087169945 0.039098218
0002b0 d7 1e 0f 3e 92 77 01 3d 8e 0d 8d 3d 31 76 31 3d
       0.13976608 0.03160817 0.06887351 0.043325607
0002c0 b0 6c 24 3e 8d f9 41 3d a6 79 35 3d 99 60 3f 3d
       0.16057086 0.04735713 0.044305466 0.046722982
0002d0 1e 90 89 3d ac 96 c2 3d 69 b8 22 3d 33 96 ca 3d
       0.06716941 0.09501395 0.03972665 0.098919295
0002e0 3c b7 fd 3d b5 d2 94 3d 1d 23 8d 3d 82 41 ac 3c
       0.12388465 0.07266752 0.06891463 0.02102733
0002f0 31 07 0a 3d 33 ab 50 3d b9 38 ef 3d 6c 28 8b 3c
       0.033698265 0.05094452 0.11680741 0.016987048
000300 0c ac 18 3e cd 54 e7 3c 17 ae 6e 3d d6 01 a5 3d
       0.1490938 0.028238678 0.058271494 0.08056991
000310 38 46 0e 3e 63 ff 70 3c 7a ce 57 3d 6e 31 c5 3d
       0.13893974 0.014709326 0.052687146 0.096285686
000320 b3 dd 93 3d f8 22 1d 3d 3f 51 84 3d f8 4b b2 3d
       0.0722002 0.038363427 0.06460809 0.08705896
000330 42 17 9d 3d 3d b6 d3 3d e0 ae 28 3d 7b 0c 54 3d
       0.07670452 0.103374936 0.0411824 0.051769715
000340 f0 bf 6e 3d 8e 05 18 3d 05 bd 48 3d 89 80 02 3e
       0.058288515 0.037114672 0.049008388 0.12744345
000350 4a 45 5d 3d 9e 27 85 3d f5 71 8a 3d 1f 6b 85 3d
       0.054021157 0.06501697 0.06760017 0.06514572
000360 d4 8d c3 3c 97 f0 c1 3d 60 f7 09 3e c6 5a c8 3c
       0.02387134 0.09469717 0.13473272 0.024457347
000370 c1 cf 9b 3d 5c 44 d2 3d 24 8b 0e 3d 8f 8d de 3c
       0.07607985 0.10266945 0.034800664 0.02716711
000380 6b 45 9b 3d 17 97 4e 3d 46 e9 ae 3d 14 30 ac 3d
       0.075816 0.05043706 0.08540587 0.08407608
000390 e0 68 f8 3d 35 05 17 3e cb 6a b1 3d c5 4d b9 3d
       0.12129378 0.1474808 0.08662947 0.090480365
0003a0 27 b4 ae 3d 98 fb 03 3e b4 3e e7 3d af 13 ac 3c
       0.08530455 0.12888944 0.112912565 0.02100548
0003b0 fa 1a dd 3c 26 c8 04 3d cc 13 81 3d 47 56 a8 3d
       0.026990402 0.03241744 0.06302604 0.08219581
0003c0 4f cb 8a 3d a2 cd b3 3d 42 a7 d5 3d 4c 02 fa 3d
       0.06777059 0.08779456 0.104322925 0.12207469
0003d0 ca 36 9e 3d e7 bf 3f 3d 4a e9 4b 3c d5 9f 49 3e
       0.07725294 0.04681387 0.012445757 0.19689877
0003e0 19 87 32 3e b6 81 29 3d 8e de 17 3e 29 86 b4 3d
       0.17434348 0.041383468 0.14830992 0.088146515
0003f0 c6 83 22 3e a6 80 57 3d 9d 33 99 3d c0 8e 53 3e
       0.1587058 0.052612923 0.074805476 0.20659924

linear01.weight f4 [128, 256]
000000 cd c1 19 3d 68 92 4b bd 24 34 7c bd fa 00 85 b7
       0.03753834 -0.04970017 -0.061573163 -1.585529e-05
000010 32 5c 8b be 6a ab 60 be f7 31 c5 3d 37 3e 4c 3e
       -0.27218777 -0.2194039 0.09628671 0.19945608
000020 8e 4d a9 3c 82 7a 35 be 72 fc 1e 3d 74 6e 84 3d
       0.020666864 -0.17722514 0.03881497 0.0646638
000030 44 15 0a bd 85 78 92 bd 60 7b 18 3e 54 52 61 be
       -0.033711687 -0.071518935 0.14890814 -0.22004062
000040 43 a6 42 3e cf e0 3f 3b a0 c1 b3 3e 20 90 94 be
       0.19008736 0.0029278283 0.35108662 -0.2901621
000050 06 41 1b 3e c6 12 2c 3e 28 66 4a 3d 8f 98 82 be
       0.15161523 0.16804036 0.04941383 -0.25507018
000060 fa ca d4 be a9 07 4d 3e c5 c2 a5 3d 02 8e 0e 3e
       -0.4156111 0.20022453 0.0809379 0.13921359
000070 84 c9 f8 3d 0d 4b 46 3e fe 78 8c bd a5 34 5e 3d
       0.12147811 0.19364567 -0.06859015 0.054249424
000080 00 70 87 3e fc b8 4a 3d 59 02 e7 be 22 f2 9a 3c
       0.26452637 0.04949282 -0.4511898 0.018914286
000090 19 42 09 be a1 32 7e be 2f 44 c0 3d 56 65 58 be
       -0.1340412 -0.24824001 0.09388005 -0.21132407
0000a0 f4 ef 3c be 4c 12 0e 3e 1b cc f4 3d 34 ec 70 be
       -0.1845091 0.13874167 0.119529925 -0.23527604
0000b0 ed 01 90 be 67 82 df bd e9 7c 98 be 1e 21 c4 bd
       -0.2812647 -0.10913544 -0.297828 -0.09576629
0000c0 ce 74 41 be 4b e3 91 bd 98 76 50 be a6 d4 da 3e
       -0.18892214 -0.07123431 -0.2035774 0.42740363
0000d0 01 1a ca be e0 c4 46 bc 84 3e b2 3c 54 93 e0 3d
       -0.39472964 -0.0121319 0.021758325 0.109656006
0000e0 3a 5e c7 bd bf 72 7b bd 1e c5 71 3e ed d8 da bb
       -0.09734769 -0.061388727 0.2361035 -0.0066786916
0000f0 aa 22 92 bd 77 1a 89 bc 01 ca 15 3d 73 20 47 be
       -0.07135518 -0.016736252 0.0365696 -0.19445972
000100 a8 72 14 3e d6 d3 0a 3e a2 ba 19 be 11 f4 e7 be
       0.14496863 0.13557371 -0.15012601 -0.45303395
000110 77 f1 44 be ed 57 3d be 1a ab c4 bc 0f 8b c5 bd
       -0.19232737 -0.18490572 -0.024007369 -0.09645664
000120 90 dc 52 be 09 bf 69 be bd 7b 6f 3e fa 8c 5f 3e
       -0.2059195 -0.2282678 0.23387046 0.21831122
000130 8a 7d 00 3e a3 07 50 bd cc 85 88 3d ac b4 08 3d
       0.1254789 -0.050788533 0.06666145 0.033375427
000140 bd 79 d4 3d fb ea ea bd 08 c8 8e bd d6 3a ac 3d
       0.10374782 -0.114706 -0.06971747 0.084096596
000150 c0 a2 f0 3d 18 ad 19 be d9 95 85 3d 92 eb 6e be
       0.11749792 -0.15007436 0.06522722 -0.2333205
000160 42 55 de 3d 4b 56 32 be 01 12 0c 3d 50 2b b3 3d
       0.108561054 -0.1741573 0.034196857 0.087484956
000170 90 9c 4d be 20 49 c1 3c 73 45 6c 3e 14 ee 02 bc
       -0.20079255 0.023594439 0.23073368 -0.007991333
000180 28 d1 36 be 10 d4 bd 3d 15 05 71 be 5c a5 c2 bd
       -0.17853224 0.09268963 -0.23537095 -0.09504196
000190 fc 0b 53 3e 59 fd 7e 3c 64 1d 3f 3d be ad 9b bd
       0.2061004 0.0155633325 0.04665889 -0.07601498
0001a0 91 74 73 be 5f 3e 06 3d fc c7 09 be 25 06 7b 3e
       -0.23774935 0.032774325 -0.13455194 0.24514063
0001b0 d6 d3 f2 bd 17 0b b0 3d 8d 70 9f 3c 0b 09 0a be
       -0.11856811 0.08595865 0.019462848 -0.13480012
0001c0 c1 af 11 3e ad 95 0c bd ad b5 b9 3d b6 01 43 3d
       0.14227201 -0.03432243 0.09067855 0.047609054
0001d0 d5 59 67 be 48 6a e1 bd 8a cb e6 3e 8d d5 13 be
       -0.22592862 -0.110066 0.45077163 -0.14436932
0001e0 f6 5a df 3c d2 8d 25 bd d8 b3 b0 bb 9c bc 16 3e
       0.027265053 -0.040418454 -0.005392533 0.14720386
0001f0 98 2d 22 bf fc 16 77 bd 52 90 40 3e 60 c3 07 be
       -0.6335082 -0.060324654 0.18805054 -0.13258123
000200 fd 2b b4 3d 2a cd 6c bc 94 eb d2 3d 12 22 a2 3d
       0.087974526 -0.014453212 0.10298839 0.07916655
000210 36 3d 0a bc d0 1e 95 3e 46 05 50 be 20 fb 9a 3e
       -0.008437445 0.2912507 -0.20314512 0.30269718
000220 84 33 03 be af d0 c1 3d 4d 48 96 bb 74 e4 a0 3c
       -0.1281262 0.09463631 -0.0045862556 0.019640185
000230 f4 e7 b7 bd 7b cd 3a 3e fa f4 d2 bc 43 f7 17 be
       -0.089797884 0.18242447 -0.02575158 -0.14840417
000240 3d 42 9a be 12 ca 3c be c5 7d 87 3d ec af b0 bc
       -0.3012866 -0.18436459 0.066157855 -0.021568261
000250 d2 9b c5 bc 23 a8 bd 3e c8 da 4b ba e8 0a 01 bd
       -0.024122152 0.3704234 -0.00077764364 -0.03150454
000260 42 2a 2f 3e c8 8d 77 3d a9 db 53 be 71 47 c0 bc
       0.17105964 0.060437948 -0.20689262 -0.023471566
000270 ef e1 ac be 22 e9 de 3c 04 ca 03 be ca 5b cd 3d
       -0.33766124 0.027210776 -0.12870032 0.10027273
000280 6a 96 93 be 64 99 27 be 2a fc 3b 3d 43 8e 57 3e
       -0.28825694 -0.16367108 0.04589478 0.21050362
000290 ba a7 11 3e f6 b4 41 be 67 1a db bd cb a1 27 be
       0.14224139 -0.18916687 -0.10698395 -0.16370313
0002a0 fc 39 4a bd 39 dc 13 3e 10 42 89 bd e6 78 46 bc
       -0.049371704 0.14439477 -0.067020535 -0.012113785
0002b0 ad 1e 05 3e ca a1 1c be 7b 86 be bd 9d d1 bd be
       0.12999983 -0.15296093 -0.09302994 -0.37073985
0002c0 ce ab d7 bd 1d ca a2 3d 73 ad 62 3d 05 c0 9a be
       -0.10530816 0.07948706 0.055341195 -0.30224624
0002d0 60 cd 98 bd 26 3c 1a be c4 06 4c be 49 09 a7 3c
       -0.07461047 -0.15062007 -0.19924456 0.02039017
0002e0 b6 f8 1b bc 57 5b 58 3d cf 73 6f 3d 1a aa 78 be
       -0.0095197465 0.052821483 0.058460053 -0.24283639
0002f0 ee 1a 69 bd af 92 ac bd e5 12 53 3e 41 98 ea 3e
       -0.056910448 -0.08426415 0.20612676 0.45819286
000300 67 e3 6a bc 33 4a aa 3d ee 9c b1 bd 35 ea f4 bd
       -0.0143364435 0.08314934 -0.0867251 -0.11958734
000310 ea c0 a3 bd 29 31 7e 3e bf 00 3f be a8 40 6d be
       -0.0799578 0.2482344 -0.18652628 -0.23169196
000320 bb 87 06 be fe b9 07 be 7a ab 7b be 20 5b e9 bc
       -0.13137715 -0.13254544 -0.24577132 -0.028485835
000330 81 49 c8 bd d9 20 b0 3a a2 1f f4 3b 62 8d d1 3d
       -0.09779645 0.0013437524 0.00745006 0.10232045
000340 f8 2b 6d 3b 25 1c ee bd 90 87 33 bd 26 bb 3e bd
       0.0036189537 -0.11626462 -0.043830454 -0.046565197
000350 97 08 b4 be e8 ec e0 3c fc 89 41 bd 2c 5d 1a 3e
       -0.35162804 0.027456716 -0.047250733 0.15074605
000360 19 77 91 be 9d b3 82 3e 2a 14 0c 3e c8 78 9a 3d
       -0.28411177 0.2552766 0.13679567 0.075425684
000370 3f 11 89 bd 8a ac dc 3e b9 d1 69 3d e5 f4 15 3e
       -0.066927426 0.43100387 0.057084773 0.14644201
000380 66 19 b8 3c 50 af 8a be 92 44 fc 3d d2 ed f3 bd
       0.022473048 -0.27086878 0.12317766 -0.11910595
000390 c6 5c 17 be 46 60 53 3d 45 cc b4 3d 1e 6e d6 bd
       -0.14781484 0.051605485 0.08828024 -0.10470222
0003a0 27 ef 80 be 03 fe 26 3d 95 98 35 3c c8 76 a9 bc
       -0.2518246 0.04076959 0.011083742 -0.020686522
0003b0 6a 7c a0 bd 0b 4c 23 be be 5b ee bd c3 32 7b bd
       -0.0783623 -0.15946977 -0.11638592 -0.061327707
0003c0 74 fb c0 3e 46 f9 f5 ba b0 ac 46 3e 80 58 0f bd
       0.37691844 -0.0018766306 0.19401813 -0.03499651
0003d0 80 54 47 3e db 64 6f be 37 cc 16 3e 4c a9 96 3e
       0.19465828 -0.23378317 0.1472634 0.29426038
0003e0 80 10 00 bd 2e a0 37 3e a6 38 33 be aa 30 90 bc
       -0.031265736 0.17932197 -0.17502078 -0.01760133
0003f0 aa ef 67 be 3f ee 88 3e 26 d5 5f be ee 0e 31 be
       -0.22650018 0.26744267 -0.21858653 -0.17290851
