weights/5. view classifier/classif_model_weights_maxAccuracy.pt (torch, 523314 bytes, 16 tensors)

conv2Dfeatures.conv00.weight f4 [4, 1, 5, 5]
00000000: 0093 1a3d 789e 413d f318 82bd b51d 2cbd
00000010: f76d ca3c 2f51 583d 5b44 a73d 60ad 27bb
00000020: ae23 1fbd 29ab a33c 903e dc3c 9040 603c
00000030: af1e 31bd b7d1 acbc 89ef 04bd 2f97 b7bd
00000040: 42db e2bd 5464 37be e737 36be 184d 0fbe
00000050: e0a8 9abd 988e c9bd 6348 e5bc 6bc5 0cbe
00000060: 3584 30be c03d 173d 4576 7e3d 8e14 ad3d
00000070: 4d4b 633d bb98 f7bc b0e7 553d 543d a23d
00000080: 5d1a 893d 61d1 203d 30ee 603c d1c8 2c3d
00000090: 6143 cd3d d6fd 423e 727e b83d 9e20 ab3c
000000a0: abf4 953d 06c8 ff3d b265 0c3e c2e2 323d
000000b0: f253 b23d c160 6a3d bead e03d 579c 9b3d
000000c0: 5c38 443d 986b 023d 8458 a63e 9860 0c3e
000000d0: 7463 773d e1a3 a6bd d2ed 9ebe ab29 ad3e
000000e0: 5f7a 9e3d ecae 8b3d 4594 b9bd 296e a8be
000000f0: 8243 623e 4891 5bbb 8443 993b 85a8 20be
00000100: feef 63be 0d27 183e 0342 4a3d 7b65 323d
00000110: aee5 393c 5b3c 1fbe fbeb 3f3e 301e 4f3d
00000120: 9a16 acbd d73f a9bd 56ed 40be 9faa 92b9
00000130: 9fb7 a2bd 23b4 0eba f3c5 a03d e040 2f3d
00000140: 06ed c1bd bcf5 47be 6a11 e3bd bf63 96bd
00000150: e785 e8bc ed98 8dbd dd27 5bbe 09b9 1abe
00000160: 1318 a2bd 490d 4abd 6ac1 973d 5773 b1bd
00000170: 3034 b1bb 52d7 713d 1add 953d a147 033e
00000180: 01e4 72bd afca d7bd db9c 1c3d 167a f33d
0.037737846 0.04727027 -0.06352415 -0.04202052 0.024710638 0.052811798 0.08167335 -0.0025585517
-0.038852386 0.019979076 0.0268853 0.013687268 -0.043242153 -0.021096094 -0.032455 -0.08964383
-0.11076976 -0.17909366 -0.17794763 -0.13994253 -0.075517416 -0.09841651 -0.027988618 -0.13747184
-0.17237933 0.036924124 0.06212451 0.08451186 0.055491734 -0.030224195 0.052222908 0.07921854
0.066944815 0.03926218 0.013728663 0.0421837 0.10022617 0.19042143 0.090084925 0.020889577
0.07322057 0.12489323 0.13710669 0.043673284 0.087074175 0.057221178 0.10970639 0.07598179
0.04790531 0.03184089 0.32489407 0.13708723 0.06039758 -0.08136726 -0.31040817 0.33820853
0.07738184 0.06820473 -0.09061483 -0.32896546 0.22096065 -0.0033503342 0.004677238 -0.15689285
-0.22259519 0.14858647 0.04937936 0.04355381 0.011346264 -0.15550368 0.18742363 0.0505659
-0.084027484 -0.082641296 -0.18840536 -0.00027974413 -0.07945179 -0.00054437126 0.07850256 0.04278648
-0.09469037 -0.19527334 -0.11087306 -0.07343244 -0.028384162 -0.06913934 -0.21401925 -0.15109648
-0.07914748 -0.049329076 0.07409938 -0.086645775 -0.0054078326 0.059043236 0.073175624 0.12820293
-0.059299473 -0.10536706 0.038235527 0.118885204

conv2Dfeatures.conv00.bias f4 [4]
00000000: f7cd d9bd 01d4 99bd a31a 26be 5433 28be
-0.10634988 -0.0751114 -0.16221099 -0.1642583

conv2Dfeatures.conv01.weight f4 [16, 4, 5, 5]
00000000: 40c0 05bd 399f 16bd 558f 0c3d c000 cc3c
00000010: bf44 803d 72bd 823c 0e0f 2abc 7539 af3d
00000020: 2e82 0abc 23c6 eabd e34f da3d 4acc 4a3e
00000030: 9c7a 3d3d 5a2b 31be bbd2 0dbe 9411 923d
00000040: ee91 513e 14a7 cb3d cebc cfbd ee63 78be
00000050: 76f3 d6bb 1fe9 923d 3e87 25bd bcf6 26bd
00000060: c196 57bd 0348 673b 6ba0 6b3d 5b18 75bd
00000070: a003 8b3b e209 993c b5d5 e33c d198 053d
00000080: 8631 2abd 83a6 6cba 1341 a73d 259e 09be
00000090: 2fc2 c0bd c686 f2bd 0a25 bb3d 12f6 ff3d
000000a0: 95c2 19be 5118 11be 77e5 87bd 6f49 023e
000000b0: 807d 493e 0e0f 8cbd 6d5c c6bc b64b 4b3d
000000c0: 44c3 303d 49f5 1e3e 4dfe fbbd 54d7 7439
000000d0: 870e 323d 4205 4b3d 4134 4e3d 676a 07bd
000000e0: 62fb bd3d 3384 eb3d aaf0 bc3d 8a3c 2c3e
000000f0: d283 e73b 6d5b 283e 6047 dc3d 29fe 293d
00000100: 2d8a 753a 5c3f ad3d ec5b 5e3e 4d24 8c3e
00000110: 4e21 5e3e f750 033e 7d81 3e3d 857d 213e
00000120: 7611 493e 2c17 173e a677 713d 46cd e5bc
00000130: 5fab 7ebd b857 153d 386b 813c 3a16 eb3c
00000140: c8bf 03bd beef ebbd ac20 2d3d cc89 c53d
00000150: 1b43 e7bc 79ce 62bd 694e 023e 245f c93d
00000160: 8e21 8abd e152 5cbd 448b ac3d 6df8 ac3d
00000170: fc29 403e 357e 9bbd 3740 63be c64b 083e
00000180: 8aaf 9b3c 2dc4 803d a3eb 42bd a80c d0bd
00000190: 61b4 00be 1104 b3bc a2d9 933d f45e 18bc
000001a0: 8d4d 5d3d 7d41 92bd e3e9 b4bb ca56 d93c
000001b0: 1346 e83c 1be8 0b3e e5f4 ca3c d8b9 f73d
000001c0: 43c6 8abd 5b55 de3b f126 f53d 52be 5dbd
000001d0: b6b6 91bd cd7d b7bd eed9 29bc 4f37 c03c
000001e0: 333b b23d df05 18bd ac0d 203c 55aa f03c
000001f0: 7b80 c13d a998 983d 1cae 4abd ad7b 9a3d
00000200: 3df6 13bd 430e b6bc 81e0 dd3d 4f07 ef3d
00000210: 1a9c 35bc ae8c e2bd efac f5bd 336a c93c
00000220: 69d1 6c3d d57c b63d 0f1c 64bd b3a6 24be
00000230: 38f4 3f3e 43dd 063e 76a1 783c 90e6 6fbd
00000240: 9c42 94bd 9e91 3abc 1ae2 353d 3c79 98bc
00000250: a845 273d 5352 c7bd fa86 8c3d b659 c13d
00000260: 1998 623d fc08 fa3d fbce 593e 0996 1dbd
00000270: 1bfb 053e 76fd d33d 03a1 423e 9650 8e3d
00000280: 6990 ff3d af85 373d ead0 0e3e 1ba5 643e
00000290: 7e43 5b3e a2cd 0b3e 1da7 e73d bea5 593d
000002a0: 3030 4f3e 3926 2f3e 8119 9e3b 66c6 573e
000002b0: 61d5 b63c 6b40 313e e6f3 803d 5d3a 34bd
000002c0: e5cf 8fbd 7c2a 4abc b98e 983d 9fe1 babc
000002d0: 886a 20bd 31f3 62bd 2a0e b23b 0555 c43c
000002e0: 17a1 053e 3dc3 dfbc 0719 953c 1098 40bc
000002f0: bd3d 293d a81a 303b 3d7b bfbd 632f 41bd
00000300: f092 813c 12fe 8a3c 1f35 923d 5bc1 913d
00000310: 1511 293d 53a5 823c a846 57bd 3620 a73c
00000320: d193 dfbd a794 8e3d 3fc2 013e 2f4a 373d
00000330: 4451 a3bd 823b 913d c9bc 443e ecd0 473e
00000340: 3309 ab3d d6a8 2abd d3b5 62bd fe6d 5d3d
00000350: ec7d 1c3d 1993 28be 6008 e3bd e822 16be
00000360: d9ac 9abd 31f8 aa3d d646 1cbe 3e61 f0bc
00000370: eba0 04be 6b39 3cbd 75ac a63d 785d 273b
00000380: dfa4 90bc 7da8 a63a 2c4f bebd 711a 4dbd
00000390: 35ed 36bd f4bc 063e 619e 503d 69a0 d9bc
000003a0: d99b ccbd e8af 673d b5e3 063e 450a 88bd
000003b0: 012e fcbb 7721 d4bd 10a7 bbbc 4101 f13d
000003c0: be31 1d3e 615d 5d3b dc0a 20bd cda1 923d
000003d0: 68d9 7e3d c572 72bc fc1a e13c 023c 06bd
000003e0: 2347 a0bd efbb 0ebd 3aee 81bc d630 903c
000003f0: d970 6bbd 8ba3 4eba d250 b0bd 1583 163e
-0.032654047 -0.03677294 0.03431638 0.024902701 0.06263112 0.015959475 -0.010379566 0.08555881
-0.008453889 -0.11463573 0.106597684 0.19804493 0.046259508 -0.17301694 -0.13849919 0.07132259
0.20465824 0.09943977 -0.101434335 -0.2425687 -0.0065597845 0.071733706 -0.04041218 -0.040762648
-0.052634005 0.0035290725 0.057526033 -0.05983768 0.0042423755 0.01868147 0.027811864 0.03261644
-0.041551135 -0.0009027498 0.08166709 -0.13439234 -0.094120376 -0.11842112 0.09137924 0.12498106
-0.15015633 -0.14169432 -0.06635564 0.12723325 0.1967678 -0.06838809 -0.024213994 0.04963275
0.04315497 0.15523256 -0.123043634 0.0002334987 0.043470886 0.04956556 0.050342802 -0.033060458
0.09276463 0.114998244 0.092255905 0.16819969 0.0070652748 0.16441126 0.10755801 0.04150215
0.0009366598 0.084593505 0.21714753 0.27371445 0.21692392 0.12823854 0.04651021 0.15770538
0.19635567 0.14754933 0.058951996 -0.028051984 -0.06217515 0.03646061 0.015798196 0.028697122
-0.03216532 -0.115203366 0.042267486 0.09645423 -0.02823024 -0.05537269 0.12725224 0.098326
-0.06744681 -0.053789977 0.08425 0.08445821 0.18766016 -0.075924315 -0.22192465 0.13310155
0.019004602 0.062874176 -0.047588002 -0.10158664 -0.12568809 -0.021852525 0.072192445 -0.009299982
0.054029036 -0.07141397 -0.0055210455 0.026530642 0.028353726 0.1366276 0.024774978 0.12095994
-0.06776097 0.0067850775 0.11970318 -0.05413658 -0.071149275 -0.089595415 -0.0103669 0.023463873
0.087026976 -0.037114974 0.009768885 0.029378096 0.09448334 0.074509926 -0.04948245 0.075431205
-0.036123503 -0.022223597 0.10833836 0.11671316 -0.011084581 -0.11061989 -0.11995875 0.024586773
0.057816897 0.089105286 -0.05569082 -0.16079216 0.18745506 0.13170342 0.015175214 -0.05856949
-0.07239267 -0.011387257 0.04440508 -0.018612497 0.040837914 -0.09732499 0.06861682 0.09440939
0.055320833 0.12208745 0.21270363 -0.038473163 0.1308407 0.10351078 0.19006734 0.06948964
0.12478716 0.044805225 0.13946882 0.22328608 0.21412465 0.13652661 0.11311171 0.05313658
0.20233226 0.17104425 0.0048248176 0.21071777 0.022318544 0.1730973 0.0629652 -0.044000972
-0.070220746 -0.012339231 0.07449097 -0.022812663 -0.039164096 -0.055407707 0.0054338174 0.023966322
0.13049732 -0.027314777 0.01820041 -0.0117550045 0.041318644 0.0026871357 -0.09349678 -0.047164332
0.015817136 0.016966853 0.07139038 0.07116958 0.041276056 0.015947973 -0.052557617 0.020401102
-0.109168656 0.06961947 0.12671755 0.04474848 -0.079744846 0.07091428 0.19212641 0.19513291
0.08351364 -0.04166492 -0.055349182 0.054059975 0.038206026 -0.16462363 -0.11085582 -0.14661753
-0.07552499 0.0834812 -0.15261397 -0.029343244 -0.1295201 -0.045953196 0.08138362 0.002553789
-0.017656742 0.0012715008 -0.092924446 -0.050074045 -0.044659812 0.13158017 0.050932292 -0.026565747
-0.09990663 0.05656424 0.13172801 -0.06642584 -0.007695914 -0.103579454 -0.02290681 0.11767817
0.15351006 0.0033777582 -0.039072856 0.07159767 0.062219054 -0.014797871 0.027478687 -0.03277207
-0.07826068 -0.034847196 -0.015860666 0.017601412 -0.057480667 -0.0007882646 -0.08609165 0.14698441

conv2Dfeatures.conv01.bias f4 [16]
00000000: caa3 f6bd ecc2 30be 730f 67bd cae6 5e3e
00000010: 6381 1c3e 542c cd3d 66d1 3e3e b99b c23d
00000020: ac06 e43c 2ef2 2cbe 79c7 b5bd 57de 28be
00000030: a4b8 d4bd 9d05 e1bd 8900 a23d 423c adbb
-0.12042959 -0.17261857 -0.056411218 0.21767727 0.15283732 0.100182205 0.18634567 0.09502358
0.027835213 -0.16889259 -0.08875937 -0.16491066 -0.1038678 -0.10987399 0.07910258 -0.0052867243

conv2Dfeatures.conv02.weight f4 [22, 16, 3, 3]
00000000: d422 d53d b946 9cbc 2b7d a63c 2a49 7e3c
00000010: d8d5 85bc 333e ec3c b3cb a23c 5e71 4fbd
00000020: 9394 1dbe 15a9 423d 7dec 6a3d 9392 35bb
00000030: 7875 983c 6449 f2bb 6ba5 80bc 5920 74bd
00000040: 18c8 683d 14dc 25bd c616 a83d 4c9d c3bd
00000050: f90c be3d 7186 823b 1296 9f3c 464d c73d
00000060: 9341 8a3d e540 d3bd 7d32 cabd 84ee b13d
00000070: 3411 50bc c1d6 23be 011f 9d3d 621f 053e
00000080: 33fc e53d 6369 09be 0f9a b0bd 80b2 9ebe
00000090: 1b0d 12be c754 973d c472 c8bc 3676 e7ba
000000a0: 616e b3bd ee93 d7bd c20c 8f3e 9b11 0a3e
000000b0: b480 9e3d c4b9 24bd 6f9d fbbc d06b 2f3c
000000c0: 8653 ee3c b29c 04bd 5f29 f83d 393d 893d
000000d0: aee7 5d3d 15e1 993d 2246 d83d 288c 84be
000000e0: 3e43 46be 4a49 51bd 40fc 7c3d 207c 59bd
000000f0: 2dfb 48be 5ea5 89bd 6269 4a3e 5cd6 d23d
00000100: 1a43 74bd 1f4e 69be b801 513d 6d8b b6bc
00000110: 788a 863d c098 97bd 2ae2 8bbd 0c6a 693d
00000120: d8ae ecba d0a9 f7bd 05c2 c03d 62fa 013e
00000130: d537 84bd 91ca 8c3d c50b 41bd 24c5 04bd
00000140: 85b4 28bc 22c8 4c3e c161 173d e5bd 4fbd
00000150: 7945 443d 58f5 51be a2f2 f1bd 7df7 6f3d
00000160: f974 833c c3b6 bfbc d834 303d e6d2 823d
00000170: 9be0 2dbe 6aee 8c3c fcd0 a7bd 4eb5 d93d
00000180: edeb 90bc c85e 0bbe 7140 9c3c 0be9 0b3d
00000190: 6880 17bd 8f5e 65bb fb84 07be 58a2 b23c
000001a0: bfd6 5cbc d572 39bd e4f4 de3c bce4 043d
000001b0: 2715 5abd 75c8 783d 497a 7bbd 94be 2ebe
000001c0: e97e 623d 2fab bd3c 1a32 433c 9e7f 9c3d
000001d0: 2004 923d d736 ce3c 8e63 963d 56af f23d
000001e0: f463 cdbc 30a9 51bc 7a5b 5fbd a7d6 23bd
000001f0: 5223 c9bd b56e 64bd 7433 b9bd a643 a9bc
00000200: 9b8d 623b b830 603d f880 373d 8f3d ea3c
00000210: 8c87 b13c 775b 80bd 3e42 d23c 2194 afbd
00000220: 84e4 a13d c57e 0e3e 34db 7f3d 4539 8b3c
00000230: 9fb0 cdbd 7256 b3bd 478b 133e 4ef9 ab3d
00000240: e6d2 28bd 9131 b6bd f1a2 be3d e264 6bbd
00000250: d53e 66bc c02b 3bbd 38a8 5a3d 85f3 073d
00000260: 32a5 573d bcf0 bebc 19be b8bd 09bc 6e3d
00000270: 56cd 95bd befd 103d 19e9 453d 55de 383d
00000280: d780 d63d ee35 fe3c 5c82 8cbc ffc6 3bbd
00000290: b378 5cbc c72c bd3d 3fb0 cabd b0da 6f3c
000002a0: f946 633d 26dc ddbc cbad 933d 5e80 883d
000002b0: d175 e4bd 6a04 15bd 30e2 653c 3bfb 533c
000002c0: 0de2 df3d 37cb d13d 90ee 353d f231 3fbb
000002d0: db5e 5d3d ba94 0f3d a477 b9bd 9bf5 ef3c
000002e0: 42dd 883c 46b6 86bd a4b5 0bbe 2508 b83d
000002f0: 774a f5bd 1618 113c 0bc7 423d bfb4 dfbb
00000300: 1a96 033e 1079 c5bc fa0d db3d 4b8a 09be
00000310: a57a 3c3d 1586 17be 89f1 0e3e b472 f93c
00000320: 5739 3cbc 76d4 21be cd97 8abc 4a9d bbbc
00000330: 9074 d23c eadb f3bd b03d 01bd 6ed9 a13d
00000340: f5b9 14be b150 013d 9f79 34bd 5965 38be
00000350: 7bd0 053d ccf3 20bd 96f6 f7bd 4931 be3d
00000360: 49c7 acbb ecd7 1abe 59b1 e7bd f52f 663e
00000370: 80c0 ef3c 8839 473d f0cc 5abd fe9d 69bd
00000380: dfd2 c43b 5d09 8e3d 8ffa a7bd 277b 34be
00000390: b75c 8e3d 814a 6a3d 1002 503d 2f5e cabd
000003a0: 2a88 89bd aa84 c23d e394 c13c b9f7 0b3e
000003b0: 89a3 9dbd 1f71 d3bd c5f0 26be 3b24 0b3d
000003c0: 4d82 98bd c579 cbbd b602 823d e0e6 3abe
000003d0: 5122 383d faea aebd 7ac0 6dbd 379c 3f3d
000003e0: 3957 7a3d 93f4 d2bd 1f86 90bc 4962 163e
000003f0: 192b 873d 7851 033e d1fb ebbc 3086 613d
0.104070336 -0.019076692 0.020323357 0.015520373 -0.01633732 0.028838253 0.019872522 -0.050645225
-0.15388708 0.04752453 0.05735444 -0.0027705773 0.018610701 -0.0073940028 -0.015703877 -0.05960116
0.05683145 -0.040493086 0.08207469 -0.095514864 0.09279818 0.003983312 0.019480739 0.097315356
0.067507885 -0.10315112 -0.09872911 0.08688071 -0.012699414 -0.15999891 0.07671929 0.13000253
0.11229744 -0.13419108 -0.08623134 -0.3099556 -0.14262812 0.07389217 -0.024468787 -0.0017659131
-0.087612875 -0.10526262 0.2793942 0.13483278 0.07739392 -0.040216222 -0.030714719 0.010706857
0.029092561 -0.032376 0.12117266 0.067011304 0.054176025 0.07513634 0.10560252 -0.2588818
-0.19361588 -0.051095285 0.061764 -0.05309689 -0.19627066 -0.067209944 0.19766763 0.10294792
-0.059634306 -0.22783707 0.05102703 -0.02228328 0.065693796 -0.074021816 -0.06830247 0.0569859
-0.0018057479 -0.12092936 0.09412006 0.1269317 -0.064559616 0.06874574 -0.047130365 -0.03241457
-0.010296945 0.1999822 0.03695846 -0.050718207 0.047917817 -0.20503747 -0.11813857 0.058585633
0.016046988 -0.023402577 0.043019146 0.06387882 -0.16980211 0.017203528 -0.081941575 0.10630284
-0.017690623 -0.13610375 0.019073697 0.034157794 -0.036987692 -0.0034998988 -0.13234322 0.021805927
-0.013478934 -0.045275528 0.027216382 0.0324447 -0.05324283 0.060738046 -0.061395917 -0.17064887
0.055296812 0.023152916 0.011913801 0.076415285 0.07129693 0.025172634 0.07343207 0.11849849
-0.025072075 -0.012796685 -0.0545306 -0.03999963 -0.0982119 -0.05576964 -0.09043017 -0.02066214
0.0034569267 0.05473396 0.04480073 0.028593807 0.02167108 -0.062674455 0.025666352 -0.08573175
0.07904914 0.13915546 0.062464908 0.016995082 -0.100434534 -0.087567225 0.14408599 0.083971605
-0.041216753 -0.08896173 0.09308422 -0.057469256 -0.014053066 -0.04569602 0.053383082 0.033191223
0.052647777 -0.02330815 -0.09020633 0.058284793 -0.07314555 0.035398237 0.048318002 0.045133907
0.10473793 0.031031575 -0.017152004 -0.045844074 -0.013456511 0.09237056 -0.098968975 0.0146395415
0.055487607 -0.027082514 0.07210883 0.06665109 -0.11155284 -0.036381163 0.014030978 0.012938316
0.10931788 0.10243838 0.044416964 -0.0029174057 0.05404554 0.035053946 -0.09056023 0.029291919
0.016707066 -0.06577735 -0.13643509 0.089859284 -0.11977094 0.00885584 0.047553103 -0.0068269665
0.12850228 -0.024105579 0.10696025 -0.13431661 0.0460154 -0.14797242 0.13959326 0.030450203
-0.01148828 -0.15803704 -0.016918087 -0.02290215 0.025690347 -0.1190718 -0.03155297 0.079027995
-0.14524062 0.031571094 -0.0440613 -0.18007411 0.032669526 -0.039295003 -0.121075794 0.09286744
-0.00527278 -0.1512143 -0.11313123 0.22479232 0.029266596 0.04863885 -0.0534181 -0.05703544
0.006006583 0.0693538 -0.08202087 -0.17625104 0.06951278 0.05719996 0.050783217 -0.09881245
-0.06715424 0.0949796 0.023630565 0.13668717 -0.076972075 -0.103243105 -0.16302784 0.0339701
-0.07446728 -0.09935335 0.06348173 -0.18252134 0.0449546 -0.08540912 -0.058044888 0.046779837
0.06111834 -0.10300555 -0.017642079 0.1468593 0.06600017 0.12824047 -0.028806599 0.05505961

conv2Dfeatures.conv02.bias f4 [22]
00000000: d7bf 4fbe 3529 cbbd 8c64 cabd 90b8 ae39
00000010: 587c 71be 03be b4bd 4d1a 9fbd 760b 82bd
00000020: b956 b53d d1fb f2bd 7fe0 b9bc 4305 e1bd
00000030: 83fe 023d 53d8 2f3c 179d 9d3d be04 8b3d
00000040: c9f9 19be 4c3e 59be 324c afbd bf7b 1bbe
00000050: a3fb 87bd 79dc 6cbe
-0.20288025 -0.09919969 -0.09882459 0.00033325376 -0.2358259 -0.08825304 -0.07768688 -0.06349842
0.08854432 -0.118644364 -0.022690056 -0.10987332 0.031981003 0.010732728 0.07695978 0.06788014
-0.15036692 -0.2121517 -0.08559455 -0.15183924 -0.06639793 -0.23130979

fully_connect.linear00.weight f4 [256, 352]
00000000: 9bc8 4d3d 351d 1bbd be5f 4f3c 34dd d5bd
00000010: 1b34 ccbb ea9d 5abd b87a e4bd 542c 08bc
00000020: c512 94bd c8f2 a8bd 8093 68bd e8da 503b
00000030: 8f01 19be 4efe 9d3d 29e6 90bd 263d 1cbe
00000040: 4cce ed3d 04e0 99bd 9cc9 b43d d03b 47bd
00000050: c86c 1ebc ead7 f73b 91ae 963c 01e9 aabc
00000060: b01e b3bb 1f6f 5abd 8a54 32be 6db2 03be
00000070: 07df dabd 3057 853d 8043 00be 7d37 da3b
00000080: f8a4 adbc f379 b7bb c043 0fbd 5c2f 42bd
00000090: c054 71bd 1009 a23a a7eb 07bd 1603 7d3d
000000a0: 8501 bd3c 3c18 13bd 86cd 44bc e0c1 293e
000000b0: 8385 b0bd 00f3 3fbd 38a9 ad3c f320 f7bc
000000c0: ca90 bbbc c4f1 acbc a97d bfbc d0be d7bc
000000d0: 2043 a2bd 9a77 d03d 04c4 053e f5ba 613c
000000e0: 127d bfbd c662 1b3c ac2b 70be 3ebf 593d
000000f0: 363e 713d 1c3b b2bb 153d 063e 2285 3e3d
00000100: b076 b2bc aa84 a73c 2b7c adbd 9f6a beba
00000110: d011 a2bc fb88 cabc 8a74 f3b7 e2e6 6a3d
00000120: a86a 0f3d 21a0 b53d 0b80 efbd fa38 15be
00000130: d54f db3b 014b 05bd 7035 f1bd 6044 903c
00000140: 523b 04bd 40e3 813d 9e3d a1bc 1433 86bd
00000150: ffe1 46bc e875 3d3d 3962 18bd 7d30 4bbd
00000160: c605 11be 7d34 bebd 09d2 3bbd 10bc adbc
00000170: efd4 40bb b2c9 e8bd e425 0abe 5411 ab3d
00000180: 625f 423d 09c8 13bc 951d 51b9 26a0 debd
00000190: 1658 ccbc bb01 78bc 2bde fabb 2a84 133d
000001a0: 869f bd3d d420 f13b 17de a7bd 56b3 dbbd
000001b0: f20c d9bd c4f1 bb3d 8d62 dfbd 15cc db3c
000001c0: 4d41 803c 8aca 43bd 78d5 b9bd e309 d5bc
000001d0: a450 0ebe dbc6 a8bc 0880 84bc f15e ae3d
000001e0: 707b a33c b954 a63d ca84 5f3c 0453 dcbd
000001f0: ed1c 053e 1565 bdbd 1e69 c13d aa97 153c
00000200: 3e82 48bb ea79 7dbd 5b6c b4bd f370 19bd
00000210: 1c59 d33c 77dc 2fbd b9c8 b6bc 4d37 153d
00000220: ba52 cf3d 3ea7 503d ac6d fe3b 1b07 b93d
00000230: d6da 573d 0b2a 2cbd 0180 32bd eca1 05be
00000240: a9f3 473c 6147 3c3d db57 f03c 4494 803c
00000250: 19b5 78bd 79db 90bd 9538 a8bd dc23 bbbd
00000260: 2459 d0bc 06bc 48bd df80 c2bd 9c02 013e
00000270: e51b b9bd f936 79bd 424c 6fbc 00dc e1bd
00000280: 66fb 1cbe 5950 da3c 3afb 34bd 08bb 643d
00000290: 1fb7 a3bb 132a 22bd 8fcb 5c3d 62ea 723d
000002a0: c7f6 873c 15c3 bbbd 11e2 f43b f5cb e73c
000002b0: 4e25 9c3c 6ed2 7dbb 5103 773d b2b9 de3c
000002c0: 13d6 983d 84df 8d3c a967 bb3d 90fc 80bc
000002d0: 8721 9cbb b7d2 443b 8103 573d 1e76 093d
000002e0: 1bf2 60bd 5fcb 353e f7e6 363e 9131 08bd
000002f0: 8125 163d 9c7d d4bd 0a4f 363d af6d 243d
00000300: 6a80 863d a51b f23d 298b 5b3d d738 8f3d
00000310: 3b4a 62bd 246e 0b3e 0009 4abc 35a2 35bd
00000320: b188 b33c 533a 1cbe 93b9 7ebd 08c7 1e3d
00000330: ea6d 02bd 4eaa bfbc 3953 bd3c dae5 e13c
00000340: 6115 2cbc 6df1 2f3c 5355 e43c 9527 b03d
00000350: dea8 9abc 30f7 51bc 869c 833c ca5e 7b3d
00000360: 24a1 373d a1b9 413e af29 bdbd 19ff c23c
00000370: 8f88 2a3d a36a 0c3d 110d a23d 7367 5f3b
00000380: d08a 0c3e 8b81 43bd af57 12bd bd47 053b
00000390: 67cb de3d 273a 86bd d210 d2bd 01cd 613c
000003a0: e0c5 af3d b333 033c 72c0 023d 7926 8b3d
000003b0: db51 f5ba ec76 5a3c 135d a43d 250a cb3d
000003c0: b612 3eba 96a0 cf3d 37d3 803c f908 633d
000003d0: 95d7 15bd 75f0 393d b162 aabd ed0a 24bc
000003e0: f66b 0f3c b38d 123d b5f6 1f3d 405d 8a3d
000003f0: 90dd 84bd bb18 833c 3f07 a6ba 6df6 0abd
0.05024014 -0.03786965 0.012657104 -0.10442582 -0.0062317974 -0.053373255 -0.11156219 -0.00831135
-0.072301425 -0.08249432 -0.056781292 0.003186876 -0.14942001 0.077145204 -0.070751496 -0.15257701
0.11611614 -0.07513431 0.088275164 -0.048641026 -0.00966949 0.0075635808 0.018393787 -0.020863058
-0.0054663047 -0.05332863 -0.17415062 -0.12861033 -0.1068707 0.0651077 -0.12525749 0.0066594467
-0.021196827 -0.0055992543 -0.03497672 -0.047408447 -0.058918715 0.001236232 -0.03318372 0.06177052
0.023072014 -0.035911784 -0.012011891 0.16577864 -0.08619215 -0.046862602 0.021198854 -0.030167079
-0.02289619 -0.021111377 -0.02337535 -0.026336104 -0.07922959 0.10179062 0.13063055 0.013777484
-0.09350027 0.009483999 -0.2345416 0.0531609 0.05889722 -0.0054391753 0.13109238 0.046513684
-0.02178511 0.020449001 -0.08470949 -0.0014527625 -0.019783884 -0.02472352 -2.9022125e-05 0.057349093
0.035013825 0.08868433 -0.11694344 -0.14572516 0.0066928663 -0.032542232 -0.117777705 0.017610729
-0.032283135 0.063421726 -0.019682702 -0.06552711 -0.012138843 0.046255022 -0.037203047 -0.04960679
-0.14162359 -0.09287355 -0.045854602 -0.02120784 -0.0029423793 -0.11366595 -0.13491017 0.083529145
0.047454245 -0.00901986 -0.00019942813 -0.1087039 -0.024944346 -0.015137131 -0.007655879 0.036014713
0.09258942 0.0073586497 -0.08196657 -0.10727565 -0.10598172 0.091769725 -0.10907469 0.026830712
0.015656138 -0.04780058 -0.09073919 -0.02600569 -0.1389795 -0.020602634 -0.016174331 0.085142024
0.01995632 0.08121628 0.013642499 -0.107580215 0.12999316 -0.092477955 0.09443878 0.009130398
-0.0030595209 -0.061883844 -0.0880973 -0.037461232 0.025799327 -0.04293486 -0.022312509 0.036429692
0.10123201 0.050940745 0.0077645388 0.090345584 0.052698933 -0.042032283 -0.043579105 -0.1305005
0.012204089 0.04596651 0.029338768 0.015695699 -0.060719583 -0.07073111 -0.08213917 -0.09137699
-0.02543313 -0.049007438 -0.094972365 0.12598652 -0.090385236 -0.06084344 -0.014605584 -0.1102829
-0.15330276 0.02664964 -0.0441849 0.05584243 -0.004996195 -0.039590906 0.053905066 0.059305556
0.016597165 -0.09168068 0.0074732383 0.028295496 0.019060757 -0.0038730162 0.060305897 0.027188156
0.074627064 0.017318495 0.09150631 -0.015745431 -0.004764739 0.0030032822 0.052493576 0.03355991
-0.05491839 0.17753361 0.17861544 -0.033250395 0.03665686 -0.103755206 0.04450897 0.040143665
0.06567462 0.11821679 0.05359951 0.06993263 -0.055246573 0.13616234 -0.012331247 -0.044344146
0.021915765 -0.15256624 -0.062188696 0.03876403 -0.031843103 -0.023396637 0.023110973 0.027575422
-0.010503144 0.010738713 0.027872717 0.086013 -0.01887935 -0.012815282 0.016065847 0.061369695
0.04483141 0.18918468 -0.09236466 0.02380328 0.04163414 0.034281384 0.079126485 0.003408876
0.13724828 -0.047730964 -0.035728153 0.0020336949 0.1087864 -0.065540604 -0.102571145 0.013781787
0.085826635 0.0080079315 0.03192181 0.067944475 -0.0018716411 0.013334017 0.08025565 0.09914044
-0.0007250713 0.10138051 0.015725715 0.05542848 -0.03658255 0.045395333 -0.08319605 -0.0100123705
0.008753767 0.035779666 0.039053638 0.06756067 -0.06487572 0.016003003 -0.0012666954 -0.033926416

fully_connect.linear00.bias f4 [256]
00000000: 5092 a83d 4c56 b63c 62ed a1bd 5d50 a73d
00000010: f026 bebc 9c74 513d f78d bdbd 6d5e 83ba
00000020: 62b4 0dbe 236e 02be eede 03be 62db 283d
00000030: 00cc 2a3d 2503 a8bd a647 0fbe cd64 033d
00000040: c1b7 c63c 4ca7 723c 411f 72bb 02ff dcbc
00000050: a275 9b3d 51ca ab3c 7660 4a3d e935 123d
00000060: f0dc 02be bb67 f33d 2775 b9bd e205 9c3c
00000070: 4ee2 ccbc 1356 32bc 219e f0bc 2bef 6bbd
00000080: 838f 96bd 6b01 923d 84c9 18bd 05e2 7ebd
00000090: 51b1 b6bc a47d 6fbd 4809 4dbd 4b84 21bd
000000a0: aa60 a1bb 8209 b13b f5a9 2b3d f020 adb8
000000b0: 70a0 7cbd faca 6fbd a0e3 34bc 2961 a8bd
000000c0: 93f5 a33c d7b7 d43c f97a 8e3d 6e1a f5bc
000000d0: 6d22 08bd bd91 60bc 4aee 91bd 0ad6 0dbd
000000e0: b18c e63c ccb4 19bb 7812 54bb 81f3 1cbd
000000f0: 06e4 91bc 1a1e b53d 94a7 23bd cf63 093c
00000100: 4cde dcbb 09f2 8fbb e831 9fbd 682b fdbd
00000110: e046 81bb bd72 d5bd e2db c0bd 7aa7 65bd
00000120: e720 ccbd f418 03bd c431 a53c 2098 c3bc
00000130: 9a4d 77bd 77cd 7abd 32cb be3d e322 ec3c
00000140: 29e4 f5bd 19b2 bc3c 9269 13bb ab38 8dbc
00000150: a445 51bd 87c9 afbd 8bda d8bc 44ef 31bd
00000160: f0ba 07be c040 3dbd 00b0 6f3d 5d3f 0dbd
00000170: 3605 4f3d ed93 813d c3c1 13be 6d5b 663d
00000180: 8ed1 9cbc 7fb8 46bd 3d1d f73c 157a c5bc
00000190: dd5d 4c3d d4cb 783d 764f 18bd 5908 673d
000001a0: c5ed 983d cc6d 6f3c 0b67 d4bb a2c6 babd
000001b0: 3c3c 903d 26c9 98bd 30ac a7bc 3315 dcbd
000001c0: ee3d 81bd fd10 603d 49f5 ffbc 2c32 bfbd
000001d0: 53ec 46bd 2a05 8c3c ec66 153e bff9 dfbc
000001e0: 2e97 79bd 08a7 a73d 6a86 4ebd beb5 60bd
000001f0: 33e0 2fbd 9a33 8cbc a71f 67bd 7dcb 11bd
00000200: a1ad 71bd 8072 e3bd 97a4 17be a68d cd3d
00000210: 74d4 ac3d cb78 00bd c2a2 f9bc 2d58 dfbd
00000220: 9e1c 6b3d 4e0f 04be c277 18bd f03d 10bb
00000230: 5c06 37bc fd64 9d3c 0d32 a5bd f83c 0d3d
00000240: 0d13 033d cf79 4fbd c485 8ebd 3164 9bbd
00000250: a3bf 4abd 7590 633d b168 2dbd 29e6 a8bc
00000260: 63d9 3cbd d5f6 d2bc 4af0 ae3d 3e6c bebd
00000270: f37b b83c 49e4 ca3c eaa7 173d 27f6 89bd
00000280: cf9d 40bd ee1f a4bd 644f 9b3d ef2f d5bd
00000290: 03d3 7dbd f478 35bd a66c 42bd 7929 02bc
000002a0: e465 083d 4171 afbc 51cd 543c 1d41 bb3b
000002b0: 2f96 14bd 9810 50bd 9d00 31bd 9611 a03b
000002c0: 68ff d0bd f793 93bc 4996 733a 03c0 943d
000002d0: f9f9 8c3d 1891 a9bd 1a8b b4bb 2219 4c3d
000002e0: b274 db3d 9974 72bd c7d3 4a3c 7472 023e
000002f0: 3519 363d 24a3 b43c 1d5c 763d 680a ce3d
00000300: 8837 373d 2015 3e3d 64b1 01be bb8a 463d
00000310: 62f4 f3bd 83c9 0f3c 9e90 83bd 0ba4 91bd
00000320: 049f 39bd e99a b4bd 5e99 8ebd ef5e 76bd
00000330: d609 eb3c 8e73 38bd 7794 a13d 38d3 943b
00000340: 7c4c 17bd e7fa 00bd d0fd 30bd 44df ec3c
00000350: 83ad 75bd 808c e2bc 7430 39bd c55a 773d
00000360: db5c bf3c 8cb4 993d 9853 d5bd 4dc3 4cbd
00000370: 5ac2 a73d 386e e63c b296 b03d d799 36be
00000380: 4947 aabd 1c93 743d d029 913c 8805 803d
00000390: 4e02 a1bd 8226 603c feb7 c2bd fd5f e7bd
000003a0: 63f5 6e3d 41c7 af3d 0967 02be 7e3e f4bd
000003b0: 6e0d 75bd 1e80 09bd 3ece 4e3d ee06 6bbd
000003c0: 1847 9dbc 4c8a d03b 2caa 8ebc 7788 ab3c
000003d0: 54cd 723d 3aac c7bd 28af 6fbb fea5 2bbd
000003e0: 1120 273d dd34 eabc 174a 01bd a9fc 593d
000003f0: b957 e1bd 0d78 8fbd 59d2 d73c 4cfa ebbc
0.08231032 0.022257946 -0.07906605 0.08169625 -0.023211926 0.051136598 -0.09255593 -0.0010022648
-0.13838342 -0.12737326 -0.1287801 0.041224845 0.041698456 -0.08203725 -0.13992175 0.032078553
0.024257543 0.0148103945 -0.0036944898 -0.026977066 0.07590796 0.020970495 0.0494084 0.035695944
-0.12779593 0.118850194 -0.09055548 0.019045774 -0.025010254 -0.0108847795 -0.029372277 -0.057601135
-0.073515914 0.07129177 -0.037301555 -0.062227268 -0.022301348 -0.05846943 -0.05005768 -0.039432805
-0.0049248533 0.0054027447 0.04191013 -8.255418e-05 -0.061676443 -0.058543183 -0.011040598 -0.08221657
0.02001456 0.025966568 0.06957049 -0.02991983 -0.033235956 -0.013706622 -0.07125528 -0.03462795
0.028143259 -0.002345371 -0.003235964 -0.03831816 -0.017808925 0.08843632 -0.039954737 0.008385613
-0.006740367 -0.0043928665 -0.07773191 -0.12361795 -0.0039452165 -0.10422275 -0.09416939 -0.05606792
-0.09967213 -0.03200622 0.020165332 -0.02387625 -0.06037674 -0.061231103 0.093161 0.028825229
-0.12006409 0.023034142 -0.0022493345 -0.017238935 -0.051091805 -0.0858336 -0.026471397 -0.043441072
-0.13254905 -0.04620433 0.058517456 -0.034484256 0.05054208 0.06327043 -0.14429383 0.056239534
-0.019142892 -0.048515793 0.03016531 -0.024106065 0.049894203 0.06074126 -0.037185155 0.056404445
0.07467226 0.01461358 -0.0064820102 -0.091199175 0.07042739 -0.07460241 -0.020467848 -0.10746231
-0.0631064 0.0547037 -0.03124489 -0.093357414 -0.04856522 0.017092306 0.14590043 -0.027340768
-0.06093519 0.081861556 -0.050421156 -0.054860823 -0.042938422 -0.01711445 -0.05642667 -0.035594452
-0.059003476 -0.111058235 -0.1480888 0.10036783 0.0843896 -0.031365197 -0.030473117 -0.1090549
0.05740034 -0.12896463 -0.037223585 -0.0022009574 -0.01117095 0.019213194 -0.08066187 0.034481972
0.03200059 -0.050653275 -0.069591075 -0.07587469 -0.049499165 0.055557687 -0.04233617 -0.020617561
-0.046105754 -0.025752464 0.08541925 -0.09297989 0.022520041 0.024767058 0.03702537 -0.06736403
-0.047025498 -0.080139026 0.07583502 -0.10409533 -0.061968815 -0.044304803 -0.047466896 -0.007944458
0.033300295 -0.021416308 0.012988404 0.005714549 -0.03627604 -0.050797075 -0.043213475 0.004884909
-0.10204965 -0.018014891 0.00092921086 0.07263186 0.06883616 -0.082796276 -0.0055097463 0.049828656
0.10715617 -0.059193227 0.012379593 0.12738973 0.044457633 0.022050448 0.06014644 0.100605786
0.044730693 0.046406865 -0.12665325 0.048472147 -0.11911847 0.0087760715 -0.06424068 -0.07111367
-0.045317665 -0.08818609 -0.06962846 -0.06014913 0.028691214 -0.045032077 0.078896455 0.004541781
-0.036938176 -0.03148928 -0.043210804 0.028915055 -0.059979927 -0.027654886 -0.045212224 0.0603893
0.023359707 0.0750514 -0.10416335 -0.04999094 0.081913665 0.028128728 0.08622493 -0.17832123
-0.08314378 0.059710607 0.017720133 0.06251055 -0.07861768 0.013681056 -0.0950775 -0.11297605
0.058339488 0.085829265 -0.12734617 -0.11925982 -0.05982726 -0.033569448 0.050489657 -0.057379656
-0.01919894 0.0063641425 -0.017415129 0.020939095 0.059277847 -0.097496465 -0.0036572907 -0.04190635
0.040802065 -0.02858966 -0.0315648 0.05321947 -0.1100306 -0.0700532 0.026345419 -0.028805874

fully_connect.batch_norm00.weight f4 [256]
00000000: fbaa 8c3f cb81 8f3f 9074 983f d4b7 893f
00000010: 81ec a03f 1223 853f db10 913f 34c8 843f
00000020: e87c 883f 05ca a53f 0240 ad3f 663f 603f
00000030: ea56 8d3f 9228 ac3f c4f9 963f 6fd4 853f
00000040: e434 9b3f 111e a53f 9e2d 7b3f 00de 803f
00000050: 8039 9c3f 59c3 873f 0707 783f b930 623f
00000060: 5689 a63f 99af 8b3f 4655 833f 5884 973f
00000070: a3ba 9a3f 83fe ad3f 86b2 783f f4b1 823f
00000080: 3bde 9e3f 6631 723f 2294 9a3f 5547 8b3f
00000090: 0db6 943f 2b8a 903f 2652 763f ce1e 743f
000000a0: 4303 8c3f ccd2 7f3f d8c9 6f3f dbac 903f
000000b0: d55e 843f 77ee 703f 532c 7b3f 5fe1 873f
000000c0: a3e1 6b3f 431c 813f 9c43 833f ed08 803f
000000d0: ea55 8e3f 1267 963f b68f a63f 6dd0 8f3f
000000e0: 3069 833f 154f 823f c9a0 683f 3f51 8f3f
000000f0: 9b20 8d3f 644e 833f 1674 933f d212 773f
00000100: bfa2 693f 5649 803f bc72 803f a8e0 a53f
00000110: 6e47 833f 2dd4 923f e45c 8c3f 9c53 943f
00000120: b370 7a3f 8d86 693f 7b20 973f 51eb 993f
00000130: 7dc6 823f ef6a 883f d241 8d3f 91ad 7c3f
00000140: 019c a33f d4cb 623f 8b01 793f d83b 783f
00000150: 7588 833f d947 813f 79ae a03f fcf7 8f3f
00000160: 7e10 813f 70a7 623f 77a4 7e3f 8964 793f
00000170: 6186 773f e9e8 723f c922 9c3f 2eec 803f
00000180: d16b 953f 5f3c 943f 5b8c 713f a751 a83f
00000190: 73de 873f c121 8e3f 6029 953f f964 9d3f
000001a0: e145 873f cbdd 763f 754a 853f 98cf 9d3f
000001b0: 7bb8 8a3f 7814 9e3f b765 953f a809 843f
000001c0: 0c00 963f 058c 813f f7a5 923f 157b 8a3f
000001d0: df24 883f 27aa 883f 792f 783f 75a3 8a3f
000001e0: b3ab 8c3f ec46 893f bc23 943f 9b51 813f
000001f0: 1a7c 923f 930d 983f e9e7 993f 6718 a13f
00000200: 7666 883f d645 9b3f bd87 933f 0488 943f
00000210: 0190 803f 858d 8f3f ebb3 933f 8627 a03f
00000220: ac94 9a3f 3ba8 993f 34c0 9e3f c905 a83f
00000230: 2828 793f e8ab 923f 21ad 963f cf6c 7a3f
00000240: fa2f 933f 62e8 783f 16d3 913f 36f6 8a3f
00000250: 35f2 8f3f b731 9a3f d56c 8f3f e8f6 723f
00000260: f1b6 8c3f dae1 803f 6c21 843f fce2 8e3f
00000270: b1b9 873f d76c 973f 06c6 633f f5e7 983f
00000280: 7825 6f3f 8aed 823f ce7b 933f 4abf 8d3f
00000290: 3fe9 8a3f d3b6 853f e046 7f3f 8106 913f
000002a0: 47c7 933f fa3f 733f a188 a53f bc4b 873f
000002b0: 709e 9b3f cf45 923f 9bb9 833f 60ef a03f
000002c0: 96ff 963f 76ff 7a3f 6aeb 7a3f deca 6b3f
000002d0: 21fb 9a3f 56e0 953f 41de 843f b050 8f3f
000002e0: dd46 8e3f 8a5a 943f cda7 6b3f 9d6a 5e3f
000002f0: 7443 803f e51a 7e3f e653 903f cfb0 8b3f
00000300: 2f20 983f 74d1 a93f 4568 673f f217 8f3f
00000310: b1af 753f b013 a13f dbcc a63f d311 9c3f
00000320: 2aac 923f 3000 7f3f 10d7 603f 6e02 9d3f
00000330: 652c 903f b46d 7f3f 950d 983f 89d1 6a3f
00000340: 3577 8a3f d546 823f 6edb 823f 11ed 953f
00000350: 4560 6f3f cf78 813f 9d89 ac3f 572c 763f
00000360: c53f 783f c03a 973f 7885 953f 3e00 963f
00000370: 678f 903f cbdd 9c3f 3509 973f 3901 a13f
00000380: bc9c 603f 0c82 983f 62d3 903f 2d00 813f
00000390: 3e51 8a3f b6e6 8d3f 20e4 753f fc5c a23f
000003a0: 936e 853f 6182 693f bdff 9a3f 6b86 913f
000003b0: 6b15 993f 46ee ac3f c31b 713f 7fc8 843f
000003c0: 43d9 813f fc17 933f a5c3 953f 14c8 613f
000003d0: 5e49 8d3f ae2c 983f 0bb9 713f 3f8b 973f
000003e0: df1e 903f 8d83 813f 4efe 653f 7ecb 893f
000003f0: a04b 9b3f 4647 983f 8293 823f cce0 853f
1.0989679 1.1211485 1.1910572 1.0759225 1.2572175 1.0401328 1.1333269 1.0373597
1.0663118 1.2952276 1.3535159 0.8759674 1.1042149 1.3449881 1.1794972 1.0455455
1.2125516 1.28998 0.9811648 1.0067749 1.2205048 1.060649 0.9688572 0.88355595
1.3010662 1.0912963 1.0260398 1.1837263 1.2088207 1.3593296 0.97147405 1.0210557
1.2411569 0.94606626 1.2076457 1.0881144 1.1618057 1.1292166 0.962191 0.95359504
1.0938495 0.99931026 0.93667364 1.1302751 1.034144 0.9411387 0.9811451 1.0615653
0.9214117 1.008675 1.0255008 1.0002724 1.1119969 1.1750205 1.3012607 1.1235482
1.0266476 1.0180384 0.9087034 1.1196669 1.1025575 1.0258298 1.1519802 0.9651309
0.91263956 1.002238 1.0035014 1.2959185 1.0256174 1.1471001 1.0965848 1.1588016
0.97828215 0.91220933 1.1806787 1.2024938 1.0216824 1.0657634 1.1035712 0.9870234
1.2781984 0.8859227 0.9726798 0.96966314 1.0276018 1.0100051 1.2553245 1.1247554
1.0083158 0.8853674 0.99469703 0.9741903 0.9668942 0.9488664 1.2198116 1.0072076
1.1673528 1.1580924 0.9435479 1.3149918 1.0614761 1.1104051 1.1653252 1.229644
1.05682 0.9643218 1.0413347 1.2328978 1.0837549 1.2349997 1.1671666 1.0315447
1.1718764 1.0120856 1.1456898 1.0818812 1.0636252 1.0676926 0.9694744 1.0831133
1.0989898 1.0724769 1.1573405 1.0103029 1.1444123 1.1879143 1.2023898 1.2585572
1.0656269 1.2130687 1.1525799 1.1604009 1.0043947 1.1215063 1.1539282 1.2512062
1.2076621 1.2004465 1.2402406 1.3126765 0.973269 1.1458712 1.1771585 0.9782228
1.1499016 0.9722959 1.1392543 1.0856388 1.1245791 1.2046422 1.1205088 0.94908
1.0993329 1.0068924 1.03227 1.116302 1.0603544 1.183009 0.88974035 1.1945788
0.9341655 1.0228741 1.1522157 1.1074002 1.0852431 1.0446419 0.9971752 1.133011
1.154519 0.95019495 1.2932321 1.0569987 1.2157726 1.1427554 1.0291017 1.2573051
1.1796749 0.9804605 0.98015463 0.92106426 1.2107888 1.1709087 1.0380327 1.1196499
1.1115376 1.159013 0.9205292 0.8688143 1.0020585 0.9925979 1.1275604 1.0913333
1.1884822 1.3267045 0.9039348 1.1179183 0.9597121 1.2584133 1.3031267 1.219294
1.145879 0.9960966 0.8782816 1.2266366 1.1263548 0.9977677 1.1879145 0.91725975
1.0817629 1.0177866 1.0223215 1.1712972 0.9350627 1.0114993 1.3479496 0.9616141
0.96972305 1.1814804 1.1681356 1.1718824 1.1293763 1.2255186 1.1799685 1.2578498
0.8773916 1.1914687 1.1314509 1.0078179 1.0806043 1.1086032 0.96051216 1.2684627
1.042437 0.9121457 1.2109295 1.1369146 1.1959661 1.3510215 0.94182986 1.0373687
1.0144428 1.1491694 1.1700331 0.8819592 1.1038015 1.1888635 0.9442298 1.183937
1.1259421 1.0118271 0.89841163 1.0765226 1.2132454 1.1896751 1.0201266 1.0459228

fully_connect.batch_norm00.bias f4 [256]
00000000: 5daa 72bd 1ad3 fc3b 8319 febc 4f5b 05bc
00000010: c63c e53c 6c96 a93d 156a a1bc 7fa8 35bd
00000020: ed07 88bc 5dae ad3d ae06 553d 9641 e43c
00000030: e827 a33d 4f29 d83c 4999 863c c2d2 9d3c
00000040: b85c 8c3d 6922 ad3d b9c0 6f3d a3f2 1fbd
00000050: 2914 033d 6639 1dbd e9af 323d cc48 8abd
00000060: 86fb 3a3d a179 773d 2943 313d 042d b5ba
00000070: 20e2 8d3c ee9c 21bb 01ab 363d b05c 8b3d
00000080: 9313 053d 453f d03b 8b1d 923d e08d d23c
00000090: 7b59 07bd d3bd c53c 1c32 643a 3161 c33d
000000a0: c4f9 113d dff3 ba3d 2b98 7e3c 5523 803b
000000b0: 43c9 963c 21fe e53c 34eb 85bc 3d6f 313d
000000c0: 4a8b 8ebd 2a63 e33b 5133 f33b a270 16bc
000000d0: 8c3a 953d b706 863c 5cfc 0e3d 57bb c6bb
000000e0: 3cfd 5e3d 0486 a2bc 7dc3 44bd d85f 11bd
000000f0: 361c bfbc 81b5 f8bc 8fce 873d c9aa 7f3a
00000100: ffa8 21bd 0b39 143d 14a2 983d 46ee a83c
00000110: ab8d c63d 4398 e93d 92fb 7fbd 8846 cfbc
00000120: 2ca2 8abd 3673 17bc c752 73bc aa58 7d3c
00000130: de82 ea3c f5ba 10bd 8f8f b13d 1ea7 cfba
00000140: 1f6e 8a3d f2ce 18bc 6a0b 923d 74a4 85bd
00000150: fa3b 043d 849f 123d a196 99bc 4324 0cbc
00000160: 1f32 c6bd 92f5 a8bd 48cf 4ebb 0a72 bd3c
00000170: 630e 7c3d 1388 6ebd f392 00bd 33d4 e7bb
00000180: 142e 513c decd 233d 2dd3 17bd 3ce2 3a3d
00000190: d141 053d 4fe5 a7bc bbcd 983b b1d6 bd3d
000001a0: 8f8b e83d 4a1a a93b 629c 0cbd 46bb 6f3d
000001b0: 898a 433e 825b 433e eb80 f5bc 550b 5fbc
000001c0: 5358 d83c e4e8 153c 6e67 8d3d 0ec7 963d
000001d0: 0bcf 22bd f151 773d 9c99 d63c 16f2 e6bd
000001e0: c017 f0bc 6466 bb3c 4d9c adbc 6b0e c6bc
000001f0: cb91 693d 06d8 093c b08d 94bb 4e78 933c
00000200: d6a9 753d 4a17 2c3d 9e11 653c 5a09 91bc
00000210: 4595 ac3d e958 67bc abf8 16bc 966a 393d
00000220: bebf 78bc e7ca 0cbb 19d6 253d 0c7e 0a3d
00000230: 5a97 8a3d 461a 373c d2c7 a63c c581 473d
00000240: f84d 453d 94ae b43c cb0a 713c cb1e d23c
00000250: 1e44 bc3d 4e56 b53d d2e6 c6bb f448 ccbc
00000260: 8622 303d 948d acbd ef68 373d 2a40 da3d
00000270: 43af 64ba ef3f b13c 351b 84bc 106d 6abc
00000280: 6f55 9bbd a87b a2bc cff5 943d 86aa 1ebd
00000290: b657 233d 14fd 9a3d 6955 603c ef6e bdbc
000002a0: 3d01 40bb 55c1 93bd b25a 053d f016 013e
000002b0: 9c4a 9c3c 4520 e63d 3bd0 713d 20bf d13c
000002c0: 4bf0 8ebb c22f fc3c ca8b d53c bcb4 79bd
000002d0: cac6 d03d ec09 f63d 0573 17bd 148e 9b3c
000002e0: d3d2 a4bb e413 b83c a6cf 58bd 3f33 603d
000002f0: 07ab cc3d 4cfd 51bd 37fe 69bc 9acb 673d
00000300: 7943 213d 3a11 8c3d 61e6 523c 931c f63d
00000310: 8182 90bc 9b07 cf3c 77a0 a7bc bd3f 973c
00000320: 4a13 41bc 6b34 ea3d df34 2cbd 75ca b3bc
00000330: 4cea 783c e0e2 7e3d d0c5 dd3d a469 393d
00000340: f573 eebc 6982 55bc 9259 38bc e140 3b3d
00000350: 4f82 3bbd 2f9e a73c 870e de3d 0555 19bd
00000360: 920d f73c 9f7e 013e fab0 2c3b 4395 2c3d
00000370: a137 883d 9a44 ae3c f54b 233c 8323 343b
00000380: bf10 d4bd e163 d83c 0c8f 273d 51c1 f7bb
00000390: 4a04 9c3c 33a8 0f3e 7190 40bc b76e 0638
000003a0: fc86 8d3c 4b22 933d 479c 763d efeb 36bc
000003b0: 0258 ae3d c10b 143c 10a7 41bc 651b 243d
000003c0: 8cd5 443d 287f 073d 40b0 cb3d 0566 dcbc
000003d0: 5e3d df3d 10c3 023e 8aa5 c33b 24ad 973d
000003e0: 0ea7 80bb 3095 84bd 7bb7 6cbd 4f68 08bd
000003f0: baf5 d23b 21e1 cebc 76a5 29bb d2fc 7bbc
-0.059244502 0.007715595 -0.031018024 -0.008139445 0.02798308 0.08280644 -0.019703904 -0.044350144
-0.016605342 0.08480523 0.052008323 0.027863305 0.07966596 0.026386885 0.016430514 0.019265536
0.06853622 0.08453829 0.058533404 -0.039049756 0.032001648 -0.038384818 0.043624792 -0.06752166
0.045650028 0.06041873 0.04327694 -0.001382262 0.017319739 -0.0024660188 0.044596676 0.06804788
0.03248937 0.0063551986 0.07134541 0.025702417 -0.03304432 0.024138367 0.00087049766 0.09540022
0.035638586 0.09128546 0.015539209 0.003910462 0.018406516 0.02807528 -0.016347505 0.043318976
-0.06960161 0.0069393115 0.007421889 -0.009182127 0.072865576 0.016360624 0.034908637 -0.006064813
0.054440722 -0.019839294 -0.048037995 -0.035491794 -0.023328882 -0.030359985 0.06631195 0.0009752927
-0.039467808 0.036187213 0.07452789 0.02062143 0.0969499 0.11405995 -0.062495776 -0.025302187
-0.06769213 -0.009243777 -0.014851279 0.015463034 0.028626855 -0.035334546 0.0866996 -0.0015842651
0.06759285 -0.009326683 0.07131083 -0.065255076 0.03228376 0.035796657 -0.018748583 -0.008553567
-0.096775286 -0.08249964 -0.0031556655 0.023125667 0.061537158 -0.05823524 -0.03139014 -0.0070748567
0.012767334 0.039991252 -0.037066627 0.04562591 0.03253347 -0.020495085 0.004663197 0.09269465
0.11354744 0.0051606046 -0.034328826 0.058528207 0.19095816 0.19077876 -0.0299687 -0.013613542
0.026409304 0.009149764 0.06904493 0.073621854 -0.039748233 0.06038088 0.026196294 -0.11276643
-0.0293082 0.022875972 -0.021192694 -0.024176797 0.057023805 0.00841332 -0.004533492 0.018001702
0.05997642 0.042014398 0.013981251 -0.017704654 0.084269084 -0.014120319 -0.0092145605 0.045267664
-0.015182434 -0.0021483244 0.040487383 0.033811614 0.06767149 0.011175698 0.020358954 0.048707742
0.04817006 0.022055902 0.014712046 0.025649449 0.0919268 0.08854352 -0.0060699964 -0.02493713
0.043001674 -0.084254414 0.044777807 0.106567696 -0.0008723626 0.021636931 -0.016126255 -0.014308229
-0.075846545 -0.019834355 0.07273447 -0.038736843 0.03987857 0.07567802 0.013692238 -0.023124186
-0.0029297613 -0.072146095 0.032557197 0.12606406 0.019078545 0.11236624 0.059036475 0.02560383
-0.0043621412 0.030784491 0.026067633 -0.060963377 0.10194166 0.12013611 -0.036974926 0.018988647
-0.005030015 0.022470422 -0.052932404 0.054736372 0.099935584 -0.051266953 -0.014281801 0.056590654
0.039370988 0.06839223 0.012872309 0.12017169 -0.017640354 0.025272181 -0.020462258 0.01846301
-0.011784384 0.11435779 -0.04204261 -0.021947125 0.0151925795 0.062228084 0.10828745 0.045266762
-0.029108027 -0.0130315805 -0.011251824 0.04571617 -0.04577857 0.02046117 0.108426146 -0.037434597
0.030157838 0.12645958 0.0026350603 0.042134535 0.06651235 0.021272946 0.00996684 0.0027486987
-0.103547566 0.026414813 0.040907905 -0.007560887 0.019045014 0.14029007 -0.0117531875 3.20512e-05
0.01727628 0.07184275 0.06020763 -0.011164649 0.0851288 0.0090360055 -0.011819616 0.040065188
0.048055217 0.03308025 0.099457264 -0.026904115 0.10900377 0.12769723 0.0059706615 0.07406071
-0.0039261645 -0.06473768 -0.057792168 -0.0333026 0.0064379843 -0.025253834 -0.0025885976 -0.015380101

fully_connect.batch_norm00.running_mean f4 [256]
00000000: 0644 a4bc 73b5 683e 3eec 083f 09ae 073e
00000010: e7aa f33d 4fe8 333e 40f3 4c3e 0631 043d
00000020: 96da 25bd 5013 ca3e 309f ad3e 90a6 103e
00000030: 8e8d f83d 0167 f13e c0d5 083f 0de1 9dbc
00000040: a2d5 61bd 96da 853e de7e f0bc 856d 4c3e
00000050: fec8 363e 5e73 833e f672 a83d 4e23 e33c
00000060: ab1b a63e d578 7f3e 2d27 803e 12b5 213e
00000070: e907 ee3e b74a e73e ef5c 143e 4c15 253e
00000080: 48c7 b13e 50c7 5ebd dea6 fb3e 29b0 123f
00000090: 8669 693e f45b 943e 945c 3d3d 69ed da3d
000000a0: 9de1 053e d48d 23bd 0ef1 1b3e 1ef6 423e
000000b0: 6fc3 9b3e cc51 78bd 7382 74bd a8fa 183e
000000c0: 0d58 243c de34 753c a09f 983d d88c 8b3e
000000d0: 6be1 473f cc9a a43e 919c cf3e dc18 d33e
000000e0: ea36 523e df98 733d 4778 ad3d 35fb a23e
000000f0: 393c 213f 3734 3f3e 242e 833e fae3 7cbd
00000100: e220 693d 2e94 8d3d bf5c 94bd 5a1d 943e
00000110: 3e6e 303e 4c0d 113e 6774 113e c2f3 353e
00000120: 6642 7d3e 9963 283e 6472 ad3d 5ad3 ea3d
00000130: 7afe 933d 6d27 673d ce4f 9c3d fdcb 4d3d
00000140: 2f2a fa3e cba6 063e 06c7 02bc f678 80bd
00000150: 5f6a 063e ab70 bbbd 96fd 9b3e 5e48 7e3e
00000160: 0bd6 82bd d9f6 fd3c 6989 313d 7940 e8ba
00000170: ecc4 05bd 4a9e ad3e c83a a43e 8b86 cabc
00000180: 1175 f93c 1796 5d3e bb29 f73b ddb9 523e
00000190: 78a0 973e 6e19 833e f375 8e3d 0a73 073e
000001a0: 516a 1b3e a460 8abd bb72 42bc e967 813e
000001b0: 1675 ed3d 8d5e 853e 98d3 c63e ee13 9abd
000001c0: fe9e 793e 074d b5bd c038 023e 89b3 833e
000001d0: 2bb6 b9bc dadc 6e3e 3609 343d a715 b23d
000001e0: 9f5a 063f b682 d43d 33d0 863e 5db7 863d
000001f0: 322f b33e d625 e13e e115 0f3e 3ee6 893e
00000200: 913b 893e fc97 b83e 80f4 fe3e a34b e13d
00000210: b258 e23d 5492 fd3e 3226 403e b8f6 e83e
00000220: 6359 663e 2985 a83e 30f3 6b3e e364 cb3e
00000230: 21e0 6b3e c018 603e 4bc3 753e 0471 bebc
00000240: 6f85 603e 9a07 233e 0468 123f e00e a03e
00000250: cbfe 86bb 0ecf a93d 1610 3b3f 02d3 133e
00000260: 04a5 a43e 35f1 1c3c 0415 55bd 0e33 f03d
00000270: a4af eb3d 489e d33d 40e6 e13c 74d7 de3e
00000280: 3cd4 debd 0924 633c 5c81 e73d 222f 943e
00000290: 188f 583e 5b18 aa3e 2e20 e03e 3c67 f03e
000002a0: efae be3d faf8 7a3e ae73 563e bbc2 b53e
000002b0: f805 523e e72c 593e 8fbc c7bb b0ee fc3d
000002c0: 883a ff3e cfb0 473d b6ee 3d3e e976 a2bd
000002d0: bd63 e03d 74ed db3d e533 6f3d c7fd 153e
000002e0: e599 7b3e dbd7 903d e476 613d 454b 2dbd
000002f0: 1be3 233e dc36 413e 4836 f3bc a70c 663e
00000300: 67e9 503e aef7 b33e ece0 9abd 7770 3b3e
00000310: 5025 91bc b2c0 863e 198f 443e 100d 303e
00000320: bbd7 db3e c208 963e 0283 bfbd 9c70 213e
00000330: c614 963e e1ce 913d 8f5b e43d 9fa3 0ebd
00000340: 9022 8c3d 5d57 463e c610 2a3e 4064 043e
00000350: 5518 313e db7e 5ebd 6a20 f03e 03dc 5fbd
00000360: ddab da3d 1b27 693e ddad f73e 0425 033f
00000370: 63f2 7c3e d6a5 5a3e 49fa a83e 8a36 a93d
00000380: e5fa 853c ab5d 953d 5faa 4b3e b72b 6fbd
00000390: 6422 293f 69f0 623d 3320 253e a66f 1c3e
000003a0: 1217 963e 17da 923e 6a0a a93e 38ff 943e
000003b0: 31cc f63e 0574 c03e fa7c a53d 7f14 c23d
000003c0: ceb3 a23e 0423 6d3e 0ae0 ca3d c2af 72bd
000003d0: 2a2c ec3e d0fa b93e 52f0 1d3e 3395 8a3e
000003e0: f481 df3a 6a17 b23d 92d8 123d 72a8 293e
000003f0: 4c03 9b3e 69f6 c73e ad89 3c3e 5794 d73d
-0.020051967 0.22725467 0.53485477 0.13249983 0.118978314 0.17569087 0.20014668 0.032273315
-0.040491663 0.3946786 0.33910513 0.14126039 0.121363744 0.47148898 0.53451157 -0.019272352
-0.055135377 0.2614333 -0.02935737 0.19963653 0.1785011 0.25673956 0.08225052 0.027726796
0.32442984 0.24948438 0.2502989 0.15791729 0.4649041 0.4517419 0.14488576 0.16121405
0.34722352 -0.054389298 0.49150747 0.5730005 0.2279416 0.28976405 0.046230868 0.10689814
0.13074346 -0.03993018 0.15228674 0.19039199 0.30422541 -0.060624883 -0.05969472 0.14939368
0.010030759 0.014966218 0.07452321 0.27255893 0.78078336 0.3214935 0.40549138 0.41229904
0.2052876 0.05947196 0.08470207 0.3183228 0.6298252 0.18672262 0.2562114 -0.061740853
0.056916125 0.06913029 -0.072442524 0.28928643 0.17229554 0.14165229 0.1420456 0.17768767
0.2473236 0.16444243 0.08469084 0.11466093 0.07226272 0.056434084 0.07632409 0.050243367
0.4886031 0.13149564 -0.007982021 -0.062730715 0.13126515 -0.09152349 0.30466908 0.24832293
-0.06388482 0.031001495 0.043343935 -0.001771941 -0.032658502 0.33909827 0.32076097 -0.024722358
0.03045133 0.21639286 0.0075428165 0.20578714 0.29614615 0.2560534 0.06956091 0.13227478
0.15177275 -0.06756714 -0.011868174 0.2527459 0.11594598 0.260487 0.38833308 -0.075233325
0.24377057 -0.088525824 0.12716961 0.25722912 -0.022669872 0.23326436 0.043954097 0.08695536
0.52482027 0.10376494 0.26330718 0.065779425 0.34996945 0.4397418 0.1397319 0.26933473
0.26803258 0.36053455 0.49795914 0.11000755 0.110520735 0.49525702 0.1876457 0.4550073
0.22495036 0.32914093 0.23041987 0.39725408 0.23034717 0.21884441 0.2400028 -0.02324725
0.21925901 0.15920869 0.57189965 0.3126135 -0.004119729 0.08291446 0.7307142 0.14435962
0.32157147 0.009578993 -0.052021995 0.11728488 0.1150811 0.10332924 0.027575612 0.43523753
-0.10880324 0.013863572 0.1130397 0.2894221 0.21148336 0.33221707 0.4377455 0.46953762
0.0931071 0.2450904 0.20942566 0.3550013 0.2051009 0.21208535 -0.006095476 0.123502135
0.49849343 0.048752602 0.18548092 -0.079328366 0.109565236 0.1073865 0.0583991 0.1464759
0.24570425 0.07072421 0.055045024 -0.04230811 0.16004603 0.18868583 -0.02968897 0.22465764
0.20401536 0.35149902 -0.07562432 0.1830462 -0.017717987 0.2631889 0.19195212 0.17192483
0.42938027 0.29303557 -0.0935116 0.15765613 0.29312724 0.07119537 0.11150276 -0.03482401
0.0684253 0.19369264 0.16607961 0.12928867 0.17294438 -0.054320198 0.4689973 -0.05465318
0.106773116 0.22768824 0.48374835 0.51228356 0.24701838 0.21352324 0.33003452 0.082623556
0.016354987 0.07293256 0.1988921 -0.0583913 0.660681 0.055405054 0.16125564 0.15276965
0.29314476 0.28682014 0.33015758 0.29100966 0.4820266 0.37588516 0.08080478 0.094765656
0.31777805 0.23157889 0.09906013 -0.059249647 0.46127445 0.36324167 0.15423706 0.27066955
0.0017052279 0.08695872 0.03585107 0.16568163 0.30275953 0.39055184 0.18411894 0.105263405
