weights/4. triplet loss model - models/1. 160 epochs/conv2Dfeatures_last.pt (torch, 21655 bytes, 6 tensors)

conv00.weight f4 [4, 1, 5, 5]
00000000: d682 c43c 4c0d 11bd fd7f 08bd 567a dbbd
00000010: 3fd0 e5bd 264f 173d b79a 9ebd b534 34be
00000020: 3dec 35be c5ee 45be f950 103e b5e0 973d
00000030: 69dc e83c b3df 0cbe 6df9 05be 58e1 9b3d
00000040: 0a75 3cbc 57bc 2cbd 68ed e13c 14ba 07bd
00000050: ab08 403d 61bd 2c3b 39f0 843d 4256 56bd
00000060: 19da a33c c140 513d 3abd d6bd 0229 21be
00000070: 81d0 17be 1add 4abe a2be 183d dfb8 91bb
00000080: 8f90 86ba a588 06be ccf3 edbd ac58 8bbc
00000090: 9351 203d 0131 0d3d 392f 663d 485c cf3d
000000a0: 9873 0d3d 6c5e a73c b8d1 e03d 6678 133e
000000b0: ad1f 093e 746a 67bd f4ef 16bb 5459 a83d
000000c0: 8e7a 543d 9c89 993c 2929 c0bb d145 323d
000000d0: 9ae8 0f3d 57f8 293d 182a 463d c0d4 4e3d
000000e0: 4cfb e63c 8e02 653d 2afe 023d 269d 743c
000000f0: 1791 883d a531 3c3d 84de 8b3d 9463 8c3d
00000100: 645a 0b3d a187 a83d 798d 3f3d 0a92 653d
00000110: e036 9b3d b98e 6a3d 4e7b ac3d 7a16 5b3d
00000120: 2cf0 263d 5b18 5d3d 21cd e6bb 6094 f3bb
00000130: 56fe 4bbd 0695 68bd 7f72 f9bc b2fc a2bc
00000140: 22c4 cfbc 7857 a9bd 95a4 10bd c4ac 21bd
00000150: 24d0 46bc 793b d3bd 6b14 b2bd 2c2f a5bd
00000160: 29e9 88ba d9cd 8ebc c449 89bd d0a2 6ebd
00000170: bd57 8abd 39a3 b8bd 04c5 ef3a 59f3 39bd
00000180: 89c3 04bd 68a4 12bd 6c5e e1bb 6c66 ee3b
0.023988169 -0.03541307 -0.033325184 -0.10716693 -0.112213604 0.036940716 -0.07744353 -0.17598231
-0.17765899 -0.19329365 0.14093389 0.07415906 0.028425412 -0.1375721 -0.1308343 0.0761134
-0.011502514 -0.042171802 0.027579024 -0.033136442 0.046883266 0.0026357996 0.06491131 -0.052328356
0.020001458 0.051087145 -0.10485311 -0.157383 -0.14825632 -0.19810906 0.037291177 -0.004447087
-0.001026647 -0.13138063 -0.11618766 -0.017010055 0.039140295 0.034470562 0.05619738 0.10125023
0.034534067 0.020430766 0.10977501 0.14401397 0.1339099 -0.056498006 -0.0023031207 0.08220163
0.05187469 0.018742375 -0.0058642817 0.043523613 0.035133936 0.0414966 0.048379987 0.050495863
0.028196 0.05591064 0.03198067 0.014930045 0.06668299 0.045945782 0.06829551 0.068549305
0.03402175 0.08228994 0.04676578 0.056047477 0.07578826 0.057265017 0.08421956 0.053488232
0.04075639 0.053978305 -0.0070434962 -0.007433459 -0.0498031 -0.056782745 -0.030450104 -0.019895885
-0.025362078 -0.082686365 -0.035313208 -0.039471403 -0.0121345855 -0.10314078 -0.08695301 -0.08065638
-0.0010445464 -0.01743214 -0.06703523 -0.05826074 -0.06755016 -0.09015507 0.0018292968 -0.04539809
-0.03241304 -0.03580132 -0.006877711 0.007275393

conv00.bias f4 [4]
00000000: 5e8e 63bf b84b 063d 1055 a6be fc26 e83d
-0.8888911 0.032787055 -0.32486773 0.11335561

conv01.weight f4 [16, 4, 5, 5]
00000000: e975 983d ff1f 5bbd b0f4 42bc 5bb5 c03d
00000010: b831 62bb 0b47 963d bee4 233e 5572 1c3e
00000020: 448f f93c 54eb b7bd 43d4 013c 9ca1 083d
00000030: 1810 c1bd aa05 d3bd a728 c4bd 9706 f23b
00000040: cdf0 34be e1d0 c4bd 2909 46be 18d3 05be
00000050: 5282 d43a db91 cabd 9c20 3f3d cbfa 44bc
00000060: 3d54 eabb 411a 60be d791 84bd f926 53bc
00000070: 39ef 6abd e9d9 bfbd 9032 443d 4df3 b93c
00000080: 2405 683d 055a 213d 095a cf3a 8603 923c
00000090: aefd 1e3c 794a 91bd bdd1 f7bc 1120 0b3e
000000a0: 5237 bbbd 7d11 b93d f87c 4a3e 36e8 42be
000000b0: c604 f4bd 7b6e 063d b75d 2b3d 417e 3c3d
000000c0: cd11 e53c b970 433e fcad 37be c180 a33c
000000d0: 5cb0 ab3d 349a 743d 609e 30bc 0e25 b1bd
000000e0: d376 3bbe 07a0 b8bd d72c b5bd 8e08 1f3c
000000f0: 8915 b13d b668 473d 1c17 84bd b939 023e
00000100: d4b5 713e 427c 153d 3c13 4d3e c27a 9d3d
00000110: 1153 003e cf3d 9e3d 46d3 3a3d 80b8 36bc
00000120: 3811 69bd bc22 3ebe 4718 34be 75c0 1c3e
00000130: c7f8 ad3d 1761 15be 8f23 833d 34b6 123d
00000140: 4a40 d23c c998 a9bc e9fb 233e e14a de3c
00000150: 54d3 0f3d fec3 02bc e2d3 06bd 3d77 94bd
00000160: 8793 ddbd 7760 53be c12a 303d 891a e0bd
00000170: e77e cbbc d3d2 94bc 448b a6bd 0913 943c
00000180: 5417 5a3d ce69 01bd c1fb fe3d d150 223e
00000190: 8482 873d 20c4 903d 5ff4 1d3e 4ac2 80be
000001a0: 46aa a13c c478 54bd 9f38 32bd 4c69 95bd
000001b0: eb3c 52be d727 723c 4faa 02be 4453 dcbd
000001c0: 055e 03be 2bd2 9f3c 17a4 5fbd b4d5 933c
000001d0: d173 8abd e451 4c3e 0ef3 3a3d 65a1 b43d
000001e0: e75f 113e d0cf 5d3e 1b59 173e 67ca c3bd
000001f0: e98b aebd f091 afbd ca45 9cbc 7a02 993c
00000200: 8c62 efbd cad5 b9bd 995f 633d 68d6 1f3d
00000210: 577a d33d 5c58 863c aff0 a63d e45f 123d
00000220: bde3 653e fcc5 eabc 74e1 b0bd 8c08 1b3d
00000230: 76d8 86be 7351 873c 795e 8ebd 484b f6bb
00000240: c521 81bd 6207 93bc 45c1 923d 0c19 8bbd
00000250: 2f6a 83bd 8e7e b83d 60d2 54bd 2069 5d3e
00000260: 6dc6 0e3e 05ae d53d ad94 e83d f6d1 49bd
00000270: 70fe 8fbd b5d2 a2bc 5cda efbc 6f97 a23b
00000280: 67bb 893b a620 4b3e 9d1c 703c ab4c 673d
00000290: 9bfa 74bd 227c 3ebe 3c80 babd ad6e 39be
000002a0: 916d d0bc d180 37be ab9e 94bd 92bf 47bd
000002b0: d186 16be b09d 943d d478 073e b05d bebd
000002c0: 802d 44be c4ba a4bd 5a56 03be 5d54 4ebe
000002d0: a773 28bc 065b 8bbc a9b9 7a3d 5241 d63c
000002e0: c2d1 18be cf6b 673d d634 06be 317c 8dbd
000002f0: fb78 7ebc 459d 973d f2ea 4e3e a673 0c3e
00000300: 1bb7 183c bd66 033d 34c4 463e 6fa6 9f3d
00000310: 124b b83d 1d73 2b3e 8b15 32bd bedf 17be
00000320: 232c 80bc 3124 053e dbea 173e a9a8 0abd
00000330: d089 e2bc 08ab 0fbe b604 65be a06a 59be
00000340: 0c8d 22bc c869 3abe 0424 433e 2968 d43d
00000350: 3d10 183d c7bd 3b3e f573 dcbd 69d3 71bd
00000360: ee8f 043d 12a9 a3bd 5686 ef3d d0da d0bc
00000370: 53ca acba c91d a33d 60a6 d2bd 2619 42bd
00000380: 8250 1f3d 6584 c53d ffa8 cf3d e980 293e
00000390: a803 19bd 9f4e bbbc ff7b 843b b119 eabb
000003a0: c6b0 42bd 03a1 01be 1ae7 1bbe 6354 043e
000003b0: e0e7 c63d a084 b2bd c685 19bd 0e97 633e
000003c0: 2a60 d53d 5ee1 0d3e 7025 3e3e 2de9 0d3e
000003d0: ddca 56bd c574 173d 9b57 a13b d14a 62be
000003e0: 45eb 943c 9b42 443c de4b cbbc 2a4f 66bd
000003f0: d97d 43be 8c70 c2bd a4f3 a8bc 50ad e23d
0.074443646 -0.05349731 -0.011899158 0.09409591 -0.0034514498 0.07337769 0.16005227 0.15277989
0.030463822 -0.08980432 0.007924142 0.033357248 -0.09426898 -0.10303815 -0.09578066 0.0073860395
-0.17669983 -0.09610153 -0.19339432 -0.13068807 0.0016213155 -0.09891101 0.046661958 -0.012022684
-0.0071511553 -0.21885015 -0.06473129 -0.01288771 -0.057357047 -0.09367735 0.047899783 0.022699023
0.056645527 0.03939249 0.0015819679 0.017823946 0.009704037 -0.07094283 -0.030251378 0.13586451
-0.09141411 0.09036539 0.19774234 -0.19033894 -0.11914973 0.032820206 0.04183742 0.046018843
0.02796259 0.19085969 -0.17937464 0.019958856 0.08383247 0.059717372 -0.010779947 -0.08649646
-0.18307047 -0.09014898 -0.08846443 0.009706629 0.08646686 0.048683845 -0.0644972 0.12717332
0.23604518 0.036495455 0.20026869 0.0768943 0.12531687 0.07726633 0.045611642 -0.011152387
-0.056901187 -0.18567938 -0.17587386 0.15307792 0.08494716 -0.14587818 0.06403267 0.035818294
0.025665421 -0.020702736 0.16014065 0.027135314 0.035113648 -0.0079812985 -0.03291691 -0.072493054
-0.10819154 -0.20642267 0.043009523 -0.10942561 -0.024840785 -0.018166935 -0.081320316 0.018075483
0.053244904 -0.031595044 0.12450362 0.15851142 0.06616691 0.07068658 0.15425251 -0.2514823
0.019734513 -0.051872984 -0.04351103 -0.072954744 -0.20531051 0.014780006 -0.1276028 -0.10758069
-0.12828834 0.019509396 -0.054599848 0.018046238 -0.067603715 0.19953114 0.04564195 0.08819846
0.1419674 0.21661305 0.14780085 -0.095600896 -0.085227795 -0.08572757 -0.019076247 0.018677939
-0.11688718 -0.0907398 0.05551109 0.039022833 0.10326069 0.016399555 0.081513755 0.03573598
0.22450157 -0.02865886 -0.08636752 0.037849948 -0.26337022 0.01651833 -0.06951613 -0.0075162984
-0.06305269 -0.017947856 0.071657695 -0.06791887 -0.06416737 0.090085134 -0.05195844 0.21622133
0.13942881 0.10433582 0.11356483 -0.0492725 -0.07030952 -0.019875864 -0.029278927 0.0049619
0.0042032483 0.19836673 0.014655259 0.0564696 -0.05980931 -0.1860204 -0.0910649 -0.18108626
-0.02544287 -0.17920233 -0.07256826 -0.04876668 -0.14699866 0.07256639 0.13229686 -0.09295213
-0.19157982 -0.08043435 -0.1282591 -0.2014937 -0.01028148 -0.017011177 0.061212216 0.026154194
-0.14923766 0.0564993 -0.13106093 -0.06908453 -0.015531774 0.07403044 0.20206812 0.13715991
0.0093209995 0.0320804 0.19410783 0.077954166 0.089986935 0.16743131 -0.043477576 -0.14831445
-0.015646046 0.13002087 0.14835684 -0.033852253 -0.027653605 -0.14030087 -0.22365078 -0.2123208
-0.0099213235 -0.18204415 0.19056708 0.103714295 0.03712486 0.18334113 -0.107643045 -0.059039507
0.032363825 -0.07991232 0.116955444 -0.025494963 -0.0013182856 0.079646654 -0.1028564 -0.047387265
0.038895138 0.09644393 0.10139655 0.16553082 -0.037357002 -0.022864638 0.004043102 -0.007144176
-0.047531866 -0.12659077 -0.15224877 0.12922816 0.097121954 -0.087167025 -0.037481092 0.22225592
0.104187325 0.13855502 0.18568969 0.13858481 -0.05243956 0.036976594 0.0049237735 -0.22098853
0.018178592 0.011978771 -0.02481645 -0.05622784 -0.19090976 -0.09494123 -0.02062399 0.11068213

conv01.bias f4 [16]
00000000: 6fc6 bb3a d8f2 9a3c 403e 23be 28f8 b2ba
00000010: 7c36 25be 3752 55bd 05a5 bf3d 7f48 483e
00000020: e85c c53d 51ae 47be 9e20 96bd c064 083f
00000030: 9c20 64bc 855f 493e 7db3 e43d d2cc 003f
0.0014326106 0.018914625 -0.15941715 -0.0013654279 -0.16134065 -0.05208036 0.09357647 0.19558905
0.09636861 -0.1950009 -0.0733044 0.5327873 -0.01392379 0.19665344 0.11167047 0.5031253

conv02.weight f4 [22, 16, 3, 3]
00000000: aacf 54bd 47ec f5bd 2356 343c a465 463e
00000010: e908 613e 6c00 253e b7e8 24bd a979 d83c
00000020: b3c6 aa3d d845 37bd d981 7dbb fb8c fd3d
00000030: bc94 54bd a478 95be 7fe7 d43d ff6b adbd
00000040: 6b0b a73b ccd7 21be 5ef6 033d 82ff e23c
00000050: f301 ccbd 0fb6 2fbb 2b76 cd3d 9aea 35be
00000060: 3897 eb3b 3dca d53d e699 fa3d 75aa 583c
00000070: e785 073c 3295 7f3c 27dd babc 2360 0c3e
00000080: f223 5bbd 0e7b 123e 7571 e93c a174 5d3d
00000090: eae8 e93c 8c89 e3bc 65ca 1ebd eb9b 013e
000000a0: a871 b13c e07a c63b 28c2 b63d 5897 063e
000000b0: ee5f 793d a9ed b7bd 8b2e 9fbd a9d6 ee3d
000000c0: 4d9a 2a3e 3a62 163c 0dcc 5e3d d3f6 21be
000000d0: 63e5 5abe 137c cc3b 4bc5 743c 5d69 183d
000000e0: afd9 88bd addd 0cbe 7c89 7abb fb4a 99bc
000000f0: 1e6f a5bc d9d5 fbb9 4301 b13c 1533 be3d
00000100: 5257 2cbd 50bc 2bbe 683d cb3b e78d 033e
00000110: ca7e 7f3a a2c0 593d 2a12 393d bdad c5bc
00000120: 83dd c3bd 350c f33c 13f4 283d f0ef 123c
00000130: ab94 3dbe 6b98 aa3d 7b32 b53d 67b0 10bd
00000140: 6746 3b3e d6a0 4fbd 1cb0 43be 5104 f5bd
00000150: 177e 1c3d 191d ff3d 4e5e 44be 1e67 82bd
00000160: 438e 3ebd 5ffd ae3c 18df 81bd ae30 16bd
00000170: ac66 2f3b 3170 f53d 3c1c 2dbe 25f0 00be
00000180: e20d 95bd 702f 0fba 1dab d2bd 4894 ddbd
00000190: 42d7 2a3c 59cc 3cbd 355e 23be 8c52 44be
000001a0: 9db1 b0bc 0598 5f3d 77b3 b13d 4333 053e
000001b0: 9fec b7bc 77e6 03bd 3df7 973d 6810 343e
000001c0: 1f69 413e 4751 643d 8798 a23d 0c72 1b3d
000001d0: 2760 983c 3f31 b73d 435f 983d 7543 c0bb
000001e0: 21c6 403c 9843 45be 87e3 5c3d f6eb efbd
000001f0: 9725 2dbe efb7 0e3d bcb9 46bc 2605 57bd
00000200: 5b67 fe3c 2eb7 913d dc24 1dbe 2980 5c3e
00000210: 7ead 0ebe 597b 9a3b ae1f 6ebb 8d96 863c
00000220: 169b ea3b cdd8 863b 0bfc c9bd 5ca1 7ebe
00000230: 4f7a 06bc 9f39 183e 86ba 633d 52f8 1e3d
00000240: c490 283d ea1e 033e 6804 a73c 8bd2 423c
00000250: 53eb b23c 773b 703c f3eb ba3c 9931 44bc
00000260: 1279 e3bd ceed 85be a195 0ebd 1dbb 23bd
00000270: 5fab 153c 807f a63d 97eb b4bc 1bb9 a2bc
00000280: a209 823c eba6 d53b d822 18bd cb98 31bd
00000290: 6906 823d 1189 64bd d772 60bc 10c6 09bd
000002a0: 83ce d2bb bd41 02bd e9a3 ab3d 5895 bdbb
000002b0: 44b1 bc3d 410b 013d 1931 2d3c abe8 86bd
000002c0: 332b 853d a0bf 893d ebcf 99be 8065 f3bc
000002d0: c6f3 803c f3e9 32bd 7fff 083e 6c6c d93c
000002e0: 4d53 8b3c 233e 413c c054 be3d ad90 79bd
000002f0: 0e19 a7bc f18f 19be bded afbd f729 373c
00000300: fc0d f2bd b44a aebd c12b 54be 4812 ad3d
00000310: 8be4 663e d6a5 15be 318a 04be a47c d03d
00000320: 5b43 8b3d f384 4c3c faf6 bbbd 9e1c 0f3e
00000330: 3ea6 913d 825d c7bd 0da6 57be eef8 8a3c
00000340: 4855 88bd 14c6 1c3e 2171 18bd 88f7 c73d
00000350: a7b8 023e dba5 87be 58fb dfbd 21a6 b7bd
00000360: 704a 1b3e d734 c53d c1c1 9e3d 4c4c e3bd
00000370: 2c45 29bd 3c8c bebd 512c a1bc 99f9 143e
00000380: 1ef7 da3d 8bda 413e 0013 533d 1b7b 98bd
00000390: 5e9e e5bd 431b b1bd 03b9 0d3d 65cb 5abd
000003a0: 64ed b93d f0c1 b93d 2733 3b3a 0f45 f03c
000003b0: 05f4 173e eb43 2bbc da82 34be e016 acbc
000003c0: cf0d d23d cd0c b83d a0e1 6d3e 34f3 40bc
000003d0: ef70 80bc 701b bd3d ba2b 41bd af87 5e3d
000003e0: 2c57 24bd 455a 42be f7b6 36be af9e 303d
000003f0: 1d8a 0c3d 53cb 653d f915 a83d 73ce 49bb
-0.051955856 -0.12007957 0.011006865 0.1937471 0.21976055 0.16113442 -0.040260997 0.0264252
0.0833868 -0.044744343 -0.0038682132 0.123804055 -0.051899657 -0.29193604 0.10395717 -0.08467864
0.0050977967 -0.15804976 0.032217376 0.027709726 -0.09961309 -0.0026811396 0.100323044 -0.17765275
0.0071896575 0.104389645 0.12236385 0.013224234 0.008271671 0.015599536 -0.022810532 0.13708548
-0.053501077 0.14304754 0.028496483 0.054066304 0.028553445 -0.027775548 -0.038767237 0.12657134
0.02166064 0.0060571283 0.08923751 0.1314367 0.0608825 -0.08980877 -0.07772549 0.11662037
0.16660424 0.0091786925 0.054393817 -0.15816812 -0.21376567 0.0062403767 0.014939616 0.037209857
-0.06682145 -0.13756438 -0.003822892 -0.018712511 -0.020194586 -0.0004803378 0.021607047 0.09287087
-0.042075463 -0.16771054 0.0062023886 0.128471 0.0009746371 0.053162225 0.04518334 -0.024130696
-0.095637344 0.029668907 0.041248392 0.008968338 -0.18513744 0.08329853 0.08847519 -0.03532448
0.18288575 -0.050690494 -0.19110149 -0.11963714 0.038206186 0.12456722 -0.191766 -0.06367324
-0.04652239 0.021361051 -0.0634138 -0.03666752 0.0026764078 0.119842894 -0.16905302 -0.12591608
-0.072780386 -0.0005462086 -0.102865435 -0.10819298 0.010427298 -0.04609332 -0.15953906 -0.19172114
-0.021569068 0.054588336 0.08676808 0.13007836 -0.022451697 -0.03220221 0.07420204 0.17584383
0.18887757 0.055741575 0.079392485 0.03795056 0.018600537 0.0894494 0.07440045 -0.0058674165
0.011765988 -0.19264066 0.053927924 -0.11714928 -0.1690887 0.03484338 -0.012129243 -0.052495144
0.031055143 0.07115017 -0.15346092 0.21533264 -0.1393337 0.004714411 -0.00363348 0.01642921
0.007159601 0.0041152 -0.098625265 -0.24866241 -0.008207872 0.1486573 0.055597804 0.038811035
0.041153684 0.12804762 0.020387843 0.011891018 0.021840727 0.014662615 0.022817587 -0.011974716
-0.11107077 -0.26157993 -0.034810666 -0.039973367 0.009135096 0.081297874 -0.022084994 -0.019863656
0.015873734 0.0065201423 -0.037142605 -0.043358605 0.06348879 -0.05579478 -0.013699255 -0.033636153
-0.0064333095 -0.031800974 0.08380873 -0.0057856254 0.09213498 0.031504873 0.010570788 -0.06587347
0.0650238 0.06726003 -0.3004144 -0.029711485 0.01574124 -0.043680143 0.13378714 0.026540957
0.017007494 0.0117946 0.092935085 -0.06092899 -0.02039769 -0.14996316 -0.08590267 0.011179439
-0.118190736 -0.08510342 -0.20719816 0.084507525 0.2254812 -0.14614043 -0.12943341 0.10180023
0.067999564 0.012482869 -0.091779664 0.1397576 0.07111786 -0.09734632 -0.21059437 0.016964402
-0.06656891 0.15309936 -0.037217263 0.0976401 0.12765752 -0.26493725 -0.10936612 -0.089672334
0.15165114 0.09629219 0.077517994 -0.11098537 -0.041325733 -0.09304091 -0.019674452 0.14548339
0.10691665 0.18931024 0.05153179 -0.074453555 -0.11211847 -0.08647778 0.03460027 -0.05341663
0.09078482 0.09070194 0.0007141106 0.029329805 0.1483918 -0.010453205 -0.17628041 -0.021007001
0.1025654 0.089868166 0.232306 -0.011776734 -0.015678851 0.09233749 -0.04716084 0.054328617
-0.040122196 -0.18979748 -0.17843233 0.043120082 0.034311403 0.05610211 0.08207316 -0.003079322

conv02.bias f4 [22]
00000000: e185 89be b619 9dbd 1204 06be 849f c4bd
00000010: aef0 debd 1671 95be 5925 503c e26b 53be
00000020: cda0 80be d8ce babc 94bc 0cbe cef2 d9bd
00000030: d9f0 033d 7f84 dbbd f2d5 4fbe 27f3 1bbe
00000040: dd71 6dbe 138f 93be a9ee 3fbd 22ab 89be
00000050: d92c f7be c66b 96be
-0.26859954 -0.076709196 -0.1308749 -0.09600738 -0.1088575 -0.2918784 0.012704217 -0.20646623
-0.2512268 -0.022803709 -0.13743812 -0.106420144 0.032212112 -0.10718631 -0.20296457 -0.15229474
-0.23187967 -0.28820094 -0.046858463 -0.26888376 -0.48276404 -0.293791
