weights/4. triplet loss model - models/1. 160 epochs/conv2Dfeatures_best_var.pt (torch, 21655 bytes, 6 tensors)

conv00.weight f4 [4, 1, 5, 5]
0.025177874 -0.034564648 -0.033621375 -0.11081174 -0.11446037 0.039615 -0.07358591 -0.17483102
-0.17455305 -0.19087751 0.13742605 0.07247806 0.02830078 -0.13588353 -0.12958394 0.07167878
-0.0104373265 -0.040450934 0.028179508 -0.031583168 0.045620713 0.007001273 0.070652366 -0.049425635
0.019761993 0.04619927 -0.10841034 -0.16086431 -0.15621948 -0.20458327 0.041624162 0.00247316
-0.0008856181 -0.13624385 -0.11587779 -0.019070655 0.044678237 0.03376611 0.053961467 0.10192049
0.034192044 0.023474555 0.11178702 0.14392942 0.13571212 -0.054989852 -0.0031190563 0.08158091
0.04758864 0.02167877 -0.0020990777 0.050919328 0.03612636 0.04654991 0.053181387 0.047130387
0.033261687 0.05314902 0.031609733 0.014241332 0.06271952 0.051538724 0.061890658 0.06679618
0.03204083 0.081961416 0.04319772 0.051154684 0.07870133 0.053816143 0.0819083 0.04712056
0.03615059 0.055019967 -0.010307051 -0.002784214 -0.048805695 -0.06358703 -0.0300192 -0.016422296
-0.022204498 -0.08639836 -0.042026296 -0.03892762 -0.015278251 -0.09733827 -0.09092847 -0.0848446
-0.0069769747 -0.015605806 -0.063295595 -0.066579945 -0.07478838 -0.09125676 0.0101444 -0.045872994
-0.033053674 -0.042474438 -0.0061141388 0.008713359
00000000: d441 ce3c a993 0dbd 91b6 09bd 44f1 e2bd
00000010: 336a eabd 5743 223d 36b4 96bd e706 33be
00000020: 09be 32be 6575 43be 6ab9 0c3e 616f 943d
00000030: 0ad7 e73c 0d25 0bbe a7b1 04be 53cc 923d
00000040: 5201 2bbc e1af 25bd b6d8 e63c 5a5d 01bd
00000050: c9dc 3a3d ef6a e53b 30b2 903d 8972 4abd
00000060: e7e3 a13c 723b 3d3d 3e06 debd 9db9 24be
00000070: 00f8 1fbe 477e 51be 197e 2a3d bd14 223b
00000080: d328 68ba 8283 0bbe 5651 edbd 103a 9cbc
00000090: 8700 373d 554e 0a3d b306 5d3d b1bb d03d
000000a0: f50c 0c3d b64d c03c 98f0 e43d 3c62 133e
000000b0: 1ef8 0a3e 0a3d 61bd 1569 4cbb e413 a73d
000000c0: 4eec 423d ad97 b13c ae90 09bb c990 503d
000000d0: 3cf9 133d 1eab 3e3d bad4 593d cb0b 413d
000000e0: 683d 083d c9b2 593d 3579 013d 7a54 693c
000000f0: 1773 803d 451a 533d 0f81 7d3d 70cc 883d
00000100: 3f3d 033d 63db a73d 18f0 303d 9387 513d
00000110: 2a2e a13d 516e 5c3d 8abf a73d 7d01 413d
00000120: a412 143d 9e5c 613d e8de 28bc 5c77 36bb
00000130: 7be8 47bd eb39 82bd d3ea f5bc 0d88 86bc
00000140: 35e6 b5bc a0f1 b0bd c423 2cbd 9172 1fbd
00000150: a151 7abc 4959 c7bd b538 babd 01c3 adbd
00000160: 1b9f e4bb 7faf 7fbc 1fa1 81bd 115b 88bd
00000170: a62a 99bd d3e4 babd b334 263c 52e5 3bbd
00000180: 4a63 07bd adf9 2dbd 1d59 c8bb 7ac2 0e3c

conv00.bias f4 [4]
-0.87968874 0.027096415 -0.31610042 0.1204731
00000000: 4833 61bf 4df9 dd3c ead7 a1be 9aba f63d

conv01.weight f4 [16, 4, 5, 5]
0.064838454 -0.05984113 -0.010262372 0.091063805 -0.003886147 0.090076245 0.16681781 0.14765035
0.043564383 -0.07467272 0.009387321 0.045109034 -0.07566312 -0.09685847 -0.09316155 0.019370472
-0.15701793 -0.0978488 -0.18888143 -0.12323792 0.015643302 -0.08357536 0.045476615 -0.009866676
-0.008903577 -0.22890604 -0.07452915 -0.024345728 -0.07046762 -0.1053513 0.03786487 0.01760517
0.057942837 0.06358928 0.0118154315 0.018746193 0.0057401024 -0.055377025 -0.027336866 0.1287144
-0.10784337 0.082423456 0.19303648 -0.17791249 -0.101669565 0.03275413 0.02884096 0.04198003
0.021817662 0.18997204 -0.18292503 0.0136621175 0.07786767 0.0552577 -0.006822108 -0.08193844
-0.17881353 -0.09912749 -0.098718464 0.0061834627 0.08997217 0.05114936 -0.07110513 0.13228045
0.23528908 0.04393849 0.19806363 0.0741676 0.13844761 0.08193518 0.044228632 -0.017831676
-0.057081442 -0.1833378 -0.1742592 0.1635342 0.080404036 -0.14695437 0.06438548 0.040613778
0.026633328 -0.01850778 0.1663748 0.023006368 0.03220568 -0.018527288 -0.029833259 -0.06864765
-0.11124298 -0.20016164 0.04437663 -0.108776614 -0.02512676 -0.024462026 -0.08057233 0.015837729
0.051714968 -0.036549646 0.12292611 0.15819408 0.049677767 0.06358363 0.15576115 -0.23725933
0.0032995436 -0.050544996 -0.04263746 -0.07536858 -0.20152913 -0.0068171048 -0.11332563 -0.09301403
-0.122356944 0.035861775 -0.047112256 0.016865682 -0.05083392 0.1831967 0.053396758 0.081162
0.13890143 0.23584612 0.15836245 -0.0896378 -0.09645074 -0.08560423 -0.019003475 0.027556442
-0.11410147 -0.09488552 0.06295156 0.044827763 0.113115445 0.008650147 0.08283099 0.03057652
0.22385694 -0.029801862 -0.08744363 0.054479454 -0.24510048 0.009553187 -0.07311467 -0.016270505
-0.04880283 -0.013845655 0.071327545 -0.066522434 -0.06060438 0.080114946 -0.050028555 0.2086793
0.14009225 0.10034946 0.114427514 -0.0416996 -0.073276386 -0.024070406 -0.02847859 0.010876409
-0.0054372502 0.18938482 0.0190201 0.05732626 -0.066572115 -0.16671197 -0.08990518 -0.17757638
-0.029275758 -0.1689805 -0.055050105 -0.040800173 -0.14196825 0.07384764 0.13782842 -0.09124494
-0.19082846 -0.07876868 -0.124118924 -0.19577743 -0.011359884 -0.020439446 0.059155487 0.034503732
-0.14678285 0.052240297 -0.13143502 -0.06444133 -0.004732747 0.07347871 0.19874436 0.1388469
0.021714216 0.039539654 0.19451852 0.07484569 0.08247885 0.17464222 -0.036065526 -0.13744454
-0.0038833646 0.15658012 0.13385053 -0.02189679 -0.017096568 -0.116068706 -0.21551412 -0.2018723
0.0047023837 -0.15764457 0.19822793 0.092747435 0.05255063 0.19600205 -0.110308394 -0.041181665
0.036493268 -0.063380614 0.1011145 -0.023027921 -0.0028480375 0.08863515 -0.080297604 -0.041158378
0.044646997 0.09983677 0.109334506 0.16872276 -0.025050636 -0.027270632 -0.00014916935 -0.012658591
-0.052357312 -0.11477415 -0.14415818 0.12279795 0.10052205 -0.09123965 -0.035461776 0.22017683
0.10567171 0.14011669 0.18128097 0.14283024 -0.0524036 0.028232198 0.00018540598 -0.19790539
0.020834278 0.021479078 -0.019241503 -0.056402504 -0.18616912 -0.10081435 -0.026156725 0.11521196
00000000: 06ca 843d f91b 75bd 8223 28bc a97f ba3d
00000010: baae 7ebb e579 b83d 4ad2 2a3e a731 173e
00000020: 9170 323d 03ee 98bd 47cd 193c 40c4 383d
00000030: 44f5 9abd bc5d c6bd 7ccb bebd d3ae 9e3c
00000040: 4fc9 20be f464 c8bd 226a 41be 2a64 fcbd
00000050: 6226 803c 8f29 abbd b045 3a3d d7a7 21bc
00000060: 4fe0 11bc 5866 6abe bda2 98bd b170 c7bc
00000070: 5451 90bd 6cc2 d7bd 3218 1b3d b838 903c
00000080: 7855 6d3d 193b 823d 8395 413c 9e91 993c
00000090: 7817 bc3b 05d3 62bd 90f1 dfbc b5cd 033e
000000a0: fcdc dcbd a1cd a83d 5bab 453e b12e 36be
000000b0: 2238 d0bd 3229 063d e043 ec3c 40f3 2b3d
000000c0: f4ba b23c 0888 423e b350 3bbe 13d7 5f3c
000000d0: 1679 9f3d e655 623d fd8b dfbb 57cf a7bd
000000e0: e51a 37be 5a03 cbbd e82c cabd a59e ca3b
000000f0: 5443 b83d fe81 513d 919f 91bd 8774 073e
00000100: 9fef 703e d9f8 333d 31d1 4a3e 2fe5 973d
00000110: 36c5 0d3e a2cd a73d 1529 353d bc13 92bc
00000120: 3bce 69bd e7bc 3bbe 0171 32be 8275 273e
00000130: dfaa a43d 357b 16be 89dc 833d a25a 263d
00000140: 232e da3c a19d 97bc 285e 2a3e da77 bc3c
00000150: 1aea 033d 8ac6 97bc e164 f4bc 2497 8cbd
00000160: 5cd3 e3bd 2cf7 4cbe 45c4 353d 46c6 debd
00000170: a3d6 cdbc 9664 c8bc 1b03 a5bd 20be 813c
00000180: 13d3 533d 15b5 15bd afc0 fb3d a1fd 213e
00000190: ea7a 4b3d 2238 823d da7f 1f3e 1cf4 72be
000001a0: 283d 583b 4508 4fbd 9ea4 2ebd d85a 9abd
000001b0: a75d 4ebe 0562 dfbb 4517 e8bd 247e bebd
000001c0: 4796 fabd cce3 123d c8f8 40bd e629 8a3c
000001d0: 3a37 50bd ea97 3b3e 8fb6 5a3d 4338 a63d
000001e0: 2d3c 0e3e a581 713e c429 223e 0694 b7bd
000001f0: f787 c5bd 4551 afbd 2dad 9bbc 0cbe e13c
00000200: 08ae e9bd 5753 c2bd bfec 803d 519d 373d
00000210: 12a9 e73d 59b9 0d3c 4ba3 a93d 9c7b fa3c
00000220: c13a 653e 0923 f4bc a515 b3bd d925 5f3d
00000230: 9ffb 7abe f884 1c3c 25bd 95bd b949 85bc
00000240: 7ae5 47bd e3d8 62bc 2d14 923d ea3c 88bd
00000250: 4c3c 78bd 4e13 a43d beea 4cbd 07b0 553e
00000260: 5874 0f3e 0584 cd3d f958 ea3d 33cd 2abd
00000270: ee11 96bd 4d2f c5bc ef4b e9bc f732 323c
00000280: f62a b2bb 18ee 413e 0ad0 9b3c f1ce 6a3d
00000290: f656 88bd 8bb6 2abe 3520 b8bd 95d6 35be
000002a0: b7d3 efbc 3909 2dbe 387c 61bd 151e 27bd
000002b0: 2060 11be 6e3d 973d e522 0d3e a1de babd
000002c0: 8968 43be 7951 a1bd 1032 febd e179 48be
000002d0: cf1e 3abc a070 a7bc 064d 723d c953 0d3d
000002e0: 3e4e 16be ecf9 553d e796 06be d1f9 83bd
000002f0: 2915 9bbb 027c 963d a483 4b3e e22d 0e3e
00000300: 03e2 b13c 55f4 213d dd2f 473e b248 993d
00000310: acea a83d 69d5 323e 72b9 13bd 43be 0cbe
00000320: 0c80 7ebb 8a56 203e 1d10 093e e660 b3bc
00000330: 1a0e 8cbc 6eb5 edbd bcaf 5cbe 9db7 4ebe
00000340: 7416 9a3b 946d 21be 43fc 4a3e 5ef2 bd3d
00000350: 543f 573d c3b4 483e 5ee9 e1bd 1bae 28bd
00000360: f779 153d b2cd 81bd 1e15 cf3d 0da5 bcbc
00000370: 24a6 3abb 5886 b53d 1273 a4bd b095 28bd
00000380: c5df 363d 3877 cc3d c5ea df3d a9c5 2c3e
00000390: fe36 cdbc a966 dfbc 586a 1cb9 fb65 4fbc
000003a0: 9f74 56bd b60e ebbd 349e 13be 7e7d fb3d
000003b0: 81de cd3d dbdb babd 5e40 11bd 0976 613e
000003c0: 696a d83d c07a 0f3e b8a1 393e 1742 123e
000003d0: 28a5 56bd 3647 e73c 8a69 4239 b6a7 4abe
000003e0: a6ac aa3c e4f4 af3c 5ba0 9dbc 5006 67bd
000003f0: 1ea3 3ebe c177 cebd a146 d6bc 40f4 eb3d

conv01.bias f4 [16]
0.00044026852 0.030808741 -0.16735704 -0.0064459406 -0.1626882 -0.049310163 0.09234346 0.18871005
0.097756445 -0.19233145 -0.0681532 0.5315501 -0.010450985 0.19784288 0.10466477 0.5051529
00000000: d7d3 e639 9d62 fc3c a55f 2bbe 7838 d3bb
00000010: bc97 26be 74f9 49bd 911e bd3d 353d 413e
00000020: 8834 c83d 89f2 44be e893 8bbd ab13 083f
00000030: 9c3a 2bbc 5397 4a3e 7c5a d63d b351 013f

conv02.weight f4 [22, 16, 3, 3]
-0.0687129 -0.120991655 0.0043887617 0.20332345 0.22297516 0.15837678 -0.03882349 0.015392365
0.070406035 -0.038151503 0.012285654 0.12677786 -0.047191426 -0.28754935 0.10174289 -0.07154175
0.0005250837 -0.15254736 0.030925559 0.0122448 -0.10902521 -0.01714684 0.084242895 -0.1718827
0.026861839 0.109746605 0.10157543 0.012587168 0.009013219 0.012189256 -0.032548726 0.13807288
-0.04103741 0.15915069 0.043104135 0.047686145 0.035208497 -0.022199724 -0.042185273 0.12966453
0.029278968 0.0058592963 0.10129481 0.14183621 0.07163583 -0.091008596 -0.07480413 0.11776849
0.1681988 0.0150099285 0.059664216 -0.17357704 -0.22667496 -0.011478882 0.01060724 0.034131322
-0.07148826 -0.12890153 0.0028729995 -0.018133724 -0.016450927 0.0027935258 0.008823406 0.086220875
-0.04454752 -0.16639884 0.016382648 0.12744986 -0.002723332 0.050160993 0.034779903 -0.030141212
-0.08747229 0.034137785 0.039402768 0.0028878653 -0.18138629 0.072073504 0.09703864 -0.029760815
0.18900117 -0.054344077 -0.17794544 -0.10890383 0.041833658 0.14849222 -0.18999776 -0.058692858
-0.058930043 -0.004097052 -0.06280346 -0.02616641 -0.005174268 0.109583296 -0.16043751 -0.11322465
-0.0892634 0.009619732 -0.08853736 -0.107514516 0.001294972 -0.05198474 -0.16363099 -0.19229913
-0.020545762 0.05685986 0.080504075 0.12462425 -0.024276646 -0.03348906 0.07868207 0.16958675
0.18390761 0.05175579 0.08185075 0.052092858 0.020600572 0.08555811 0.06641516 -0.0043550697
-0.0005676366 -0.19721827 0.04943786 -0.11028647 -0.16592543 0.04292232 -0.010606319 -0.060454994
0.03465047 0.06174926 -0.14807427 0.20602784 -0.14385481 0.005990736 -0.010998256 0.014650553
0.0050478987 -0.0009835392 -0.10134055 -0.23960076 -0.014904107 0.14616133 0.060101036 0.032343086
0.030053033 0.11830345 0.02310222 0.017875997 0.02506752 0.01834455 0.0054503065 -0.018921578
-0.09555467 -0.24424951 -0.03775715 -0.030347625 0.015226264 0.06250689 -0.018981084 -0.014211547
0.012110134 0.009732349 -0.040134955 -0.02753071 0.060909443 -0.055488918 -0.025720356 -0.03636636
-0.0075043584 -0.03697397 0.08591167 -0.011806828 0.09756439 0.019158717 0.009217822 -0.06773071
0.06626243 0.052656222 -0.29999503 -0.02683448 0.013252925 -0.060432486 0.13062185 0.017175717
0.011368814 0.025789037 0.09580586 -0.06531028 -0.011573559 -0.15020582 -0.07017589 0.014181559
-0.11992464 -0.09109909 -0.21394339 0.07364134 0.21723585 -0.14250964 -0.13356167 0.09866091
0.06394884 -0.001458251 -0.09450723 0.1286261 0.06997704 -0.10545252 -0.19510399 0.022619134
-0.057626996 0.15413153 -0.03860153 0.0984373 0.12483545 -0.25849432 -0.10108515 -0.09057528
0.16239578 0.09404776 0.07459129 -0.108552195 -0.03368953 -0.087850794 -0.012620377 0.14069672
0.10221218 0.18828402 0.043161258 -0.067448795 -0.098091744 -0.0789049 0.04389045 -0.06544745
0.072972484 0.07467691 -0.0062346114 0.028445866 0.15210372 -0.011036347 -0.18153031 -0.021532528
0.08850103 0.07206446 0.2266528 -0.017042864 -0.0018548797 0.085893534 -0.037533693 0.056099955
-0.043197803 -0.1835178 -0.17889409 0.06451253 0.034891464 0.05960572 0.07377562 0.0016768461
00000000: 59b9 8cbd 79ca f7bd 9acf 8f3b 0634 503e
00000010: 9a53 643e 862d 223e 6105 1fbd 4230 7c3c
00000020: 0a31 903d c044 1cbd c549 493c 0ed2 013e
00000030: cc4b 41bd ab39 93be 945e d03d 7b84 92bd
00000040: c5a5 093a 6035 1cbe 9957 fd3c 6a9e 483c
00000050: 9c48 dfbd 8877 8cbc 8a87 ac3d 0502 30be
00000060: 5c0d dc3c d4c2 e03d c706 d03d 693a 4e3c
00000070: 2eac 133c 72b5 473c d051 05bd fa62 0d3e
00000080: d816 28bd 66f8 223e f68d 303d 8c52 433d
00000090: c936 103d 32dc b5bc 77ca 2cbd c7c6 043e
000000a0: 72da ef3c 57ff bf3b a773 cf3d 833d 113e
000000b0: ceb5 923d b762 babd e832 99bd 9b30 f13d
000000c0: 4e3c 2c3e 34ec 753c 7762 743d 2ebe 31be
000000d0: 7b1d 68be ec11 3cbc fdc9 2d3c 49cd 0b3d
000000e0: 7068 92bd c3fe 03be ef48 3c3b 2d8d 94bc
000000f0: 18c4 86bc 9613 373b 0c90 103c 9294 b03d
00000100: 7677 36bd 7564 2abe e734 863c 3782 023e
00000110: ee79 32bb 9d75 4d3d 5f75 0e3d b4ea f6bc
00000120: ac24 b3bd 10d4 0b3d cc64 213d 5742 3d3b
00000130: 54bd 39be 469b 933d 32bc c63d f4cc f3bc
00000140: 8689 413e e597 5ebd 5437 36be f908 dfbd
00000150: c559 2b3d 580e 183e c68e 42be ec67 70bd
00000160: a160 71bd 9040 86bb 1a9f 80bd f05a d6bc
00000170: e88c a9bb 356d e03d bb49 24be 53e2 e7bd
00000180: bbcf b6bd 159c 1d3c 1353 b5bd 9230 dcbd
00000190: 0dbc a93a f3ed 54bd e28e 27be 10ea 44be
000001a0: 964f a8bc e2e5 683d 52df a43d 003b ff3d
000001b0: d1df c6bc d32b 09bd 1124 a13d 26a8 2d3e
000001c0: 4752 3c3e e1fd 533d 5ea1 a73d 525f 553d
000001d0: 88c2 a83c 1739 af3d ac04 883d f9b4 8ebb
000001e0: 73cd 14ba 96f3 49be 5a7f 4a3d dfdd e1bd
000001f0: 5be8 29be 51cf 2f3d 20c6 2dbc a89f 77bd
00000200: a7ed 0d3d cbec 7c3d c8a0 17be f6f8 523e
00000210: ad4e 13be f04d c43b 0732 34bc e008 703c
00000220: d868 a53b 19ea 80ba a28b cfbd e759 75be
00000230: 5b30 74bc 51ab 153e 812c 763d 2f7a 043d
00000240: c731 f63c 1449 f23d de40 bd3c af70 923c
00000250: 665a cd3c 4f47 963c 7c98 b23b 6d01 9bbc
00000260: 2bb2 c3bd 8b1c 7abe 3ea7 1abd 959b f8bc
00000270: 9477 793c 9d03 803d 387e 9bbc 8cd7 68bc
00000280: 9569 463c 6e74 1f3c 8d64 24bd 1588 e1bc
00000290: 2e7c 793d 5948 63bd 7fb3 d2bc e4f4 14bd
000002a0: 1fe7 f5bb 0472 17bd 75f2 af3d 6d71 41bc
000002b0: d7cf c73d bef2 9c3c 5906 173c 66b6 8abd
000002c0: 99b4 873d 0dae 573d f398 99be fcd3 dbbc
000002d0: cc22 593c 0e88 77bd bcc1 053e 17b4 8c3c
000002e0: 4344 3a3c 8843 d33c dd35 c43d 65c1 85bd
000002f0: 069f 3dbc 8ecf 19be 61b8 8fbd c559 683c
00000300: 0d9b f5bd 2992 babd fa13 5bbe 45d1 963d
00000310: 1373 5e3e 0cee 11be 64c4 08be bb0e ca3d
00000320: 9cf7 823d c922 bfba 028d c1bd 8fb6 033e
00000330: 1f50 8f3d 7ef7 d7bd 57c9 47be c34b b93c
00000340: 490a 6cbd a8d4 1d3e a31c 1ebd 7f99 c93d
00000350: baa9 ff3d 5e59 84be bb05 cfbd 887f b9bd
00000360: 144b 263e 1d9c c03d 51c3 983d 9d50 debd
00000370: 08fe 09bd 1eeb b3bd b3c5 4ebc cd12 103e
00000380: 9f54 d13d 87cd 403e dcc9 303d 9822 8abd
00000390: 53e4 c8bd e498 a1bd 79c6 333d 5009 86bd
000003a0: 9972 953d 35f0 983d b64b ccbb 4e07 e93c
000003b0: 14c1 1b3e cbd1 34bc 15e3 39be fc64 b0bc
000003c0: 0740 b53d 8896 933d ac17 683e 7a9d 8bbc
000003d0: 6f1f f3ba f3e8 af3d eebc 19bd 11c9 653d
000003e0: 2ef0 30bd 17ec 3bbe 0330 37be 251f 843d
000003f0: 5aea 0e3d 2125 743d ac17 973d 9ec9 db3a

conv02.bias f4 [22]
-0.26673502 -0.07655658 -0.13450548 -0.1032041 -0.10968262 -0.28177118 0.020319063 -0.20815676
-0.24854764 -0.022478934 -0.13022804 -0.10653157 0.028626492 -0.10444875 -0.19494772 -0.15438618
-0.22945431 -0.28792408 -0.049624354 -0.26615715 -0.48345673 -0.29627517
00000000: 7e91 88be b2c9 9cbd cebb 09be ac5c d3bd
00000010: 48a1 e0bd 5044 90be 2a74 a63c 0c27 55be
00000020: 4683 7ebe be25 b8bc 805a 05be 392d dabd
00000030: 1b82 ea3c 3ae9 d5bd 60a0 47be 6917 1ebe
00000040: 12f6 6abe c96a 93be e842 4bbd c045 88be
00000050: a487 f7be 61b1 97be
