weights/4. triplet loss model - models/1. 160 epochs/fully_connect_last.pt (torch, 533316 bytes, 10 tensors)

linear00.weight f4 [256, 352]
0.06823011 0.09294368 0.0006867493 0.012524169 -0.16359623 -0.013165225 -0.0962823 -0.043054793
0.036463078 -0.15164682 -0.07526873 0.16260475 -0.0037509967 0.023273878 -0.023054592 0.24242756
-0.11587285 -0.0054062433 0.09955287 0.18379694 0.09256189 0.03883127 0.0038550273 0.09273901
0.07982704 -0.11701911 0.06550214 -0.043274734 0.11841596 0.02088739 -0.04548193 0.018450093
-0.026775671 -0.029770043 -0.031035157 -0.01900739 -0.01653585 -0.07303644 -0.027822105 -0.10430342
0.010639989 0.097764276 -0.02928916 -0.05664632 0.019231884 0.079227865 -0.2252242 -0.025481058
-0.023952493 0.065020874 0.010636596 -0.07265939 -0.022599733 -0.10513714 -0.072004676 -0.1413873
0.07497725 0.030507317 -0.099360935 0.15800457 0.02372565 -0.15137824 -0.12625729 0.13618025
0.03318642 0.035684664 0.13719323 -0.020879144 0.07060377 0.047401294 -0.041991938 0.2176683
0.12318931 0.028033007 -0.038505618 -0.026489401 0.045227263 0.039091296 -0.13237774 0.08710272
-0.055558354 -0.08498426 0.0047737574 0.10800119 0.013372846 0.027508514 -0.07381657 0.027152237
0.15178035 -0.004955873 0.028276216 0.05557145 -0.057555877 -0.110626146 -0.19296883 0.11666658
0.119222455 -0.027657561 -0.04836037 -0.0007878794 -0.06399133 -0.09134378 -0.015329411 -0.017130274
-0.0526626 0.020680143 0.08055293 0.025921686 0.13683432 0.011138295 0.10174652 0.080232345
-0.013676106 -0.093456015 0.05397223 -0.0109483395 0.10322974 0.022080002 0.08703947 0.13923027
0.09409144 0.086354814 0.034358915 -0.040476125 0.15982959 -0.10696151 0.0063064825 0.1599455
-0.07686394 -0.032777127 -0.08251046 0.026916664 -0.052903697 -0.01978411 -0.019791016 0.0024940695
0.061257754 -0.16913188 0.0077380845 -0.006717298 0.093808256 -0.1236836 0.035190083 -0.017768258
-0.11789809 -0.04163825 -0.12580198 -0.0089091305 0.057207137 -0.0027091815 -0.060751174 -0.12183363
0.037609335 0.013107739 -0.0052909856 -0.041096803 -0.010465188 0.085263416 0.051723387 0.002197955
0.0761437 -0.07191415 0.11060287 -0.011768496 -0.08127553 -0.06700427 -0.10356225 -0.09726489
0.05674016 0.0005506038 -0.011465597 0.0023528305 0.2085194 -0.014661644 -0.2530281 0.05162274
0.005119006 -0.062232964 0.049075548 -0.07405106 -0.15752546 -0.08827592 -0.07754723 -0.10491734
0.072226 -0.0027127725 0.024636004 0.093323216 0.08473112 0.014771746 -0.22014622 -0.11309491
0.032909147 -0.02889027 0.21645778 0.092287794 0.011814563 -0.010324642 0.15651427 -0.09120909
-0.008075496 -0.3387317 -0.048143264 0.009556698 -0.026864104 0.11388416 -0.09027228 0.09920463
0.12933142 -0.10050983 -0.07402466 -0.0052703624 -0.15471105 -0.032987982 0.004113019 0.058079503
-0.17718248 -0.23223454 -0.14839086 -0.019638678 -0.19666673 -0.082259096 -0.24024399 -0.025074778
0.011180338 0.05674497 -0.093777634 0.13857815 -0.042644836 -0.060012225 0.01697792 -0.03590742
-0.0054255202 -0.049640756 -0.016603155 -0.0565858 0.21952981 -0.0636956 0.09243736 -0.24356228
0.011057664 0.056437273 -0.019512499 0.06792949 -0.0843711 -0.04844598 -0.07206214 -0.013216096
-0.0016091455 -0.08857002 -0.20392542 -0.029665297 0.05663105 -0.10444523 -0.10115961 -0.17488521
00000000: 3abc 8b3d 4259 be3d f706 343a 2c32 4d3c
00000010: c585 27be f5b2 57bc a82f c5bd 395a 30bd
00000020: 4f5a 153d 4e49 1bbe 7e26 9abd dc81 263e
00000030: 48d3 75bb dca8 be3c fcdc bcbc ee3e 783e
00000040: bf4e edbd db26 b1bb 60e2 cb3d 4435 3c3e
00000050: 1791 bd3d 8a0d 1f3d a0a4 7c3b f3ed bd3d
00000060: 5c7c a33d b7a7 efbd fc25 863d d940 31bd
00000070: 1184 f23d 081c ab3c 434b 3abd a624 973c
00000080: a758 dbbc 4ee0 f3bc 713d febc 63b5 9bbc
00000090: 3176 87bc 2194 95bd 2feb e3bc 089d d5bd
000000a0: 5953 2e3c a338 c83d d2ef efbc f905 68bd
000000b0: 2f8c 9d3c 3842 a23d 2ca1 66be a7bd d0bc
000000c0: 0538 c4bc aa29 853d 1e45 2e3c 72ce 94bd
000000d0: 1323 b9bc 2452 d7bd 3077 93bd d5c7 10be
000000e0: ac8d 993d 7bea f93c bf7d cbbd f3cb 213e
000000f0: 4b5c c23c e602 1bbe 9749 01be d672 0b3e
00000100: 7cee 073d 152a 123d 627c 0c3e bd0a abbc
00000110: b698 903d dc27 423d bdff 2bbd 70e4 5e3e
00000120: ad4a fc3d 7aa5 e53c 11b8 1dbd 4d00 d9bc
00000130: 3940 393d 321e 203d 088e 07be e962 b23d
00000140: 2891 63bd 3a0c aebd 2e6d 9c3b ba2f dd3d
00000150: c819 5b3c 8959 e13c 242d 97bd 5e6e de3c
00000160: 4f6c 1b3e e064 a2bb 86a3 e73c e49e 633d
00000170: b6bf 6bbd f68f e2bd 9f99 45be e3ee ee3d
00000180: e72a f43d 1c92 e2bc 8615 46bd b189 4eba
00000190: e30d 83bd 7312 bbbd 3628 7bbc ca54 8cbc
000001a0: bdb4 57bd 6769 a93c eff8 a43d b759 d43c
000001b0: 4c1e 0c3e 657d 363c 7b60 d03d db50 a43d
000001c0: bf11 60bc de65 bfbd fc11 5d3d aa60 33bc
000001d0: 1d6a d33d 1fe1 b43c c041 b23d 6192 0e3e
000001e0: 03b3 c03d cbda b03d efbb 0c3d 4bca 25bd
000001f0: 5eaa 233e a30e dbbd 9ca6 ce3b c1c8 233e
00000200: d76a 9dbd 4f41 06bd 3efb a8bd 5680 dc3c
00000210: 8cb1 58bd 4912 a2bc c520 a2bc 8b73 233b
00000220: 69e9 7a3d e830 2dbe c28f fd3b c81c dcbb
00000230: 8b1e c03d d44d fdbd 7a23 103d bd8e 91bc
00000240: 8e74 f1bd df8c 2abd 3cd2 00be 9af7 11bc
00000250: 0852 6a3d 868c 31bb 39d6 78bd e983 f9bd
00000260: 3f0c 1a3d d8c1 563c 0160 adbb 1f55 28bd
00000270: 2e76 2bbc 969e ae3d e7db 533d 910b 103b
00000280: 3af1 9b3d ba47 93bd c283 e23d a6d0 40bc
00000290: c973 a6bd 8939 89bd 7218 d4bd d132 c7bd
000002a0: 5f68 683d 6556 103a 33da 3bbc f231 1a3b
000002b0: 1c86 553e 6437 70bc e68c 81be 5e72 533d
000002c0: 56bd a73b fee7 7ebd 7103 493d 15a8 97bd
000002d0: 5b4e 21be 01ca b4bd 15d1 9ebd e7de d6bd
000002e0: 3aeb 933d c5c8 31bb 72d1 c93c 3e20 bf3d
000002f0: 8287 ad3d 3105 723c 036e 61be 4e9e e7bd
00000300: becb 063d 4aab ecbc 1ca7 5d3e 6201 bd3d
00000310: de91 413c b028 29bc 4745 203e d5cb babd
00000320: 164f 04bc 3e6e adbe df31 45bd b293 1c3c
00000330: 1c12 dcbc 193c e93d ace0 b8bd cc2b cb3d
00000340: 756f 043e 19d8 cdbd 3e9a 97bd 01b3 acbb
00000350: 936c 1ebe 681e 07bd 81c6 863b c6e4 6d3d
00000360: 536f 35be e4ce 6dbe c6f3 17be 4be1 a0bc
00000370: 0163 49be 7577 a8bd 8502 76be 9f69 cdbc
00000380: bd2d 373c 6a6d 683d 7d0e c0bd 6ee7 0d3e
00000390: 5aac 2ebd 61cf 75bd 4715 8b3c a913 13bd
000003a0: 90c8 b1bb 1b54 4bbd 5703 88bc 83c6 67bd
000003b0: 6ccc 603e d772 82bd cc4f bd3d 6468 79be
000003c0: 342b 353c c52a 673d add8 9fbc 9e1e 8b3d
000003d0: c1ca acbd 4b6f 46bd 5195 93bd 5388 58bc
000003e0: f7e9 d2ba 3364 b5bd d3d1 50be a304 f3bc
000003f0: f6f5 673d 61e7 d5bd c52c cfbd 1c15 33be

linear00.bias f4 [256]
0.001251463 0.02411191 -0.01937125 0.038960602 -0.050134584 0.037661765 -0.14679539 -0.03290037
-0.095199816 -0.04785545 -0.083253585 -0.08123542 0.00987774 -0.11842354 -0.13502988 -0.045436688
0.00547244 -0.16228779 0.045197647 -0.058290277 -0.138789 -0.07007394 -0.034343623 0.058235236
-0.031927146 0.07652471 -0.0026206328 -0.038590264 -0.041316137 -0.05457202 -0.03357161 -0.020201303
0.045068506 -0.032215048 -0.038921338 -0.061558656 -0.060437556 -0.0034972157 0.14754333 -0.046312932
-0.11657608 0.08411825 -0.031363897 -0.123230055 -0.033478357 -0.14761375 -0.110219784 -0.056898072
0.005257372 -0.07036934 -0.037909865 0.030749043 -0.084039554 -0.040168162 -0.026696559 -0.016831346
0.010171936 0.0032187907 -0.13169618 -0.0016679383 -0.009191477 0.08604673 -0.1332813 0.033336606
-0.060603894 -0.07280003 -0.065142654 0.014270027 0.0013639751 0.0068241428 0.0759928 0.08979391
-0.114258304 0.02597773 -0.046794336 -0.0004691475 0.044978634 0.085118465 -0.06279529 -0.019774895
-0.043698255 0.035545368 0.04588519 0.009421691 -0.039554637 -0.036805738 -0.010192035 -0.14952429
-0.03729241 0.020350812 -0.043199617 -0.014889345 0.021760304 -0.043932337 0.007994997 -0.019161459
0.028739989 -0.031782806 -0.009679313 -0.04255999 -0.018336004 -0.18959397 -0.06366202 -0.051157575
-0.121133424 0.031581763 -0.018142687 0.0667351 -0.005091796 -0.16358146 0.037254855 -0.15780549
-0.14859919 -0.00877406 -0.11362473 -0.052758932 0.08307016 -0.03177906 -0.11238119 -0.115958795
-0.014101649 -0.048802417 -0.0428895 0.03451238 -0.035727143 -0.013655024 -0.040796448 -0.07791424
-0.0043787584 -0.037284344 -0.13278161 -0.024804167 -0.015688997 0.041895043 -0.046326302 -0.040011123
-0.06942247 -0.08445882 -0.086343855 0.023671143 -0.06267872 -0.12044732 -0.04441518 0.006490596
-0.16303436 -0.14507133 -0.15177009 -0.0493454 -0.0132529875 0.030290913 -0.0980153 0.08056562
-0.03531912 -0.005568393 -0.111478604 0.116022296 -0.16369581 0.020359537 0.0020958127 -0.06427804
-0.01576277 -0.16320473 -0.111784525 0.04625626 -0.07693794 0.019739702 0.020777103 -0.05889742
-0.110969916 0.04328686 -0.031047627 0.027959896 -0.063469216 -0.012447994 0.031836458 0.057415623
0.029496066 -0.04842262 -0.11258471 -0.013976233 -0.08310724 -0.02441834 0.056329507 -0.031838715
0.09919875 0.050618436 -0.16897132 0.048646137 0.040983547 -0.106662765 -0.032702416 0.06009409
-0.042253055 -0.07609428 0.027019188 -0.05345684 0.11023407 0.010173836 0.030451553 0.03269382
-0.07997713 0.08153328 -0.0646251 0.053955242 0.054957222 0.012723743 -0.017003732 -0.01161661
-0.021917257 0.06824202 0.015315168 -0.06991404 0.02525023 -0.04263278 0.008018068 -0.07914116
0.053360745 -0.06458153 0.024739059 -0.13376512 0.05359998 -0.089451045 -0.10320966 -0.04666679
0.003189792 -0.01846668 -0.0644325 -0.12151322 -0.05535606 -0.07589581 -0.11051414 0.05696961
-0.1147801 -0.008991775 -0.050046053 0.025353312 -0.08593163 -0.01846224 -0.08629717 -0.0094144875
-0.062087957 -0.05430947 -0.14141907 0.09586338 0.010501013 -0.0062376275 -0.0657345 0.032548033
0.066737674 -0.023461869 -0.0020917065 0.01245739 0.09862706 0.012744572 -0.06976929 -0.020136591
00000000: 2108 a43a 5786 c53c 75b0 9ebc 2795 1f3d
00000010: ec59 4dbd 3943 1a3d 8851 16be 8ac2 06bd
00000020: 1ff8 c2bd 1404 44bd db80 aabd c25e a6bd
00000030: 3fd6 213c 0a88 f2bd 4645 0abe d21b 3abd
00000040: 2752 b33b c52e 26be 2b21 393d c9c1 6ebd
00000050: b41e 0ebe ed82 8fbd e6ab 0cbd 1288 6e3d
00000060: 0ac6 02bd fdb8 9c3d ecbe 2bbb d310 1ebd
00000070: 1c3b 29bd e986 5fbd 6282 09bd 347d a5bc
00000080: c199 383d edf3 03bd fb6b 1fbd ee24 7cbd
00000090: 5f8d 77bd 8b31 65bb 9915 173e a1b2 3dbd
000000a0: 71bf eebd 3046 ac3d 6e77 00bd 0a60 fcbd
000000b0: 9a20 09bd 0f28 17be e9ba e1bd f40d 69bd
000000c0: 0846 ac3b cd1d 90bd 6047 1bbd 6be5 fb3c
000000d0: ee1c acbd 5f87 24bd beb2 dabc e4e1 89bc
000000e0: 31a8 263c 59f2 523b 5ddb 06be b99e daba
000000f0: d997 16bc 4539 b03d e57a 08be f78b 083d
00000100: ca3b 78bd 2f18 95bd 8369 85bd d5cc 693c
00000110: 69c7 b23a 0f9d df3b 1da2 9b3d dfe5 b73d
00000120: 4200 eabd 40cf d43c 6bab 3fbd e9f7 f5b9
00000130: 843b 383d 9752 ae3d d19a 80bd f6fe a1bc
00000140: f1fc 32bd 0598 113d 1cf2 3b3d 705d 1a3c
00000150: 0b04 22bd 9dc1 16bd 7efc 26bc e51c 19be
00000160: edbf 18bd bfb6 a63c 15f2 30bd 70f2 73bc
00000170: aa42 b23c 65f2 33bd 73fd 023c 7ef8 9cbc
00000180: 2070 eb3c b02e 02bd fb95 1ebc 6253 2ebd
00000190: 6335 96bc ec24 42be 3c61 82bd 9b8a 51bd
000001a0: cd14 f8bd e15b 013d f99f 94bc 69ac 883d
000001b0: 15d9 a6bb e681 27be 8c98 183d c397 21be
000001c0: 632a 18be 13c1 0fbc 15b4 e8bd c019 58bd
000001d0: b020 aa3d c22a 02bd 1c28 e6bd ce7b edbd
000001e0: 9a0a 67bc 0be5 47bd e6ac 2fbd da5c 0d3d
000001f0: a056 12bd 52b9 5fbc 2d1a 27bd 8091 9fbd
00000200: b07b 8fbb 78b7 18bd e7f7 07be 1c32 cbbc
00000210: 3686 80bc 239a 2b3d a6c0 3dbd b4e2 23bd
00000220: 5e2d 8ebd bff8 acbd 0cd5 b0bd fce9 c13c
00000230: b35d 80bd 16ad f6bd b1ec 35bd 11af d43b
00000240: 7bf2 26be 948d 14be 9e69 1bbe 671e 4abd
00000250: 0f23 59bc a624 f83c 3fbc c8bd 96ff a43d
00000260: c8aa 10bd 1177 b6bb e54e e4bd 199d ed3d
00000270: e09f 27be 0bc9 a63c e759 093b 34a4 83bd
00000280: ed20 81bc 241f 27be 49ef e4bd 3477 3d3d
00000290: a491 9dbd 28b5 a13c be34 aa3c 6c3e 71bd
000002a0: 3244 e3bd 904d 313d 9857 febc 270c e53c
000002b0: 26fc 81bd acf2 4bbc f266 023d a52c 6b3d
000002c0: bca1 f13c cc56 46bd d092 e6bd 92fc 64bc
000002d0: 2134 aabd f808 c8bc c5b9 663d 5069 02bd
000002e0: b728 cb3d 4755 4f3d d106 2dbe 2c41 473d
000002f0: 5dde 273d 0272 dabd f8f2 05bd 3825 763d
00000300: 8a11 2dbd 51d7 9bbd 5857 dd3c 8ff5 5abd
00000310: 66c2 e13d 29b0 263c 8975 f93c f4e9 053d
00000320: 0dcb a3bd ecfa a63d 2a5a 84bd 2c00 5d3d
00000330: d31a 613d 3f77 503c 694b 8bbc 9853 3ebc
00000340: d28b b3bc 79c2 8b3d 78ec 7a3c 182f 8fbd
00000350: 92d9 ce3c b69f 2ebd 375e 033c c314 a2bd
00000360: cc90 5a3d 5243 84bd 91a9 ca3c b9f9 08be
00000370: a78b 5b3d 1c32 b7bd 965f d3bd ad25 3fbd
00000380: d40b 513b 6f47 97bc 30f5 83bd ecdb f8bd
00000390: 09bd 62bd 436f 9bbd 3d55 e2bd f758 693d
000003a0: d411 ebbd 3d52 13bc 17fd 4cbd c0b1 cf3c
000003b0: ecfc afbd 203e 97bc 92bc b0bd 393f 1abc
000003c0: f14f 7ebd 9b73 5ebd 29d0 10be 0554 c43d
000003d0: 710c 2c3c 0365 ccbb cf9f 86bd 1651 053d
000003e0: c3ad 883d 1b33 c0bc 0315 09bb 151a 4c3c
000003f0: fcfc c93d 9cce 503c 34e3 8ebd 7ef5 a4bc

batch_norm00.weight f4 [256]
2.0145829 1.8950921 2.0182588 1.9022895 1.9421751 1.9000863 1.93982 1.8898648
1.8129112 1.8806167 1.7610816 1.8665944 1.8914646 1.9372611 1.9235513 1.884822
1.8782569 1.7585108 1.9067456 1.7871 1.882257 1.6706903 1.877848 1.8392346
1.9082528 1.8199244 2.0158386 1.9406257 1.965956 1.8771124 1.8707416 1.7769601
1.8529898 1.7856752 1.934338 1.8921703 1.8268952 1.8143258 1.8585936 1.9396226
1.857998 1.8167886 1.9530587 2.0459676 2.065115 1.9327534 1.7751218 1.7635214
1.8106933 1.697736 1.960014 1.804965 1.8354545 1.807432 1.727392 1.9565754
1.7372007 1.7776036 1.8360238 1.8185346 1.7540426 1.857346 1.9164972 1.8689151
1.8666711 1.9281994 1.7909251 2.00946 1.7685148 1.7981478 1.8139769 1.9670701
1.833228 2.000963 1.8156266 1.8402746 1.9459966 1.9025551 1.8134099 1.9301647
1.8094252 1.7308251 1.9508612 1.847439 2.0030515 1.7633039 1.9460399 1.8287864
1.9409572 1.8906833 1.8565547 1.8425734 1.9957008 1.9003663 1.8867368 1.9752481
1.9100902 1.6952088 1.8217491 1.909343 1.8242847 1.9464955 1.8731165 1.8975608
2.013878 1.9070767 1.9350144 1.8597367 1.8355347 1.823195 1.9294798 1.8956772
1.9088442 1.8242339 1.9851555 1.8170788 1.9407916 1.8444592 1.9830589 1.8589296
1.8820843 1.8261602 1.9768964 1.646626 1.9870698 1.7777821 1.900123 1.8335159
1.7964759 1.8579606 1.7569814 1.90601 1.9258394 1.8087648 1.8559464 1.8308625
2.0487163 1.8197287 2.015337 1.7279266 2.0285077 1.75905 1.8374037 1.9196585
1.9825242 1.9072572 1.773279 1.9188021 1.8887115 1.8921483 1.9527049 2.065451
1.7595128 1.7578095 1.8393939 1.9136299 1.8231306 1.8493148 1.8932235 1.9135001
1.9024307 1.9822274 2.031291 1.8896607 1.8604436 2.0145175 1.8651036 1.9257566
1.8107219 1.8751047 1.8422573 1.9067384 2.0003624 1.8285832 1.7957472 1.9920313
1.9379103 1.8120247 1.9701872 1.8562741 1.809927 1.9634908 1.8500166 2.0819006
1.9437047 1.8361381 1.8163905 1.8523043 1.6875957 1.8743969 1.9902505 1.826917
1.9935032 1.7820315 1.778568 1.8252296 1.8938892 1.7895441 1.8877815 1.7668197
1.8053097 1.8492771 1.9175628 1.8426846 1.966526 1.8793504 1.9027491 1.8255078
1.7777767 1.8616633 1.7546414 1.8334794 1.9228942 1.8392501 1.874017 1.8902599
1.958469 1.9350259 1.9235098 1.97442 1.9540244 1.8427917 1.8101757 1.9077599
1.7668366 1.72668 1.8848449 1.9748273 1.9351612 1.8826021 1.9488364 1.8627511
1.9757128 1.8277338 1.8131862 1.8638128 1.8804018 1.7832086 1.6678972 1.8783276
2.0033302 1.7651694 1.8567674 1.8374718 1.9612892 1.8656794 1.9143624 1.931644
1.8801893 1.9509908 1.8365805 1.821917 1.8646764 1.8055017 1.8072575 1.8752035
00000000: edee 0040 6192 f23f 272b 0140 397e f33f
00000010: 3299 f83f 0736 f33f 064c f83f 17e7 f13f
00000020: 790d e83f 0cb8 f03f 1f6b e13f 91ec ee3f
00000030: 831b f23f 2cf8 f73f ee36 f63f d941 f13f
00000040: b96a f03f e216 e13f 3d10 f43f b1bf e43f
00000050: cced f03f 2ed9 d53f 535d f03f 0a6c eb3f
00000060: a141 f43f 48f3 e83f 8003 0140 6c66 f83f
00000070: 72a4 fb3f 3845 f03f 7674 ef3f 6e73 e33f
00000080: c52e ed3f 0191 e43f 6398 f73f a332 f23f
00000090: b4d7 e93f d43b e83f 65e6 ed3f 8e45 f83f
000000a0: e1d2 ed3f 878c e83f d4fd f93f 22f1 0240
000000b0: d82a 0440 7764 f73f 3137 e33f 12bb e13f
000000c0: ccc4 e73f 6a4f d93f bde1 fa3f 1809 e73f
000000d0: 2cf0 ea3f ef59 e73f 2e1b dd3f 1071 fa3f
000000e0: 985c de3f 8488 e33f d402 eb3f bec5 e83f
000000f0: 7884 e03f 84bd ed3f c84f f53f 9c38 ef3f
00000100: 14ef ee3f 3dcf f63f 093d e53f fe9a 0040
00000110: b15e e23f b529 e63f 6530 e83f f4c8 fb3f
00000120: 37a7 ea3f c70f 0040 7466 e83f 1e8e eb3f
00000130: 6b16 f93f ed86 f33f d11d e83f a30f f73f
00000140: 3f9b e73f ad8b dd3f d2b5 f93f e278 ec3f
00000150: ff31 0040 f1b3 e13f d617 f93f ac15 ea3f
00000160: 4971 f83f e901 f23f 96a3 ed3f 72d9 eb3f
00000170: 2073 ff3f 343f f33f 9780 f13f eed4 fc3f
00000180: d67d f43f 9afc d83f 132f e93f 5a65 f43f
00000190: 2982 e93f c426 f93f 48c2 ef3f 46e3 f23f
000001a0: 61e3 0040 171b f43f 8dae f73f da0b ee3f
000001b0: cdf2 ea3f 745e e93f 32f9 f63f 8da5 f23f
000001c0: 0255 f43f 7f80 e93f 9319 fe3f 0a96 e83f
000001d0: dc6b f83f 3d17 ec3f e0d4 fd3f 68f1 ed3f
000001e0: 23e8 f03f 9ebf e93f f10a fd3f a4c4 d23f
000001f0: 4e58 fe3f 5d8e e33f 3b37 f33f a6b0 ea3f
00000200: ecf2 e53f a7d1 ed3f c4e4 e03f 23f8 f33f
00000210: e881 f63f 9b85 e73f a78f ed3f b459 ea3f
00000220: 2b1e 0340 dfec e83f 48fb 0040 b32c dd3f
00000230: 12d3 0140 8d28 e13f 0b30 eb3f 5fb7 f53f
00000240: 5ac3 fd3f 0121 f43f cefa e23f 4f9b f53f
00000250: 4cc1 f13f ea31 f23f 3cf2 f93f 5930 0440
00000260: b737 e13f e7ff e03f 4271 eb3f d3f1 f43f
00000270: 585c e93f 59b6 ec3f 2655 f23f 92ed f43f
00000280: d982 f33f a1b9 fd3f ac00 0240 67e0 f13f
00000290: 0423 ee3f dbed 0040 b7bb ee3f 317f f63f
000002a0: bcc5 e73f 6e03 f03f 16cf eb3f 0110 f43f
000002b0: f005 0040 040f ea3f 0bdb e53f e2fa fe3f
000002c0: 720d f83f 6df0 e73f 182f fc3f 649a ed3f
000002d0: b0ab e73f ab53 fb3f 58cd ec3f dc3d 0540
000002e0: 51cb f83f 9306 eb3f 7c7f e83f 4f18 ed3f
000002f0: 2303 d83f 3dec ef3f 87c0 fe3f 6bd8 e93f
00000300: 1d2b ff3f 9c19 e43f 1ea8 e33f 20a1 e93f
00000310: f66a f23f c80f e53f d3a2 f13f 2627 e23f
00000320: 6314 e73f 1db5 ec3f b372 f53f 17dd eb3f
00000330: 20b7 fb3f 8e8e f03f 488d f33f 3daa e93f
00000340: 308e e33f fc4a ee3f 1798 e03f 74af ea3f
00000350: 6621 f63f 8c6c eb3f cadf ef3f 09f4 f13f
00000360: 1daf fa3f eeae f73f 9235 f63f cbb9 fc3f
00000370: 791d fa3f 99e0 eb3f d6b3 e73f 7a31 f43f
00000380: b427 e23f da03 dd3f 9942 f13f 24c7 fc3f
00000390: 5db3 f73f 1bf9 f03f 7973 f93f a16e ee3f
000003a0: 28e4 fc3f 2ef3 e93f 7c16 e83f 6b91 ee3f
000003b0: 02b1 f03f 2e40 e43f a87d d53f 0a6d f03f
000003c0: 9036 0040 12f1 e13f 8eaa ed3f 4732 eb3f
000003d0: 860b fb3f 95ce ee3f d409 f53f 1c40 f73f
000003e0: 0baa f03f 11ba f93f 1215 eb3f 9434 e93f
000003f0: b7ad ee3f ae1a e73f 3754 e73f ab06 f03f

batch_norm00.bias f4 [256]
0.31061432 -0.10067879 -1.0216304 0.10110715 0.3831813 -0.49452788 -0.081668265 -1.0122099
0.21832843 -0.37832394 0.12805313 0.018237347 -0.5527897 -0.31696504 0.20997036 -1.0302113
0.33653817 -0.9180619 -0.30389363 0.9368548 -0.73018295 0.93507355 0.33594948 -0.46102756
-0.25783762 0.1981062 -0.6807484 0.28726807 -0.39873496 0.003200712 -0.19495144 -0.3287677
-0.38627514 0.109191634 -0.20654067 0.2968535 -0.014092843 -0.38197657 0.05817856 -0.1609142
-0.27453682 0.38194153 -0.7734413 0.11158305 0.18153739 0.23066866 -0.7274507 -0.56061935
0.23334584 0.6230353 -0.5248087 0.24842833 -0.5567427 0.5963928 -0.524538 0.47241023
-0.896327 0.22984575 -1.0239033 -0.55446523 0.24435678 0.45191917 -0.6131618 -0.91416836
-0.15340355 0.44527933 -0.73794484 -0.35921842 -0.024076156 -0.077667385 0.71388125 -0.53650135
-0.048617125 -0.21740885 0.58553565 -0.4497596 0.19561043 0.38131222 -0.59996897 -1.025085
-0.020391647 -1.2214375 -0.3096318 0.6061785 0.020151401 -0.84042007 0.64646536 -0.25246033
0.22236969 -0.49447867 0.47869295 -0.046712324 -0.34761536 -0.3986157 0.0757367 -0.42729437
-0.17765798 -0.9928191 -1.1945864 0.43488422 -0.3131181 -0.16671698 -0.729651 -0.14054526
0.079434015 0.49792016 0.46594924 0.18427962 0.11424409 -0.42998812 0.25004977 -0.74311733
-0.61607146 0.34582704 0.21006617 -0.47457883 0.34881014 0.3570528 -0.34496 0.50629413
-0.4804788 0.11260921 0.010786214 1.2222677 -0.214672 0.32734278 0.34963432 0.8001543
-0.5985959 -0.99642307 -1.052935 0.5998353 0.17794661 0.2184621 -0.5548275 0.7251875
-0.18386382 -0.090417735 0.22493637 -0.28617916 -0.5520264 -0.25499293 0.057999544 0.41583917
0.1712882 -0.2672224 0.72391677 -0.03330567 -0.38481137 0.7792864 -0.10706714 -0.4761777
-0.9588006 0.016728034 0.99583554 0.0754005 -0.93732524 0.6025669 0.12334695 -0.45067835
0.12718205 -0.299531 -0.13594435 0.2945767 -0.099361576 0.0992705 -0.29611224 0.42331308
-0.19871652 -0.013302119 -0.7810856 0.34563994 0.16491996 0.43977416 0.19188984 -0.72979873
0.3860478 -0.09611017 0.007915843 0.18668014 0.006789409 -0.823665 -0.041301187 -0.7031802
0.0685337 0.80320096 0.5229073 -0.29335105 0.37115273 -0.35992834 -1.2016735 0.47862324
0.018692577 -1.0590116 0.5539556 0.1039617 -1.0844746 0.10528105 -0.36253512 -0.87501276
-0.7287856 -0.057612173 0.14058569 -0.13316986 0.46761084 -0.328907 -0.17586522 -0.16328073
-0.6429111 0.31497002 0.7652215 0.011010189 -0.77162623 0.9528882 -0.13607475 -0.31692386
-0.22542366 -0.2095967 0.22253372 -0.91863614 0.012083935 0.14453363 0.12347445 0.05948053
0.9101724 0.85538226 -0.3817602 -0.118205324 -0.55991733 -0.1842248 -0.7901892 -0.11808676
0.1553552 0.31337878 0.5542648 0.5909488 -0.55841386 -1.0680984 -1.1535804 0.066524714
-0.70783114 -0.7054216 -0.74496216 0.2019727 0.3777196 -0.81005734 -0.076877095 -0.84722334
0.45385823 0.5199406 0.2625479 0.48598257 0.7247186 0.73107517 -0.089540064 0.100686274
00000000: d708 9f3e ae30 cebd c9c4 82bf 4411 cf3d
00000010: 5730 c43e c232 fdbe b141 a7bd 1890 81bf
00000020: 7d91 5f3e adb3 c1be 5c20 033e 7d66 953c
00000030: a083 0dbf 3e49 a2be 7802 573e f7dd 83bf
00000040: bb4e ac3e 1b06 6bbf f297 9bbe b7d5 6f3f
00000050: 45ed 3abf fb60 6f3f 9201 ac3e ce0b ecbe
00000060: 4b03 84be 5adc 4a3e 8745 2ebf cd14 933e
00000070: fd26 ccbe 09c3 513b 5aa1 47be 3d54 a8be
00000080: dbc5 c5be dd9f df3d 667f 53be 2ffd 973e
00000090: abe5 66bc 6f92 c3be a44c 6e3d b1c6 24be
000000a0: 1790 8cbe d78d c33e 4000 46bf a785 e43d
000000b0: f0e4 393e 6834 6c3e 363a 3abf c084 0fbf
000000c0: 36f2 6e3e 3e7f 1f3f dd59 06bf ff63 7e3e
000000d0: b186 0ebf 33ad 183f 1f48 06bf c1df f13e
000000e0: b075 65bf af5c 6b3e 430f 83bf 6ff1 0dbf
000000f0: aa38 7a3e f361 e73e 2cf8 1cbf f006 6abf
00000100: d215 1dbe a7fb e33e f4e9 3cbf 7aeb b7be
00000110: 5c3b c5bc 1410 9fbd ecc0 363f 2758 09bf
00000120: c022 47bd 6da0 5ebe aae5 153f e446 e6be
00000130: 1a4e 483e 5b3b c33e 9197 19bf fc35 83bf
00000140: 620c a7bc 1058 9cbf 0f88 9ebe 842e 1b3f
00000150: 8d14 a53c c525 57bf c17e 253f 7b42 81be
00000160: e1b4 633e 4f2c fdbe 3e17 f53e 6c55 3fbd
00000170: a4fa b1be 5b17 ccbe d81b 9b3d 54c6 dabe
00000180: f9eb 35be 6429 7ebf 35e8 98bf 25a9 de3e
00000190: 0451 a0be dbb7 2abe 68ca 3abf 19eb 0fbe
000001a0: 4dae a23d 64ef fe3e e690 ee3e ccb3 3c3e
000001b0: cef8 e93d 6727 dcbe 8606 803e f03c 3ebf
000001c0: dcb6 1dbf 3e10 b13e 961b 573e fffb f2be
000001d0: 3e97 b23e a0cf b63e 999e b0be 7e9c 013f
000001e0: 5101 f6be a89f e63d a9b8 303c 4573 9c3f
000001f0: fad2 5bbe 7999 a73e 4503 b33e ead6 4c3f
00000200: 953d 19bf 9515 7fbf 93c6 86bf ce8e 193f
00000210: a337 363e 87b4 5f3e 2d09 0ebf e3a5 393f
00000220: cc46 3cbe ef2c b9bd b855 663e 1386 92be
00000230: 9a51 0dbf 6f8e 82be ee90 6d3d dfe8 d43e
00000240: 2d66 2f3e 60d1 88be 9c52 393f 876b 08bd
00000250: ff05 c5be 507f 473f 0446 dbbd 90cd f3be
00000260: f573 75bf 3b09 893c 14ef 7e3f 946b 9a3d
00000270: 8cf4 6fbf d341 1a3f 539d fc3d 50bf e6be
00000280: 033c 023e 215c 99be ff34 0bbe c2d2 963e
00000290: 157e cbbd 554e cb3d 069c 97be 7ebc d83e
000002a0: 587c 4bbe 22f1 59bc 3af5 47bf b8f7 b03e
000002b0: c7e0 283e 142a e13e c57e 443e 17d4 3abf
000002c0: 0fa8 c53e 69d5 c4bd 74b1 013c 1429 3f3e
000002d0: b179 de3b b6db 52bf 6f2b 29bd 9e03 34bf
000002e0: 665b 8c3d 949e 4d3f 41dd 053f 1c32 96be
000002f0: bb07 be3e 8748 b8be 70d0 99bf 1b0e f53e
00000300: 2d21 993c b18d 87bf 09d0 0d3f dfe9 d43d
00000310: 10d0 8abf 979d d73d 349e b9be d600 60bf
00000320: b191 3abf befa 6bbd b2f5 0f3e ae5d 08be
00000330: b06a ef3e 8066 a8be 0316 34be 1033 27be
00000340: d295 24bf c043 a13e 8ee5 433f 1464 343c
00000350: 4c89 45bf 7bf0 733f 2e57 0bbe d843 a2be
00000360: 76d5 66be 84a0 56be e1df 633e bd2b 6bbf
00000370: b2fb 453c a000 143e 2ce0 fc3d dba1 733d
00000380: 0f01 693f 55fa 5a3f 1376 c3be a215 f2bd
00000390: be56 0fbf 6da5 3cbe d749 4abf 79d7 f1bd
000003a0: 6f15 1f3e 2f73 a03e 4ce4 0d3f 6c48 173f
000003b0: 36f4 0ebf 73b7 88bf 86a8 93bf 1c3e 883d
000003c0: 6c34 35bf 8396 34bf d7b5 3ebf eed1 4e3e
000003d0: 7764 c13e eb5f 4fbf bd71 9dbd a1e3 58bf
000003e0: 1b60 e83e d41a 053f ae6c 863e b5d2 f83e
000003f0: 2887 393f be27 3b3f c860 b7bd 9b34 ce3d

batch_norm00.running_mean f4 [256]
-0.022880597 0.07098091 0.07426976 0.055341996 0.026499163 0.034924753 0.02501915 0.058284998
0.14141645 0.04917734 0.048725612 0.06599062 0.099219546 0.08001374 0.04326097 0.09453887
0.0698926 0.061279323 0.047469545 0.09222083 0.009129898 0.12548025 0.02270746 0.058044974
0.04514785 0.08974468 0.013350311 0.037863422 0.061008304 0.040819425 0.079870924 0.033957697
0.049018536 0.05368612 0.077725336 -0.0115858 0.09295557 0.027704692 0.07960414 0.044824466
0.11156563 0.009127986 0.056560267 0.11419027 0.06601816 0.006996479 0.053671475 0.0015919104
0.0018812725 0.055571202 0.0038368606 0.046211 0.020306611 0.120522015 0.017649734 0.008811499
0.0053922036 0.039747544 0.11049619 0.052507736 0.045909826 0.039288934 0.020302983 0.16192785
0.05758813 0.043936517 0.10461464 0.10816442 0.10750162 0.08731337 0.004014895 0.059221778
0.03763096 0.07973114 0.075542666 0.05838018 0.0810245 0.01882871 -0.005812885 0.17567454
0.04010355 0.046920404 0.09712421 0.0009992585 0.08600788 0.049718812 -0.0117127905 0.027733168
0.040716805 3.091665e-06 0.036893606 0.05240559 0.09260225 0.01846383 0.030618673 0.028286783
0.039717685 0.06031085 0.07230507 0.025674514 -0.004218556 0.014392366 0.10582828 0.10823708
0.046251945 0.09521346 0.043631505 0.07052432 0.07050942 0.028370507 0.0007130261 0.060488556
0.03400939 0.019860476 0.02798239 0.029911434 0.06543086 0.024422757 0.056171153 0.01836544
0.082402624 0.044190116 0.030790403 -0.0042606643 0.09688794 0.09108794 0.02436467 0.0032597936
0.042072915 0.12401678 0.057085685 0.044792935 0.05092179 0.08170346 0.12675345 0.03300347
0.054957677 0.0972453 0.074103065 0.090757154 0.10996042 0.026708677 0.054984488 0.03243936
0.10465526 0.11124898 0.04523583 0.12227876 0.026815264 0.0046080593 0.07204984 0.09510031
0.03181934 0.052616518 0.0152413845 0.06774868 0.11146845 0.0071455142 0.18421508 0.033496022
0.022302285 0.07056995 0.045590833 0.052329484 0.047934003 0.0064865537 0.03427613 0.095612824
0.071828246 0.026258372 0.06745438 0.045231864 0.00029203645 0.039266936 0.08830091 0.060500316
0.07420616 -0.016391745 0.03754176 0.07041253 0.07191635 0.086946964 0.047826525 0.052706964
0.06980468 0.0060036853 0.050899465 0.04205283 0.03929668 0.023368424 0.045568716 0.00071224617
0.032609586 0.14276762 0.1224214 0.030223113 0.0879936 -6.7262255e-05 0.08467857 0.072408915
0.0679644 0.020759802 0.04633166 0.053467203 0.011913195 0.06007764 0.06642728 0.066063285
0.08680685 -0.0040902677 0.106964044 0.04538408 0.088423386 -0.013035109 0.07961196 0.07269684
0.03959229 0.024618194 -0.00053110434 0.06362684 0.07722283 0.0069464045 0.023840472 0.05063093
0.024507826 0.020074075 0.029066421 0.057500042 0.06278813 0.09255744 0.078053854 0.03296999
0.03189681 -0.0064828657 0.034403842 0.021392021 0.106409 0.089051776 0.087765254 0.08632356
0.079829015 0.033381835 0.029236685 0.064731345 0.036683187 0.14398512 0.101828255 0.02172644
0.009135419 0.029086782 0.015486286 -0.0206683 0.045558736 -0.013532156 0.082360715 0.048750855
00000000: 1770 bbbc 705e 913d be1a 983d 4aae 623d
00000010: c614 d93c 420d 0f3d f6f4 cc3c 40bc 6e3d
00000020: 79cf 103e 2e6e 493d 8294 473d 1726 873d
00000030: 9e33 cb3d 3ede a33d 6a32 313d 989d c13d
00000040: da23 8f3d 0700 7b3d 6d6f 423d 46de bc3d
00000050: 9195 153c e57d 003e ff04 ba3c 91c0 6d3d
00000060: f4ec 383d 0fcc b73d 43bb 5a3c ad16 1b3d
00000070: d8e3 793d 4532 273d 5e93 a33d 3a17 0b3d
00000080: a9c7 483d fae5 5b3d 762e 9f3d 5ed2 3dbc
00000090: 7d5f be3d f3f4 e23c 7f07 a33d dc99 373d
000000a0: 857c e43d 8c8d 153c bdab 673d 97dc e93d
000000b0: 8734 873d b842 e53b 9fd6 5b3d a6a7 d03a
000000c0: 0895 f63a a19e 633d d773 7b3b bf47 3d3d
000000d0: 0d5a a63c 3fd4 f63d 2d96 903c 1b5e 103c
000000e0: 15b1 b03b 52ce 223d d44b e23d 5a12 573d
000000f0: f10b 3c3d 6fed 203d 7152 a63c 6ad0 253e
00000100: 88e1 6b3d c7f6 333d 3340 d63d 4f85 dd3d
00000110: cf29 dc3d 5ad1 b23d 618f 833b 8992 723d
00000120: ec22 1a3d 144a a33d 1db6 9a3d 0e20 6f3d
00000130: 2cf0 a53d ab3e 9a3c 037a bebb 07e4 333e
00000140: 9f43 243d 9c2f 403d 0fe9 c63d 8df9 823a
00000150: e624 b03d f4a5 4b3d 01e7 3fbc ab30 e33c
00000160: aac6 263d 667a 4f36 c01d 173d 3ea7 563d
00000170: 40a6 bd3d 7541 973c 03d4 fa3c afb9 e73c
00000180: 03af 223d 8308 773d ae14 943d 5c53 d23c
00000190: d03b 8abb f5cd 6b3c 7fbc d83d 67ab dd3d
000001a0: ae72 3d3d 46ff c23d f3b6 323d 0e6f 903d
000001b0: 3e67 903d 4469 e83c 5fea 3a3a d9c2 773d
000001c0: 6e4d 0b3d 70b2 a23c 533b e53c d308 f53c
000001d0: 9d00 863d 3c12 c83c b913 663d 1f73 963c
000001e0: b5c2 a83d b200 353d 283c fc3c 0b9d 8bbb
000001f0: 2f6d c63d 508c ba3d 6b98 c73c 43a2 553b
00000200: a654 2c3d 82fc fd3d aed2 693d cc78 373d
00000210: 5e93 503d 2554 a73d a8cb 013e a62e 073d
00000220: 4d1b 613d 8b28 c73d 59c3 973d e3de b93d
00000230: ee32 e13d 28cc da3c 6a37 613d 22df 043d
00000240: 7f55 d63d 81d6 e33d 3549 393d 496d fa3d
00000250: afab db3c 34ff 963b de8e 933d f4c3 c23d
00000260: ff54 023d 6b84 573d 00b7 793c d2bf 8a3d
00000270: 9249 e43d eb24 ea3b e1a2 3c3e 2033 093d
00000280: 48b3 b63c fa86 903d 74bd 3a3d 7157 563d
00000290: 7256 443d 288d d43b 2165 0c3d a8d0 c33d
000002a0: b01a 933d cc1b d73c 8625 8a3d 0c45 393d
000002b0: 781c 9939 5ed6 203d 1cd7 b43d 2ecf 773d
000002c0: 66f9 973d fb47 86bc 63c5 193d 7234 903d
000002d0: e148 933d 4011 b23d bfe5 433d 42e3 573d
000002e0: c2f5 8e3d 90ba c43b f57b 503d 973f 2c3d
000002f0: 8ef5 203d 236f bf3c 43a6 3a3d 08b6 3a3a
00000300: a191 053d ad31 123e 12b8 fa3d 7696 f73c
00000310: fd35 b43d 260f 8db8 f56b ad3d 204b 943d
00000320: eb30 8b3d 7610 aa3c 44c6 3d3d 6d00 5b3d
00000330: 902f 433c f913 763d 070b 883d 304c 873d
00000340: cac7 b13d a707 86bb f70f db3d a8e4 393d
00000350: 5217 b53d 3691 55bc 980b a33d 15e2 943d
00000360: 862b 223d 18ac c93c cf39 0bba ca4e 823d
00000370: 0127 9e3d aa9e e33b 184d c33c 6162 4f3d
00000380: a3c4 c83c 6372 a43c b41c ee3c 2a85 6b3d
00000390: 1097 803d c18e bd3d b3da 9f3d 8a0b 073d
000003a0: 3ba6 023d 386e d4bb 0beb 0c3d 523e af3c
000003b0: f6ec d93d c760 b63d 45be b33d 68ca b03d
000003c0: 657d a33d 64bb 083d c681 ef3c de91 843d
000003d0: 1c41 163d d670 133e 558b d03d a6fb b13c
000003e0: b9ac 153c 6747 ee3c 31ba 7d3c 9150 a9bc
000003f0: cc9b 3a3d fab5 5dbc bcac a83d faae 473d

batch_norm00.running_var f4 [256]
0.009594139 0.06452642 0.063936576 0.07297054 0.035068147 0.047686294 0.032594338 0.06299695
0.21266504 0.07042177 0.05381262 0.07017176 0.07783551 0.07221648 0.05446224 0.09793947
0.07641047 0.052680824 0.044741847 0.09920502 0.027660297 0.12950069 0.02148122 0.09166922
0.049956094 0.099482775 0.02461052 0.054954316 0.06190783 0.04046058 0.0722753 0.041196737
0.060102317 0.059992585 0.06590561 0.012915367 0.0905903 0.04170866 0.07026306 0.048926413
0.12209666 0.016073437 0.047858715 0.11720021 0.059361167 0.027928155 0.056645412 0.017648624
0.017541984 0.062213935 0.028594628 0.078363046 0.03806048 0.11457437 0.041153587 0.020156808
0.022474831 0.058191124 0.14268625 0.0777953 0.04790083 0.046626784 0.032385793 0.16748004
0.050801158 0.05201306 0.1043916 0.1431624 0.08831449 0.11371548 0.030021233 0.06805219
0.050925594 0.08727777 0.06790152 0.062080074 0.10480604 0.02302276 0.017400209 0.14963152
0.037947558 0.05258325 0.09071529 0.021137588 0.0940584 0.049484268 0.011304249 0.03211702
0.045792934 0.018602148 0.037297774 0.043641962 0.088012725 0.03198026 0.04415034 0.051312592
0.03752989 0.06652666 0.082783505 0.057819746 0.014374481 0.024557881 0.09688867 0.110968225
0.063930914 0.0906996 0.05942766 0.052724548 0.08588264 0.027300708 0.0116357785 0.065425985
0.041965593 0.029088844 0.036835633 0.03725676 0.06490871 0.027260743 0.06940551 0.04065811
0.08781178 0.060571324 0.030278882 0.017499203 0.105490506 0.094773315 0.039218567 0.019662855
0.05572652 0.1264875 0.064063676 0.05723091 0.0614385 0.067089744 0.16091031 0.0536927
0.0664605 0.09578207 0.06142973 0.09886583 0.11747126 0.03565806 0.064074144 0.034870625
0.10134526 0.100886226 0.07855719 0.10954232 0.040649097 0.026556622 0.06996479 0.10210341
0.033428356 0.047621068 0.029998103 0.08476456 0.11814967 0.019205928 0.19598696 0.03800356
0.04501488 0.07808043 0.04666583 0.054171316 0.072275534 0.017748462 0.035715766 0.07963217
0.10012287 0.035993148 0.06357748 0.05406509 0.013240101 0.04101439 0.077799834 0.08398687
0.061857723 0.007878562 0.042307306 0.088575594 0.06617293 0.1025275 0.061158504 0.059693784
0.071531676 0.021702211 0.04687213 0.043414168 0.03905455 0.052327055 0.053325046 0.0187985
0.0424048 0.1422901 0.11704447 0.031457946 0.11124396 0.02216305 0.06767922 0.07690208
0.07131438 0.030264609 0.064397566 0.06147533 0.03136438 0.08362551 0.09878985 0.054157373
0.07240288 0.016543815 0.10182191 0.0581618 0.11851559 0.017010717 0.12054179 0.06007949
0.032031175 0.0334385 0.0173472 0.05845953 0.087289594 0.023351949 0.032791395 0.061041668
0.02915213 0.034233857 0.040468495 0.076590255 0.08047975 0.09158285 0.067574486 0.034473665
0.032951307 0.016486892 0.037028234 0.046357922 0.10374375 0.10593155 0.07832536 0.06696008
0.07621806 0.042949125 0.036500815 0.058864493 0.043394875 0.16387828 0.10035069 0.051431213
0.025646776 0.035472237 0.0218252 0.01446334 0.056062877 0.012242406 0.13492054 0.05213905
00000000: bc30 1d3c 6d26 843d 2ef1 823d 9471 953d
00000010: 9ea3 0f3d b452 433d a481 053d 8b04 813d
00000020: ddc4 593e 4a39 903d 9f6a 5c3d 36b6 8f3d
00000030: 3968 9f3d 3ce6 933d cc13 5f3d 7d94 c83d
00000040: 187d 9c3d d9c7 573d 3a43 373d 002c cb3d
00000050: d997 e23c d49b 043e 62f9 af3c 12bd bb3d
00000060: c39e 4c3d a0bd cb3d 009c c93c c717 613d
00000070: 1193 7d3d feb9 253d 1305 943d e9bd 283d
00000080: d92d 763d c9ba 753d 85f9 863d fa9a 533c
00000090: 6887 b93d b3d6 2a3d 14e6 8f3d 1067 483d
000000a0: d00d fa3d 71ac 833c 8007 443d aa06 f03d
000000b0: b224 733d 96c9 e43c 0505 683d d993 903c
000000c0: 35b4 8f3c 0ad4 7e3d 483f ea3c ce7c a03d
000000d0: 4ee5 1b3d f8a5 ea3d aa90 283d e41f a53c
000000e0: 231d b83c d159 6e3d 581c 123e 2453 9f3d
000000f0: a933 443d bafb 3e3d f7a6 043d e37f 2b3e
00000100: e014 503d a50b 553d 43cb d53d 2a99 123e
00000110: 3ade b43d a9e3 e83d 17ef f53c f25e 8b3d
00000120: 5b97 503d b0be b23d f40f 8b3d ad47 7e3d
00000130: 8da4 d63d 3a9a bc3c e28a 8e3c 0139 193e
00000140: e66e 1b3d 8961 573d f0c8 b93d bc28 ad3c
00000150: b1a1 c03d 04b0 4a3d 7535 393c 238d 033d
00000160: 5f91 3b3d 8863 983c 8dc5 183d eac1 323d
00000170: 0440 b43d bcfd 023d fdd6 343d 272d 523d
00000180: f1b8 193d 213f 883d 668a a93d 66d4 6c3d
00000190: f182 6b3c 9c2d c93c 916d c63d 4f43 e33d
000001a0: 36ee 823d b6c0 b93d 6b6a 733d b2f5 573d
000001b0: 3de3 af3d bca5 df3c fea3 3e3c 0ffe 853d
000001c0: 1de4 2b3d ba4b ee3c f6e0 163d 8b9a 183d
000001d0: dcee 843d ec51 df3c 7a24 8e3d 1e89 263d
000001e0: aad6 b33d a319 783d 6b0b f83c 7d5a 8f3c
000001f0: 680b d83d 8318 c23d a6a3 203d ff13 a13c
00000200: 7e41 643d f085 013e d133 833d f56a 6a3d
00000210: f0a6 7b3d 5966 893d acc5 243e e0ec 5b3d
00000220: 711c 883d 6429 c43d be9d 7b3d 2b7a ca3d
00000230: c694 f03d 300e 123d 4e39 833d 80d4 0e3d
00000240: 1b8e cf3d 709d ce3d 98e2 a03d b957 e03d
00000250: ab7f 263d 468d d93c b349 8f3d 981b d13d
00000260: 2cec 083d 4f0e 433d 95be f53c 0b99 ad3d
00000270: 74f8 f13d c055 9d3c ceb0 483e 9fa9 1b3d
00000280: 8661 383d a2e8 9f3d ab24 3f3d bee2 5d3d
00000290: 3205 943d 3965 913c b24a 123d 3116 a33d
000002a0: 380d cd3d 8d6d 133d e934 823d 5b73 5d3d
000002b0: 02ed 583c b4fe 273d 8555 9f3d 4f01 ac3d
000002c0: 865e 7d3d 1615 013c 6d4a 2d3d 1f67 b53d
000002d0: ac85 873d f0f9 d13d 5781 7a3d 7881 743d
000002e0: 337f 923d d6c8 b13c fefc 3f3d 0ed3 313d
000002f0: aaf7 1f3d e554 563d 5d6b 5a3d 50ff 993c
00000300: a8b0 2d3d 7fb4 113e 03b5 ef3d 0cda 003d
00000310: e0d3 e33d 498f b53c 679b 8a3d d67e 9d3d
00000320: 460d 923d 7ced f73c dfe2 833d 8ecd 7b3d
00000330: f077 003d da43 ab3d 5552 ca3d 1fd4 5d3d
00000340: f647 943d e586 873c 0188 d03d 113b 6e3d
00000350: 4db8 f23d 0f5a 8b3c 9dde f63d e915 763d
00000360: 1f33 033d cff6 083d b71b 8e3c 4373 6f3d
00000370: e3c4 b23d 964c bf3c 4550 063d d406 7a3d
00000380: 73d0 ee3c cd38 0c3d 4bc2 253d 5adb 9c3d
00000390: 91d2 a43d ca8f bb3d 7e64 8a3d 4234 0d3d
000003a0: f3f7 063d 850f 873c ebaa 173d cee1 3d3d
000003b0: 9a77 d43d a4f2 d83d 0c69 a03d 5e22 893d
000003c0: 3718 9c3d 6ceb 2f3d e181 153d e51b 713d
000003d0: d3be 313d b5cf 273e aa84 cd3d 89a9 523d
000003e0: 3019 d23c 564b 113d c3ca b23c a5f7 6c3c
000003f0: 30a2 653d 5f94 483c 9c28 0a3e c28f 553d

linear01.weight f4 [128, 256]
0.05075951 0.015682563 -0.05541342 -0.04311074 -0.3061313 -0.31762823 0.10061842 0.26913804
-0.008521843 -0.13604291 0.021035256 0.005735936 0.028637849 -0.102004714 0.08381633 -0.25641605
0.20274425 0.02621458 0.3346967 -0.40672553 0.12646422 0.19966145 -0.013591782 -0.31451285
-0.4125336 0.22230978 0.06200252 0.08592171 0.07818747 0.11771101 -0.19410278 0.040605742
0.26916644 0.00962995 -0.6052838 0.0053452756 -0.14611791 -0.23011433 0.10544321 -0.1255193
-0.21394761 0.091726035 0.1323291 -0.24127421 -0.41297165 -0.05007248 -0.31906754 -0.037545446
-0.223342 -0.16144505 -0.18895853 0.4693753 -0.4792621 -0.0045402437 -0.0117093995 0.1082171
-0.03748787 -0.054621704 0.22606732 -0.071899384 -0.058241483 -0.064127974 -0.022217795 -0.25966957
0.1630868 0.048894133 -0.23465087 -0.44091994 -0.22575897 -0.31006357 -0.048032835 -0.07357334
-0.27019855 -0.340323 0.108784586 0.2404679 0.03047784 -0.13535191 0.05791699 0.0033509494
0.112299964 -0.09051832 -0.093821235 -0.0017598143 0.09930811 0.001813727 0.024039036 -0.31227025
0.025705077 -0.071091816 -0.021027694 -0.02232148 -0.13201357 0.014691983 0.21594682 -0.020735756
-0.13931495 0.14580247 -0.28021768 -0.11116411 0.25246194 0.048831552 -0.0017836448 -0.21332045
-0.39143175 -0.024368089 -0.13187084 0.21195413 -0.08782001 0.13793893 0.08530939 -0.2918484
0.14896573 -0.07897291 0.052244414 -0.0056045563 -0.31163344 -0.11862195 0.4042171 -0.1620268
0.091027215 -0.06647826 -0.047608856 0.084815115 -0.7279778 -0.06308516 0.16031729 -0.15217502
0.11568519 0.023910893 0.19750497 0.06612693 -0.0883562 0.271874 -0.19927937 0.31339973
-0.10926033 -0.023844223 0.0023175923 0.004029407 -0.11872667 0.15508255 0.010300857 -0.21487486
-0.3672971 -0.23716198 0.04400998 0.04684569 0.03984872 0.30651864 -0.012498234 -0.06924806
0.28171125 0.1166034 -0.2946015 0.018855786 -0.41919106 -0.0029484436 -0.13163854 0.031135585
-0.27549553 -0.24404892 0.06226164 0.23304293 0.05989844 -0.27971742 -0.18096505 -0.20562202
-0.11990569 0.16646954 -0.09449012 0.01730399 0.091275305 -0.204165 -0.08559399 -0.44104642
-0.15108755 0.050405532 -0.0117182275 -0.2803541 -0.09586766 -0.23380211 -0.222514 -0.118057586
-0.06447203 0.045821756 -0.0062308856 -0.30665058 -0.13179198 -0.09693457 0.1889726 0.459821
-0.15574509 0.17576878 -0.14486115 -0.093658455 -0.03305188 0.273313 -0.17742966 -0.25004727
-0.16637279 -0.15169027 -0.2792382 -0.081332184 -0.052003693 0.017994873 0.019595768 0.030657828
-0.038816832 -0.10729061 0.008626943 -0.038301762 -0.34430254 -0.011572501 -0.0862083 0.08514735
-0.35953072 0.24993147 0.1855953 0.10949692 -0.026043864 0.51826835 0.022750475 0.13643938
-0.0457346 -0.23864667 0.027896462 -0.13184312 -0.18625882 0.12685344 0.009686959 -0.23266362
-0.37737 -0.0019096528 -0.11919497 -0.053354844 -0.04980576 -0.23347703 -0.14195874 -0.12276597
0.29400748 -0.021179566 0.18742706 -0.011299768 0.17680058 -0.35531422 0.13964604 0.30141327
-0.13060912 0.14392795 -0.2824384 -0.102572724 -0.31468636 0.23495127 -0.26642215 -0.22703834
00000000: 34e9 4f3d b878 803c 2ff9 62bd e394 30bd
00000010: 3ebd 9cbe 2ba0 a2be 0811 ce3d 76cc 893e
00000020: 339f 0bbc d54e 0bbe 2152 ac3c 85f4 bb3b
00000030: ec99 ea3c d9e7 d0bd e5a7 ab3d f748 83be
00000040: 309c 4f3e f5bf d63c 5e5d ab3e 543e d0be
00000050: d67f 013e 0d74 4c3e 11b0 5ebc d407 a1be
00000060: 9b37 d3be 2da5 633e 5bf6 7d3d b9f7 af3d
00000070: c120 a03d 7812 f13d e1c2 46be 3552 263d
00000080: 2fd0 893e f0c6 1d3c e1f3 1abf 6c27 af3b
00000090: ef9f 15be 17a3 6bbe 9cf2 d73d 2288 00be
000000a0: 1515 5bbe dcda bb3d 4881 073e 9610 77be
000000b0: 0571 d3be cd18 4dbd d25c a3be 41c9 19bd
000000c0: c4b3 64be da51 25be 587e 41be f651 f03e
000000d0: d861 f5be 53c6 94bb c8d8 3fbc eda0 dd3d
000000e0: e18c 19bd 02bb 5fbd 317e 673e fc3f 93bd
000000f0: 9f8e 6ebd 8755 83bd 1802 b6bc 69f3 84be
00000100: 3a00 273e 3745 483d 5148 70be 42c0 e1be
00000110: 5c2d 67be a7c0 9ebe 14be 44bd 9fad 96bd
00000120: 7757 8abe d13e aebe 74ca de3d 383d 763e
00000130: aaac f93c b199 0abe 5e3a 6d3d 9a9b 5b3b
00000140: 86fd e53d ab61 b9bd 5925 c0bd 92a9 e6ba
00000150: 0d62 cb3d 94ba ed3a 83ed c43c e3e1 9fbe
00000160: 7493 d23c 9698 91bd 4542 acbc 89db b6bc
00000170: 912e 07be a5b6 703c 2a21 5d3e 08de a9bc
00000180: 94a8 0ebe 3e4d 153e b178 8fbe 02aa e3bd
00000190: b142 813e 9803 483d 30c9 e9ba ad70 5abe
000001a0: be69 c8be 969f c7bc 2609 07be 810a 593e
000001b0: fada b3bd dd3f 0d3e b1b6 ae3d 276d 95be
000001c0: 798a 183e 8dbc a1bd 3dfe 553d 6da6 b7bb
000001d0: 6b8e 9fbe 11f0 f2bd 8bf5 ce3e 5aea 25be
000001e0: 7a6c ba3d c125 88bd 8101 43bd 8cb3 ad3d
000001f0: c15c 3abf cb32 81bd 372a 243e c5d3 1bbe
00000200: 5bec ec3d c7e0 c33c be3e 4a3e 8e6d 873d
00000210: 18f4 b4bd 1233 8b3e e40f 4cbe ee75 a03e
00000220: e1c3 dfbd f654 c3bc bfe2 173b 1e09 843b
00000230: f826 f3bd f6cd 1e3e edc4 283c 2808 5cbe
00000240: 5e0e bcbe 97da 72be cf43 343d 44e1 3f3d
00000250: 6938 233d 03f0 9c3e 65c5 4cbc edd1 8dbd
00000260: 753c 903e c3cd ee3d 02d6 96be 7377 9a3c
00000270: 36a0 d6be ad3a 41bb 41cc 06be 0e10 ff3c
00000280: c00d 8dbe f6e7 79be 1006 7f3d cea2 6e3e
00000290: 1158 753d 1f37 8fbe e74e 39be 948e 52be
000002a0: 1d91 f5bd fe76 2a3e 0984 c1bd 19c1 8d3c
000002b0: 8cee ba3d a110 51be e74b afbd d6d0 e1be
000002c0: b2b6 1abe 0876 4e3d cffd 3fbc 938a 8fbe
000002d0: 4456 c4bd d269 6fbe b6da 63be 2dc8 f1bd
000002e0: e909 84bd 98af 3b3d 752c ccbb 4e01 9dbe
000002f0: 7af4 06be a285 c6bd 0982 413e a86d eb3e
00000300: a47b 1fbe bbfc 333e 7b56 14be 01d0 bfbd
00000310: 6861 07bd aeef 8b3e 1fb0 35be 3206 80be
00000320: a15d 2abe b254 1bbe 4ff8 8ebe 7d91 a6bd
00000330: d301 55bd fc69 933c 4e87 a03c 2026 fb3c
00000340: 66fe 1ebd 2ebb dbbd 0658 0d3c 4fe2 1cbd
00000350: 6c48 b0be 969a 3dbc fa8d b0bd bc61 ae3d
00000360: 6914 b8be 09ee 7f3e b20c 3e3e ec3f e03d
00000370: f159 d5bc 3cad 043f 345f ba3c c4b6 0b3e
00000380: 3454 3bbd cb5f 74be 1f87 e43c e201 07be
00000390: a2ba 3ebe dee5 013e 0db6 1e3c 5f3f 6ebe
000003a0: a436 c1be 514d faba 7e1c f4bd 9c8a 5abd
000003b0: 2001 4cbd 9a14 6fbe a25d 11be ba6c fbbd
000003c0: 2688 963e c580 adbc e1ec 3f3e aa22 39bc
000003d0: 360b 353e bfeb b5be 5fff 0e3e d752 9a3e
000003e0: 66be 05be d961 133e c49b 90be a611 d2bd
000003f0: 921e a1be 1197 703e 7c68 88be bd7c 68be

linear01.bias f4 [128]
0.2319677 0.28844243 0.30924842 0.5070534 0.303658 0.31987485 0.4576961 0.53650886
0.28242573 0.3593982 0.55145115 0.40228453 0.42429256 0.45018837 0.47616875 0.40511718
0.31936386 0.32895964 0.2554395 0.40294445 0.296867 0.2836989 0.37905034 0.37770814
0.32933918 0.5145817 0.26423037 0.4171789 0.5095246 0.46649715 0.28553087 0.46415004
0.15117228 0.250865 0.32429138 0.42216614 0.32914722 0.22273278 0.19590314 0.58843744
0.3436033 0.5076224 0.08428242 0.03937831 0.30065802 0.33386013 0.1738841 0.34020752
0.2665573 0.5391143 0.5199745 0.21172763 0.584537 0.38149264 0.3523544 0.46038818
0.2735923 0.4850889 0.32254475 0.30941844 0.4337602 0.25471443 0.34954897 0.2551396
0.4820293 0.24114318 0.3842754 0.615704 0.29056826 0.46227157 0.3594422 0.3975671
0.31066024 0.38252681 0.36466905 0.4082084 0.4474913 0.5698231 0.30439007 0.39702055
0.58773094 0.46751887 0.23606825 0.12513512 0.5478626 0.5131996 0.37385216 0.35279104
0.3956733 0.26928702 0.44720942 0.34273544 0.4344809 0.33668935 0.3262524 0.48564744
0.35267872 0.31723744 0.2828755 0.06519525 0.26450473 0.26857814 0.45334643 0.30016908
0.62566847 0.275795 0.46284562 0.41805306 0.43290865 0.38202775 0.41937342 0.4520941
0.3345615 0.42120397 0.28785455 0.28401446 0.22353718 0.3039648 0.36107078 0.37675405
0.29905933 0.34479374 0.16791074 0.12351827 0.4038221 0.2718875 0.34600613 0.32965124
00000000: f188 6d3e baae 933e cf55 9e3e 40ce 013f
00000010: 1079 9b3e a3c6 a33e 2557 ea3e a558 093f
00000020: 1b9a 903e 0a03 b83e e72b 0d3f 3df8 cd3e
00000030: e03c d93e 177f e63e 64cc f33e 856b cf3e
00000040: a983 a33e 666d a83e f7c8 823e bc4e ce3e
00000050: f4fe 973e fb40 913e e312 c23e f662 c13e
00000060: 259f a83e a0bb 033f 3449 873e 7998 d53e
00000070: 3470 023f b7d8 ee3e 1a31 923e 13a5 ed3e
00000080: e8cc 1a3e 6171 803e 8509 a63e 2926 d83e
00000090: fc85 a83e 1014 643e d59a 483e d6a3 163f
000000a0: c6ec af3e 8bf3 013f 439c ac3d 274b 213d
000000b0: d9ef 993e b7ef aa3e ac0e 323e ae2f ae3e
000000c0: 337a 883e 6503 0a3f 0d1d 053f 21cf 583e
000000d0: 38a4 153f 0153 c33e cc67 b43e 00b8 eb3e
000000e0: 4a14 8c3e 935d f83e 9624 a53e 186c 9e3e
000000f0: d115 de3e ee69 823e 15f8 b23e a8a1 823e
00000100: 8bcc f63e 3dee 763e bfbf c43e c79e 1d3f
00000110: 5dc5 943e dcae ec3e cf08 b83e ea8d cb3e
00000120: dc0e 9f3e 8eda c33e e7b5 ba3e b100 d13e
00000130: 941d e53e eddf 113f 04d9 9b3e 4746 cb3e
00000140: 8975 163f a25e ef3e e0bb 713e 6c23 003e
00000150: b940 0c3f 0d61 033f 8d69 bf3e 07a1 b43e
00000160: b195 ca3e fddf 893e a2f8 e43e 057b af3e
00000170: 4874 de3e 8c62 ac3e 8e0a a73e c8a6 f83e
00000180: 4e92 b43e f26c a23e 0fd5 903e 1685 853d
00000190: 2a6d 873e 1383 893e 061d e83e c3af 993e
000001a0: cf2b 203f 0135 8d3e 1afa ec3e 0d0b d63e
000001b0: 34a6 dd3e 2499 c33e 1db8 d63e e178 e73e
000001c0: a54b ab3e 0ca8 d73e ac61 933e 586a 913e
000001d0: eee6 643e 46a1 9b3e 45de b83e e8e5 c03e
000001e0: 4e1e 993e ce88 b03e cbf0 2b3e 26f7 fc3d
000001f0: c5c1 ce3e d734 8b3e b727 b13e 0cc8 a83e
