weights/4. triplet loss model - models/1. 160 epochs/fully_connect_best_var.pt (torch, 533316 bytes, 10 tensors)

linear00.weight f4 [256, 352]
0.061899085 0.100992836 0.0061945366 0.022794304 -0.16279906 -0.022051878 -0.10865938 -0.045404695
0.013131928 -0.14553973 -0.06318072 0.16218987 0.018130107 0.034092356 -0.009440637 0.25818
-0.09667148 0.008585462 0.10154205 0.16093741 0.08408882 0.04047876 0.022549141 0.09356315
0.077229455 -0.120750524 0.06526724 -0.042770654 0.113687664 0.015050255 -0.054142676 0.01365803
-0.021530313 -0.023828315 -0.04243973 -0.036372367 -0.010588336 -0.059132546 -0.024695482 -0.10603731
-0.017845111 0.090771966 -0.039415594 -0.057937127 0.01019221 0.0919143 -0.2259283 -0.01610834
-0.013735704 0.082002185 0.017396295 -0.0627906 -0.01365641 -0.09049755 -0.07013339 -0.13830362
0.06595161 0.01683815 -0.104338795 0.1565622 0.040088885 -0.15770496 -0.13182299 0.13396478
0.035610087 0.03165421 0.12789512 -0.032583725 0.0644921 0.0541407 -0.033164505 0.20083678
0.11788131 0.03979714 -0.03147814 -0.009456241 0.0342064 0.028076626 -0.12820657 0.07657618
-0.052719366 -0.07680689 0.0015645411 0.101613894 0.010363871 0.019572856 -0.071371764 0.024324892
0.13327895 0.0030095796 0.025592221 0.050741445 -0.040709555 -0.12274584 -0.21426566 0.1268493
0.12441495 -0.026015332 -0.03142572 0.016131205 -0.058753897 -0.10800468 -0.016571539 -0.034777947
-0.055954084 0.02362734 0.07960235 0.041294612 0.13112661 0.0015672074 0.097924076 0.09048504
-0.028214531 -0.08959842 0.059899624 -0.0059802104 0.11083003 0.04596605 0.092133865 0.13684946
0.092671685 0.08033556 0.039152417 -0.038506057 0.16423391 -0.10745104 -0.0034441852 0.17075619
-0.09188446 -0.027957462 -0.066326015 0.026719498 -0.05071246 -0.030701045 0.006385355 -0.0020460743
0.05105486 -0.16163525 -0.0023627828 -0.022495698 0.08679264 -0.11146731 0.04006307 -0.003795326
-0.12969519 -0.032093383 -0.110798106 -0.014090622 0.07136198 -0.014999026 -0.06633099 -0.1150499
0.025302555 0.023148276 0.0030880654 -0.0357194 -0.010930368 0.09718505 0.06441445 -0.0028615787
0.095674925 -0.066298224 0.105592765 -0.014569713 -0.08682126 -0.073212884 -0.08979335 -0.10546878
0.049999993 -0.0050341818 -0.020208545 -0.012278905 0.20672283 -0.01773053 -0.2621154 0.06253311
0.031172447 -0.048321243 0.063884966 -0.035082374 -0.16099213 -0.09063883 -0.08216899 -0.113857135
0.07937639 0.01022096 0.035629593 0.08182509 0.06699974 0.019525556 -0.23164093 -0.09917397
0.03374921 -0.03270033 0.20792776 0.08775754 0.004411994 -0.017577926 0.14846599 -0.096253894
-0.001483452 -0.3421948 -0.049292706 0.0203572 -0.03200136 0.09827849 -0.075379446 0.08383801
0.13675459 -0.1100991 -0.0766131 -0.0018935356 -0.13093407 -0.028241618 0.0022269068 0.06027266
-0.17881192 -0.22126621 -0.12656209 -0.01573698 -0.18966787 -0.07471801 -0.25039098 -0.034915593
0.0068298155 0.060570125 -0.112023786 0.12586205 -0.045513045 -0.07028811 0.009148418 -0.030263316
-0.005592317 -0.046645906 -0.0025763959 -0.061181735 0.20755325 -0.06452231 0.08289421 -0.23938598
0.026303092 0.060003456 -0.029091924 0.05872088 -0.07317656 -0.03798814 -0.06107378 -0.016118372
-0.02108851 -0.08808055 -0.19824304 -0.021659564 0.07695499 -0.09092635 -0.09140406 -0.1690832
00000000: e589 7d3d 55d5 ce3d 8afb ca3b 1fbb ba3c
00000010: ccb4 26be 24a6 b4bc cf88 debd 46fa 39bd
00000020: 4c27 573c 5e08 15be e564 81bd 1a15 263e
00000030: 9785 943c 6da4 0b3d e7ac 1abc 2b30 843e
00000040: b2fb c5bd 0aaa 0c3c 47f5 cf3d c7cc 243e
00000050: c236 ac3d 0ecd 253d fab8 b83c 099e bf3d
00000060: 7a2a 9e3d 0d4c f7bd d5aa 853d 4830 2fbd
00000070: 14d5 e83d 5895 763c b6c4 5dbd eec5 5f3c
00000080: 5760 b0bc 9933 c3bc 48d5 2dbd 31fb 14bd
00000090: b37a 2dbc f834 72bd 2e4e cabc 172a d9bd
000000a0: e92f 92bc a7e6 b93d 3f72 21bd 7b4f 6dbd
000000b0: 3afd 263c 913d bc3d c059 67be a3f5 83bc
000000c0: b80b 61bc c3f0 a73d ad82 8e3c 5c98 80bd
000000d0: 23bf 5fbc c856 b9bd 18a2 8fbd 779f 0dbe
000000e0: a311 873d 29f0 893c 94af d5bd d751 203e
000000f0: 3e34 243d 697d 21be 9bfc 06be 102e 093e
00000100: e2db 113d d8a7 013d f0f6 023e 8376 05bd
00000110: 6f14 843d a3c2 5d3d 81d7 07bd 28a8 4d3e
00000120: c26b f13d 5302 233d 39ef 00bd 59ee 1abc
00000130: 031c 0c3d f400 e63c 9548 03be f9d3 9c3d
00000140: 43f0 57bd ee4c 9dbd 4a11 cd3a f21a d03d
00000150: 3acd 293c 4157 a03c 5c2b 92bd ff44 c73c
00000160: 477a 083e 5e3c 453b c7a6 d13c 43d6 4f3d
00000170: 10bf 26bd 2c62 fbbd 7568 5bbe c8e4 013e
00000180: 44cd fe3d 1b1e d5bc 41b8 00bd 9725 843c
00000190: eda7 70bd 8f31 ddbd 09c1 87bc 5273 0ebd
000001a0: 1c30 65bd 208e c13c 8f06 a33d 8a24 293d
000001b0: 0e46 063e c16a cd3a 6b8c c83d 3850 b93d
000001c0: 2922 e7bc 607f b7bd 4f59 753d a4f5 c3bb
000001d0: dbfa e23d e646 3c3d aeb0 bc3d 4422 0c3e
000001e0: a7ca bd3d f886 a43d 495e 203d 87b8 1dbd
000001f0: ef2c 283e 4a0f dcbd d7b7 61bb b6da 2e3e
00000200: eb2d bcbd 0c07 e5bc efd5 87bd d9e2 da3c
00000210: deb7 4fbd c280 fbbc 3d3c d13b 6e17 06bb
00000220: e71e 513d b683 25be ebd8 1abb e648 b8bc
00000230: 57c0 b13d f948 e4bd 2c19 243d 01bb 78bb
00000240: d1ce 04be 5a74 03bd 1eea e2bd 5adc 66bc
00000250: 3b26 923d 7abe 75bc 8bd8 87bd 489f ebbd
00000260: 4e47 cf3c 74a1 bd3c 2461 4a3b 814e 12bd
00000270: 4915 33bc f508 c73d b9eb 833d 5389 3bbb
00000280: 37f1 c33d 5dc7 87bd 0541 d83d ceb5 6ebc
00000290: 58cf b1bd a3f0 95bd 93e5 b7bd 0400 d8bd
000002a0: cbcc 4c3d c7f5 a4bb 648c a5bc 762d 49bc
000002b0: 26af 533e 9e3f 91bc fd33 86be 5c11 803d
000002c0: 5c5d ff3c 7fec 45bd 1fd6 823d 89b2 0fbd
000002d0: 1fdb 24be daa0 b9bd 3748 a8bd ee2d e9bd
000002e0: 1790 a23d d075 273c 56f0 113d ea93 a73d
000002f0: 2937 893d 0ff4 9f3c 4833 6dbe b91b cbbd
00000300: 9d3c 0a3d c8f0 05bd 04eb 543e 3aba b33d
00000310: 7d92 903b 95ff 8fbc 7807 183e c320 c5bd
00000320: 6470 c2ba 2834 afbe 26e7 49bd 25c4 a63c
00000330: dc13 03bd 3c46 c93d 8a60 9abd 43b3 ab3d
00000340: 6509 0c3e a37b e1bd 54e7 9cbd 8330 f8ba
00000350: 9513 06be f75a e7bc 4cf1 113b 77e0 763d
00000360: 791a 37be 9c93 62be 7e99 01be d7ea 80bc
00000370: 4b38 42be c205 99bd 3f33 80be a703 0fbd
00000380: a5cc df3b 6118 783d ba6c e5bd fbe1 003e
00000390: e36b 3abd 36f3 8fbd 3fe3 153c c6ea f7bc
000003a0: c13f b7bb c70f 3fbd c0d8 28bb b399 7abd
000003b0: d788 543e 4624 84bd 71c4 a93d 9921 75be
000003c0: 9579 d73c 2fc6 753d 3052 eebc 4e85 703d
000003d0: 98dd 95bd 7499 1bbd 8028 7abd ad0a 84bc
000003e0: d0c1 acbc 9363 b4bd 3900 4bbe 666f b1bc
000003f0: 949a 9d3d 9837 babd 0d32 bbbd 2524 2dbe

linear00.bias f4 [256]
-0.0047723507 0.01962751 -0.013424347 0.033939447 -0.055482727 0.046164993 -0.1446485 -0.039510418
-0.09873347 -0.04706358 -0.09248474 -0.07707496 0.0002672003 -0.11591327 -0.13590828 -0.056087736
-0.0018949665 -0.16636555 0.036477026 -0.05969743 -0.122910276 -0.06971632 -0.03530716 0.06661937
-0.036263842 0.072881594 0.0028971424 -0.042740624 -0.042937145 -0.06465761 -0.035112377 -0.025111822
0.04062974 -0.029324897 -0.045975517 -0.06298372 -0.05458866 -0.0062915953 0.13987571 -0.047813963
-0.118295565 0.09351643 -0.01391072 -0.12086823 -0.035265855 -0.14934818 -0.11878489 -0.058763318
0.012898762 -0.07077726 -0.03237603 0.031195624 -0.08073876 -0.04128903 -0.029937452 -0.020948566
0.009247875 -0.0012457698 -0.13390037 -0.0023978273 -0.018525692 0.08171828 -0.13735795 0.030888867
-0.06480915 -0.06925781 -0.07607294 0.013178019 0.00086353964 0.0109846005 0.07239009 0.089042164
-0.108427964 0.020165076 -0.041992832 -0.0027111003 0.049809482 0.08552846 -0.055658642 -0.032337677
-0.041496873 0.037413515 0.04546526 0.0016580109 -0.045772843 -0.03950761 -0.012670805 -0.14557658
-0.030959586 0.01953933 -0.04320611 -0.019998385 0.022515507 -0.041580614 0.0051563424 -0.01810682
0.021236809 -0.0370624 -0.011770935 -0.046046387 -0.01713275 -0.18812105 -0.065001294 -0.03974824
-0.112512656 0.037113402 -0.028625082 0.06148559 -0.008414818 -0.16580306 0.03802591 -0.14544341
-0.15283172 -0.0048626084 -0.10790155 -0.051638324 0.07788842 -0.027978662 -0.120359465 -0.10893161
-0.014590996 -0.055980403 -0.041747738 0.04069527 -0.025968798 -0.024186619 -0.030849872 -0.082045294
-0.0022965951 -0.033325527 -0.13609733 -0.037000284 -0.016291654 0.052414488 -0.045716178 -0.03958614
-0.07287548 -0.090778396 -0.08406813 0.026255928 -0.050379444 -0.123730965 -0.045288157 0.006243059
-0.16264391 -0.1401129 -0.16328797 -0.048135683 -0.01027797 0.026090305 -0.10321438 0.078596696
-0.03526363 -0.0055279434 -0.11064837 0.11248141 -0.15788157 0.016943978 0.008291444 -0.06118917
-0.017814333 -0.16638894 -0.12061462 0.03510235 -0.06776861 0.029726863 0.023307897 -0.060464494
-0.10589347 0.035286903 -0.029877177 0.02877574 -0.053309802 -0.013276197 0.022695744 0.05432516
0.023600766 -0.048520144 -0.1144692 -0.011018543 -0.08041801 -0.025476698 0.059307344 -0.039998602
0.09390729 0.050112195 -0.17164813 0.040445555 0.044051133 -0.097946346 -0.033961017 0.062846296
-0.038794924 -0.08021102 0.023602445 -0.053181954 0.10400236 0.0047991276 0.024904002 0.026270555
-0.07855167 0.07332202 -0.05859908 0.054435894 0.049811617 0.0119737815 -0.010559651 -0.017493093
-0.016534096 0.07250573 0.01400542 -0.06827366 0.023302076 -0.020778058 0.011400838 -0.078975566
0.06432929 -0.05985091 0.020612473 -0.13874646 0.048027556 -0.092833295 -0.101676255 -0.041199006
0.010010044 -0.024126748 -0.06587383 -0.12954363 -0.054057706 -0.080829 -0.11077246 0.06934052
-0.11940778 -0.0038443003 -0.055730633 0.023437591 -0.08023166 -0.017749868 -0.08438328 -0.0111988075
-0.06084074 -0.052945793 -0.13809098 0.09529383 0.016148048 -0.0059359004 -0.06358294 0.035638284
0.072127596 -0.02839062 0.0033979171 0.0077939793 0.10051473 0.018597258 -0.0715385 -0.017354125
00000000: 6161 9cbb dfc9 a03c cbf1 5bbc 1704 0b3d
00000010: db41 63bd 8117 3d3d bd1e 14be add5 21bd
00000020: c634 cabd bec5 40bd a468 bdbd 7ad9 9dbd
00000030: 0417 8c39 f063 edbd 8a2b 0bbe 41bc 65bd
00000040: 8660 f8ba bb5b 2abe ef68 153d 4b85 74bd
00000050: 62b8 fbbd 6ec7 8ebd 3e9e 10bd bc6f 883d
00000060: 6589 14bd f242 953d fcdd 3d3b cb10 2fbd
00000070: dcde 2fbd 366b 84bd ffd1 0fbd 4fb7 cdbc
00000080: 5f6b 263d c43a f0bc d350 3cbd 9cfd 80bd
00000090: 5c98 5fbd ba29 cebb 943b 0f3e 93d8 43bd
000000a0: f244 f2bd 8b85 bf3d cae9 63bc c389 f7bd
000000b0: ee72 10bd bbee 18be 7e45 f3bd ceb1 70bd
000000c0: 5455 533c abf3 90bd ba9c 04bd f78d ff3c
000000d0: 5d5a a5bd b01e 29bd 633f f5bc 549c abbc
000000e0: 6684 173c 1949 a3ba 2e1d 09be de24 1dbb
000000f0: 31c3 97bc ea5b a73d 90a7 0cbe a60a fd3c
00000100: a9ba 84bd 0ad7 8dbd 21cc 9bbd 9ee8 573c
00000110: 2a5f 623a c1f8 333c 4141 943d bd5b b63d
00000120: 7b0f debd 3b31 a53c ad00 2cbd b7ac 31bb
00000130: 0705 4c3d 8c29 af3d 51fa 63bd 8374 04bd
00000140: a0f8 29bd ea3e 193d c839 3a3d 9d51 d93a
00000150: 4e7c 3bbd bbd2 21bd 3599 4fbc 0712 15be
00000160: f59e fdbc f210 a03c e4f8 30bd a7d3 a3bc
00000170: 7172 b83c 6f50 2abd 89f6 a83b c154 94bc
00000180: d1f8 ad3c bece 17bd e1da 40bc 239b 3cbd
00000190: fb59 8cbc cea2 40be 661f 85bd 0dcf 22bd
000001a0: 096d e6bd 3904 183d 267f eabc 50d8 7b3d
000001b0: 4ede 09bc 47c8 29be 0ec1 1b3d 1eef 14be
000001c0: eb7f 1cbe 8456 9fbb 7dfb dcbd b582 53bd
000001d0: f783 9f3d 8233 e5bc 067f f6bd 8917 dfbd
000001e0: 130f 6fbc b54b 65bd adff 2abd 15b0 263d
000001f0: 84bc d4bc 0423 c6bc dfb8 fcbc 5d07 a8bd
00000200: 7982 16bb 5980 08bd 195d 0bbe 9c8d 17bd
00000210: 1376 85bc 93b0 563d e340 3bbd 1425 22bd
00000220: bd3f 95bd 06ea b9bd e92b acbd ac16 d73c
00000230: ad5a 4ebd a966 fdbd 1380 39bd 9392 cc3b
00000240: 208c 26be c279 0fbe f634 27be ec29 45bd
00000250: ee64 28bc 56bb d53c 1062 d3bd 4ef7 a03d
00000260: 9970 10bd c023 b5bb 9d9b e2bd a75c e63d
00000270: b5ab 21be 19ce 8a3c d6d8 073c 7fa1 7abd
00000280: 5def 91bc dd61 2abe cc04 f7bd 7bc7 0f3d
00000290: 45ca 8abd c085 f33c 34f0 be3c 9ea9 77bd
000002a0: adde d8bd 0089 103d fbc0 f4bc 1abb eb3c
000002b0: 615b 5abd 6884 59bc 6dec b93c 0f84 5e3d
000002c0: 6556 c13c 0fbd 46bd d46e eabd 1e87 34bc
000002d0: 33b2 a4bd 82b4 d0bc 42ec 723d 93d5 23bd
000002e0: 7752 c03d 7242 4d3d 87c4 2fbe 3daa 253d
000002f0: f66e 343d 1898 c8bd b51a 0bbd 8fb5 803d
00000300: 6de7 1ebd ad45 a4bd ea59 c13c 52d5 59bd
00000310: 30ff d43d 0042 9d3b 7a03 cc3c 5935 d73c
00000320: b3df a0bd db29 963d 9705 70bd 2cf8 5e3d
00000330: 4407 4c3d ae2d 443c 6302 2dbc ad4d 8fbc
00000340: 8372 87bc e27d 943d fd76 653c 10d3 8bbd
00000350: ffe3 be3c bf36 aabc 95ca 3a3c f1bd a1bd
00000360: 13bf 833d 3a26 75bd 7ddb a83c 8d13 0ebe
00000370: 8bb8 443d 621f bebd a43b d0bd 4ac0 28bd
00000380: 2b01 243c 75a5 c5bc dce8 86bd 16a7 04be
00000390: 9d6b 5dbd ad89 a5bd acdc e2bd 6702 8e3d
000003a0: 118c f4bd a8f0 7bbb ce45 64bd 3100 c03c
000003b0: 7f50 a4bd 2c68 91bc 24d1 acbd 347b 37bc
000003c0: 2434 79bd b0dd 58bd b967 0dbe 6929 c33d
000003d0: e948 843c f181 c2bb c637 82bd 73f9 113d
000003e0: a2b7 933d 7293 e8bc 97af 5e3b a364 ff3b
000003f0: abda cd3d 4759 983c c782 92bd 3d2a 8ebc

batch_norm00.weight f4 [256]
2.018656 1.8939741 2.0120642 1.8993965 1.9260474 1.8884583 1.9383647 1.8601741
1.8054163 1.8734485 1.7547915 1.8640815 1.8886403 1.9163538 1.9140818 1.8881408
1.8704222 1.7449194 1.8922004 1.783661 1.8447897 1.6575756 1.887239 1.8301806
1.8878503 1.8080953 2.0130599 1.9128392 1.9388096 1.8612044 1.8478069 1.7579434
1.8440576 1.7824641 1.9135349 1.8753582 1.8251519 1.8140857 1.8567528 1.9400561
1.8445783 1.8106223 1.9398245 2.0453613 2.0572507 1.9174699 1.760354 1.735112
1.7963612 1.6940416 1.944503 1.7960403 1.8320274 1.8315942 1.7098199 1.9577608
1.7476591 1.7749527 1.8040661 1.787645 1.7580428 1.8494445 1.8907328 1.8592485
1.8480023 1.9093305 1.7808344 2.0078883 1.7629398 1.7927012 1.8105117 1.9467641
1.8227168 1.9910494 1.8279996 1.8455772 1.9296174 1.891392 1.7908181 1.9140732
1.8002254 1.7118258 1.9312489 1.851596 1.9922264 1.7483602 1.9281797 1.8404223
1.9171981 1.8594354 1.8541609 1.8504412 1.9684795 1.8861016 1.8801703 1.9550947
1.8925416 1.6749257 1.7876571 1.9066393 1.8377452 1.9590166 1.8772781 1.8864079
2.0018675 1.9215626 1.937521 1.859221 1.8229674 1.8057625 1.92805 1.8686453
1.8952066 1.8129247 1.9837168 1.7930051 1.9135227 1.8357652 1.9635386 1.8575406
1.8620619 1.7992857 1.9625831 1.6326672 1.9578866 1.7730256 1.9007133 1.8336421
1.7924043 1.8648391 1.7257851 1.9010934 1.8915552 1.8222867 1.8430492 1.8137888
2.0594473 1.8032256 1.9891813 1.7096568 2.008416 1.7696149 1.813669 1.9302528
1.9647557 1.8918463 1.7714262 1.8938715 1.8559988 1.9043058 1.9291127 2.055107
1.7312378 1.7516116 1.8377223 1.9000287 1.7984684 1.8357886 1.9071757 1.9109535
1.8941203 1.9795909 2.0250206 1.8661671 1.8637688 2.010288 1.861824 1.9183805
1.8100152 1.8700427 1.8208615 1.8900063 2.0043058 1.8186333 1.7735419 1.9749854
1.9292992 1.7941035 1.9672453 1.8435652 1.7968156 1.9318871 1.8333161 2.0690978
1.9378603 1.8374141 1.8079271 1.8293613 1.6750664 1.8656133 1.969339 1.8186387
1.9868165 1.7727778 1.7749873 1.8146842 1.8745898 1.7868736 1.8619399 1.7342112
1.7929044 1.837465 1.8945521 1.8310083 1.9669089 1.8810022 1.8947983 1.8306737
1.7520953 1.8571781 1.7554704 1.8249718 1.9361446 1.8312455 1.8653624 1.8539487
1.9444487 1.929795 1.9232671 1.9537375 1.9437767 1.8374711 1.809113 1.8741689
1.7429141 1.7196678 1.8912461 1.9830117 1.9349849 1.8614789 1.9031327 1.8769239
1.9692658 1.8087645 1.8218085 1.8656957 1.8731416 1.7641691 1.6313381 1.8620769
1.9962552 1.7377849 1.8372571 1.8198571 1.9743758 1.8516785 1.9063952 1.9348364
1.8761433 1.9594721 1.8257303 1.8243352 1.8691744 1.808624 1.7996407 1.8705777
00000000: a931 0140 be6d f23f a9c5 0040 6d1f f33f
00000010: b988 f63f 00b9 f13f 561c f83f 2f1a ee3f
00000020: e217 e73f 29cd ef3f 029d e03f 399a ee3f
00000030: f7be f13f 154b f53f a200 f53f 99ae f13f
00000040: ff69 ef3f 8559 df3f 9f33 f23f 014f e43f
00000050: 1222 ec3f 702b d43f 0c91 f13f 5c43 ea3f
00000060: 14a5 f13f ab6f e73f f9d5 0040 ead7 f43f
00000070: ea2a f83f f23b ee3f f084 ec3f 4a04 e13f
00000080: 140a ec3f c927 e43f b6ee f43f bd0b f03f
00000090: 949e e93f f633 e83f 13aa ed3f c253 f83f
000000a0: 241b ec3f 79c2 e73f 2b4c f83f 33e7 0240
000000b0: ffa9 0340 a76f f53f 4853 e13f 2618 de3f
000000c0: 2aef e53f 5bd6 d83f 79e5 f83f a6e4 e53f
000000d0: e07f ea3f ae71 ea3f 61db da3f e897 fa3f
000000e0: 4bb3 df3f a631 e33f a3eb e63f 8dd1 e43f
000000f0: 8c07 e13f 99ba ec3f 8803 f23f dbfb ed3f
00000100: 578b ec3f f164 f43f 62f2 e33f 3e81 0040
00000110: 03a8 e13f 3c77 e53f d9be e73f 912f f93f
00000120: c94e e93f b5da fe3f e4fb e93f e03b ec3f
00000130: b4fd f63f 2219 f23f 8739 e53f 5a00 f53f
00000140: c96d e63f 1c1d db3f 2a33 f73f 1901 ed3f
00000150: 4601 ff3f 44ca df3f 98ce f63f f592 eb3f
00000160: bf66 f53f fb01 ee3f 2555 ed3f 42db ec3f
00000170: 23f7 fb3f c76b f13f 6ca9 f03f 8b40 fa3f
00000180: ce3e f23f f763 d63f f3d1 e43f c20c f43f
00000190: 3c3b eb3f 0ec1 fa3f a64a f03f d075 f13f
000001a0: 991e 0040 c3f5 f53f b000 f83f f4fa ed3f
000001b0: ff56 e93f 3a23 e73f 58ca f63f c52f ef3f
000001c0: 2196 f23f eb0d e83f 6fea fd3f 3181 e53f
000001d0: 50ee f43f 5bfa ea3f 3c55 fb3f e4c3 ed3f
000001e0: 0b58 ee3f fe4e e63f ec35 fb3f 3dfb d03f
000001f0: 079c fa3f 81f2 e23f 934a f33f c9b4 ea3f
00000200: 816d e53f 0cb3 ee3f 87e6 dc3f 0757 f33f
00000210: 7b1e f23f b140 e93f 09e9 eb3f 3b2a e83f
00000220: fccd 0340 19d0 e63f 7e9d fe3f 09d6 da3f
00000230: e389 0040 be82 e23f 4e26 e83f 8612 f73f
00000240: 1d7d fb3f 0528 f23f 18be e23f 626a f23f
00000250: 5e91 ed3f 4bc0 f33f 2aed f63f e086 0340
00000260: 3399 dd3f cf34 e03f 7c3a eb3f 2434 f33f
00000270: 3634 e63f 1ffb ea3f 551e f43f 209a f43f
00000280: 8972 f23f 3c63 fd3f f099 0140 90de ee3f
00000290: fa8f ee3f 8fa8 0040 4050 ee3f 7e8d f53f
000002a0: 94ae e73f 8f5d ef3f fd11 e93f baeb f13f
000002b0: 8c46 0040 fac8 e83f 6c03 e33f 52cc fc3f
000002c0: 47f3 f63f 2fa5 e53f b2ce fb3f f2f9 eb3f
000002d0: 0efe e53f 1448 f73f 1aaa ea3f 196c 0440
000002e0: ce0b f83f 6330 eb3f 286a e73f 8328 ea3f
000002f0: 9368 d63f 6bcc ee3f 4d13 fc3f 27c9 e83f
00000300: 0150 fe3f 62ea e23f c932 e33f 9247 e83f
00000310: 8ff2 ef3f 46b8 e43f 0c54 ee3f a2fa dd3f
00000320: e47d e53f 0e32 eb3f af80 f23f 7b5e ea3f
00000330: acc3 fb3f aec4 f03f c088 f23f 8453 ea3f
00000340: a944 e03f 03b8 ed3f 41b3 e03f ad98 e93f
00000350: 96d3 f73f 4166 ea3f 32c4 ee3f 314e ed3f
00000360: b2e3 f83f 8603 f73f 9e2d f63f 1214 fa3f
00000370: adcd f83f 4132 eb3f 0491 e73f c4e4 ef3f
00000380: cf17 df3f 131e dc3f 5a14 f23f 54d3 fd3f
00000390: 96ad f73f f144 ee3f da99 f33f 0b3f f03f
000003a0: e710 fc3f 9885 e73f 0531 e93f 1ecf ee3f
000003b0: 1bc3 ef3f 4bd0 e13f b0cf d03f 8958 ee3f
000003c0: 4a85 ff3f bc6f de3f 3e2b eb3f 14f1 e83f
000003d0: 59b8 fc3f cd03 ed3f c204 f43f b8a8 f73f
000003e0: 7725 f03f fbcf fa3f 88b1 e93f d183 e93f
000003f0: 1b41 ef3f fe80 e73f a05a e63f 176f ef3f

batch_norm00.bias f4 [256]
0.32324487 -0.118110664 -1.069026 0.10261698 0.3714554 -0.5255816 -0.08000468 -1.0413316
0.22050261 -0.40237153 0.10968181 -0.008688317 -0.58135027 -0.33700848 0.20669541 -1.0560151
0.32613108 -0.9434919 -0.33866632 0.9440864 -0.7485015 0.93947315 0.36230728 -0.4821837
-0.28290308 0.18593808 -0.7068963 0.29991502 -0.39425847 -0.00089358486 -0.20631401 -0.33565792
-0.40409684 0.10117665 -0.22048543 0.31826904 -0.022626821 -0.3946547 0.041658245 -0.15100835
-0.30972096 0.37693673 -0.786763 0.12580994 0.17808652 0.24860387 -0.74461055 -0.58096665
0.22664778 0.62431574 -0.53678465 0.2448576 -0.5875703 0.61018085 -0.54086936 0.49821618
-0.93267137 0.22700344 -1.0436717 -0.58309317 0.24039716 0.47091943 -0.64201033 -0.9494307
-0.1474308 0.4689748 -0.759864 -0.37663412 -0.031729184 -0.083906606 0.7139618 -0.5371484
-0.06524388 -0.24571648 0.58019334 -0.46684778 0.18663767 0.38085303 -0.6204857 -1.0605688
-0.032343548 -1.2513409 -0.33277464 0.6278128 0.016967248 -0.85434234 0.6468797 -0.28255704
0.21701105 -0.5019085 0.4864273 -0.046080347 -0.36305752 -0.4241137 0.08157038 -0.44938308
-0.20042393 -1.0203482 -1.232293 0.42494863 -0.3297033 -0.16458178 -0.77631927 -0.16011988
0.0737882 0.49387854 0.46935308 0.16965063 0.11752109 -0.45323396 0.25473827 -0.77316797
-0.64980114 0.3481678 0.22236687 -0.5045186 0.34862462 0.35734674 -0.3667311 0.5140132
-0.5066178 0.10573064 0.019043388 1.2489251 -0.24221724 0.31207588 0.33740085 0.8091583
-0.6064983 -1.0240033 -1.0866321 0.6266275 0.17491668 0.20448674 -0.59296036 0.7261611
-0.21446992 -0.110255614 0.21031867 -0.31243983 -0.58660674 -0.2764504 0.050324827 0.4323301
0.16653518 -0.2804372 0.740627 -0.041686177 -0.40996787 0.7782857 -0.100297324 -0.49135467
-1.0018141 0.0044754636 1.0186465 0.059642684 -0.97261596 0.5971119 0.10603918 -0.48178717
0.13559774 -0.30758122 -0.14737853 0.2891639 -0.10224268 0.09795204 -0.30736 0.42487058
-0.21937741 -0.026697326 -0.81057787 0.33622673 0.17117934 0.44945785 0.19250405 -0.7451041
0.39740652 -0.084255196 -0.010073775 0.16671398 -0.017311996 -0.8450108 -0.056119464 -0.7213158
0.052195605 0.82195425 0.5382539 -0.29451934 0.36842656 -0.39631313 -1.2259259 0.48749346
0.019933868 -1.1099417 0.5541755 0.086723365 -1.1113406 0.116198786 -0.36677226 -0.90318567
-0.7649511 -0.07021345 0.11939148 -0.1510155 0.49213788 -0.3376162 -0.18750875 -0.17705648
-0.67129636 0.30650488 0.7815022 -0.0060758325 -0.79679704 0.97400934 -0.15459853 -0.32806242
-0.23662266 -0.21196605 0.23000069 -0.94513065 0.0035351487 0.12967911 0.113858186 0.03472031
0.9278936 0.8809316 -0.39135143 -0.121686846 -0.57455623 -0.19749293 -0.84268254 -0.13027017
0.14828496 0.32960272 0.5685364 0.6069485 -0.5843669 -1.0917914 -1.1777023 0.051528428
-0.739784 -0.7256474 -0.7714112 0.21148257 0.3934332 -0.85612065 -0.092460565 -0.88403606
0.4561201 0.5453794 0.269634 0.48776525 0.7389632 0.74653727 -0.11122938 0.105900824
00000000: 5a80 a53e 01e4 f1bd d8d5 88bf da28 d23d
00000010: 672f be3e 848c 06bf 7ed9 a3bd 5b4a 85bf
00000020: 70cb 613e a403 cebe dba0 e03d 7159 0ebc
00000030: 5fd3 14bf 608c acbe f6a7 533e 812b 87bf
00000040: a7fa a63e af88 71bf ac65 adbe a5af 713f
00000050: cb9d 3fbf 5081 703f 5780 b93e c8e0 f6be
00000060: acd8 90be 8d66 3e3e 28f7 34bf 768e 993e
00000070: 3fdc c9be 773f 6aba fb43 53be 5bdb abbe
00000080: c8e5 cebe b435 cf3d efc6 61be 29f4 a23e
00000090: e25b b9bc 2e10 cabe d6a1 2a3d efa1 1abe
000000a0: bf93 9ebe dafd c03e 4d69 49bf 52d4 003e
000000b0: 505c 363e 0392 7e3e cc9e 3ebf 3bba 14bf
000000c0: 5b16 683e 28d3 1f3f b86a 09bf f3bb 7a3e
000000d0: 026b 16bf d034 1c3f 6a76 0abf 3116 ff3e
000000e0: 8dc3 6ebf 9773 683e 0997 85bf 9845 15bf
000000f0: ac2a 763e 5a1c f13e ca5a 24bf e40d 73bf
00000100: 1af8 16be 771d f03e 7286 42bf 30d6 c0be
00000110: 76f6 01bd 3ad7 abbd 33c6 363f 8f82 09bf
00000120: 959e 85bd 1a9d 7bbe 8d87 143f ac06 efbe
00000130: f21d 3f3e 2bff c23e 27d8 1ebf b8c0 87bf
00000140: ab7a 04bd f02b a0bf 7061 aabe 57b8 203f
00000150: e6fe 8a3c 2eb6 5abf e899 253f 51ab 90be
00000160: 2538 5e3e 137d 00bf 000d f93e bfbe 3cbd
00000170: ade2 b9be 6e25 d9be 5f0e a73d 8a15 e6be
00000180: ee3b 4dbe c59a 82bf c7bb 9dbf de92 d93e
00000190: dfce a8be 2088 28be dcbc 46bf 77f6 23be
000001a0: 451e 973d a6dd fc3e 0c4f f03e e5b8 2d3e
000001b0: e6ae f03d 480e e8be 0e6d 823e 56ee 45bf
000001c0: 5e59 26bf 0d43 b23e 24b4 633e 2228 01bf
000001d0: ed7e b23e 27f6 b63e 2ec4 bbbe 5e96 033f
000001e0: b4b1 01bf 4e89 d83d e100 9c3c c7dc 9f3f
000001f0: cc07 78be 69c8 9f3e cebf ac3e 0025 4f3f
00000200: 7943 1bbf 8a12 83bf c316 8bbf a96a 203f
00000210: 5c1d 333e f964 513e 40cc 17bf b2e5 393f
00000220: 019e 5bbe b2cd e1bd c75d 573e 1df8 9fbe
00000230: dc2b 16bf e88a 8dbe 6821 4e3d 5f5a dd3e
00000240: 3388 2a3e 7795 8fbe bb99 3d3f 20bf 2abd
00000250: 4fe7 d1be bb3d 473f af68 cdbd d792 fbbe
00000260: 723b 80bf e9a6 923b 0263 823f e34b 743d
00000270: 5cfd 78bf 53dc 183f 122b d93d cfac f6be
00000280: 22da 0a3e 497b 9dbe 66ea 16be 4a0d 943e
00000290: 9c64 d1bd 149b c83d 4a5e 9dbe a388 d93e
000002a0: 79a4 60be 5ab4 dabc 0882 4fbf e925 ac3e
000002b0: a349 2f3e 571f e63e c81f 453e 24bf 3ebf
000002c0: de78 cb3e fd8d acbd 7a0c 25bc 12b7 2a3e
000002d0: e3d1 8dbc a152 58bf 86dd 65bd 27a8 38bf
000002e0: 0fcb 553d 986b 523f 02cb 093f 3dcb 96be
000002f0: 68a2 bc3e 8ee9 cabe 24eb 9cbf be98 f93e
00000300: 5a4c a33c 9212 8ebf 72de 0d3f 059c b13d
00000310: 6940 8ebf a1f9 ed3d 93c9 bbbe 2d37 67bf
00000320: d6d3 43bf 12cc 8fbd 8583 f43d cfa3 1abe
00000330: 7ff9 fb3e 08dc acbe 4b02 40be 4b4e 35be
00000340: 14da 2bbf 35ee 9c3e 8710 483f c717 c7bb
00000350: e4fa 4bbf ad58 793f 144f 1ebe ccf7 a7be
00000360: 364d 72be a10d 59be 4d85 6b3e 15f4 71bf
00000370: f4ad 673b 9aca 043e 7b2e e93d e236 0e3d
00000380: 6f8a 6d3f bc84 613f 375f c8be f436 f9bd
00000390: 1e16 13bf 963b 4abe 0bba 57bf 8b65 05be
000003a0: 03d8 173e b0c1 a83e 9a8b 113f fa60 1b3f
000003b0: 1299 15bf d2bf 8bbf f3be 96bf 790f 533d
000003c0: 7c62 3dbf 07c4 39bf 347b 45bf e38e 583e
000003d0: 1470 c93e b92a 5bbf f75b bdbd 3050 62bf
000003e0: 9388 e93e fc9d 0b3f 780d 8a3e 5ebc f93e
000003f0: b12c 3d3f 111d 3f3f 3bcc e3bd 88e2 d83d

batch_norm00.running_mean f4 [256]
0.006821923 0.0863932 0.11059223 0.012640138 0.009850048 0.065197654 0.048265222 0.04479392
0.026671477 0.0088379355 0.07198313 0.052065916 0.035597272 0.0820324 0.05316437 0.044966742
0.05031392 0.011194337 0.060076118 0.027692927 0.1628167 0.09041217 0.07298789 0.07228281
0.028809095 0.05123104 0.10672615 0.02477361 0.055104475 0.0146504175 0.04178384 0.011091423
0.032030903 0.08673745 0.06520355 -0.013947413 0.11722475 0.019082695 0.04941151 0.06904994
0.056261696 0.046026513 0.11802525 0.06781034 0.06291186 -0.010711525 0.07123852 0.012064994
0.12511855 0.06618214 0.065990254 0.064910345 0.033417065 0.08218173 0.005134028 -0.00821906
0.041748825 -0.016004922 0.06547109 0.06371388 -0.0010657118 0.004557181 0.024007147 0.1167413
0.047924645 0.019916609 0.067193575 0.09087161 0.13897303 0.0714986 -0.005398451 0.060947645
0.015549228 0.08807188 0.059883006 0.027691351 0.060775228 0.05802506 0.020407131 0.10306849
0.036396686 0.056986004 0.0837846 -0.019184096 0.07654778 0.0055960887 -0.0016868288 0.050408505
0.07179485 0.0359603 -0.0029212702 0.02996181 0.085503206 0.040402066 0.0926814 0.02461271
0.08561608 0.06873 0.09595086 -0.030205488 0.04911211 -0.00017278553 0.1068012 0.15689088
0.09338119 0.097202264 0.06331178 0.046765096 0.059909075 0.028727163 0.018716315 0.06102085
0.037385285 0.05940296 0.05596588 0.040426664 0.054449376 0.053656504 0.046251927 0.034062043
0.10773571 0.0413548 0.05299892 0.034640543 0.09645501 -0.0007197405 0.035967514 -0.016067669
0.052104663 0.10976693 0.04933266 0.0012586986 0.03514894 0.09611468 0.08831782 0.057399467
0.06105423 0.051547483 0.07406989 0.06455938 0.22983234 0.030480407 0.010503841 0.031817313
0.028284762 0.06682979 -0.023630695 0.102234 0.08893017 0.009669202 0.008716955 0.06895259
0.050135445 0.017524142 0.0046221055 0.069645494 0.07231465 -0.0009456886 0.11359533 0.06802
0.020238569 0.05776573 0.031206502 0.056737274 0.035141464 0.050390564 0.039145358 0.063843854
0.051285185 0.0042393506 0.1063259 0.064405404 0.027489355 0.05192898 0.030978538 0.055340353
0.10137952 0.029383251 0.04794345 0.04643917 0.094786555 0.08657701 0.043627366 0.13092029
0.037817206 0.02180853 0.00050202326 0.050144706 0.027146026 0.03715757 0.12546408 0.00015017786
0.040775973 0.088784836 0.09389113 0.05656434 0.09041694 0.02721477 0.07647262 0.09652738
0.044515736 0.042741187 0.10900168 0.014990201 0.020174209 0.06873888 0.041743286 0.09649758
0.075359315 0.027729377 0.11761289 0.030516984 0.11145039 0.067329526 0.076890394 0.08631519
0.06964813 0.035053916 0.05505314 0.032009423 0.03764282 0.010889113 0.0050933487 0.07443735
0.03284244 0.043507326 0.039902918 0.022522578 0.053791273 0.10309271 0.08562141 0.083251484
0.037092123 0.008853697 0.0025094033 0.01909457 0.11495033 0.049440306 0.06280292 0.055761766
0.047901753 0.05256112 0.0425905 0.021083497 0.035150427 0.14222193 0.026496192 0.0761834
0.067616254 0.030958755 0.036575057 -0.024784528 0.043444384 0.0117192725 0.025148777 0.09179072
00000000: 708a df3b ebee b03d 2e7e e23d 9518 4f3c
00000010: 1962 213c 5986 853d c1b1 453d d479 373d
00000020: 247e da3c fdcc 103c e46b 933d 1243 553d
00000030: 72ce 113d 9a00 a83d e2c2 593d 0c2f 383d
00000040: f815 4e3d 7468 373c 6012 763d 47dc e23c
00000050: 6cb9 263e 042a b93d ad7a 953d 0309 943d
00000060: 0d01 ec3c a4d7 513d 3d93 da3d 07f2 ca3c
00000070: 3bb5 613d 4e08 703c 8825 2b3d cdb8 353c
00000080: d632 033d 67a3 b13d 7089 853d b183 64bc
00000090: 8813 f03d 5053 9c3c b963 4a3d 0e6a 8d3d
000000a0: aa72 663d 4c86 3c3d 39b7 f13d 26e0 8a3d
000000b0: efd7 803d 647f 2fbc 80e5 913d 41ac 453c
000000c0: 141f 003e 808a 873d e625 873d b7ef 843d
000000d0: 55e0 083d e54e a83d 593b a83b 3ca9 06bc
000000e0: d100 2b3d c11c 83bc b515 863d 6c7c 823d
000000f0: 5baf 8bba 6854 953b a3aa c43c 1016 ef3d
00000100: a24c 443d 2828 a33c c99c 893d e51a ba3d
00000110: f24e 0e3e dc6d 923d 7de5 b0bb 3da4 793d
00000120: 30c2 7e3c 085f b43d e247 753d f9d8 e23c
00000130: 72ef 783d afab 6d3d db2c a73c 9315 d33d
00000140: b114 153d 286a 693d 4397 ab3d f727 9dbc
00000150: 15c5 9c3d 655f b73b 9518 ddba 2679 4e3d
00000160: 2e09 933d 1c4b 133d c872 3fbb 7872 f53c
00000170: 4e1c af3d a37c 253d bfcf bd3d 98a0 c93c
00000180: 7c57 af3d 50c2 8c3d e281 c43d 8071 f7bc
00000190: c829 493d c32d 35b9 96ba da3d 01a8 203e
000001a0: a33e bf3d fb11 c73d 9ba9 813d c28c 3f3d
000001b0: 3863 753d 3a55 eb3c f552 993c 00f1 793d
000001c0: 5021 193d 8550 733d 7b3c 653d 6e96 253d
000001d0: 4f06 5f3d ecc6 5b3d a972 3d3d a484 0b3d
000001e0: 8aa4 dc3d a763 293d 6515 593d 3ee3 0d3d
000001f0: 348a c53d f8ac 3cba ac52 133d 58a0 83bc
00000200: b36b 553d 7ccd e03d 0b11 4a3d ebfa a43a
00000210: 56f8 0f3d c6d7 c43d f9df b43d b41b 6b3d
00000220: 0014 7a3d 7423 533d f4b1 973d b537 843d
00000230: 2b59 6b3e 0cb2 f93c 4d18 2c3c df52 023d
00000240: 72b5 e73c 0fde 883d 2995 c1bc 0f60 d13d
00000250: 0521 b63d 936b 1e3c 8fd1 0e3c 0437 8d3d
00000260: d35a 4d3d ca8e 8f3c 0875 973b 4ca2 8e3d
00000270: b419 943d 16e8 77ba aba4 e83d 124e 8b3d
00000280: 5bcb a53c c29b 6c3d c7a4 ff3c 5865 683d
00000290: 7ff0 0f3d 5666 4e3d e256 203d 91c0 823d
000002a0: 6a10 523d 40ea 8a3b 65c1 d93d fbe6 833d
000002b0: 5b31 e13c 7bb3 543d b4c6 fd3c 91ac 623d
000002c0: 11a0 cf3d 25b5 f03c 5a60 443d 0037 3e3d
000002d0: 741f c23d 4a4f b13d 9cb2 323d f80f 063e
000002e0: 37e6 1a3d cda7 b23c 369a 033a 8964 4d3d
000002f0: 5861 de3c 8932 183d a879 003e 1079 1d39
00000300: b504 273d d3d4 b53d fe49 c03d 02b0 673d
00000310: 842c b93d 82f1 de3c ad9d 9c3d 26b0 c53d
00000320: 2256 363d 6211 2f3d 463c df3d 7699 753c
00000330: 6244 a53c f8c6 8c3d 02fb 2a3d 86a0 c53d
00000340: fc55 9a3d b828 e33c 07df f03d c1fe f93c
00000350: 1a40 e43d 10e4 893d b678 9d3d 05c6 b03d
00000360: aea3 8e3d b294 0f3d 677f 613d 501c 033d
00000370: 5c2f 1a3d 4068 323c 1be6 a63b 9c72 983d
00000380: cb85 063d bd34 323d 3e71 233d 4581 b83c
00000390: 3d54 5c3d 4522 d33d 475a af3d c17f aa3d
000003a0: e9ed 173d 190f 113c cd74 243b 376c 9c3c
000003b0: 146b eb3d eb81 4a3d d19e 803d 7366 643d
000003c0: a134 443d 544a 573d 6073 2e3d 4cb7 ac3c
000003d0: e5f9 0f3d a0a2 113e 8b0e d93c 0b06 9c3d
000003e0: 647a 8a3d 379d fd3c bacf 153d ec08 cbbc
000003f0: bdf2 313d 3102 403c cf04 ce3c c6fc bb3d

batch_norm00.running_var f4 [256]
0.024274996 0.09186263 0.10056688 0.021717595 0.020999355 0.05967915 0.054434195 0.046087548
0.039753836 0.018459782 0.07453585 0.053211063 0.04497989 0.07591238 0.06763221 0.065139204
0.04140302 0.019830614 0.066438876 0.040726606 0.20192295 0.086497165 0.059620004 0.08564471
0.03769235 0.06418459 0.106143676 0.04871171 0.048922833 0.027599124 0.05773089 0.03467026
0.037178136 0.12578827 0.058286957 0.011680225 0.12124637 0.023226932 0.05502531 0.06760404
0.059496526 0.045543175 0.10973607 0.073260255 0.05540376 0.010200678 0.07992968 0.032157205
0.10389724 0.0814863 0.085160695 0.09710817 0.04388233 0.08609006 0.03623763 0.011519872
0.05085301 0.014210612 0.094759725 0.09206296 0.018725542 0.029695088 0.029759524 0.105967484
0.04955623 0.040391292 0.07234322 0.090074524 0.113110855 0.07283548 0.01684376 0.05927025
0.029252362 0.112962134 0.06250104 0.04756176 0.09991659 0.046645544 0.040118244 0.09255807
0.04118511 0.06869081 0.0715844 0.013232622 0.09588499 0.016258083 0.018714849 0.06475383
0.059646428 0.04315472 0.015220653 0.031590648 0.091989614 0.04376751 0.090357125 0.05349624
0.07424581 0.067575425 0.10751171 0.0077611427 0.043932352 0.017548518 0.09546117 0.15435107
0.11491974 0.08125284 0.058851212 0.032511037 0.07495158 0.03478466 0.020962859 0.06079433
0.04578116 0.0730618 0.06449354 0.04449681 0.051787708 0.05234104 0.04859506 0.040819805
0.12360995 0.07063754 0.074547954 0.038414076 0.110908166 0.014788513 0.04482161 0.010383498
0.05801584 0.12553424 0.060243793 0.020273948 0.043213394 0.10414861 0.10070552 0.07727733
0.0843589 0.06529495 0.07480677 0.06708392 0.25281394 0.03607987 0.035777595 0.040357813
0.024198012 0.072665 0.013605492 0.09801154 0.12835789 0.02795293 0.018948242 0.07313352
0.06220697 0.027241813 0.021824123 0.079036646 0.060418054 0.013833413 0.091409504 0.076338604
0.033111166 0.042949826 0.034307253 0.054035936 0.040271066 0.05148822 0.044133402 0.068013676
0.055834208 0.019825272 0.12867375 0.061759528 0.02643712 0.0515761 0.036528986 0.058918893
0.09111327 0.04531766 0.04823743 0.055262964 0.08587766 0.08559388 0.06287038 0.14431968
0.048524894 0.024428936 0.017764455 0.039517272 0.03678844 0.051054128 0.14382681 0.01635418
0.05179697 0.08626475 0.09896915 0.05684857 0.13822466 0.041345946 0.07986476 0.11129743
0.056197803 0.045833096 0.13414063 0.032431167 0.04072371 0.092113964 0.060360633 0.10126864
0.07014091 0.026748182 0.1238738 0.058623742 0.17827892 0.07934749 0.080915816 0.07792432
0.069013774 0.040534724 0.062098783 0.04197873 0.05998027 0.031022808 0.015097674 0.057712954
0.048078425 0.054844923 0.061625212 0.05076328 0.07927075 0.115044646 0.07650247 0.08443258
0.035681583 0.022016816 0.018272828 0.042979486 0.12915564 0.06512275 0.06698626 0.046513297
0.04262409 0.067727916 0.046583813 0.033943553 0.032090046 0.16423513 0.038985938 0.09277747
0.08951647 0.035359673 0.03913246 0.009229962 0.07066346 0.030130183 0.039521955 0.10267012
00000000: 5bdc c63c 7922 bc3d 02f6 cd3d 19e9 b13c
00000010: d706 ac3c 2072 743d 64f6 5e3d 4cc6 3c3d
00000020: ebd4 223d f838 973c 40a6 983d d8f3 593d
00000030: d53c 383d f377 9b3d c282 8a3d b467 853d
00000040: 3796 293d d073 a23c 1b11 883d f1d0 263d
00000050: e4c4 4e3e 6d25 b13d 1b34 743d 7e66 af3d
00000060: 4b63 1a3d 3673 833d db61 d93d ee85 473d
00000070: 4f63 483d 8f17 e23c 3a77 6c3d 6702 0e3d
00000080: 1a48 183d a4ce 003e 4ebe 6e3d 6a5e 3f3c
00000090: 0450 f83d 6846 be3c 3862 613d fd73 8a3d
000000a0: a1b2 733d 7b8b 3a3d 4ebd e03d 7909 963d
000000b0: 0eef 623d bf20 273c 2cb2 a33d 46b7 033d
000000c0: 13c8 d43d 4ae2 a63d bb68 ae3d a6e0 c63d
000000d0: f5bd 333d fc4f b03d e96d 143d d8bd 3c3c
000000e0: 3f4b 503d a0d3 683c 6311 c23d 818b bc3d
000000f0: 4f66 993c 1d43 f33c 3fca f33c 7b05 d93d
00000100: 79fb 4a3d 5771 253d af28 943d fe78 b83d
00000110: aaa6 e73d c52a 953d edfb 893c 5dc5 723d
00000120: a6a2 ef3c b158 e73d 8c00 803d 1fd0 423d
00000130: 12a1 cc3d 660f 3f3d 0753 243d 168f bd3d
00000140: b8b1 283d c4ad 8c3d d89a 923d a4cd 583c
00000150: 5a5f c43d ac2f 853c e24f 993c a89d 843d
00000160: d04f 743d 01c3 303d 0c60 793c 3265 013d
00000170: 0d65 bc3d 9045 333d 280d b93d e01e 5b3d
00000180: 300e 983d fc64 8a3d 192f dc3d 2f51 fe3b
00000190: 69f2 333d e9c1 8f3c 2581 c33d 350e 1e3e
000001a0: 0a5b eb3d e467 a63d f80d 713d 4b2a 053d
000001b0: 3780 993d 5c7a 0e3d 4dba ab3c 7a03 793d
000001c0: 0785 3b3d 6da1 953d 3015 843d 4942 363d
000001d0: 591f 543d 8f63 563d 9d0b 473d ab32 273d
000001e0: 3727 fd3d 6aaa 903d 99ac 983d 1458 1d3d
000001f0: d223 e33d 854b 723c dd96 373d 8c1f 2a3c
00000200: 04a2 6d3d 0c8c 003e 32c2 763d 8d15 a63c
00000210: 8700 313d de4b d53d b23e ce3d 9443 9e3d
00000220: 5cc4 ac3d 5cb9 853d 4b34 993d 4b63 893d
00000230: d470 813e 7cc8 133d 878b 123d 3c4e 253d
00000240: e93a c63c 63d1 943d 92e9 5e3c 46ba c83d
00000250: 4070 033e 8bfd e43c 5839 9b3c 07c7 953d
00000260: bccc 7e3d 392a df3c 81c8 b23c f7dd a13d
00000270: ec78 773d 8aa5 623c e834 bb3d 6a57 9c3d
00000280: 939f 073d 28ec 2f3d c385 0c3d c954 5d3d
00000290: 46f3 243d 50e5 523d 3ac5 343d c14a 8b3d
000002a0: 69b2 643d 9c68 a23c 0dc3 033e 8ff7 7c3d
000002b0: a992 d83c 7641 533d 6b9f 153d f054 713d
000002c0: 9899 ba3d 039f 393d 9d94 453d 6b5b 623d
000002d0: a0e0 af3d d84b af3d 30c2 803d 8ac8 133e
000002e0: 0ac2 463d 311f c83c c386 913c dddc 213d
000002f0: 7aaf 163d 221e 513d 5647 133e 34f9 853c
00000300: 0f29 543d 93ab b03d 56b0 ca3d 0cda 683d
00000310: c48a 0d3e 5e5a 293d 2390 a33d e8ef e33d
00000320: ab2f 663d 7cbb 3b3d 295c 093e 8bd6 043d
00000330: e8cd 263d 3fa6 bc3d b63c 773d ef65 cf3d
00000340: 0aa6 8f3d 011f db3c 8cb1 fd3d 731f 703d
00000350: c08e 363e f080 a23d 31b7 a53d c996 9f3d
00000360: 1857 8d3d bd07 263d 4b5b 7e3d e4f1 2b3d
00000370: dfad 753d 8b23 fe3c 3c5c 773c 6b64 6c3d
00000380: e2ed 443d 12a5 603d b86a 7c3d 28ed 4f3d
00000390: b458 a23d 879c eb3d 54ad 9c3d fdea ac3d
000003a0: da26 123d 9c5c b43c e6b0 953c 420b 303d
000003b0: 6041 043e 145f 853d 1830 893d ba84 3e3d
000003c0: 9996 2e3d efb4 8a3d abce 3e3d 6508 0b3d
000003d0: da70 033d 412d 283e b8af 1f3d 1d02 be3d
000003e0: 6954 b73d 4ed5 103d 5c49 203d 4439 173c
000003f0: 01b8 903d 93d3 f63c c6e1 213d b644 d23d

linear01.weight f4 [128, 256]
0.0518461 -0.0056219315 -0.053355712 -0.051508963 -0.2890522 -0.3149151 0.09127246 0.25793418
-0.017960198 -0.13108522 0.026428482 0.014336298 0.041548714 -0.10438006 0.10596781 -0.25841573
0.19966777 0.04462818 0.3373266 -0.3810912 0.13189246 0.19894093 -0.0074463007 -0.30371314
-0.4294855 0.22393322 0.078427464 0.08971301 0.093683355 0.1113492 -0.18416487 0.030495068
0.27084368 0.027069071 -0.5785898 -0.0019650124 -0.14391273 -0.24675359 0.10246223 -0.13021794
-0.21675988 0.09203697 0.13066281 -0.23765516 -0.39092097 -0.05877801 -0.3050639 -0.06453507
-0.21241815 -0.15617326 -0.19584098 0.46817714 -0.50076234 0.0005074713 -0.017257866 0.115828246
-0.023672525 -0.048378266 0.23499592 -0.045353886 -0.056548774 -0.058191154 -0.026377266 -0.25013763
0.17034034 0.06349802 -0.23858479 -0.471703 -0.21572492 -0.29087755 -0.03873488 -0.073070906
-0.26796854 -0.30863097 0.11910755 0.25398925 0.02509109 -0.107855074 0.050483465 0.021853859
0.11721352 -0.084709495 -0.091692284 0.00969583 0.10450178 -0.038642984 0.009963754 -0.30653995
0.046925582 -0.082302526 -0.0108072795 -0.019682704 -0.15012778 0.01660796 0.2042393 -0.01288188
-0.13673595 0.15858628 -0.26405644 -0.100017354 0.26616615 0.055879977 -0.0025575706 -0.18907921
-0.36645815 -0.028825536 -0.121124685 0.2146555 -0.083576545 0.14255998 0.08921793 -0.26104897
0.15051647 -0.076808974 0.06477949 0.021510951 -0.2811386 -0.10708834 0.41134754 -0.16069652
0.09554171 -0.04073789 -0.041582406 0.10410587 -0.710301 -0.06982504 0.16535875 -0.14276451
0.095898554 0.0073817815 0.18428038 0.08237676 -0.06444984 0.27722305 -0.1884681 0.32224023
-0.10630094 0.011570161 -0.004177637 0.011375472 -0.09777304 0.1665134 0.01027592 -0.20269729
-0.36199325 -0.23439966 0.030259572 0.043304447 0.038895722 0.32068247 -0.020500489 -0.07721451
0.26159275 0.11234714 -0.28045586 0.028143447 -0.40343168 0.002493863 -0.12952963 0.043732412
-0.276807 -0.2561334 0.06553399 0.227459 0.082018346 -0.2623378 -0.17856441 -0.17664744
-0.10363336 0.17854875 -0.096732356 0.042119715 0.08541167 -0.20276678 -0.09783086 -0.43825382
-0.14809914 0.07314391 0.00018740945 -0.27888766 -0.09825068 -0.20947747 -0.21558723 -0.09409908
-0.056351393 0.053297598 0.003087446 -0.30232313 -0.10860279 -0.097068064 0.1808945 0.45090494
-0.13721822 0.17709774 -0.14916052 -0.09909907 -0.03112458 0.27047783 -0.1775604 -0.2613575
-0.16828859 -0.1567726 -0.28994557 -0.07362907 -0.056110788 0.015414533 0.022766735 0.04409505
-0.032319825 -0.09440273 0.0028816639 -0.043741886 -0.33827895 -0.0063064685 -0.08861625 0.10100695
-0.35749125 0.25223178 0.18554766 0.10750018 -0.024989223 0.5181619 0.016953921 0.13162667
-0.03568006 -0.2368679 0.013214218 -0.11898787 -0.19739145 0.11519717 0.017567998 -0.22783296
-0.36478493 0.013137071 -0.11070107 -0.058332104 -0.046628736 -0.2407472 -0.12189981 -0.103861764
0.29529026 -0.023873452 0.19367857 -0.010745768 0.16674583 -0.35345128 0.14584793 0.32041678
-0.11323997 0.13895811 -0.2602538 -0.10986526 -0.27448034 0.25804582 -0.26638427 -0.22668555
00000000: 935c 543d 2e38 b8bb 858b 5abd 10fb 52bd
00000010: a6fe 93be 8d3c a1be 0eed ba3d f30f 843e
00000020: 4421 93bc 343b 06be 8b80 d83c cbe2 6a3c
00000030: fc2e 2a3d 37c5 d5bd a705 d93d 114f 84be
00000040: b575 4c3e 0acc 363d 12b6 ac3e 631e c3be
00000050: d10e 073e 2cb7 4b3e 1900 f4bb 4a80 9bbe
00000060: 86e5 dbbe c04e 653e 949e a03d 74bb b73d
00000070: 0fdd bf3d 0d0b e43d b795 3cbe cbd0 f93c
00000080: 06ac 8a3e f5bf dd3c 761e 14bf 70c7 00bb
00000090: dc5d 13be f9ac 7cbe b8d7 d13d da57 05be
000000a0: 4df6 5dbe e17d bc3d 79cc 053e e05b 73be
000000b0: cb26 c8be 36c1 70bd 5631 9cbe f62a 84bd
000000c0: 2584 59be e2eb 1fbe 8a8a 48be eab4 ef3e
000000d0: f631 00bf d307 053a 5e60 8dbc 5c37 ed3d
000000e0: e2ec c1bc 4a28 46bd c5a2 703e ffc4 39bd
000000f0: b09f 67bd d959 6ebd 2315 d8bc 0a12 80be
00000100: b36d 2e3e 400b 823d 924f 74be 0e83 f1be
00000110: fee6 5cbe e7ed 94be 77a8 1ebd 33a6 95bd
00000120: 2c33 89be e104 9ebe a9ee f33d e10a 823e
00000130: d48b cd3c 1fe3 dcbd c0c7 4e3d dd06 b33c
00000140: a40d f03d 2c7c adbd 2ac9 bbbd 42db 1e3c
00000150: 0705 d63d 1b48 1ebd 033f 233c cef2 9cbe
00000160: 0a35 403d 3a8e a8bd 0411 31bc 9f3d a1bc
00000170: 19bb 19be 6b0d 883c 1b24 513e 850e 53bc
00000180: 8204 0cbe 7164 223e 6832 87be e6d5 ccbd
00000190: ee46 883e 67e2 643d ea9c 27bb fb9d 41be
000001a0: 67a0 bbbe 8823 ecbc 3810 f8bd a7ce 5b3e
000001b0: 2e2a abbd 3efb 113e e4b7 b63d 36a8 85be
000001c0: fd20 1a3e 064e 9dbd 1cab 843d bc37 b03c
000001d0: 66f1 8fbe 2251 dbbd 259c d23e a18d 24be
000001e0: 5fab c33d c6dc 26bd 5052 2abd 7535 d53d
000001f0: 49d6 35bf 6e00 8fbd ce53 293e dc30 12be
00000200: 7666 c43d dfe2 f13b ffb3 3c3e 26b5 a83d
00000210: 47fe 83bd 2ef0 8d3e c8fd 40be acfc a43e
00000220: 4fb4 d9bd c690 3d3c 8fe4 88bb 3060 3a3c
00000230: 3b3d c8bd 7d82 2a3e 555c 283c e18f 4fbe
00000240: 2e57 b9be 7706 70be ece2 f73c 0160 313d
00000250: 1f51 1f3d 7e30 a43e a4f0 a7bc a422 9ebd
00000260: 7cef 853e 4216 e63d e997 8fbe 168d e63c
00000270: 998e cebe 1470 233b 6aa3 04be c220 333d
00000280: a6b9 8dbe eb23 83be af36 863d 03eb 683e
00000290: 3cf9 a73d 2451 86be 97d9 36be 11e3 34be
000002a0: ba3d d4bd 7cd5 363e 9d1b c6bd b985 2c3d
000002b0: 50ec ae3d 18a2 4fbe 8c5b c8bd ce62 e0be
000002c0: 4da7 17be 79cc 953d 5783 4439 5dca 8ebe
000002d0: a737 c9bd 4381 56be e6c2 5cbe 05b7 c0bd
000002e0: b8d0 66bd 954e 5a3d c056 4a3b 19ca 9abe
000002f0: 246b debd 9fcb c6bd 683c 393e 03dd e63e
00000300: ef82 0cbe 1c59 353e 89bd 18be 74f4 cabd
00000310: faf8 febc 127c 8a3e 65d2 35be a6d0 85be
00000320: d853 2cbe ff88 20be bf73 94be d6ca 96bd
00000330: 6dd4 65bd 3d8d 7c3c 4e81 ba3c 039d 343d
00000340: cb61 04bd 3856 c1bd 4cda 3c3b b12a 33bd
00000350: e632 adbe 7ea6 cebb 707c b5bd bbdc ce3d
00000360: 1809 b7be 8624 813e 3500 3e3e 0e29 dc3d
00000370: 33b6 ccbc 42a6 043f f3e2 8a3c 24c9 063e
00000380: 4125 12bd 808d 72be 7380 583c eaaf f3bd
00000390: fc20 4abe 7eec eb3d c3ea 8f3c 0b4d 69be
000003a0: 17c5 babe df3c 573c 3eb7 e2bd a5ed 6ebd
000003b0: c6fd 3ebd 6f86 76be 9ca6 f9bd 7ab5 d4bd
000003c0: 4930 973e 4292 c3bc ad53 463e 050f 30bc
000003d0: 6bbf 2a3e 91f7 b4be 2959 153e ab0d a43e
000003e0: 5bea e7bd 094b 0e3e fc3f 85be 0a01 e1bd
000003f0: b088 8cbe 951e 843e 8563 88be 4220 68be

linear01.bias f4 [128]
0.24376617 0.29353306 0.31976026 0.51491654 0.31628007 0.33112046 0.469351 0.5321428
0.29540643 0.3684976 0.5572647 0.4028491 0.44484594 0.43891335 0.483751 0.41382572
0.33293462 0.35200384 0.25155705 0.40817943 0.29735044 0.29108614 0.3781951 0.37839675
0.3463032 0.5165985 0.2810438 0.4063083 0.48543674 0.48899472 0.28897116 0.48959517
0.15277892 0.24729922 0.3293725 0.42322263 0.34837323 0.22693747 0.19674166 0.60075307
0.33885556 0.52306014 0.0956286 0.042745985 0.31529954 0.3543161 0.18540058 0.35601118
0.28089052 0.537694 0.5425295 0.22243045 0.59206104 0.39867473 0.34290668 0.46038055
0.29178265 0.49750805 0.32144445 0.31973144 0.4489944 0.28428176 0.34945184 0.24632694
0.4807944 0.27063054 0.38950256 0.609288 0.2907956 0.46327892 0.36229298 0.39255825
0.31897268 0.3917389 0.38888747 0.43151742 0.44231844 0.5721699 0.30404243 0.40193868
0.59071517 0.4517723 0.25075793 0.14248538 0.57679564 0.49689862 0.36121342 0.35772544
0.3898666 0.27669886 0.44395575 0.3470139 0.43710467 0.3525145 0.3449577 0.51716197
0.3756939 0.33784392 0.29535598 0.08085555 0.26943016 0.2857445 0.44842315 0.3290055
0.6226275 0.28368938 0.47291395 0.4217558 0.42921045 0.3893007 0.4484038 0.45660126
0.32573757 0.43900952 0.28370818 0.29337987 0.2351997 0.3132887 0.37324372 0.3995488
0.326683 0.37956625 0.1701577 0.12850533 0.39622563 0.29748297 0.35929862 0.33895725
00000000: d79d 793e f749 963e 9eb7 a33e 92d1 033f
00000010: 76ef a13e 9f88 a93e c64e f03e 833a 083f
00000020: 833f 973e b8ab bc3e e6a8 0e3f 3d42 ce3e
00000030: d9c2 e33e 40b9 e03e 36ae f73e f7e0 d33e
00000040: 6876 aa3e d939 b43e 16cc 803e e5fc d03e
00000050: 513e 983e 3e09 953e caa2 c13e 38bd c13e
00000060: a74e b13e cd3f 043f f9e4 8f3e a407 d03e
00000070: 2a8b f83e 845d fa3e 07f4 933e 38ac fa3e
00000080: 1472 1c3e 023c 7d3e 83a3 a83e a3b0 d83e
00000090: fa5d b23e 4c62 683e a576 493e f4ca 193f
000000a0: 7a7e ad3e 45e7 053f edd8 c33d 6a16 2f3d
000000b0: f16e a13e eb68 b53e a6d9 3d3e 1947 b63e
000000c0: e2d0 8f3e 50a6 093f 37e3 0a3f cfc4 633e
000000d0: 5091 173f 181f cc3e 7791 af3e 00b7 eb3e
000000e0: 8964 953e 60b9 fe3e 5e94 a43e d7b3 a33e
000000f0: 98e2 e53e 618d 913e 5aeb b23e 213d 7c3e
00000100: af2a f63e 1690 8a3e e16c c73e 4cfa 1b3f
00000110: 29e3 943e e532 ed3e 777e b93e 65fd c83e
00000120: 6350 a33e 0092 c83e 421c c73e daef dc3e
00000130: 9077 e23e ba79 123f 73ab 9b3e e8ca cd3e
00000140: 1c39 173f b34e e73e 5863 803e b0e7 113e
00000150: e1a8 133f 7f69 fe3e f7f0 b83e ca27 b73e
00000160: 989c c73e 79ab 8d3e 2b4e e33e ceab b13e
00000170: 2fcc df3e c87c b43e 4c9e b03e ba64 043f
00000180: f35a c03e e1f9 ac3e e638 973e 9897 a53d
00000190: c0f2 893e 1a4d 923e b897 e53e 6973 a83e
000001a0: 8464 1f3f bc3f 913e c721 f23e 60f0 d73e
000001b0: 79c1 db3e 6c52 c73e 2f95 e53e a4c7 e93e
000001c0: 13c7 a63e dbc5 e03e 3342 913e e335 963e
000001d0: 31d8 703e 6067 a03e cd19 bf3e a991 cc3e
000001e0: ff42 a73e 8256 c23e d23d 2e3e e796 033e
000001f0: 16de ca3e b04f 983e fdf5 b73e ce8b ad3e
