weights/1. classify for triplet loss - marks/900 epochs/conv2Dfeatures.pt (torch, 21655 bytes, 6 tensors)

conv00.weight f4 [4, 1, 5, 5]
0.0025357157 0.067717776 0.07797763 0.022835352 0.068987265 0.08115982 0.07697993 0.111061044
0.043572012 0.14634784 0.06121827 0.025309348 0.016731216 -0.04131602 0.0531821 -0.046458934
-0.12187803 -0.13168204 -0.15426205 -0.11938288 -0.077655435 -0.1973741 -0.22122473 -0.20047706
-0.11889624 0.057476975 0.031581704 0.06740556 0.11495928 0.12220006 -0.0155208185 0.014384112
0.10222671 0.099060185 0.09850531 0.032525793 0.04788503 0.07309476 0.10702658 0.09706018
0.07028783 0.0060768323 0.07069795 0.0796176 0.020153092 -0.10260068 -0.06906336 -0.02658312
-0.041479386 -0.0630724 0.19761552 0.19126657 0.17341398 0.15475707 0.08609831 -0.10858131
-0.049457364 -0.09209261 -0.091353595 -0.13724038 -0.09906346 -0.1664317 -0.10508258 -0.14191243
-0.1745206 0.01558023 -0.040113285 -0.06328143 -0.04106315 -0.05766154 -0.043988053 0.0019443526
0.0316548 0.057739902 0.046441138 -0.17170085 -0.12627473 -0.121893495 -0.06264595 -0.005456163
-0.16249433 -0.12901989 -0.08365773 -0.061435807 0.0027153573 -0.11351766 -0.11606441 -0.10768895
-0.051571414 -0.019631172 -0.16822195 -0.10329403 -0.039757006 -0.04378843 0.05295397 -0.032309037
0.05091966 0.07700055 0.08477778 0.13256073
00000000: 402e 263b 9eaf 8a3d bcb2 9f3d 3411 bb3c
00000010: 3249 8d3d 1f37 a63d a7a7 9d3d f973 e33d
00000020: 9178 323d 35dc 153e 02c0 7a3d 8d55 cf3c
00000030: e70f 893c fd3a 29bd 79d5 593d b94b 3ebd
00000040: 309b f9bd a8d7 06be dff6 1dbe 037f f4bd
00000050: d009 9fbd 701c 4abe bc88 62be dc49 4dbe
00000060: df7f f3bd fa6c 6b3d d15b 013d ed0b 8a3d
00000070: c56f eb3d 0644 fa3d 084b 7ebc 57ab 6b3c
00000080: 3d5c d13d 11e0 ca3d 27bd c93d c439 053d
00000090: 1823 443d b5b2 953d c030 db3d 7dc7 c63d
000000a0: 11f3 8f3d 2a20 c73b 16ca 903d 8d0e a33d
000000b0: 1918 a53c 4e20 d2bd 1771 8dbd d8c4 d9bc
000000c0: 4ae6 29bd 1a2c 81bd b95b 4a3e 62db 433e
000000d0: 6f93 313e a378 1e3e 5054 b03d e15f debd
000000e0: ce93 4abd 0d9b bcbd 9817 bbbd be88 0cbe
000000f0: c9e1 cabd 126d 2abe 8935 d7bd 7e51 11be
00000100: 87b5 32be 3944 7f3c d44d 24bd b299 81bd
00000110: d531 28bd 822e 6cbd d12c 34bd a6d9 fe3a
00000120: 77a8 013d ad80 6c3d 1039 3e3d 59d2 2fbe
00000130: 2a4e 01be 4ca3 f9bd 854c 80bd 9dc9 b2bb
00000140: ea64 26be ca1d 04be be54 abbd 1da4 7bbd
00000150: 23f4 313b f27b e8bd 2db3 edbd 068c dcbd
00000160: 8c3c 53bd 8dd1 a0bc 6042 2cbe d28b d3bd
00000170: 3ed8 22bd 7f5b 33bd 43e6 583d 7b56 04bd
00000180: 2291 503d 77b2 9d3d f99f ad3d 00be 073e

conv00.bias f4 [4]
0.1665193 0.0149517795 -0.4378519 -0.11053151
00000000: 0984 2a3e 4ff8 743c 202e e0be 585e e2bd

conv01.weight f4 [16, 4, 5, 5]
-0.06935885 -0.11544192 0.020662218 0.06392496 -0.028092396 -0.08851837 0.06533888 0.089972116
-0.060234297 0.030825226 -0.06920137 -0.13979942 -0.019842537 0.011899967 0.018428389 0.020410798
-0.014091077 -0.0056903134 -0.11864212 0.032164644 0.06549872 0.2164335 0.19859913 0.1063518
0.0040670983 -0.028611565 -0.1357673 -0.07792773 -0.1277315 -0.015511778 -0.03866202 -0.06361586
-0.070769906 -0.04014375 -0.0044164965 0.22018698 0.024067637 0.17897853 0.07293305 0.011141701
0.17804761 0.14241044 0.052626275 0.10036861 -0.103408284 0.0078108604 -0.013502058 -0.047077697
0.1029549 -0.1672333 0.11887872 0.09183309 0.13147268 -0.029291429 0.052437454 0.102198854
0.12015779 -0.22001141 0.12268086 -0.08329699 -0.15971732 -0.025497504 -0.15346524 -0.0359276
-0.113754936 -0.03867788 -0.15675883 0.05329915 0.08116874 -0.013263822 0.13698156 0.11756922
0.17867862 -0.06465018 -0.084199406 -0.011974467 0.05288025 0.2409335 0.12000493 0.07862098
0.06359922 0.07519662 0.050957024 -0.042060975 0.04869355 -0.27424446 -0.016723286 -0.12374244
-0.16263445 -0.09928268 -0.065376304 -0.0016646943 -0.058236502 0.051893942 -0.020034319 -0.060428157
0.047961175 0.054836255 0.05489981 -0.056746572 -0.00827266 -0.0376716 -0.15789923 0.02641479
0.044979848 -0.021031335 0.012928159 -0.04713555 0.08374505 0.052864682 -0.060935747 0.013116401
-0.1546986 0.08648745 0.07864571 0.084533855 0.057382755 -0.1028229 0.10847147 0.038105566
0.092717744 0.041644588 -0.29238126 0.19299147 0.3089178 0.04398922 -0.038343016 -0.00873673
0.05181351 0.05030744 0.06155189 -0.031677775 -0.0918168 0.0006749166 -0.063089065 0.04211701
0.09042655 0.01752812 -0.059191335 0.016908778 0.012065617 0.0012282281 -0.046833243 -0.014392553
0.043064047 -0.028070671 -0.012730042 0.17293672 -0.21606474 -0.03252292 0.025399737 0.11318618
0.08768456 -0.032789145 -0.009242706 -0.09852312 -0.11326074 -0.19507591 -0.04504893 0.07671795
-0.02154265 -0.051093645 -0.24454519 0.10534198 -0.094763264 -0.03876842 0.03382029 -0.11599768
-0.07181429 -0.073964424 0.1807182 0.017496306 -0.19963127 0.10558147 0.20619376 -0.03978681
-0.10701947 0.076538414 -0.03804668 -0.06748322 -0.08549825 0.029741013 -0.051284846 0.09489632
0.12640549 0.01941749 -0.050979283 -0.15154663 0.06856217 0.02285318 -0.06687942 0.031983152
-0.15993093 0.085645236 -0.038660575 0.017609479 0.10112229 -0.11287948 0.07039073 0.15852852
0.036285542 0.07374273 0.06047858 0.046161663 0.010710019 0.15259428 -0.03860472 -0.038442172
-0.16528206 -0.07858309 -0.04406634 0.09331344 -0.053671196 0.0019332577 -0.1087333 0.021361504
-0.0023705103 0.026209785 0.102543116 0.12384025 0.014142189 -0.095147274 -0.28568318 -0.16072074
-0.08049281 -0.014407311 -0.15461724 0.09994515 -0.0919736 0.092798516 0.062100265 -0.12224016
0.04315759 -0.062200204 -0.14183699 -0.11614069 0.0039053597 0.19241627 0.1457383 0.054035343
0.009780864 -0.013684876 -0.07749167 -0.028288824 0.03819928 -0.16340828 0.06804421 0.033746555
0.07269589 -0.09109023 0.053982917 0.027839998 0.20499358 0.12477957 -0.028781656 0.14139564
00000000: 030c 8ebd d06c ecbd d043 a93c 17eb 823d
00000010: 0622 e6bc 1f49 b5bd 64d0 853d 4d43 b83d
00000020: 3db8 76bd 2f85 fc3c 73b9 8dbd 9427 0fbe
00000030: d18c a2bc 14f8 423c 22f7 963c 8c34 a73c
00000040: 43de 66bc cf75 babb a4fa f2bd 13bf 033d
00000050: 3124 863d bea0 5d3e 925d 4b3e f9ce d93d
00000060: 4b45 853b cd62 eabc 9506 0bbe 9398 9fbd
00000070: 0ccc 02be 1d25 7ebc 115c 1ebd 0849 82bd
00000080: d0ef 90bd c66d 24bd 42b8 90bb b278 613e
00000090: 7e29 c53c 2646 373e ec5d 953d ae8b 363c
000000a0: 1d52 363e 0bd4 113e a68e 573d 0f8e cd3d
000000b0: b9c7 d3bd 3ff2 ff3b bc37 5dbc 8bd4 40bd
000000c0: 05da d23d 353f 2bbe b076 f33d fd12 bc3d
000000d0: c6a0 063e 94f4 efbc a8c8 563d a24d d13d
000000e0: 4a15 f63d ac4a 61be 1a40 fb3d 9d97 aabd
000000f0: f08c 23be 24e0 d0bc fe25 1dbe d228 13bd
00000100: 59f8 e8bd b26c 1ebd 6385 20be 3650 5a3d
00000110: cc3b a63d 8050 59bc e544 0c3e 22c8 f03d
00000120: 87f7 363e 5067 84bd bd70 acbd 8e30 44bc
00000130: f698 583d 45b7 763e 25c5 f53d 0904 a13d
00000140: 4f40 823d af00 9a3d 50b8 503d 2148 2cbd
00000150: e372 473d c569 8cbe 46ff 88bc ad6c fdbd
00000160: a589 26be b854 cbbd 03e4 85bd df31 daba
00000170: 6689 6ebd be8e 543d 031f a4bc 8483 77bd
00000180: f072 443d fb9b 603d a0de 603d 186f 68bd
00000190: 0d8a 07bc 894d 1abd 56b0 21be d463 d83c
000001a0: ca3c 383d e849 acbc a1d0 533c 3511 41bd
000001b0: 8682 ab3d a388 583d c397 79bd 2ce6 563c
000001c0: 4f69 1ebe 5520 b13d 0111 a13d 1620 ad3d
000001d0: 2e0a 6b3d d094 d2bd 4a26 de3d 9514 1c3d
000001e0: cde2 bd3d 8493 2a3d ffb2 95be 8e9f 453e
000001f0: 792a 9e3e 0a2e 343d 910d 1dbd 8024 0fbc
00000200: 673a 543d 2d0f 4e3d d61d 7c3d 8ec0 01bd
00000210: 720a bcbd e3ec 303a d734 81bd e382 2c3d
00000220: 8e31 b93d 2297 8f3c 9d72 72bd 4784 8a3c
00000230: deae 453c 7ffc a03a 37d4 3fbd bece 6bbc
00000240: ed63 303d 77f4 e5bc ab91 50bc 5316 313e
00000250: 1340 5dbe c136 05bd 1c13 d03c 28ce e73d
00000260: f693 b33d e94d 06bd b86e 17bc 7dc6 c9bd
00000270: 3ff5 e7bd fbc1 47be 3a85 38bd 4d1e 9d3d
00000280: 367a b0bc 9247 51bd 0e6a 7abe 89bd d73d
00000290: 3e13 c2bd a3cb 1ebd 2587 0a3d 3190 edbd
000002a0: 5f13 93bd a97a 97bd 310e 393e 6a54 8f3c
000002b0: 246c 4cbe 193b d83d 7524 533e 7ef7 22bd
000002c0: 062d dbbd 2cc0 9c3d d6d6 1bbd a434 8abd
000002d0: b519 afbd 6da3 f33c 0f10 52bd 0059 c23d
000002e0: 7170 013e 6e11 9f3c a7cf 50bd 0a2f 1bbe
000002f0: 536a 8c3d 9836 bb3c 14f8 88bd c400 033d
00000300: efc4 23be c566 af3d 8d5a 1ebd c141 903c
00000310: 3419 cf3d 5b2d e7bd 0429 903d 4d55 223e
00000320: 26a0 143d 6e06 973d 63b8 773d 0314 3d3d
00000330: 1379 2f3c ad41 1c3e fc1f 1ebd 8a75 1dbd
00000340: b33f 29be 2cf0 a0bd e87e 34bd 1e1b bf3d
00000350: 54d6 5bbd 5d65 fd3a 90af debd 52fe ae3c
00000360: 905a 1bbb e7b5 d63c 2002 d23d f59f fd3d
00000370: a4b4 673c 93dc c2bd 1145 92be fa93 24be
00000380: 6ad9 a4bd a40c 6cbc fb53 1ebe 0bb0 cc3d
00000390: a85c bcbd 260d be3d d95c 7e3d 0d59 fabd
000003a0: 03c6 303d a4c5 7ebd b73d 11be 2cdb edbd
000003b0: 10f1 7f3b c508 453e 6c3c 153e 2a54 5d3d
000003c0: eb3f 203c 8836 60bc f4b3 9ebd f7bd e7bc
000003d0: d976 1c3d 8054 27be c35a 8b3d d439 0a3d
000003e0: 95e1 943d 848d babd 311d 5d3d b510 e43c
000003f0: d6e9 513e 6e8c ff3d 82c7 ebbc 05ca 103e

conv01.bias f4 [16]
-0.12271198 -0.0681591 0.008255588 0.17310768 -0.23776996 0.058010872 -0.117801964 -0.13573164
0.09862411 -0.02474461 -0.08749668 -0.015536126 -0.07477433 -0.17783652 -0.08467709 0.046912707
00000000: 6b50 fbbd 0097 8bbd 7242 073c 2443 313e
00000010: f879 73be cf9c 6d3d 2842 f1bd 3cfd 0abe
00000020: 70fb c93d 35b5 cabc 7631 b3bd 3c8b 7ebc
00000030: 4923 99bd c71a 36be 2f6b adbd 8a27 403d

conv02.weight f4 [22, 16, 3, 3]
0.0004708477 0.00024738268 -0.063165225 0.014125684 0.07767816 0.00028255224 0.1498976 -0.06950851
-0.09778482 0.11993505 -0.041319907 -0.041093633 -0.22532995 -0.15579653 -0.12795223 -0.028444834
-0.06585786 -0.04035265 0.08068347 0.17008512 0.0042476133 0.07300394 -0.06591086 0.08662452
-0.21635102 -0.030328838 -0.18979256 0.036721785 -0.01458798 -0.14455454 0.048260864 -0.09132304
0.07340142 0.034103844 -0.135082 -0.14440878 -0.24037981 0.06027062 -0.07327969 0.023695081
0.19700347 0.14554602 0.14333129 0.19113362 0.008294967 0.025581535 -0.024386043 -0.0036263235
-0.062110912 0.13902196 0.042699613 0.023435066 -0.10629389 -0.09990085 0.07332168 0.00027676538
0.18581611 -0.028774275 0.08606716 -0.11406248 0.029190563 -0.1372349 0.030051837 -0.024724524
-0.1153473 -0.025061354 -0.06993685 0.01696152 -0.093078725 0.043720182 -0.22218707 -0.03987573
-0.06710804 0.017446788 -0.056224264 -0.12785318 0.016351154 -0.080827236 -0.03881048 -0.2505038
-0.049018394 -0.10478497 -0.09041984 -0.103125006 0.027566867 -0.06636503 -0.0010783756 0.049348064
0.096475594 -0.08518465 0.08258928 -0.10201722 -0.04465947 0.03654353 0.15233205 -0.005932389
-0.108734526 0.16803484 0.17868853 -0.059808534 0.005720448 0.0715795 -0.09649308 0.017214753
-0.1371106 -0.007740238 -0.010362763 0.15422934 -0.07961673 0.044458035 -0.030038709 0.11480767
-0.076666035 0.058072403 -0.03270575 -0.19822562 0.1210879 0.03324706 0.2107133 0.07613236
0.0007331591 0.113875695 0.067143485 -0.03427628 -0.15746981 0.20991868 0.083993934 0.10722166
0.17884737 -0.1150132 -0.067918554 0.014735451 0.131252 0.0015230117 -0.0508963 0.006196769
0.076813765 -0.06911717 0.13651636 -0.10063807 0.037308402 -0.06414022 -0.029494606 0.037126604
-0.056048226 0.05600631 -0.091480315 -0.25286433 0.007544832 0.0121705 -0.04209753 -0.17494915
0.14281167 -0.08620485 -0.1658083 0.070771545 -0.013469144 0.049165208 0.05585285 0.0074981353
-0.11919935 0.048516337 0.12328799 -0.07498552 0.032475457 -0.010586254 0.17527948 -0.113416396
-0.10975216 0.00011624826 0.18633407 -0.06899328 -0.013234113 0.031673957 -0.003279564 -0.058443706
-0.0064696996 0.02990503 0.11572238 0.10154503 -0.09619692 0.040479437 -0.10495908 0.07807203
0.12021699 0.007270914 -0.0087472275 -0.19583814 -0.011667868 0.08999188 -0.042734317 0.04010311
0.024840992 -0.16110532 -0.0568592 0.020469746 -0.062479764 0.10769101 0.07267402 -0.17546225
-0.072278455 0.06352507 0.07896043 -0.040247556 0.00024200714 0.026232129 0.030029545 0.03328723
-0.030502561 -0.016942399 0.1934996 0.012358096 0.0010880621 -0.110071406 -0.041535445 -0.09320108
0.1947314 0.025446156 -0.12065114 -0.06860854 0.1057462 -0.040106244 -0.020209605 0.07616971
0.06401035 -0.08355121 0.042397656 -0.056532722 0.010777356 -0.1125016 0.06352864 0.00016742798
0.0073510064 0.0831099 0.119894885 0.071038514 -0.10262633 -0.048926402 -0.0870659 -0.1076906
0.11199679 -0.18300825 -4.4682107e-05 -0.07297329 0.08047634 0.011779565 -0.02188008 -0.068716146
-0.024727033 -0.093957745 -0.09529534 0.011676742 0.066408865 -0.14016764 0.047076665 0.10836009
00000000: 1cdc f639 24b3 8139 c55c 81bd 6a6f 673c
00000010: ba15 9f3d 8523 9439 c27e 193e 7a5a 8ebd
00000020: 6843 c8bd 82a0 f53d 103f 29bd cc51 28bd
00000030: e5bc 66be 2089 1fbe e905 03be 2405 e9bc
00000040: 7ce0 86bd d248 25bd 603d a53d cb2a 2e3e
00000050: 902f 8b3b 1783 953d 46fc 86bd 3268 b13d
00000060: 1f8b 5dbe 2f74 f8bc fb58 42be 9569 163d
00000070: 6c02 6fbc 1b06 14be 2fad 453d 9307 bbbd
00000080: 7c53 963d 79b0 0b3d f052 0abe e5df 13be
00000090: 2026 76be 53de 763d aa13 96bd 301c c23c
000000a0: 47bb 493e 040a 153e 70c5 123e 88b8 433e
000000b0: 9de7 073c 5e90 d13c 3dc5 c7bc 9da7 6dbb
000000c0: 0368 7ebd c65b 0e3e cae5 2e3d e5fa bf3c
000000d0: 9cb0 d9bd d198 ccbd ad29 963d d21a 9139
000000e0: 9446 3e3e 07b8 ebbc fb43 b03d 9799 e9bd
000000f0: 0c21 ef3c 4e87 0cbe 452f f63c 168b cabc
00000100: 353b ecbd 784d cdbc 0d3b 8fbd e3f2 8a3c
00000110: 0fa0 bebd ef13 333d 0285 63be bc54 23bd
00000120: f16f 89bd 91ec 8e3c 6a4b 66bd f2eb 02be
00000130: dbf2 853c c088 a5bd bdf7 1ebd 0942 80be
00000140: 83c7 48bd 8199 d6bd 092e b9bd 3433 d3bd
00000150: e9d3 e13c 64ea 87bd 4858 8dba 3221 4a3d
00000160: ff94 c53d 4a75 aebd 9224 a93d 67ee d0bd
00000170: d9ec 36bd abae 153d effc 1b3e 7c64 c2bb
00000180: 35b0 debd 5311 2c3e 20fa 363e cbf9 74bd
00000190: 9972 bb3b 4698 923d 2a9e c5bd f405 8d3c
000001a0: b966 0cbe d3a1 fdbb 94c8 29bc 4cee 1d3e
000001b0: 190e a3bd a119 363d bd13 f6bc 4920 eb3d
000001c0: 1503 9dbd 54dd 6d3d 77f6 05bd a8fb 4abe
000001d0: effc f73d 122e 083d 3ac5 573e 48eb 9b3d
000001e0: 7931 403a a937 e93d 8682 893d 4965 0cbd
000001f0: c43f 21be ecf4 563e 0305 ac3d 0897 db3d
00000200: c423 373e 0a8c ebbd e218 8bbd f66c 713c
00000210: ed66 063e cb9f c73a a378 50bd 440e cb3b
00000220: 8950 9d3d 4e8d 8dbd f2ca 0b3e 551b cebd
00000230: b2d0 183d f35b 83bd ac9e f1bc 1112 183d
00000240: d392 65bd df66 653d 085a bbbd 6f77 81be
00000250: a33a f73b c766 473c 766e 2cbd df25 33be
00000260: 393d 123e 2b8c b0bd a7c9 29be acf0 903d
00000270: afad 5cbc 7561 493d f5c5 643d ebb2 f53b
00000280: ca1e f4bd 11b9 463d 6a7e fc3d 0292 99bd
00000290: fc04 053d f871 2dbc 777c 333e db46 e8bd
000002a0: bec5 e0bd 4fca f338 5cce 3e3e 594c 8dbd
000002b0: e5d3 58bc 8dbc 013d f4ed 56bb ab62 6fbd
000002c0: c6ff d3bb 65fb f43c dbff ec3d d7f6 cf3d
000002d0: e402 c5bd c4cd 253d c9f4 d6bd 3ae4 9f3d
000002e0: 5334 f63d d940 ee3b 8850 0fbc cb89 48be
000002f0: 962a 3fbc aa4d b83d 2e0a 2fbd 2943 243d
00000300: 567f cb3c cbf8 24be 31e5 68bd 2bb0 a73c
00000310: c8ea 7fbd 1b8d dc3d 1ed6 943d 60ac 33be
00000320: ba06 94bd 6f19 823d 02b6 a13d 9fda 24bd
00000330: 4cc3 7d39 c3e4 d63c 8500 f63c 3158 083d
00000340: 82e0 f9bc c9ca 8abc c224 463e 9d79 4a3c
00000350: 4e9d 8e3a 1e6d e1bd 1221 2abd 35e0 bebd
00000360: ab67 473e 7574 d03c f217 f7bd a282 8cbd
00000370: 7791 d83d 7246 24bd 9d8e a5bc ddfe 9b3d
00000380: dc17 833d e61c abbd 2aa9 2d3d db8e 67bd
00000390: 8293 303c 3d67 e6bd 4e1b 823d 9b8f 2f39
000003a0: b6e0 f03b 8635 aa3d 738b f53d a47c 913d
000003b0: c12d d2bd 0d67 48bd 9b4f b2bd e48c dcbd
000003c0: 935e e53d 8466 3bbe 0c69 3bb8 0573 95bd
000003d0: c8d0 a43d 14ff 403c db3d b3bc 0dbb 8cbd
000003e0: 5990 cabc eb6c c0bd 342a c3bd ce4f 3f3c
000003f0: 5f01 883d 1b88 0fbe 76d3 403d e5eb dd3d

conv02.bias f4 [22]
0.06546893 -0.17511582 -0.099381275 -0.09314279 -0.23386836 -0.12573944 -0.28644654 -0.2089507
-0.17962866 -0.31759816 -0.1673676 -0.2438298 -0.13941295 -0.31401724 0.024554392 -0.27467194
-0.049278058 -0.060430612 -0.09932879 -0.20118044 -0.054265164 -0.083645195
00000000: 9314 863d 9051 33be 6988 cbbd a6c1 bebd
00000010: 307b 6fbe d7c1 00be 1fa9 92be 2cf7 55be
00000020: 93f0 37be 3a9c a2be 6a62 2bbe 85ae 79be
00000030: 45c2 0ebe dec6 a0be 4b26 c93c cda1 8cbe
00000040: cad7 49bd 1786 77bd e56c cbbd 3f02 4ebe
00000050: 2645 5ebd 2c4e abbd
