weights/1. classify for triplet loss - marks/900 epochs/fully_connect.pt (torch, 517892 bytes, 10 tensors)

linear00.weight f4 [256, 352]
000000 64 94 3e bd 95 35 59 bd 12 27 db 3c b4 78 92 bd
       -0.046528235 -0.053029615 0.026752029 -0.071519285
000010 69 9c 4a 3c 0a 99 cd bc b6 0c a1 3c 63 1f 66 bd
       0.012366393 -0.025097389 0.019659381 -0.056182276
000020 47 f0 12 3c ad f4 69 3d fd f0 6e 3d a0 8f 25 3d
       0.008968419 0.057118107 0.058335293 0.040420175
000030 b3 47 6b bd 9e c5 70 3a db 10 b5 bd dd 6d e1 bc
       -0.057441425 0.00091847207 -0.088411056 -0.027518207
000040 dd 30 1f bd 1a dd 4f bd 37 da ce 3d 0f 3f 59 bd
       -0.03886496 -0.05074797 0.10100215 -0.053038653
000050 05 e5 a4 3d 97 c8 3c 3d b0 81 04 39 ef 22 a2 3d
       0.080514945 0.046089735 0.00012636813 0.07916819
000060 d6 75 8f 3c 3a 6d 21 3e c6 0d cf 3d 15 b6 2c bc
       0.017512243 0.15764323 0.10110049 -0.010541459
000070 7c 99 8f 3a d1 73 b7 bc 11 af 86 3d 82 95 9b 3c
       0.0010955776 -0.022394093 0.0657636 0.01899219
000080 b6 72 4e bd ee 05 fb bb cf 28 b0 3d 12 2d 1d bd
       -0.050402366 -0.007660619 0.086015336 -0.03837306
000090 72 0d eb bc 13 ad 36 bd ab 76 4b 3d ae aa 24 bd
       -0.028692935 -0.04459865 0.049673717 -0.040201835
0000a0 a8 49 8a bd 5b b5 c4 ba 8a 1a 41 be b9 e7 fb 3b
       -0.0675233 -0.0015007661 -0.1885778 0.0076875356
0000b0 41 c6 59 3d 4a 7a 0d be 30 a8 dd bc 3c 47 9b 3c
       0.053167585 -0.13816181 -0.027057737 0.018954866
0000c0 41 82 4e bd 7f 01 86 3d 4c 3f 27 3d 10 cf e8 3d
       -0.05041719 0.06543254 0.04083185 0.11367619
0000d0 0b 3a 0f 3e 90 d7 c3 bd 8e 8a 4f 3d db 5c 83 bd
       0.13986985 -0.095626 0.050669245 -0.06414195
0000e0 b0 98 b5 3d f3 80 1d bd 78 eb f7 bc 80 b6 be bc
       0.088670135 -0.038453054 -0.030263647 -0.023280382
0000f0 3c 35 18 be a1 cf ad bc 28 d6 68 be 9d f3 cc bb
       -0.14864057 -0.02121717 -0.22737944 -0.006254627
000100 6d 73 10 bd 4d 03 25 be c3 66 71 3d 52 fa f6 3b
       -0.03526633 -0.1611454 0.05893589 0.0075371647
000110 a4 29 00 bd 4c 66 e1 bd 28 94 c7 3d bf 00 1f 3d
       -0.03128971 -0.1100584 0.097450554 0.03881907
000120 00 24 47 3d c6 93 02 3e 1f 9c 6a bd 4d 5b 36 bd
       0.048618317 0.12751684 -0.057277795 -0.044520665
000130 2c 04 e2 3c df 5d 42 bd 4c 14 42 be 2c 9f 3e 3e
       0.02758988 -0.047452804 -0.18953055 0.18615407
000140 6f b0 e9 3c 74 39 82 3c d2 e1 15 3d cc 2e 21 3d
       0.028526513 0.015896536 0.036592312 0.03935127
000150 3b 0a bb 3d a8 92 a8 bc 78 b3 28 3d 2b 6f d0 bc
       0.09132811 -0.020577744 0.04118678 -0.025443634
000160 d4 d1 ef 3d 37 b2 1d 3c 2d c0 5d 3b c2 a2 4c 3d
       0.117099434 0.009625009 0.003383647 0.049959905
000170 73 a0 db bd 5c 94 f1 3d 69 73 08 be 17 60 6b bc
       -0.10723963 0.117958754 -0.13325275 -0.014366171
000180 ef 66 b4 bd 88 a4 07 be 5c 33 09 be d8 4a 07 be
       -0.088086955 -0.13246357 -0.13398498 -0.13212144
000190 f7 f4 51 bc 35 29 46 bb 14 9a 06 3d fe d3 c6 bc
       -0.012814752 -0.0030236964 0.032861784 -0.024271008
0001a0 18 c8 84 bd 98 3f 05 bd 75 32 cc bd 31 6c bd bd
       -0.06483477 -0.03253135 -0.099705614 -0.092491515
0001b0 35 db 84 3c 64 08 be 3d 25 0f 1d be 87 58 03 3e
       0.016217807 0.09278944 -0.15337808 0.12826739
0001c0 9b 15 f7 3d c4 93 01 bd 96 37 1c be 35 1d 48 3c
       0.12064668 -0.03163506 -0.1525558 0.012213995
0001d0 1a f1 1d 3d 99 66 a2 3d 86 42 97 3d 60 80 22 3e
       0.03856001 0.07929725 0.07385735 0.15869284
0001e0 a5 d9 d3 3c d7 a8 14 3d b3 22 15 3e a1 2a aa 3c
       0.025860617 0.03629383 0.14564018 0.02077228
0001f0 a2 82 e3 3c dd 97 2a bc 69 07 e6 3d b1 23 89 3c
       0.027772252 -0.010412184 0.11231882 0.016740652
000200 dc 01 b7 3b e4 20 9b 3c 1b d0 7d bd c3 2b 8b bd
       0.0055849385 0.018936582 -0.061966043 -0.06795456
000210 0a 3a ab bb bf 13 87 3d d4 ff 92 3d 94 9d b7 bb
       -0.0052254247 0.06595563 0.071777016 -0.0056035016
000220 81 af db bd 69 41 a2 3c 12 28 d8 bd 0c 30 d6 3c
       -0.10726834 0.01980658 -0.10554518 0.026145957
000230 99 9a 91 3d 46 9b 27 3d 22 6d 76 bd 51 aa 0d be
       0.07109565 0.040919565 -0.06016267 -0.13834502
000240 34 7f 49 bd f2 15 28 bd 52 25 c2 3c bf c9 bc 3c
       -0.049193576 -0.041036554 0.023699436 0.023045419
000250 da 41 e5 3c ee b6 d4 bc 67 35 86 bd 47 ad 0d 3c
       0.027985502 -0.025966134 -0.065531544 0.00864727
000260 11 86 c9 b9 01 8a c0 bd c5 d8 00 bd d2 2e 30 bc
       -0.00038437595 -0.09401322 -0.031456728 -0.01075335
000270 c7 a3 b2 3c 6e 43 a2 bd dd c0 6a bc 6e ec 9e 3d
       0.02180661 -0.079230174 -0.014328209 0.07759939
000280 18 48 b3 3d 2c 33 b7 bd 85 f5 85 bd 56 06 66 3c
       0.08753985 -0.08945307 -0.0654097 0.014039597
000290 0c 9a 9a 3b 39 dd 11 bd 4e 2b 2e 3d f7 3e 7f 3d
       0.004718071 -0.035611365 0.042521767 0.062315907
0002a0 6d 3b c2 3d b2 ce e2 3d ff dd 8e 3d 55 2c 73 3c
       0.09483991 0.1107458 0.06975936 0.014842113
0002b0 2f 06 4b bd 61 79 a1 bd 1b da 2f bd 54 77 d0 bd
       -0.049566444 -0.07884479 -0.04293261 -0.1017901
0002c0 cb 4d 56 3d eb 26 26 bc ab 5d 53 3d e4 00 fc bb
       0.052320283 -0.010141115 0.051603 -0.007690536
0002d0 6e 20 fe bd a5 7b 77 bd b2 3c 82 3d e6 d9 80 bd
       -0.12408529 -0.06042065 0.06359233 -0.06291561
0002e0 c1 2c 86 3c 8a c3 f7 3c 32 5b 00 be ef 79 41 bc
       0.016378762 0.030244607 -0.12534788 -0.011808856
0002f0 9c 74 27 3d a5 86 97 bd e1 52 3f 3e 4e 1b d1 3c
       0.04088269 -0.07398728 0.1868396 0.025525715
000300 cc 60 a3 3d 2e d2 0c bd c0 27 b9 bc 63 3b ea 3d
       0.07977447 -0.03438013 -0.022601962 0.11437108
000310 37 7d 1c bd 3d 00 61 3d 4d 0b fb 39 cb ed d9 3c
       -0.03820535 0.054931868 0.0004788287 0.026602646
000320 06 e6 bd 3d 96 68 cc bd 30 dd 1c 3e 4e d2 ec bb
       0.09272389 -0.09980886 0.15318751 -0.0072272187
000330 d6 ec 5f 3d 0c ab a9 3d ea a3 49 be 33 f1 70 3d
       0.054669224 0.08284578 -0.19691435 0.058823776
000340 c2 c2 b1 bd e4 16 48 3c ce 4c 96 3c ae 27 0c bb
       -0.08679725 0.012212489 0.01834717 -0.0021385956
000350 8f f8 a6 bd 13 5e ea 3c d2 60 1d be 05 2a 88 3c
       -0.081528775 0.028609311 -0.15368965 0.016621599
000360 a7 72 45 bc 90 52 85 be 01 69 3a 3d 8f 2d 40 ba
       -0.012051261 -0.26039553 0.045510296 -0.00073310075
000370 59 a4 b4 bc 64 d1 f1 bc c5 69 a2 3b 7d a0 04 3e
       -0.022051023 -0.02951879 0.0049564564 0.12951846
000380 5d 1e cd bd 9d e5 5c 3d 6d fa 16 3d 35 c4 8c 3c
       -0.10015557 0.053929914 0.03685992 0.017183403
000390 d9 d8 13 3d 71 58 33 3d 5b b6 2e 3d c7 5f 79 bc
       0.036095474 0.043785516 0.042654376 -0.015220589
0003a0 e1 10 95 bd 30 14 17 bd 40 3b a1 bc a5 5f 82 bd
       -0.0727861 -0.036884487 -0.019681573 -0.06365899
0003b0 6a ac 23 3c 7f a6 87 3c a2 4d 1c be a6 28 70 3d
       0.009989837 0.016558884 -0.1526399 0.058632515
0003c0 1c 05 13 bd a4 43 45 3c d4 e2 9a bd 0a e1 1f bd
       -0.035893545 0.012040053 -0.07562795 -0.039032973
0003d0 83 cd b1 3d ba 1f 2f 3d f5 73 c7 3c e3 fa 72 bc
       0.086817764 0.042754866 0.024347285 -0.014830324
0003e0 d8 14 96 3c ec 57 25 be 5f 99 b1 3d 33 62 bb bc
       0.018320486 -0.16146821 0.08671831 -0.022873973
0003f0 26 3b 87 3e 55 80 fb bc 2d 72 fe 3c ba 8d 86 bd
       0.26412314 -0.030700842 0.031060303 -0.06570001

linear00.bias f4 [256]
000000 0e 01 22 bd 4a 97 0e bd 24 c1 f3 bc 8e 7f 3d bd
       -0.039551787 -0.03481225 -0.029755183 -0.046264224
000010 08 81 88 bd 26 37 96 bd aa f4 2d be f5 f3 3f bd
       -0.06665236 -0.073347375 -0.16987863 -0.046863515
000020 4f 55 10 be d2 c3 11 bc 64 3d 93 bc ab 05 9b bd
       -0.14095043 -0.008896785 -0.01797361 -0.075694405
000030 7c d6 a7 bd f7 0b c3 bd 0a bd 35 3c 99 1d 15 be
       -0.081952065 -0.095237665 0.011092434 -0.14562072
000040 42 fa 44 3d 83 c7 92 3c 5e 03 ca bd ef 7b 78 3b
       0.048090227 0.0179174 -0.098639235 0.0037915667
000050 9b 4e 94 bd 8d 2f 9e bd 1c f3 8d bd 0b de 2c bd
       -0.07241555 -0.07723913 -0.06931135 -0.042203944
000060 1d cf a4 bc 9f 49 fb bd c0 f5 95 bb d5 c4 9d 3d
       -0.02011829 -0.122699015 -0.004576415 0.07703558
000070 67 ed 6c bd 18 51 81 bd 4b c9 e1 3c 38 db 28 3d
       -0.057843592 -0.063142955 0.027561804 0.04122469
000080 ff ee a2 bd ea 24 e4 3c e2 c4 75 bb 69 75 f2 bc
       -0.07955741 0.027849633 -0.0037501385 -0.029597001
000090 52 9f 87 bd a6 1c 7c bb a7 d8 0c bd 89 47 cc bd
       -0.06622185 -0.0038469224 -0.034386303 -0.09974582
0000a0 99 3e 58 bc 87 14 84 bc 61 08 8b 3c 94 84 19 3d
       -0.013198518 -0.01612307 0.016971769 0.037479952
0000b0 d2 7d 99 3c 7c c0 0e be dd 56 0c 3d 2b f5 55 bd
       0.018736754 -0.13940614 0.034262527 -0.052235764
0000c0 3f 24 a0 bb bc 81 23 3c 29 f1 29 bd 1d 42 14 be
       -0.0048871334 0.009979662 -0.041489754 -0.14478345
0000d0 6a d0 68 bd ed b0 18 3d ef eb a9 3c 1c 2c 6b 3b
       -0.056839384 0.037278105 0.020742385 0.0035884446
0000e0 09 df ca 3d 44 c5 be bc aa 7b 77 3d 8a d3 d3 bc
       0.09905822 -0.023287423 0.06042067 -0.025857706
0000f0 c9 95 02 bd 64 74 9f bd 5f 78 98 3c 26 70 26 3d
       -0.031881128 -0.077858716 0.018612085 0.040634297
000100 70 2d 2c 3d cf 47 e7 bc 14 9b bf bc 37 71 8e bd
       0.04203552 -0.028232483 -0.023389377 -0.06955188
000110 8c 8e 10 be aa 94 1a 3c 53 4b 40 be ca f2 dc 3c
       -0.14116877 0.009434858 -0.18778734 0.02697124
000120 cc 33 a0 3d b4 4a 21 bd a0 ee be bd 40 b2 8b 3a
       0.078223795 -0.039377883 -0.09322858 0.0010657981
000130 30 e2 a8 bd d1 5c 85 3d 48 57 a8 bd 18 89 7b bd
       -0.08246267 0.06511844 -0.082197726 -0.06141004
000140 66 5d 88 bd cc c1 f8 3b 99 62 01 be 31 4d 89 3d
       -0.06658439 0.0075914618 -0.12635268 0.06704176
000150 d8 a5 68 bd b1 98 4e be 3d 0b 43 bd 09 33 ed bd
       -0.056798786 -0.20175435 -0.04761814 -0.11582
000160 77 bb bc bd 81 65 98 bd df b4 db bc c8 8e 88 bd
       -0.092154436 -0.07441235 -0.026819644 -0.06667858
000170 ac 85 db bd 3f cf 37 bd 09 ea be bd 2f d7 b8 bd
       -0.10718855 -0.04487538 -0.093219824 -0.09025418
000180 7d cf c1 3d 49 7c 4f 3d 3c 39 03 3d 78 a6 fc 3c
       0.094634034 0.050655637 0.032037005 0.030841097
000190 65 25 2c 3d 0c fa a6 bd 83 d3 a5 3c 1d cf 1c be
       0.04202785 -0.081531614 0.020242458 -0.15313382
0001a0 43 8e 05 bd 6d 92 5c bd 30 cb 70 bd 75 62 20 3d
       -0.032606374 -0.05385058 -0.058787525 0.039156396
0001b0 f6 c2 ad 3b c3 1f 30 be 38 3d 75 bd 5e f5 7e bd
       0.005302782 -0.17199616 -0.059872836 -0.06224572
0001c0 d5 38 db bd 6a dd 7a bd c5 48 b0 bc 8d 7c 85 bd
       -0.10704199 -0.061246313 -0.021519074 -0.06517897
0001d0 d9 2a 03 bd 5b 46 85 bc 56 03 33 3d 02 16 36 3c
       -0.032023285 -0.0162689 0.043704353 0.0111136455
0001e0 d7 e1 03 bd a5 4d 7c bd d5 7a df bd 16 1a 98 3c
       -0.0321978 -0.061597485 -0.109121 0.018567126
0001f0 55 f1 c1 3b 62 be a2 bd 1f 66 49 3d a0 3d 81 3c
       0.0059186616 -0.07946469 0.049169656 0.015776455
000200 9d 9f da bd 49 9d 36 bd a9 5b 03 3c 38 53 bb bb
       -0.10674975 -0.044583593 0.008017459 -0.0057167076
000210 e6 84 86 bd 23 4f e5 3c 69 c8 b0 3c 80 fe 49 bd
       -0.06568317 0.027991837 0.021579938 -0.049314976
000220 a9 17 ec bd 45 e2 d8 bd 19 64 c8 3b 74 55 72 bd
       -0.1152795 -0.105900325 0.006115448 -0.059163526
000230 32 61 13 bd 19 ff 04 3d fc 60 4e bd 06 2e e2 bd
       -0.035981365 0.032469843 -0.05038546 -0.110439345
000240 3d 74 7e 3d a9 7a 14 bc 29 36 84 3c 28 cd 22 3d
       0.062122572 -0.009062448 0.016139107 0.039746433
000250 26 8e 83 bc 9a c4 cf bd c0 4f 45 bd b0 9e 2f 3c
       -0.016058993 -0.10144921 -0.04817176 0.010718986
000260 d4 24 83 3d 91 d3 2d 3c 81 67 a8 3c ca d8 86 bd
       0.06403509 0.010609523 0.020557167 -0.06584318
000270 65 19 8a bb c3 72 d5 bc 97 c9 87 bd f0 b7 14 bd
       -0.004214453 -0.0260557 -0.06630247 -0.03630823
000280 73 34 bd bc 0e 17 ad bd d2 13 30 bc 01 59 03 3c
       -0.023096299 -0.08451663 -0.010746913 0.008016826
000290 ef 48 c2 3b 2a ab ee bc f5 8a 0f be 1f 2e 9f bd
       0.0059291045 -0.029134352 -0.14017852 -0.07772469
0002a0 c4 03 98 bc fb 84 46 bd d7 bc d0 3c 6e e0 5a bd
       -0.018556483 -0.048466664 0.02548067 -0.05343669
0002b0 3c 11 bb bd e3 e2 36 3d 30 02 20 3c a1 1f f3 bc
       -0.091341466 0.04464997 0.009766147 -0.029678168
0002c0 5d f3 0b 3a b8 ef 52 bd 18 ed bd bd 2e 3e 27 3d
       0.0005338693 -0.051498145 -0.09273738 0.040830784
0002d0 49 1c 2b bd 72 18 31 be 04 7b 9c bd 68 0f 08 be
       -0.04177502 -0.17294481 -0.07640651 -0.13287127
0002e0 2f f0 d8 bd 7e fa e2 bc 2c f9 3d bd a2 9a a4 bd
       -0.105926864 -0.027707335 -0.046380207 -0.08037306
0002f0 2e 2b c3 bd cf 0d 50 bd 8f 58 9d bc 3b fe 0b 3d
       -0.0952972 -0.05079442 -0.019207267 0.034178
000300 7b 5a 3a bd a7 2d 44 3d bc b7 8a 3d 56 38 5a bd
       -0.045496445 0.0478951 0.06773326 -0.053276382
000310 a8 a2 9f b9 f4 f7 bd bb 70 e3 35 3c 6f 7d 89 3c
       -0.00030448032 -0.0057973806 0.011101589 0.016783444
000320 61 2e 24 3d ff 9e 77 bc a8 5c 20 bd d5 f7 61 bd
       0.040083293 -0.015113591 -0.039150864 -0.05516799
000330 43 80 b6 bd 15 0c e7 bd 77 75 04 bd 40 d2 cd 3c
       -0.08911183 -0.11281601 -0.032338586 0.02512467
000340 02 15 ce bc 1f 68 1b bc fb a8 29 3d 33 80 ec 3c
       -0.025156502 -0.009485274 0.041420918 0.028869724
000350 73 60 4e 3c 7c 50 68 3d 90 03 8c bd 06 46 eb 3b
       0.0125962375 0.05671738 -0.06836617 0.0071799783
000360 d4 d4 de bd 02 db 1b be 9b b2 bd ba 07 18 3a bc
       -0.108804375 -0.15220264 -0.0014472784 -0.011358268
000370 9d b1 d6 bd 51 e6 6d 3d 1d 18 0a bd 26 64 03 be
       -0.10483096 0.058080975 -0.033714402 -0.12831172
000380 d1 c0 7d bd a3 80 8a bd ac ad 18 bd 3d 46 3d be
       -0.061951462 -0.06762817 -0.037275 -0.18483825
000390 86 61 ff 3c d6 87 d9 bd 62 dd b3 3c 33 7a 83 bd
       0.031174432 -0.10621612 0.02195615 -0.06419792
0003a0 75 65 18 bd 5e 47 ac bc b9 28 81 3a db 7a c7 ba
       -0.037206132 -0.021030124 0.0009854055 -0.0015219109
0003b0 d3 16 93 bd ab 1d bb bb 3c ed 21 bd ff 33 ff bd
       -0.07182088 -0.005710324 -0.039532885 -0.12461089
0003c0 89 0b 83 bc 10 04 ad bd fc 19 47 bc b1 d8 ea bc
       -0.015996711 -0.084480405 -0.012152191 -0.02866778
0003d0 a2 b7 4c bd 39 b5 fd bd 01 09 de bd 28 c7 da bc
       -0.049979813 -0.12388081 -0.10841561 -0.026706293
0003e0 ba 4a bb bc 53 88 de bc 71 00 0f be b3 ae e5 bc
       -0.02286278 -0.027164614 -0.13965012 -0.028037405
0003f0 b6 e2 62 bd 98 2f b4 3b c0 ee a4 bc a4 3b 7f b9
       -0.05539199 0.0054988377 -0.020133376 -0.00024340913

batch_norm00.weight f4 [256]
000000 d5 aa ba 3f eb 22 ad 3f dc a7 b1 3f b7 63 b6 3f
       1.4583384 1.3526281 1.3879352 1.424918
000010 3f 9f b5 3f a2 5d bf 3f db 31 b5 3f 80 7a b2 3f
       1.4189223 1.495045 1.415584 1.3943634
000020 64 81 c1 3f 45 88 bb 3f 07 b6 bb 3f 68 42 af 3f
       1.5117612 1.4650961 1.4664925 1.369214
000030 44 ff b3 3f 5c 2d b1 3f b6 00 ab 3f a6 c5 bf 3f
       1.4062276 1.3841968 1.3359592 1.4982193
000040 2d 68 ae 3f 9b 0d ac 3f a5 42 b1 3f ba 68 b2 3f
       1.3625542 1.3441652 1.3848463 1.393821
000050 82 c7 be 3f be 6d b2 3f 5e 9e cb 3f 23 c2 a3 3f
       1.4904635 1.3939741 1.5907705 1.2793621
000060 12 93 b1 3f dc 74 a3 3f 52 90 a9 3f 8d cb b5 3f
       1.3873007 1.2770038 1.3247168 1.4202744
000070 45 8b b8 3f 4e fe b6 3f cc b3 ab 3f 41 0d af 3f
       1.4417502 1.4296358 1.3414245 1.367592
000080 1d 73 a6 3f cb d3 b0 3f b3 88 b1 3f d4 e8 a8 3f
       1.300388 1.3814634 1.3869842 1.3196054
000090 f4 42 b5 3f b3 ea a8 3f c5 b1 af 3f 6d 97 b8 3f
       1.4161057 1.3196625 1.3726126 1.4421211
0000a0 44 85 a9 3f 21 4d a1 3f 1e 62 b5 3f 52 74 b5 3f
       1.3243794 1.2601663 1.4170568 1.4176123
0000b0 68 9f ac 3f 4a db b5 3f c9 c9 af 3f 17 4b b1 3f
       1.3486147 1.4207547 1.3733455 1.3851041
0000c0 a9 c7 aa 3f 4a b5 bc 3f 35 87 ae 3f 12 5f ba 3f
       1.3342181 1.4742825 1.3635012 1.4560263
0000d0 94 a6 b7 3f 2e 66 b7 3f 51 7a b7 3f 2c ac b4 3f
       1.4347711 1.4328058 1.4334203 1.4115043
0000e0 4d 8d b0 3f 36 4f be 3f 3a 3e b9 3f 92 4c b9 3f
       1.3793122 1.4867923 1.4472115 1.4476492
0000f0 45 0e aa 3f 95 df b0 3f 72 0b b4 3f 87 b9 ab 3f
       1.3285605 1.3818232 1.4065993 1.3415993
000100 15 fc b2 3f 8c e6 b4 3f a8 36 bd 3f 51 b7 ac 3f
       1.3983179 1.4132857 1.4782305 1.3493444
000110 c8 76 b0 3f 65 3b b9 3f 61 3a b2 3f 99 9e b7 3f
       1.3786249 1.4471251 1.3924066 1.4345275
000120 d6 79 be 3f 39 90 bb 3f ce 32 b8 3f 4f 1b b8 3f
       1.4880931 1.4653388 1.4390504 1.4383334
000130 15 e1 b9 3f 76 2f b4 3f b1 c2 b3 3f 00 eb a2 3f
       1.4521815 1.4076984 1.404379 1.2727966
000140 bb 40 ad 3f cf 5b af 3f f9 56 b3 3f d6 71 af 3f
       1.3535379 1.3699893 1.4010917 1.3706615
000150 4a 1e b5 3f bf 22 ac 3f 69 a7 c0 3f 6e cf ba 3f
       1.4149868 1.3448104 1.505109 1.4594553
000160 32 b5 bb 3f a1 0c b5 3f 64 7c b8 3f 35 aa b7 3f
       1.4664671 1.4144479 1.4412961 1.4348818
000170 ec 33 b9 3f 0b 99 c4 3f 9c 4d a6 3f f3 19 b1 3f
       1.446897 1.5359205 1.2992435 1.3836044
000180 23 5f aa 3f 8e cd aa 3f 0d b4 b2 3f ec c0 b2 3f
       1.3310283 1.334398 1.3961197 1.3965125
000190 6d ed ae 3f 36 da b1 3f bf 88 b2 3f 17 d9 ad 3f
       1.3666207 1.3894718 1.3947982 1.3581876
0001a0 08 60 ad 3f 88 2d af 3f dc ad bf 3f cb c3 b1 3f
       1.3544931 1.368577 1.4974933 1.3887876
0001b0 c4 c3 b2 3f d4 4f ac 3f fd fe b8 3f a9 cb a1 3f
       1.3965993 1.3461862 1.4452816 1.2640277
0001c0 ca 3c bf 3f 7d 63 a8 3f ed 26 be 3f bb 41 9d 3f
       1.4940426 1.3155361 1.4855629 1.2285684
0001d0 a4 62 c0 3f 86 68 bc 3f 30 7d b7 3f 4a a7 b1 3f
       1.5030103 1.4719398 1.4335079 1.3879178
0001e0 dd 37 af 3f 7a 39 c2 3f fd e1 b1 3f ea d7 ac 3f
       1.3688923 1.517379 1.3897091 1.3503392
0001f0 9e 2a af 3f bb b0 b9 3f 6c 02 b7 3f 9c 4f b4 3f
       1.3684881 1.4507059 1.4297614 1.4086795
000200 ce ca b0 3f 9a ca af 3f 1c 08 b3 3f 4f 6a b7 3f
       1.3811891 1.3733704 1.398685 1.4329318
000210 58 ac a6 3f 93 00 b8 3f a3 c1 b6 3f e7 67 b4 3f
       1.3021345 1.4375175 1.4277843 1.4094208
000220 b5 ea b1 3f e6 23 a4 3f 36 f0 b2 3f 0e f9 b3 3f
       1.3899752 1.2823455 1.3979557 1.406038
000230 39 3d b0 3f 31 85 b2 3f 38 4c b2 3f 37 76 bd 3f
       1.3768684 1.3946897 1.392951 1.4801701
000240 94 10 ae 3f 69 37 b8 3f 37 c0 9e 3f a3 fa a6 3f
       1.3598809 1.439191 1.2402409 1.3045238
000250 3d 6b b3 3f 2a ed ab 3f 18 d0 b9 3f 21 9f c5 3f
       1.4017102 1.3431752 1.451663 1.5439187
000260 53 97 a6 3f 28 6f a3 3f 75 f6 b0 3f 2f b2 b4 3f
       1.301493 1.2768297 1.3825213 1.4116877
000270 1d f5 b9 3f ca 2e b4 3f 21 28 b5 3f d4 ad ab 3f
       1.4527928 1.4076779 1.4152871 1.3412423
000280 33 43 c2 3f ae 07 b0 3f b8 8a a6 3f de 97 bd 3f
       1.5176758 1.3752344 1.3011084 1.4811971
000290 cf df bf 3f 98 4e b4 3f 71 4f b7 3f a4 ed a3 3f
       1.4990176 1.4086485 1.4321119 1.2806897
0002a0 cb 14 af 3f 35 49 be 3f af 12 b6 3f 5b 63 a8 3f
       1.367822 1.4866091 1.4224452 1.3155321
0002b0 f0 1c b2 3f 1c ad bc 3f d1 81 c2 3f 03 13 aa 3f
       1.3915081 1.4740329 1.5195867 1.3287052
0002c0 93 ba c6 3f 22 0f bc 3f 34 22 b4 3f c8 ca bc 3f
       1.5525688 1.4692118 1.4072938 1.4749384
0002d0 23 5a af 3f 83 ee ba 3f a9 0c b5 3f 18 be ae 3f
       1.3699383 1.4604038 1.4144489 1.3651762
0002e0 8d 32 b5 3f f5 06 b9 3f 1b 7a b1 3f de 63 af 3f
       1.4156052 1.4455248 1.3865389 1.3702352
0002f0 74 16 ae 3f f6 36 b4 3f b1 7a b0 3f 69 d3 bc 3f
       1.3600602 1.4079273 1.3787442 1.4752017
000300 f2 6d bb 3f c2 66 bb 3f 64 de a8 3f 12 f0 a7 3f
       1.4642928 1.4640734 1.3192868 1.3120139
000310 1c 31 b9 3f 73 78 bd 3f 79 02 c3 3f 36 63 b1 3f
       1.4468112 1.4802383 1.523513 1.3858402
000320 01 29 ac 3f 5c 11 ba 3f 27 d3 b4 3f f2 d1 b9 3f
       1.3450013 1.4536548 1.4126939 1.4517195
000330 f1 84 c5 3f 30 b1 b3 3f 7b f6 ad 3f cc 82 b4 3f
       1.5431195 1.4038448 1.3590845 1.4102416
000340 27 06 c3 3f 87 67 aa 3f 40 2f bb 3f da be 9f 3f
       1.5236253 1.3312844 1.4623795 1.2480118
000350 77 e9 b4 3f 68 19 b4 3f 32 92 bb 3f 22 61 b9 3f
       1.4133748 1.4070253 1.465399 1.4482768
000360 9a ab b7 3f 1b 31 bb 3f 08 da a8 3f cd dd ad 3f
       1.4349244 1.4624361 1.3191538 1.3583313
000370 aa e5 b4 3f af 76 ae 3f 18 ea a4 3f 4d a7 b5 3f
       1.4132588 1.3629969 1.288394 1.4191681
000380 9a cd b1 3f 79 ec a7 3f e6 29 b2 3f 97 7a af 3f
       1.389087 1.3119041 1.3919036 1.3709286
000390 55 7d bb 3f 47 9a b1 3f d9 c9 af 3f 08 56 b8 3f
       1.4647623 1.3875207 1.3733474 1.4401255
0003a0 ef 83 b6 3f 1a 0b a9 3f 7d 28 9d 3f 01 71 a6 3f
       1.4259013 1.3206513 1.2277981 1.3003236
0003b0 28 82 aa 3f 87 50 af 3f 09 bb b1 3f c1 44 ac 3f
       1.332097 1.369645 1.3885204 1.3458482
0003c0 3d 03 bd 3f e6 0d b8 3f 1c 59 9f 3f 44 4e b2 3f
       1.4766613 1.4379241 1.2449069 1.3930135
0003d0 52 24 b5 3f f1 57 b5 3f 2b 1f c1 3f de 7a 9f 3f
       1.4151709 1.4167463 1.5087637 1.2459371
0003e0 27 90 af 3f 40 b3 b6 3f f2 85 aa 3f 8f 0c ae 3f
       1.3715867 1.4273453 1.3322127 1.3597583
0003f0 7b e5 ae 3f 95 3f ad 3f 90 c0 b6 3f b2 8f ae 3f
       1.3663782 1.3535029 1.4277515 1.3637602

batch_norm00.bias f4 [256]
000000 c0 cb 38 3d 33 fd 29 bd 7b f4 46 3d 97 47 82 be
       0.045116186 -0.041501235 0.048573 -0.25445244
000010 f0 41 12 3e 94 ab 18 bd 5a 92 9d bd cf f6 29 be
       0.14282966 -0.037273005 -0.0769393 -0.16598056
000020 52 32 49 3d 99 48 16 bb a7 5a b7 3d 47 90 91 3c
       0.049120255 -0.0022931455 0.089528374 0.017768992
000030 3d 9a 3e be a8 53 7d bc 0d 45 ef bd 2d a4 b4 bb
       -0.18613525 -0.01546184 -0.11683092 -0.0055127353
000040 8d 17 56 be 05 8d 5b 3d 07 70 9b bc e3 0d 36 bd
       -0.20907421 0.053601284 -0.018974317 -0.044446837
000050 04 d1 19 be d4 39 e3 bd b0 84 20 be 1b 4e 79 3e
       -0.1502114 -0.11095014 -0.15675616 0.24346201
000060 21 c9 29 3d e6 aa 84 bd b1 7c 0e 3e a5 b8 04 be
       0.041451577 -0.06477909 0.13914753 -0.12961061
000070 5d 7c 82 bd af 46 d2 bc 27 b3 0d 3e ed db 04 3e
       -0.06371377 -0.02566847 0.13837872 0.1297452
000080 f1 b5 27 3e 6c dd 05 be 18 83 24 be eb 28 18 be
       0.16377999 -0.13072747 -0.16065633 -0.14859359
000090 fc 63 24 3e 44 8c 13 be eb b8 5d be 26 46 1a be
       0.16053766 -0.14408976 -0.21652572 -0.15065822
0000a0 89 8d 30 3e 30 d3 08 be c1 85 d5 bd 16 02 3e be
       0.17241491 -0.13361812 -0.10425902 -0.18555483
0000b0 6e 2e 80 bd df e9 e3 bd 21 58 6c 3e 34 ba 7b be
       -0.06258856 -0.11128592 0.23080494 -0.2458275
0000c0 5a db 86 3d be 07 57 3c 90 27 d0 3d 14 26 06 be
       0.06584807 0.0131244045 0.10163796 -0.13100463
0000d0 34 3f 3a bd a2 52 e4 bc 99 88 fb 3d 11 dd e3 3d
       -0.04547043 -0.027871434 0.12281913 0.111261494
0000e0 04 7b 0d 3e 4c 07 43 bd 4c c9 12 be d7 7b a6 3d
       0.13816458 -0.04761438 -0.14334601 0.08129089
0000f0 4e d0 88 3d 16 0e 67 bc d5 15 51 be 16 5d 2e 3e
       0.06680356 -0.014102479 -0.20418485 0.17027697
000100 f3 81 f0 3d a7 21 9b 3d 5a 52 3b be 0b 99 87 3c
       0.11743536 0.07574778 -0.18293133 0.016552469
000110 2b 91 1a bd 54 d4 af 3d 6c 73 7b 3e b7 a3 2f 3e
       -0.0377361 0.0858542 0.24555749 0.17152296
000120 38 de 05 be ba 2e 65 bd 5b 67 44 be 64 fe 68 3d
       -0.13073051 -0.055952765 -0.19180052 0.05688323
000130 aa 28 46 be 18 e3 a9 3d 92 67 90 bd 5e 7a f5 3d
       -0.1935145 0.08295268 -0.070510045 0.1198623
000140 1e 7d e1 3d f9 8f 2c 3d a4 68 53 bc d2 2f ac 3d
       0.11010192 0.04212949 -0.012903366 0.084075585
000150 03 bc a9 3a e4 74 4a be d7 1b 00 3d 1b 37 aa 3c
       0.0012949709 -0.19771153 0.03127655 0.02077823
000160 cb 9e e2 bd 64 88 9e bd 76 50 db bc ec a3 88 bd
       -0.110654436 -0.07740858 -0.026771765 -0.066718906
000170 87 a7 99 3b 02 95 af bd 2a 8e e0 3d b1 27 6f be
       0.0046891603 -0.08573343 0.10964616 -0.23354985
000180 d8 ef 5f 3e 14 c0 43 be a2 ab 16 3e 71 35 94 3d
       0.21868837 -0.1911624 0.1471391 0.07236756
000190 0c f2 00 3e c1 40 1d bd 9d 62 c0 be c9 5e 9e be
       0.12592334 -0.038391832 -0.37575236 -0.3093169
0001a0 68 1d f3 bd 18 33 2b 3d d5 82 3d bb 4b 26 8f be
       -0.11870843 0.041796774 -0.0028917093 -0.27958903
0001b0 2d d2 34 bd bb a8 c2 3d 3e 64 8c be b4 01 24 be
       -0.04414575 0.09504839 -0.2742023 -0.16016275
0001c0 02 9b 67 3d 83 a1 60 bd c9 05 ab be de 12 ba be
       0.05654431 -0.05484153 -0.3340285 -0.3634252
0001d0 48 85 3e be 0a a3 cd bd 38 22 4d 3d 77 8e 88 bd
       -0.1860553 -0.10040863 0.05008146 -0.06667798
0001e0 58 dd cb 3d 6b 19 26 bd 66 e2 91 bc 23 86 2b bd
       0.09954327 -0.040551584 -0.01780815 -0.04187597
0001f0 86 b5 a7 bd ac 9f 52 3e d5 92 62 3c 6d 5f 47 be
       -0.0818892 0.20568722 0.013828953 -0.19469996
000200 77 39 9c 3d c0 49 89 3d 78 71 71 be ab 5e 07 3e
       0.07628148 0.0670352 -0.23578441 0.13219707
000210 0e d5 e9 bd 16 4d 36 3e 2b 92 81 3d d9 36 57 b8
       -0.1141759 0.17802843 0.063267075 -5.1311075e-05
000220 40 cb c6 bd 9c c0 27 3e 3c f9 c0 bd 40 db 21 3c
       -0.097067356 0.16382068 -0.09422538 0.009878933
000230 bc d7 6c be f4 69 8d 3e 3e 9b 35 3e d9 63 73 bc
       -0.23129171 0.27619898 0.17735001 -0.0148553485
000240 00 81 01 3d 22 34 37 bd ed 6e 81 bc a1 f5 8b 3e
       0.031617165 -0.044727452 -0.015799964 0.27335837
000250 2e 5c 31 bc 32 cf a3 3c 10 8e 25 bc 0a 7a 16 3d
       -0.0108252 0.01999626 -0.010104671 0.03673748
000260 ff b7 a4 3d dc 3a 75 be 9d 2f 55 bb 15 f2 c3 bd
       0.08042907 -0.23948234 -0.00325296 -0.09567658
000270 ed 51 62 be 3d ab 77 3e 84 ce 6f 3d 7e fc 8f 3d
       -0.22101565 0.24186416 0.058546558 0.07030581
000280 6c e8 c5 3d 93 7d 93 3c 21 9d 8e be 22 7e 23 bd
       0.096634716 0.018004214 -0.27854255 -0.03991521
000290 51 1b a3 be f0 15 06 be 68 58 c4 be 31 b4 b6 bc
       -0.31856778 -0.13094306 -0.383487 -0.022302719
0002a0 f1 a0 ad be a3 e0 b3 bd b3 04 66 be 22 a8 04 3e
       -0.3391185 -0.087830804 -0.2246273 0.12954763
0002b0 cf a7 ee 3d 15 eb c9 be 11 c7 7b be 71 4b 4b be
       0.11653101 -0.39437166 -0.24587657 -0.19852997
0002c0 27 4a 5e be 86 b0 26 3d 8e 26 10 be bd 8a 0c be
       -0.21707974 0.04069569 -0.14077207 -0.137248
0002d0 78 da 87 3d 90 d1 4d 3c ed 82 e6 be 41 9a 84 be
       0.066334665 0.012562171 -0.45021763 -0.25898936
0002e0 fe 44 21 bb 86 d0 4e 3d 9a b7 d3 bd c0 33 6d bd
       -0.0024607773 0.050491832 -0.103377536 -0.05791068
0002f0 b1 92 65 3e e8 d2 99 bd 1b 7a ed 3a 6f 62 4c 3d
       0.2241924 -0.0751093 0.0018118055 0.04989856
000300 6b 5e 53 bd e2 b1 b6 bd 7b 85 ef be 3f 18 a0 3d
       -0.051603716 -0.08920647 -0.46781525 0.078171246
000310 d8 45 f4 bd 0b 9a ce bd bb df e2 bd f2 80 57 be
       -0.11927384 -0.10087975 -0.110778295 -0.21045282
000320 a6 a0 f6 bd 42 28 0f be 66 e0 ef bd ed 16 8b bd
       -0.1204236 -0.13980201 -0.117127225 -0.06791482
000330 23 b9 a6 bd fe 84 5c be a4 d2 14 be d6 3b cd bd
       -0.08140781 -0.21535107 -0.14533478 -0.100211784
000340 f7 e3 81 bc 8d 33 b0 3d 78 63 ff bc ca 97 f1 bd
       -0.015855772 0.086035825 -0.03117536 -0.117965296
000350 74 05 54 be 93 cf 1e 3d 8d 73 68 bd 56 f5 cf 3d
       -0.20705205 0.038772177 -0.056750823 0.10154216
000360 27 6b 15 be 75 5d d8 bd 9f f4 1c be 0f 6f cb bc
       -0.14591657 -0.105647005 -0.1532769 -0.02483323
000370 99 b6 32 bc 4f 3d 08 be 08 db fd bc 08 ef 42 3e
       -0.0109077925 -0.13304637 -0.030988231 0.19036496
000380 51 14 30 be 76 ca 13 3e de 60 70 be 70 15 c2 bd
       -0.1719525 0.14432701 -0.23474452 -0.09476745
000390 7e 35 90 bd d2 54 31 be e2 0d ee bc 6f a6 50 bd
       -0.07041453 -0.17317513 -0.029059354 -0.050939973
0003a0 1f f7 c3 3e 87 c9 f4 bd ca 81 be 3d 2c 43 21 be
       0.38274476 -0.11952501 0.09302099 -0.1574828
0003b0 92 32 9c 3e 20 65 24 3e 4b 23 4d be 08 15 ff 3c
       0.30507332 0.16054201 -0.20032994 0.031137958
0003c0 3f 13 cd 3a a2 c7 94 3b 69 c7 4d be 87 8b 27 3d
       0.0015645995 0.0045403996 -0.200956 0.040904548
0003d0 4e fc 43 be c4 5f 0e 3e bc 9f 60 3e 84 4b 96 be
       -0.19139215 0.13903719 0.21935934 -0.2935449
0003e0 6d ae 00 3e 98 0a 1f be 40 e8 07 be 82 48 27 3e
       0.12566538 -0.15531385 -0.1327219 0.16336253
0003f0 f3 04 9e 3d c7 7e 6e bd b5 44 58 3e 60 57 ec bc
       0.07715788 -0.058226373 0.2111996 -0.028850257

batch_norm00.running_mean f4 [256]
000000 b5 a3 0c 3d f2 93 8b 3d d8 19 38 3d 14 42 cc 3c
       0.03433581 0.06815328 0.04494652 0.024933852
000010 7f ba 57 3d 28 d2 51 bc 1d 15 6e 3d 26 0a 27 3d
       0.05266809 -0.012806453 0.058125604 0.040781163
000020 90 a8 ed 3c c3 13 76 3d cb b8 2a 3d 8e fd 56 3d
       0.02901104 0.06007744 0.04168014 0.052487902
000030 bf f1 56 3d 93 3c 26 3d 30 43 57 3c 19 3b 72 3d
       0.05247664 0.04058511 0.013138577 0.05913839
000040 33 be aa 3d ff 84 ff bc 63 b4 38 3d 60 76 02 3e
       0.08337059 -0.031191347 0.045093905 0.12740469
000050 87 4d 04 3d 4f 93 0a 3d b7 84 b8 3c ab 48 02 3d
       0.0323005 0.03383189 0.02252422 0.031807583
000060 7e 55 2f 3c af c4 ce bb 94 98 09 3c 31 98 80 bb
       0.010701535 -0.0063100676 0.008398194 -0.0039243926
000070 9c 17 36 3c e3 27 a9 3c 72 10 9f 3d 01 6b 7c 3c
       0.011114027 0.020648902 0.077668086 0.015406371
000080 2f 5d bf 3c e4 e1 80 3d e8 be 11 3d 96 19 27 3d
       0.023359863 0.06293085 0.035582453 0.040795885
000090 8e f0 26 3d df 39 a2 ba 02 49 26 3d 1f 33 e2 3c
       0.040756755 -0.0012376866 0.04059697 0.027612267
0000a0 32 d0 03 3d 79 e3 88 3c 2e df e2 3c 0d 6a 3e 3c
       0.032180972 0.01671003 0.027694311 0.011621964
0000b0 f7 95 08 bc 5d be 22 3b b6 0d 51 3c 1c f3 25 3d
       -0.008336536 0.0024832704 0.012759617 0.04051505
0000c0 53 ce 79 3c 6b 9b b3 3d fd 18 b5 3d 88 f8 29 3b
       0.015246945 0.08769878 0.08842657 0.002593549
0000d0 35 e3 3f 3d 36 87 91 3c 9a 61 91 3d de 27 db ba
       0.04684754 0.017764669 0.07098694 -0.0016720255
0000e0 5d c4 20 3d 78 24 d6 3c d8 b0 2e bc 02 ab 94 3d
       0.039249767 0.026140437 -0.01066228 0.0725918
0000f0 a3 35 28 3d d5 39 c0 3c 30 cf 68 3d 02 ee 09 3c
       0.041066777 0.023465076 0.056838214 0.008418562
000100 53 29 fa 3c f7 31 97 3d a3 79 de 3d 3a aa 72 3d
       0.030537283 0.07382577 0.10863044 0.059244372
000110 af 23 86 3d e1 4d 0a 3d f0 37 40 3d 31 ed 67 3d
       0.06549775 0.033765677 0.046928346 0.056622688
000120 45 6c d1 3d 92 80 d0 3c 3d 59 17 3d 70 fe c8 3c
       0.10225729 0.025451932 0.03695034 0.024535388
000130 f8 42 84 3d 98 4a fd 3b 8c d9 bb 3c f7 eb 48 3d
       0.06458086 0.0077298395 0.022930883 0.04905316
000140 fa 9f 3f 3d 8d e3 07 3d a0 c6 8c 3d 11 e6 4b 3d
       0.046783425 0.033175994 0.06873822 0.049779955
000150 f5 1e df 3c e5 c6 b9 3c 3b 88 dd 3c e4 bd 44 3d
       0.027236441 0.022677848 0.027042499 0.048032656
000160 d2 7c 6a 3c e1 35 36 3d 9b 05 b2 3d 37 6b 02 3d
       0.014311986 0.044484977 0.086924754 0.03184053
000170 fa 2a 9b 3c ea ef 92 3d d8 56 19 3d 0f 72 8f 3c
       0.018941391 0.07174666 0.037436336 0.017510442
000180 cf 35 c4 3c db 4d 80 3c b4 ae 41 3c c0 27 1e 3d
       0.02395144 0.015662124 0.011821438 0.038612127
000190 97 c7 48 3d 05 25 09 3d db 38 34 3d 60 3b 8e 3d
       0.04901847 0.03348257 0.043999534 0.06944919
0001a0 09 74 37 3c 5d fe 49 3d b0 ed 06 3d b8 26 4f 3c
       0.0111970985 0.049314845 0.03294152 0.012643509
0001b0 81 14 57 3d d9 7c 99 3d 0b b9 4f 3d 68 4d a5 bb
       0.05250979 0.07494516 0.05071358 -0.005044628
0001c0 db 83 2b 3e 80 e6 0f 3d c9 ea 4e 3d 5f 20 85 bc
       0.16749518 0.03513193 0.050516877 -0.016250787
0001d0 e5 1e c7 3d a8 c3 fa 3c b7 2d 16 3d c4 ee 9e bc
       0.097226895 0.030610874 0.03666469 -0.019400962
0001e0 c2 54 3d 3d 9b a3 a8 3c c0 dc 3d 3d 60 3c 5c 3d
       0.04622341 0.020585826 0.0463531 0.053768516
0001f0 0f d6 47 3d a3 05 4f 3d 2b 42 04 bc 1c c5 2b 3d
       0.048788127 0.050542485 -0.008072416 0.041936025
000200 af 87 c2 3c c0 43 40 bc 64 28 3b bb 6e 86 b1 38
       0.02374634 -0.011734903 -0.002855801 8.465057e-05
000210 bf 1e bb 3d 1c 6c 79 3d 8e ed ab 3d 9e 23 c8 3b
       0.09136724 0.060894117 0.08394919 0.0061077615
000220 08 a8 5d 3d ad 3b 5f b9 c2 9e 87 3c 88 cc 26 bc
       0.054115325 -0.00021289168 0.016555194 -0.0101806
000230 9f ac cc 3d df 51 61 bb ac 54 22 3d b4 c2 68 3d
       0.09993862 -0.0034381074 0.03963153 0.05682631
000240 79 97 cc 3b 2d 52 f2 3c 3f 36 9d 3c 3b de 09 3d
       0.006243643 0.0295802 0.019190906 0.0336592
000250 89 dd b5 3c 2d 2f c4 3d 55 eb f2 3c ac 3f 06 3d
       0.022200363 0.095793106 0.02965323 0.032775566
000260 49 56 7c 3c 6f 3f 8a 3c d5 ca 00 3d cb 90 05 3d
       0.015401431 0.01687595 0.031443436 0.03260879
000270 77 dc 31 3d a0 dc 23 3d b2 24 ec 3c 20 a7 80 3d
       0.043423142 0.040005326 0.028826091 0.062818766
000280 8d a9 a5 3d f9 59 9f 3c b8 93 21 bb 32 08 91 3d
       0.0808898 0.019452082 -0.0024654698 0.07081641
000290 b4 92 28 3d af 36 cf bb 74 68 3d 3d a6 f2 03 3d
       0.041155532 -0.0063236575 0.046242192 0.03221383
0002a0 82 85 a3 bc 4a 5d f6 3d 2c 8b 4c 3d db 92 bb 3c
       -0.019961122 0.12029512 0.049937412 0.022897175
0002b0 79 29 5f bc d1 d0 e6 3c 44 85 84 3d 30 49 d7 3b
       -0.013620728 0.028175743 0.06470731 0.006570004
0002c0 f3 0d a3 bb e5 f0 27 3d 8a e8 92 3d 8f c2 d5 3c
       -0.004976028 0.04100122 0.071732596 0.02609375
0002d0 18 a4 14 3d 8b aa d7 3c e8 d5 8f 3c ae 80 94 3d
       0.036289304 0.026326438 0.017558053 0.07251106
0002e0 d2 b9 7a 3d 4c 12 ba 3d 3b 30 1a 3d aa 91 8f 3d
       0.06121237 0.09085521 0.037643652 0.07010205
0002f0 18 c9 95 3d 5e de 4f 3d 7c f3 69 3a 08 9e 6b 3d
       0.07313746 0.050749175 0.00089245266 0.057523757
000300 10 3a 41 3d b1 30 e4 3c 16 0e 91 3d 53 36 09 3c
       0.047174513 0.02785525 0.07082765 0.008374768
000310 27 eb db 3c 7b a3 94 bc 09 3b 3c 3c 5f dd 69 3d
       0.026845528 -0.01814436 0.011488684 0.05709588
000320 44 3a 19 3d d5 ea 38 3d 48 8f 0c 3d 20 05 1b 3d
       0.037409082 0.04514583 0.03431633 0.037846684
000330 d3 dc 46 3d 2d 4b 49 3d 3a 6a 88 3c 51 30 b2 3c
       0.048550438 0.04914396 0.016652215 0.021751555
000340 5c 0e 43 3d 94 b1 06 3d 58 70 ab 3c 54 56 81 3c
       0.047621116 0.032884195 0.020927593 0.015788235
000350 a0 63 02 3d 57 a3 13 3d b1 6e 3d 3d e6 5d 37 3d
       0.03183329 0.036044445 0.04624814 0.044767283
000360 fb eb 15 3d 35 ee 42 3d 4a 55 3b 3c 3c 86 93 bb
       0.036602 0.047590453 0.011433909 -0.004502086
000370 37 4c 6e 3d ea ce bc 3d ad 00 ea bb 56 7f 90 3d
       0.058178153 0.09219153 -0.007141194 0.070555374
000380 96 81 14 3d 16 89 94 3c ab 2c 65 3d 9e 9a a9 3c
       0.036256395 0.018131774 0.0559508 0.02070361
000390 69 c1 67 3c bf 62 93 3b 39 0c e5 bc 13 6a b7 3b
       0.014145234 0.0044978554 -0.02795993 0.005597362
0003a0 1b b3 51 3d f6 d3 db 3b eb 88 02 bd 06 4c 1f 3d
       0.0511962 0.0067086173 -0.031868856 0.03889086
0003b0 fc b0 d7 3c 85 27 93 3d 7a f4 22 3d 59 6c 32 3d
       0.02632951 0.07185272 0.039783932 0.04356036
0003c0 97 2e 87 3d 17 c0 f5 3c 3f e9 75 3b b1 88 12 3b
       0.06600683 0.029998822 0.0037523059 0.0022359306
0003d0 8f 5e 52 3b 1c b3 5a 3d 77 4f aa 3d 7b e0 10 3c
       0.0032099818 0.05339347 0.08315938 0.008842583
0003e0 d1 18 a3 3c 74 88 ef 3c 2f 6e 5b 3d 3d d9 81 3d
       0.019909294 0.02923987 0.053571876 0.06340263
0003f0 18 44 f3 3c 7a da 6d 3d 5c 10 22 3b 98 ec 81 3b
       0.029695556 0.058069684 0.002472899 0.0039649718

batch_norm00.running_var f4 [256]
000000 4b bb 03 3d 48 1d 7c 3d 42 c2 49 3d 1d 73 d6 3c
       0.03216104 0.061551362 0.049257524 0.026177937
000010 55 04 55 3d 9c 50 62 3c 6e 91 61 3d 0e e5 20 3d
       0.052006084 0.013813164 0.055070333 0.039280944
000020 bb d1 1c 3d 65 5c 72 3d b2 1a 18 3d 24 9a 4e 3d
       0.038285952 0.059170146 0.037134834 0.05043997
000030 cb ee 3e 3d 4f 00 5a 3d 90 1a a8 3c 5b 97 65 3d
       0.04661445 0.05322295 0.020520478 0.056052547
000040 52 5d 95 3d ce ec e0 3b 77 f6 25 3d ec 6a bd 3d
       0.0729319 0.006864167 0.04051825 0.09248909
000050 20 45 48 3d a0 b2 02 3d 57 89 f4 3c 80 00 e4 3c
       0.048894048 0.03190863 0.029850645 0.02783227
000060 62 7a 8d 3c 18 fd 29 3c ca 3f 78 3c 55 f8 41 3c
       0.01727027 0.010375284 0.015151927 0.011838992
000070 fb 8d 94 3c 2f f9 e4 3c 48 4f 72 3d 8f 5e 8e 3c
       0.018134108 0.027950851 0.05915764 0.017379073
000080 ce 7f ce 3c 6a 65 56 3d ca 2f f7 3c 31 53 12 3d
       0.025207426 0.05234281 0.030174155 0.03572387
000090 a5 a7 1d 3d 35 78 2f 3c 00 ee 07 3d 80 8b f0 3c
       0.038489956 0.010709812 0.03318596 0.029363394
0000a0 47 f4 f4 3c ba 51 b4 3c f3 ee f4 3c 4a 8b b0 3c
       0.029901637 0.022011627 0.029899096 0.021550793
0000b0 df e1 71 3c a1 0c 8a 3c 02 a0 9f 3c 0f b1 21 3d
       0.0147633245 0.016851725 0.019485477 0.039475497
0000c0 e2 65 a8 3c 66 94 89 3d ff 39 91 3d c6 b1 79 3c
       0.020556394 0.06717758 0.0709114 0.015240138
0000d0 42 52 5a 3d 63 33 bf 3c db d2 7d 3d 47 91 28 3c
       0.053301103 0.023339933 0.061968666 0.010288543
0000e0 36 37 ee 3c b6 16 da 3c 1d 7e 4d 3c 00 38 60 3d
       0.029079061 0.026622158 0.012542275 0.054740906
0000f0 4b 0e 24 3d da 28 c9 3c 1d 19 39 3d 0f 45 92 3c
       0.040052693 0.024555612 0.045189966 0.017855195
000100 98 24 0c 3d 3e f1 90 3d 5b b1 e0 3d ce 1e 74 3d
       0.034214586 0.07077263 0.10971328 0.05959969
000110 7a 9c 65 3d f8 67 0d 3d 56 cc 11 3d 4b 57 50 3d
       0.05605743 0.03452298 0.03559526 0.0508645
000120 69 0d a3 3d 8b 40 cc 3c 94 5a 24 3d fc 5f d0 3c
       0.07961542 0.02493312 0.040125445 0.025436394
000130 83 4e 75 3d 36 59 a5 3c c7 08 a1 3c 6c 10 42 3d
       0.059889328 0.02018414 0.019657506 0.047378942
000140 7f 1c 1d 3d 5d 71 2c 3d 9c 2e 8c 3d 55 10 27 3d
       0.038357254 0.0421003 0.068448275 0.04078706
000150 e8 23 0b 3d 4a d4 dd 3c bb b7 ff 3c 74 ff 27 3d
       0.03396979 0.027078766 0.03121554 0.041015103
000160 d3 45 ee 3c b0 76 2d 3d 30 f2 a8 3d 84 06 fe 3c
       0.02908603 0.042349517 0.082493186 0.031008966
000170 ec 91 c8 3c ab 8c 80 3d b0 47 0e 3d b9 9b ca 3c
       0.024483643 0.0627683 0.034736335 0.024732457
000180 d6 2b ae 3c 2a 9a ab 3c ac 51 a1 3c 75 73 27 3d
       0.021261137 0.020947535 0.019692264 0.040881593
000190 e1 cb 40 3d d9 0a 29 3d 3d e7 36 3d 68 07 78 3d
       0.047069434 0.04127011 0.04465412 0.06055394
0001a0 81 e3 ba 3c f3 4c 1f 3d 6e d1 06 3d 34 18 a8 3c
       0.02281356 0.038891744 0.03291457 0.020519353
0001b0 88 ff 46 3d 8c 66 75 3d 5a 8f 3a 3d 2d c3 86 3c
       0.048583537 0.05991225 0.045546867 0.016450489
0001c0 df 2a 21 3e ba d1 2c 3d dc 9b 37 3d ee 51 1c 3c
       0.1573901 0.0421922 0.044826373 0.009541018
0001d0 0f f8 b0 3d 57 a3 1b 3d 7a e5 11 3d ca c1 13 3c
       0.086410634 0.03799757 0.035619237 0.009018371
0001e0 b6 5c 22 3d ae 3e ef 3c 4a 9b 50 3d 08 62 36 3d
       0.039639197 0.029204693 0.050929345 0.044527084
0001f0 25 c6 24 3d 0f 10 30 3d 46 af 4b 3c f5 e5 29 3d
       0.040228028 0.042984065 0.012431925 0.04147907
000200 98 7f ef 3c 88 b9 1b 3c d0 cd 3d 3c 53 9a 46 3c
       0.029235646 0.009504683 0.011584714 0.012121755
000210 33 5f a7 3d 24 b1 6b 3d 8f 25 92 3d 77 43 9d 3c
       0.08172455 0.05754198 0.0713607 0.019197209
000220 1e 19 47 3d c3 de 35 3c 57 71 b6 3c bf 2f 09 3c
       0.048607938 0.011100474 0.022270842 0.0083732
000230 89 54 af 3d 7a d5 72 3c 36 1f 0c 3d 19 d6 74 3d
       0.08561046 0.014821405 0.034209453 0.059774492
000240 64 e8 73 3c fb 6e 10 3d dc 0e c5 3c 03 85 bf 3c
       0.014886949 0.03526209 0.024054937 0.023378855
000250 37 ec eb 3c d0 1b ba 3d 5c b3 fc 3c f5 36 18 3d
       0.02879916 0.09087336 0.030847244 0.037161786
000260 49 de ab 3c 55 c6 b0 3c 20 07 bd 3c 16 13 25 3d
       0.020980017 0.021578947 0.023074687 0.040301405
000270 4c db 30 3d bc c8 1c 3d 3d 67 24 3d 6c bb 4c 3d
       0.043177888 0.038277373 0.04013752 0.049983427
000280 16 bc aa 3d 1d 84 2b 3d d3 49 72 3c fe 3c 86 3d
       0.08336656 0.04187404 0.014788109 0.06554602
000290 29 b5 3b 3d 19 46 24 3c 16 7f 53 3d b5 a9 da 3c
       0.045827065 0.010026478 0.05163487 0.02669225
0002a0 18 05 cb 3b 92 46 f0 3d d6 4a 2c 3d ec 47 ce 3c
       0.0061956756 0.1173221 0.042063557 0.02518078
0002b0 30 37 11 3c dc 2a 02 3d ca 5b 9e 3d 40 41 9a 3c
       0.008863255 0.031779155 0.07732351 0.018829942
0002c0 bf e7 38 3c f5 e1 12 3d 28 e9 58 3d ff e2 d7 3c
       0.011285721 0.03586002 0.05295673 0.026353357
0002d0 46 18 20 3d d1 d4 fd 3c 68 71 ab 3c 39 a0 8a 3d
       0.03908565 0.030985268 0.0209281 0.06768841
0002e0 cb 4c 77 3d d0 d9 9f 3d a9 f3 0b 3d 06 82 80 3d
       0.06037597 0.07805216 0.03416792 0.062748
0002f0 ca 48 62 3d a0 73 42 3d 1e d6 45 3c 77 27 56 3d
       0.0552452 0.04747355 0.012074975 0.05228373
000300 99 f2 34 3d 0d 7c fe 3c 7c 49 8f 3d b7 60 b1 3c
       0.04417667 0.031065011 0.06996438 0.021652563
000310 80 27 cc 3c d4 45 ee 3b 81 d2 ab 3c 4d c7 4e 3d
       0.024921179 0.0072715078 0.0209744 0.050483037
000320 3a ff 03 3d af 44 3b 3d 64 5a 25 3d 32 3a 1d 3d
       0.032225825 0.0457198 0.040369406 0.038385577
000330 24 29 90 3d 2c 78 27 3d bf 71 9c 3c 4d 67 cd 3c
       0.07039097 0.04088609 0.019097207 0.025073672
000340 e6 c5 29 3d 91 78 1a 3d 16 0b d5 3c 6e 1b 9b 3c
       0.041448496 0.037712637 0.026006263 0.018933978
000350 63 72 f5 3c 61 9e 18 3d 5b c2 3f 3d 00 24 08 3d
       0.02996177 0.037260417 0.04681621 0.033237457
000360 4b 0d e3 3c d2 87 51 3d 9b 03 a0 3c 6e 25 4b 3c
       0.0277163 0.05115492 0.01953297 0.012399061
000370 a0 fd 38 3d 53 a2 93 3d d1 6b 27 3c a2 c8 8d 3d
       0.04516375 0.07208695 0.0102185765 0.06923033
000380 3a 83 f1 3c b8 69 b1 3c 27 44 6f 3d 4b 6f f5 3c
       0.029481519 0.021656856 0.058414605 0.029960295
000390 01 22 c2 3c 0e c3 53 3c e5 8d 99 3b fe e2 87 3c
       0.023697855 0.012924923 0.0046861046 0.01658773
0003a0 74 5b 4d 3d 8a 35 ab 3c ac 35 0d 3c a2 cf 1c 3d
       0.050136045 0.020899553 0.008618753 0.03828395
0003b0 9c d6 d8 3c 14 d6 52 3d 94 37 56 3d 5f d8 29 3d
       0.026469521 0.051473692 0.052299097 0.041466113
0003c0 19 2b 5a 3d 04 86 31 3d 68 7d be 3c 2c 2c 99 3c
       0.053263757 0.043340698 0.023253158 0.01869782
0003d0 75 b8 52 3c 12 0e 37 3d 42 df a0 3d c5 bb 5c 3c
       0.012861361 0.044691153 0.07855083 0.013472502
0003e0 22 ca cf 3c d1 8d d5 3c b4 1f 47 3d 4d c9 67 3d
       0.02536494 0.0260686 0.04861422 0.05658846
0003f0 0c 7d e7 3c 41 f9 46 3d 24 39 53 3c 00 55 cb 3c
       0.02825787 0.04857755 0.012892041 0.024820805

linear01.weight f4 [128, 256]
000000 e5 de bf 3c 2d 49 87 bd a3 5b 58 bd 74 1a 17 be
       0.023421714 -0.06605754 -0.052821767 -0.14756185
000010 45 8a 8c 3e b8 da d1 3d 10 59 9e bc 46 a1 a1 bd
       0.2744924 0.102467954 -0.019329578 -0.078920886
000020 b3 36 72 be 61 ba 08 be f6 f4 1b 3e 26 00 7d 3e
       -0.23653679 -0.13352348 0.15230164 0.24707088
000030 7c 61 d2 bd 24 89 f3 3d 94 8f 0d bd a1 0e 78 be
       -0.102725 0.11891392 -0.034560755 -0.2422433
000040 d3 66 cb bc de 4d 0d be b8 e3 34 3e 23 15 f6 3d
       -0.024829304 -0.13799235 0.17664993 0.1201575
000050 c5 b6 94 3d aa a7 21 be 32 c3 8d be d8 9d 7b 3d
       0.07261423 -0.15786615 -0.27687985 0.06142983
000060 a0 20 13 be fd d9 d1 3d cf 65 8d 3d 40 29 2f be
       -0.14367914 0.10246656 0.06904184 -0.1710558
000070 91 56 6e bd 82 ad 3a 3e f9 d2 8b 3e b8 93 c6 bd
       -0.058188025 0.1823025 0.27309397 -0.09696144
000080 cd 41 d1 3a 3e c1 59 3d ea 81 50 be 0a 28 ab 3d
       0.0015965045 0.053162806 -0.20362058 0.08357246
000090 16 85 69 3c cc 94 e7 bd 6d ec 04 3e ad 9a b5 3c
       0.014252922 -0.113076776 0.12980814 0.022168482
0000a0 fe 86 ff bc 36 f4 94 bd e1 ce 61 be 9b b5 20 3e
       -0.031192299 -0.07273142 -0.22051574 0.15694277
0000b0 f1 ab ce 3d 0e 4e 77 3d 9c e1 48 be 97 de ca bd
       0.10091389 0.060377173 -0.19617313 -0.09905737
0000c0 5a dc 2d bd 6f fd c7 3d 32 a9 83 3c 76 09 05 be
       -0.04244647 0.097651355 0.01607189 -0.1299189
0000d0 33 80 7e 3e 8c 0c b7 3c 35 0e ac bd 9b 0c 08 3e
       0.24853592 0.02234485 -0.08401147 0.13286059
0000e0 cf b7 c3 bc 14 c6 3c bd 1e bb d6 bd cf bb 1a bd
       -0.023891358 -0.04608734 -0.104849085 -0.037776764
0000f0 13 fb 8f 3c 51 a2 54 be e2 ba 25 be 76 a1 5c 3d
       0.017575776 -0.20765044 -0.16184571 0.05386492
000100 87 38 a1 3d 0d 27 6e 3d 76 70 06 3e 6f 58 96 3e
       0.0787211 0.05814271 0.13128838 0.29364344
000110 6d a0 ba 3c 91 81 b0 3d fc f0 64 bd 62 2d f4 3d
       0.022781575 0.08618463 -0.055893883 0.119227186
000120 50 c4 18 3d 0f e4 ed 3d be 59 da 3b 6b 7d 17 3e
       0.037296593 0.11615764 0.00666353 0.14793937
000130 c4 23 fc 3d 3e b5 6a 3d 1a 33 7f 3d 9c ad 7b 3e
       0.12311509 0.057301752 0.062304594 0.24577945
000140 a1 1f 91 3d 72 6f 1b 3e 98 60 fe 3d 50 3d 53 be
       0.07086111 0.15179232 0.124207675 -0.20628858
000150 67 7b 60 3e b5 f6 95 3c c0 43 67 bd 2f f2 8c 3e
       0.21922074 0.018306116 -0.056461096 0.2752852
000160 69 30 c5 3c a0 68 11 3e 1e 37 c3 bd e7 d8 99 3e
       0.024070935 0.14200068 -0.09531997 0.30048296
000170 49 5e af bb 40 5d bc be 05 48 65 bd fb 0e 10 be
       -0.005351816 -0.36789894 -0.055976886 -0.14068215
000180 b9 e3 6f 3e 39 80 42 3d 21 08 0a 3e 5c c1 86 bd
       0.23426713 0.047485564 0.13479663 -0.06579849
000190 3d a4 25 3e c9 7e 19 3e fd 7d 0b be 44 ba 32 3e
       0.16175933 0.14989771 -0.1362228 0.17453867
0001a0 7c d1 6d bd 22 3c 02 bd ee 99 4b bd 93 6b 85 3d
       -0.058061108 -0.03179563 -0.049707346 0.06514659
0001b0 08 34 52 3c 68 15 f7 3d 34 c9 0b be 4b 9b c9 3d
       0.012829788 0.1206463 -0.13650972 0.09844073
0001c0 77 4c cc bd 81 e9 78 3e d7 1c 95 3d 5b c9 c6 3d
       -0.09975522 0.24307825 0.072808914 0.09706374
0001d0 86 84 4e 3d 6d c4 7f bc ef d1 85 bb 12 fa bf 3c
       0.050419353 -0.015610796 -0.004083864 0.023434673
0001e0 c4 2b 62 3d d6 a8 32 bd 21 ea a4 bc 8c d2 4c be
       0.05521752 -0.043618046 -0.020131173 -0.20002192
0001f0 59 5e 59 3e 29 71 8c be 26 e4 17 3e e5 40 d8 39
       0.21227397 -0.27430084 0.14833125 0.0004124708
000200 ad 2d 91 3d 87 99 13 3d a7 37 74 3c 72 00 c1 3d
       0.0708879 0.036035087 0.014905847 0.09423913
000210 0f 79 5f 3d 1a b9 00 be e8 c2 bc bd f3 9b 6c 3e
       0.05455881 -0.1257061 -0.09216863 0.23106365
000220 f0 ae 9e 3d d8 1e 07 3b b6 50 31 be d8 51 05 3e
       0.077482104 0.002061775 -0.17315945 0.13019502
000230 d9 ba 81 bd 1f 6c 75 3e f5 7a 68 3e 4e b8 9d bd
       -0.063344665 0.23967026 0.22703154 -0.07701169
000240 ad 60 70 be 1f e3 58 3e fc 3f e1 3b d8 cc 3f bc
       -0.23474379 0.2118039 0.0068740826 -0.011706553
000250 c7 26 0e be 7b 4b 3b 3b 53 62 c8 bd 6a 77 85 bd
       -0.1388198 0.0028578925 -0.09784379 -0.06516917
000260 c6 45 13 3d 83 dd 90 3c f2 e6 25 3e 8e 49 1d 3e
       0.035955213 0.01768375 0.1620138 0.1536009
000270 04 24 78 3d 2e f8 e9 bd d4 29 4a 3d 87 c9 49 bc
       0.060581222 -0.1142429 0.049356297 -0.012316114
000280 62 6c 85 bd de c4 60 3e c6 b0 51 be e7 01 96 bd
       -0.06514813 0.21950099 -0.2047759 -0.073245816
000290 25 cc 61 3e 88 ea a2 3d 7d 8d 27 be a2 29 6b 3d
       0.22050531 0.079548895 -0.16362567 0.05741275
0002a0 49 37 cd bc 12 ff 5b 3e 9f 0d 24 3d 84 bf 5a bd
       -0.025050776 0.2148402 0.040052053 -0.0534053
0002b0 1b bf 2d bc 91 c1 99 3e b5 82 0a be 19 30 7c bc
       -0.010604645 0.30030492 -0.13526423 -0.015392327
0002c0 55 aa 5a bd 9b e8 3a 3e 33 9f 0a bc 14 46 3d be
       -0.053385098 0.18252794 -0.008460808 -0.18483764
0002d0 92 98 ae bd 27 62 a7 3d ec d1 81 3c e6 f7 b6 3d
       -0.08525194 0.08173018 0.015847169 0.089340016
0002e0 79 1c f6 3d 5d 15 32 3e bb 18 dc 3d d6 0c 05 bc
       0.120171495 0.17390962 0.107469045 -0.008120736
0002f0 29 2c a9 3d 21 5c 06 3e 4f aa 9f be 96 fc 55 bd
       0.08260376 0.13121082 -0.31184623 -0.052242838
000300 36 5c 4a 3a fb fa b2 bd b6 15 ee 3c 87 cf 90 be
       0.0007719429 -0.08739277 0.029063087 -0.2828333
000310 15 17 ef 3b 3c f6 14 3d 28 7b 52 3d 6a 17 eb 3d
       0.0072964528 0.03636764 0.051386982 0.11479075
000320 51 4e 96 3d 9a ec 1e 3d f4 5b ab bd 35 15 16 3e
       0.073391564 0.03879986 -0.08367148 0.14656527
000330 11 9a 6b 39 b2 d0 28 3d 3b 8f e9 3d be f4 0d be
       0.0002246874 0.041214652 0.11404272 -0.13862893
000340 42 26 15 be e4 66 44 3e 7d 2d 3f 3c ae 01 76 bd
       -0.14565375 0.19179875 0.01166856 -0.060060196
000350 30 73 d1 bd ce b5 9e bd 94 8d 6b 3e c9 33 99 bd
       -0.102270484 -0.0774952 0.23003227 -0.0748058
000360 1a 51 53 be ce 98 18 bd 8a e3 99 bd 9f 54 c5 bd
       -0.20636407 -0.0372551 -0.07514103 -0.09635281
000370 15 b8 03 3b 4a 8d 6e 3d 12 c7 90 3d 88 c2 87 3e
       0.0020098735 0.058240213 0.0706922 0.26515603
000380 2e ef 09 be 32 e6 5e 3d 1e c0 84 3d 90 7a c5 3d
       -0.13470146 0.05441875 0.06481956 0.096425176
000390 f1 ca e2 bd e3 03 1e be b0 2a e9 bd 3f cf 6f 3b
       -0.11073864 -0.1543117 -0.11385095 0.0036592034
0003a0 31 43 1a be 1b d0 31 bd 74 46 9e 3d dc b1 05 bd
       -0.15064694 -0.043411355 0.077282816 -0.032640323
0003b0 b5 e8 f2 bd 7f 4c 03 3d 5b 45 87 bd 42 d3 86 3e
       -0.118607916 0.032055374 -0.066050254 0.26333052
0003c0 9e b4 17 be 66 bb 92 3e dc 42 08 bd ca be 71 3e
       -0.14814994 0.286586 -0.033266887 0.23607937
0003d0 98 c9 93 bd 2c e5 81 3e 2a 84 0c 3d b6 eb bb bd
       -0.07216185 0.25370157 0.03430573 -0.09175818
0003e0 a3 39 0e 3d 3b 9b cd 3d ad ab 99 3e 38 c1 05 3e
       0.034722935 0.100393735 0.3001379 0.13061988
0003f0 f7 14 16 be df 41 0b be 4d 32 94 3e 15 20 20 3e
       -0.14656435 -0.13599347 0.28944626 0.15637238
