weights/2. triplet loss model - marks/2. trained old/conv2Dfeatures.pt (torch, 37007 bytes, 7 tensors)

conv00.bias f4 [4]
000000 12 b3 28 bc 47 2e 0c 3e 0c 1f e1 bc 23 50 a5 bb
       -0.0102966 0.13689528 -0.027480625 -0.0050449534

conv01.weight f4 [16, 4, 5, 5]
000000 99 d3 5d 3d 8e 9d 32 bd 11 7f d2 3c 5c 71 a7 ba
       0.054156873 -0.043607287 0.025695356 -0.0012774873
000010 1f 3f e7 3c 18 7c 03 3d a3 3b 24 3d 5f d8 64 bd
       0.02822834 0.032100767 0.040095937 -0.05587041
000020 58 bb 9d bb 30 dd 74 bb 93 65 8d bc 2e 44 9d 3d
       -0.004813593 -0.0037363283 -0.017260348 0.0767902
000030 3d 04 61 bd 3b 8f 58 bc 52 5b ff 3c 0c a3 1a bd
       -0.054935683 -0.013217743 0.031171475 -0.03775315
000040 fd 41 d2 3b d3 36 08 bd 9d dd ac bd e3 6b f4 3c
       0.006416558 -0.03325541 -0.08440707 0.0298366
000050 3e 1b a0 bd 17 a7 8d bd 3b 91 51 bd 81 62 f2 bb
       -0.07817696 -0.069166355 -0.051163893 -0.0073969965
000060 94 0a 4b bd f7 05 ab bd 41 a7 fe 3e fb 1f 68 3e
       -0.049570635 -0.08350747 0.4973698 0.2266845
000070 5f a2 45 3f eb 40 e6 3e a1 5a ae be 1d ca 3a 3d
       0.77200884 0.44971403 -0.3405352 0.045602906
000080 e9 cf 85 3d e9 fb f0 3e b3 ac 27 bd ce e9 15 bf
       0.06533796 0.47067192 -0.040936183 -0.5855988
000090 a4 8e 7d bf 04 0b 5d bf 08 ae 2c bf 66 84 9a bf
       -0.9904578 -0.86344934 -0.6745305 -1.2071655
0000a0 f5 2f c8 3e de d1 6d 3e 9a 55 7f 3e e4 4b 9b 3e
       0.39099088 0.23224589 0.24934998 0.30331337
0000b0 69 7c 73 3e 45 a5 ab 3e e0 dd a7 3e a5 2e 5c 3d
       0.23777927 0.33524528 0.32786465 0.05375542
0000c0 d2 b2 be 3d f6 8c 77 3d b8 96 42 3e 89 24 a5 be
       0.09311451 0.060437165 0.19002807 -0.32254437
0000d0 20 a6 d8 be f1 46 da be f4 76 7d be 02 f1 e0 3e
       -0.42314243 -0.4263225 -0.24752408 0.43933874
0000e0 85 68 0c bd 5d 18 8b be 3b c9 1e bd 1d 46 31 3e
       -0.034279365 -0.27167025 -0.038766127 0.17311902
0000f0 92 8d dd 3e c9 93 10 3f ad 9d dd 3d 54 21 01 3f
       0.43272072 0.564755 0.1082109 0.5044148
000100 5c 14 13 3f 1f 42 b2 be 1d 40 1b 3e 6e ad c4 be
       0.5745294 -0.3481607 0.15161176 -0.38413566
000110 4b 7f 14 3e 1a 0b a5 3c 31 c2 7b be 80 ec a1 bd
       0.14501683 0.020146895 -0.24585797 -0.07906437
000120 22 2b cd bc 33 17 8f bd 6f 58 50 be 5d 3f d0 3d
       -0.025044981 -0.06986847 -0.20346235 0.101683356
000130 d4 b4 f4 3b 2e 0e 85 bb 78 40 15 3c e9 34 65 3d
       0.0074678455 -0.0040605282 0.009109609 0.055958662
000140 36 f0 a0 3d 27 57 72 bd ad ba 98 bd e3 4a 84 bd
       0.078583166 -0.059165146 -0.074574806 -0.06459596
000150 59 e3 e4 bb 54 a8 ff 3c ec dc 0a 3e 2e 33 8b 3c
       -0.0069851098 0.031208195 0.13560838 0.016992178
000160 64 89 c6 3c 6a 36 ac 3d e5 c1 40 bc 44 61 dd 3d
       0.024235435 0.08408816 -0.011764978 0.108095676
000170 e5 7a a0 bc 86 2d 00 bd b3 de 9e 3c 00 3a f7 bd
       -0.01958985 -0.031293415 0.0193933 -0.120716095
000180 90 96 a7 3b 04 e2 b8 bb a7 5f db bd ff 0f 85 bd
       0.005114384 -0.0056421775 -0.107116036 -0.06497192
000190 7a 19 4b 3d bb 52 a0 bc c3 ca b5 3d 8e ea 86 3c
       0.049584843 -0.019570699 0.08876564 0.016469266
0001a0 4e 96 24 3d ec 17 ca bc 1e 19 67 3d 77 b9 c4 3d
       0.040182404 -0.02466961 0.056420438 0.09605687
0001b0 8c 0b 3b 3c 65 5b 17 bc 9f f1 c1 3c 8b 5d e0 3d
       0.011416327 -0.009238099 0.023674784 0.10955342
0001c0 86 ea be 3d 9e 39 01 3d 9e 37 6a bd 1b a0 22 bd
       0.093220755 0.03154909 -0.057181947 -0.03970347
0001d0 f8 7b 3d 3e cb 53 01 3e 2b 99 30 3b 54 0c d4 bd
       0.18504322 0.1262962 0.0026946764 -0.10353914
0001e0 d9 39 98 bc ff 11 91 3d 1e fe 47 3d d7 70 86 3c
       -0.018582271 0.070835106 0.04882633 0.016411228
0001f0 dc a0 8d bd d3 e8 95 be 09 e7 0e be c7 93 b1 bd
       -0.06915447 -0.29279193 -0.1395532 -0.086707644
000200 09 39 a2 3e 64 60 81 3d 68 78 90 bd 39 6b 6e 3d
       0.3168414 0.06317213 -0.07054216 0.058207724
000210 5d ef aa bd 46 99 06 bd 18 8a 2f 3d 98 5c b0 bc
       -0.08346436 -0.032861017 0.042856306 -0.021528527
000220 75 6c cf 3e 90 82 ab 3d 8c 82 b0 3d 8c 80 45 bd
       0.40512434 0.08374512 0.0861865 -0.048218295
000230 11 77 0c 3e 39 c2 f2 3e e1 5c 21 3e f1 e6 87 bc
       0.13717295 0.47413805 0.15758087 -0.016589614
000240 dd 79 69 bd 55 ed 15 be d7 91 a8 3e 7d 6a 95 3d
       -0.057000984 -0.14641316 0.32923767 0.07295702
000250 4d 88 51 3e f3 b5 4a be ba 97 86 3d 7a 23 66 bd
       0.20462151 -0.1979597 0.06571908 -0.056186177
000260 c1 26 11 be ec 72 52 be 5d 25 21 bd fb 22 10 be
       -0.1417494 -0.20551652 -0.039342273 -0.14075844
000270 d6 c5 7c bc e9 95 24 bc 4f ac 34 3e ed 8c 23 3d
       -0.015428027 -0.010045507 0.17643856 0.03992932
000280 14 b8 0b bc 5a 77 f1 be 76 2e ea bd 8b 96 12 3d
       -0.008527774 -0.4716137 -0.11434643 0.0357881
000290 bf ce 23 3e be 94 a6 bc 60 b9 d7 be 0c 13 8f be
       0.15996836 -0.020334598 -0.42133617 -0.2794422
0002a0 e2 c6 2a bd 63 81 a0 bd b1 66 ba 3d 4b b5 08 bc
       -0.041693576 -0.078371786 0.09101618 -0.008344005
0002b0 00 be 6b be e8 5e 18 be d8 21 e9 3d 78 0a 3b 3d
       -0.23021698 -0.14879954 0.11383408 0.04566428
0002c0 e6 e7 17 3d 60 9a 98 3d de 2f 35 bc a2 30 a8 3b
       0.03708639 0.0745132 -0.011058776 0.0051327506
0002d0 9d 3c 3b bb 35 02 90 3d d2 e3 e3 3d d5 11 49 3d
       -0.0028570064 0.07031671 0.11127438 0.04908927
0002e0 cf 1d 79 3d fc b9 20 bc 6a 58 14 3d 5a 44 ba 3d
       0.060819443 -0.009809967 0.03621713 0.09095068
0002f0 70 c6 1a 3d 51 11 7b bd 6a ef c1 3c bb 06 4c 3e
       0.0377869 -0.06129581 0.023673732 0.19924442
000300 a4 44 8b 3d 85 52 85 3d 7c c9 d9 bd a9 0e f3 bc
       0.068002015 0.0650988 -0.10634133 -0.029670076
000310 57 57 45 3e 8d 36 1b 3d d7 bf 88 3d f7 bc d0 bd
       0.19271599 0.03789382 0.066772155 -0.10192292
000320 57 45 36 3e 97 ae 83 be 46 28 3b bf 6f 08 05 bf
       0.17799889 -0.2571914 -0.7310833 -0.51965994
000330 1e 1f 0b bf 26 b7 66 be e9 56 a5 be 71 c0 58 bf
       -0.54344356 -0.22530803 -0.3229287 -0.8466864
000340 fc 6c 67 bf 88 6a 28 bf ac 0d 40 3e 12 77 40 3d
       -0.9040067 -0.65787554 0.18755215 0.046988554
000350 bd 8b d1 ba 62 12 bd 3d 25 7f 60 3e 41 52 0f 3d
       -0.001598708 0.09232022 0.21923502 0.034990553
000360 64 66 9a 3c 9c 97 32 3d 1a b0 fe 3d da 3f 97 3a
       0.018847652 0.043601617 0.124359325 0.0011539415
000370 ec d3 9b 3a 48 18 06 bc 62 2b 53 bc 65 35 8b 3d
       0.0011888719 -0.0081845 -0.012888761 0.067972936
000380 d3 ae 14 3c df 3b ad be b7 a4 3b 3e 39 5e a9 be
       0.0090748845 -0.3383474 0.18324552 -0.330797
000390 25 60 9a bb 9d f6 a2 be 51 62 dc be a9 2a 6b be
       -0.0047111684 -0.31828776 -0.4304376 -0.22965492
0003a0 cb ba 4f bf 5c 1e 4d be 6a db c3 be da b5 93 3e
       -0.811444 -0.20031112 -0.38253337 0.2884968
0003b0 5c 57 e2 3e bf 5f d4 3e 91 e6 26 3f f6 95 15 3f
       0.44207275 0.41479298 0.65195566 0.5843195
0003c0 b0 82 a3 bc 96 03 fa 3d 6f 8a 67 bd 5b d1 34 3d
       -0.019959778 0.12207715 -0.056528505 0.04414497
0003d0 0a ca 3a be 14 37 17 3d 04 d6 f1 3c bb 18 be bd
       -0.18241134 0.03691776 0.029520996 -0.09282061
0003e0 1f 5c cc 3d bf 82 c8 3b aa 8e 40 3e f2 cd 94 bd
       0.09978508 0.006119102 0.18804422 -0.072658435
0003f0 d2 b0 12 3e ce 73 53 bf b6 37 84 be b9 e3 b6 3d
       0.14325264 -0.8259858 -0.25823754 0.089301534

conv01.bias f4 [16]
000000 4a c6 2e bd d8 fb 12 3e dc 4d a3 3d c3 2d 72 3d
       -0.042669572 0.14353883 0.07973835 0.059125673
000010 d7 fb 9e 3d 1c 02 4f 3d 7b dd 8f 3c 70 48 85 3d
       0.077628784 0.05053912 0.017561665 0.06507957
000020 62 36 10 bd d2 74 30 bc c1 44 a6 3c c2 e0 bb 3c
       -0.035208113 -0.01077004 0.020296456 0.022934321
000030 c7 4a 26 3d ca 7c b9 3d f0 72 c8 3c 1b dc 09 3e
       0.040598657 0.09057005 0.024468869 0.1346287

conv02.weight f4 [20, 16, 3, 3]
000000 dd bb e8 3d 9b c1 2a bc 6b f2 8d 3e 83 c2 9b 3e
       0.11363957 -0.010422136 0.27724013 0.30421838
000010 c4 39 5f bd 6b e6 5c bc ae 70 28 be 84 b2 03 3d
       -0.05449845 -0.01348267 -0.16449234 0.032152668
000020 8e c4 47 be 7f bf c2 bc 27 a1 3c be 49 d7 cc bd
       -0.19508573 -0.023772953 -0.1842085 -0.10002
000030 22 94 8c be 08 87 a7 3b ff 46 e0 3d cc b0 9b 3c
       -0.27456766 0.0051125325 0.109510414 0.019005202
000040 63 4a b2 3e 30 8d 45 3e 0a 5d 8b 3e 17 90 7e 3e
       0.34822378 0.1929214 0.2721942 0.24859653
000050 ae e6 47 3e 20 8e bc 3a cf 2d 0f 3e ef c9 ea 3e
       0.19521591 0.0014385618 0.13982318 0.45857188
000060 27 5d 42 3e 17 c2 b5 3d 09 f7 ae be d8 6c 9f 3e
       0.18980847 0.0887491 -0.34172848 0.3113773
000070 df 90 dd be cb 60 62 be 60 d5 6b be e7 e7 19 be
       -0.4327459 -0.22107236 -0.23030615 -0.1502987
000080 c1 03 ff be e4 8b 9a 3e 35 77 ee bc b9 da 7b 3e
       -0.49807552 0.30184853 -0.029109577 0.24595155
000090 b9 4e 20 3e f2 87 4c be 8f 32 32 3e 8f 14 84 be
       0.1565503 -0.19973734 0.17402099 -0.25796935
0000a0 ad c9 5c 3e 92 3c af be d2 44 a9 3e fb c4 ab 3e
       0.21561308 -0.342259 0.33060318 0.33548722
0000b0 40 53 45 be a8 fd 26 3d b5 7e fb 3e 9b 99 e1 be
       -0.19270039 0.04076925 0.49120107 -0.44062504
0000c0 76 53 fd bc f1 ad 17 3e ff f0 07 3f 3f cc 70 be
       -0.030923586 0.14812447 0.53102106 -0.23515414
0000d0 05 9b d9 be 54 4b f8 3e ad 94 04 3e f5 cb 5a 3d
       -0.42501083 0.4849497 0.1294734 0.053417165
0000e0 61 9f 29 3c c8 4f fb b9 6c 9f 41 be 67 a2 20 bd
       0.01035294 -0.00047933892 -0.18908471 -0.03921738
0000f0 90 76 62 3e b9 c7 68 3d 1e cb f9 3d 80 ea c8 bd
       0.2211554 0.056831095 0.12196945 -0.09810352
000100 ff b7 da be fd 77 46 3e ef 75 a6 be 96 dc d6 3d
       -0.42718503 0.1938171 -0.3251185 0.10491292
000110 fe c7 c4 bd 47 9f 54 be f4 0b c0 3e 1f c1 f3 3d
       -0.09608458 -0.20763884 0.3750912 0.11902069
000120 ca c9 1a 3e 9e e3 8d 3b df b7 dc bd d6 63 e8 3e
       0.15116039 0.0043301126 -0.10777258 0.4538867
000130 2d 08 cc bd a1 72 bb 3d 7c e5 0e be b0 f4 55 3e
       -0.09962497 0.09152723 -0.13954729 0.20894122
000140 1a b9 68 3c cf 96 fa 3d 85 b3 83 bc f8 e7 76 3e
       0.014204288 0.12235796 -0.016076813 0.24111927
000150 9d 73 ce 3d b0 4a 09 be c9 e3 94 bd c0 0f c2 be
       0.10080645 -0.13407397 -0.07270009 -0.3790264
000160 1b b1 1c 3d be bd d5 bb 5a 47 20 bd 3a 0c a7 bd
       0.03825484 -0.006522863 -0.039130546 -0.08156629
000170 ba c8 d8 bd 1a 0b 01 be 76 9d d9 bd 8e 06 9e 3d
       -0.105851606 -0.12601891 -0.106257364 0.07716094
000180 7c dc 89 bd 15 3d b8 3e b3 2a 86 3e 81 3f 8f 3e
       -0.06731507 0.35984102 0.26204452 0.27978137
000190 ab 55 3e 3e a2 e2 3c 3e fd ea a6 be 0f 83 97 be
       0.18587367 0.18445829 -0.32601157 -0.29592177
0001a0 52 1c 1f be 2b e8 b9 bd d6 90 de bd fa cc d1 bc
       -0.15538147 -0.09077486 -0.10867469 -0.025610436
0001b0 99 b2 2b 3c 3b d4 83 be 6b 6b b4 be e5 7f 92 bd
       0.010479593 -0.25747856 -0.35238203 -0.071533
0001c0 07 a0 99 3e 56 66 65 3e 6c ae 0d 3f 28 a8 08 bf
       0.30004904 0.2240232 0.5534427 -0.53381586
0001d0 8b 84 2a 3e 14 66 62 3e c0 b3 9e 3d 5d 6b 3e 3e
       0.16652124 0.22109252 0.07749128 0.18595643
0001e0 94 a9 88 be 72 52 fb 3d df 33 64 3e 85 a3 d8 3d
       -0.26691878 0.122715846 0.22285412 0.10578064
0001f0 fa c3 50 be fb 3a 20 bd d6 a2 89 be bc 74 61 bc
       -0.20387259 -0.03911875 -0.26882046 -0.013760742
000200 8a b1 98 3e 83 be 07 bd d6 c1 1c 3e dc 90 ae 3d
       0.29822952 -0.03314067 0.15308318 0.085237235
000210 4e aa 8d 3e 95 5d 5a be 33 6c 3a be 1d b6 28 3d
       0.27668995 -0.21324761 -0.18205337 0.0411893
000220 0c 60 66 3d 37 2c b2 3e ef 45 4f be ab c3 b9 be
       0.05624394 0.34799358 -0.20241521 -0.36282095
000230 54 8e da be 27 80 75 3e bd fe b5 bd 58 45 d0 be
       -0.42686713 0.23974667 -0.08886478 -0.40677905
000240 f4 38 3c be 6f 05 0f 3e 39 b5 a4 be 46 67 43 bd
       -0.18381101 0.13966917 -0.32169512 -0.04770591
000250 95 b9 04 3e b2 d9 f2 3d 8b 81 0f 3f f7 33 98 3e
       0.12961419 0.11857928 0.5605704 0.29727146
000260 6b 8b c6 be e1 4d e8 bc 62 38 b2 3d 9c e3 c5 bd
       -0.38778242 -0.028357448 0.087021604 -0.09662554
000270 3b 3d 3a 3e 9f 36 e2 3d 13 01 7b 3e b6 94 80 3e
       0.1818742 0.110455744 0.24512129 0.25113457
000280 65 82 84 3e 6b 17 b1 bc 5a 0a 2b bf cd d5 8c be
       0.25880733 -0.021617612 -0.6681267 -0.27506867
000290 cd 03 26 bf 55 79 4f 3e 35 b3 78 bc b3 80 e6 bb
       -0.6484955 0.20261128 -0.015179445 -0.007034385
0002a0 19 04 e0 bd 42 80 e3 be fb e9 bb be c7 1e f2 3d
       -0.109382816 -0.4443379 -0.3670195 0.118222766
0002b0 4d af 06 3e ce 80 51 be 56 c2 88 be 3b 79 71 3e
       0.1315281 -0.20459291 -0.26710767 0.23581402
0002c0 46 0f 51 be 6c 89 5f bf ca ab 2c 3e e5 23 d7 3c
       -0.20415983 -0.87319064 0.16862407 0.026262233
0002d0 95 09 8d 3e db 65 61 3e 30 24 aa bd e1 f7 8d 3e
       0.27546373 0.22011511 -0.083076835 0.2772818
0002e0 4d 96 2f be 39 ea 2a be 56 cc 72 be 2e 98 c9 3e
       -0.17147179 -0.16690911 -0.2371076 0.39373916
0002f0 ab ce 17 bd a3 36 6a 3e b8 08 4e 3e e3 b1 46 be
       -0.03706233 0.22872405 0.20120513 -0.19403796
000300 f0 61 78 be 3a 54 44 3d 8c d2 9f be f7 79 ca bc
       -0.2425611 0.047931887 -0.31215322 -0.02471636
000310 33 81 a4 be 3e 78 12 be 87 23 05 bf 30 8b 95 bd
       -0.3212982 -0.14303681 -0.52007335 -0.073019385
000320 9d 43 d8 be bc 75 8d 3a 1a b2 c2 bc b2 bf 97 3e
       -0.42239085 0.0010792534 -0.023766566 0.2963844
000330 f4 ed e2 3b 2f 26 8c be 2f ff 88 be 00 91 fa 3d
       0.006925339 -0.27372882 -0.2675719 0.12234688
000340 e1 18 47 be b9 65 09 bd a7 ff 86 3e 64 76 b3 be
       -0.19443084 -0.033544276 0.26366922 -0.35051262
000350 3c 48 ad bc db 92 cb 3d 07 23 cd be e7 14 08 be
       -0.021152608 0.0994012 -0.40065786 -0.13289224
000360 95 e2 0d 3e d4 41 a7 be 67 d9 67 be 0a 67 fc 3b
       0.13855965 -0.3266741 -0.22641526 0.007702713
000370 47 42 32 3e 02 c4 d5 bd 7e f3 41 3d 78 c5 8a 3e
       0.17408095 -0.10437776 0.047351353 0.27103782
000380 12 c8 e5 be 83 bc b1 be d6 ed 93 be da 8f ed be
       -0.44879204 -0.34714136 -0.28892392 -0.46398813
000390 11 b6 80 3e 88 ea ae 3e e8 c1 a3 bd b1 7d 70 3e
       0.25138906 0.34163308 -0.07995969 0.23485447
0003a0 9d 35 dc bd 03 44 64 bd f1 93 7e be 6d f0 67 bd
       -0.107524134 -0.055728924 -0.24861123 -0.056625772
0003b0 cd 0c 3d 3c 5c 39 1f 3d e1 2e e4 3e d2 ff 48 be
       0.0115386965 0.03887306 0.44567016 -0.19628838
0003c0 bb b4 13 bd 3a e3 0a 3f 00 eb 02 bf 1d 98 bb 3d
       -0.03606103 0.5425297 -0.5113983 0.09159873
0003d0 48 70 75 3e 02 39 84 3e 78 90 15 be 8d 15 eb be
       0.23968613 0.25824744 -0.14605892 -0.4591488
0003e0 04 32 bd be 49 a6 09 3f ce 60 0c 3e e5 4c d1 3e
       -0.3695222 0.53769356 0.13708803 0.40878978
0003f0 60 06 7e 3e 46 0c fa 3d 2f 7c e0 be 2d 80 09 bf
       0.2480712 0.12209372 -0.43844745 -0.53711206

conv02.bias f4 [20]
000000 ed 02 8c 3d f2 e8 2a 3e bc 45 96 3d 87 05 8c 3e
       0.068364955 0.16690424 0.073375195 0.27347967
000010 9e fd 72 3e 9c 38 bd bc 17 0e 2b 3e c0 17 07 3e
       0.2372956 -0.023098283 0.16704594 0.13192654
000020 55 75 7e 3e 4e 3f fe 3d 3f 63 4d 3e d7 e4 8a 3d
       0.24849446 0.12414418 0.2005739 0.06781929
000030 68 7b 68 3d 0e dd a5 bd b2 d7 ab 3b ba fc 87 3e
       0.056758314 -0.080988035 0.0052442187 0.26560003
000040 f2 49 41 3e 8e 43 6b bc f5 7a 7b 3d 4e 63 88 bd
       0.18875864 -0.014359368 0.061396558 -0.06659566

conv03.weight f4 [22, 20, 3, 3]
000000 f3 40 9b 3e 80 fe c6 be b1 d5 f3 3c ca a7 75 be
       0.3032299 -0.38866043 0.029764982 -0.23989788
000010 e4 10 e0 39 3b e9 10 3f 89 28 20 bf b4 53 fa be
       0.00042737194 0.5660588 -0.6256185 -0.48891985
000020 cd b3 b1 be 4a 04 b8 3c e3 e9 5a 3e 97 3a c6 3d
       -0.3470749 0.022462983 0.21378283 0.09679144
000030 4a cb 09 3e 27 32 42 be c3 78 5a 3c b3 25 84 3d
       0.13456455 -0.18964444 0.013334456 0.06452503
000040 e8 b4 f4 be 1d 14 39 3e b4 30 bd bd f0 6a f2 bd
       -0.4779427 0.18074079 -0.09237805 -0.11836803
000050 17 3f 26 bd 79 00 5d 3d d5 19 20 bd ae 9e c1 3e
       -0.04058751 0.05395553 -0.039087135 0.37816375
000060 13 32 2c 3e 9f 6f 09 3e 4d f0 24 3f 23 45 a8 3e
       0.16815977 0.13421486 0.6442917 0.32865247
000070 13 6e 36 3e 8c ea ef 3e aa ff 87 be 6a 64 21 bf
       0.17815427 0.46858633 -0.26562244 -0.63043845
000080 fd 9c 90 bc c6 43 dd 3d 54 31 ce bd 60 bf 41 3e
       -0.017652983 0.108039424 -0.10068002 0.1892066
000090 f0 d7 c8 be 9b 88 0b be 87 d1 50 3e c0 44 33 be
       -0.39227247 -0.1362633 0.20392428 -0.17506695
0000a0 ba 71 84 3d a2 6c 10 bf 9e 3f 7c 3e 6c 8d ba ba
       0.06467004 -0.5641576 0.24633643 -0.0014232821
0000b0 e8 ea 7e 3e 46 8d 70 3b 04 8e 92 3c e3 c9 34 3e
       0.24894297 0.00367053 0.017889984 0.17655139
0000c0 7c ee c6 be 20 66 fb bd ea b1 ab be 12 4c 25 3f
       -0.38853824 -0.12275338 -0.33534175 0.645692
0000d0 b0 86 4b bf 37 1b e2 bd cd 81 68 be 37 ef 2b bd
       -0.7950239 -0.11040347 -0.22705765 -0.04197618
0000e0 90 54 5b be bf 38 d8 bc 79 48 61 3e 8f 05 5e 3e
       -0.21418977 -0.026394246 0.22000302 0.21681808
0000f0 72 6f a9 bd fb 6f 9a bd 71 c9 16 be 62 f9 88 be
       -0.0827321 -0.0754089 -0.14725281 -0.26752764
000100 5b 41 d2 bd 5f 52 2f 3e bf af f3 be 6a f3 a5 3e
       -0.10266372 0.17121266 -0.4759502 0.32412273
000110 2e 89 2d 3e db 32 52 bd c7 da aa be 9b b5 72 be
       0.16946861 -0.05131803 -0.3337004 -0.2370209
000120 74 d0 17 3d a4 72 b0 3d 0a 0a 43 3e e9 89 c1 bb
       0.03706403 0.08615616 0.19046798 -0.0059063327
000130 7c 3e 3a be 5a 71 cc 3e ba 1e b7 3e 2c b2 6b 3e
       -0.18187898 0.3993023 0.3576563 0.23017186
000140 f1 96 42 3e a6 eb 51 3d ab d0 0b bf 62 54 dd bc
       0.19002892 0.051250122 -0.5461528 -0.027017776
000150 1f 8a d1 bd 7e 36 0e bf ed 2d 25 3e 81 db 15 3f
       -0.10231423 -0.555519 0.161308 0.5853806
000160 fa 24 88 3d e5 2c da bd a4 d3 85 3e 7f 03 0e 3f
       0.06647678 -0.10653094 0.2613803 0.55474085
000170 6e 9c ca 3e 2c fe e1 3c 3e 56 cc bd 8c 0e 65 3e
       0.3957247 0.027587019 -0.09977387 0.2236883
000180 f8 52 fa be 54 46 52 be 10 f4 2c be d6 73 74 be
       -0.48891425 -0.2053464 -0.16889977 -0.23872313
000190 c7 c1 0f bf df 92 a5 bd 48 c0 40 3e 12 5b b5 be
       -0.56155056 -0.08084654 0.1882335 -0.35421044
0001a0 32 ce 75 bd c3 81 8b 3e 86 f9 15 be e1 64 58 3e
       -0.060011096 0.27247438 -0.14645967 0.21132232
0001b0 1c b1 0a be fc 2f 0c 3e 61 3d 98 bd 8c 42 c2 3e
       -0.13544124 0.1369018 -0.07433582 0.37941396
0001c0 80 70 c0 be 7b 29 3e 3d f6 5b 05 3e 4c 50 1d be
       -0.3758583 0.046426278 0.13023362 -0.15362662
0001d0 d7 70 ae be 66 59 c6 bd c8 d3 34 be 2a 22 83 3e
       -0.34070465 -0.0968502 -0.17658913 0.25612003
0001e0 44 1a e5 3c b1 e3 1f be df 29 5b be a8 2c 36 3e
       0.027966626 -0.15614201 -0.21402691 0.17790473
0001f0 c8 86 72 be a0 83 79 3e 1d fc f8 bb 12 69 16 3e
       -0.23684227 0.24366617 -0.0075984136 0.14688519
000200 4b 9f 03 be e9 c8 8b be 41 21 60 be e9 63 7e be
       -0.12853734 -0.2730172 -0.21887685 -0.248428
000210 85 86 90 be 6c 29 e1 be c5 95 cd 3a 54 f5 01 3e
       -0.2822763 -0.43976915 0.0015684894 0.12691242
000220 7a 68 bb be ce 54 3c 3e 20 fe 8e 3e 7c 91 b3 3e
       -0.36603147 0.18391725 0.27928257 0.35071933
000230 80 bd 25 3e da 5e 07 3e 1a 00 20 be 15 43 95 3e
       0.1618557 0.13219777 -0.15625039 0.29152742
000240 24 7f 25 3d f1 89 74 bd 0f ac d6 3c 66 63 6c bd
       0.040404454 -0.059701864 0.02620509 -0.05771198
000250 32 92 89 be 3d a8 ae 3d 65 25 7d be 2c a4 2f bc
       -0.2686935 0.08528183 -0.24721296 -0.010720294
000260 33 ba 8b bd 06 a3 b7 3e 9c 91 ee be c5 6b 5f 3e
       -0.06822624 0.35866565 -0.46595466 0.21818455
000270 35 64 66 3e 14 75 ac be 6b 89 fd be 25 35 9e be
       0.22499163 -0.33683074 -0.49518904 -0.3089992
000280 37 0f 8f 3e 7c b9 d8 be a5 dc 48 bc 2c c9 42 3e
       0.27941296 -0.42329013 -0.012259637 0.19022053
000290 54 40 51 3e d5 73 a8 be da b3 0a bf a4 5b 27 3e
       0.20434695 -0.32900873 -0.5418068 0.16343552
0002a0 61 d9 0e 3d 38 60 f9 3d 2b a0 77 3f fe 98 2c bd
       0.034875277 0.121765554 0.9672877 -0.042138092
0002b0 ab 23 74 3e 1d 6f 0c be 34 2f 15 3e ef 39 8a be
       0.23841731 -0.13714261 0.14568788 -0.26997325
0002c0 65 8e 91 3d 12 14 eb be a5 76 2d 3e 78 00 42 be
       0.07107238 -0.4591375 0.1693979 -0.18945491
0002d0 e6 88 03 3f 7f 6a 8d 3e 72 b3 25 be 20 91 9e be
       0.51380765 0.27620313 -0.16181734 -0.30970097
0002e0 74 35 e2 3e ea 02 95 be a5 a4 17 3e de db ac bb
       0.44181406 -0.29103786 0.148089 -0.0052752336
0002f0 b6 bb e2 bd ab d7 f1 3d 27 a0 a6 be de a5 d3 3d
       -0.11070959 0.118087135 -0.32544062 0.10334371
000300 ea 3f 93 be d9 f8 f7 bd f9 9b 3f 3e 39 92 31 3f
       -0.287597 -0.12108011 0.18711843 0.69363743
000310 85 da 94 3d b9 b6 04 be f0 a3 9b 3e 56 1d 06 bd
       0.07268242 -0.12960328 0.30398512 -0.03274282
000320 13 52 15 be 3d 69 fa 3c c8 fe c0 3e c4 76 f2 3e
       -0.1458209 0.03056776 0.37694383 0.47356236
000330 88 21 2b be e9 92 48 bd 91 20 46 3e e4 74 35 3e
       -0.1671201 -0.04896823 0.1934836 0.17720371
000340 82 cc 48 3e 66 77 3f be 15 43 17 bf 48 7a 1c 3e
       0.19609264 -0.1869789 -0.59086734 0.15281022
000350 7b a5 f2 bc 92 e4 fb be ea 26 58 be 58 2a 44 3c
       -0.029619923 -0.49197823 -0.21108595 0.011972986
000360 5d 54 91 be bb 3e bf 3e 76 df 42 be e0 f2 10 bf
       -0.28384677 0.37352547 -0.19030556 -0.566206
000370 80 44 04 3c 94 b9 ab 3d 58 1e 19 3e 5e 58 f5 be
       0.008072972 0.083850056 0.14952981 -0.4791898
000380 e3 fe f7 be a3 77 7c 3e 7f 53 5b 3e a4 b6 86 3e
       -0.4843665 0.24655013 0.2141857 0.2631122
000390 da 52 52 3e ee cd a5 be 34 e6 76 3e 2b d7 aa be
       0.20539418 -0.32383674 0.24111253 -0.33367285
0003a0 c5 44 58 3e ab e7 3f 3e dc d5 25 be 45 83 77 3e
       0.21119983 0.18740718 -0.16194862 0.24171169
0003b0 29 43 38 3f 5a f8 b1 3d 80 06 ec 3d b7 cb 8f be
       0.7197748 0.086899474 0.11524677 -0.2808511
0003c0 13 10 20 3e 97 d8 7a be 94 70 5f 3d 7a 04 87 3e
       0.15631132 -0.24496685 0.054550722 0.26370603
0003d0 91 d7 1d 3d a5 85 bf 3e a9 d4 2f be e3 5d 39 be
       0.03853566 0.3740665 -0.17170967 -0.18102221
0003e0 78 4b e4 3d ae 46 92 3e c4 d3 a3 3e 27 f1 98 bd
       0.11147207 0.2856955 0.31997502 -0.07467871
0003f0 b6 70 2a 3d c7 08 99 3e 48 90 53 be f7 7f 71 be
       0.041611396 0.2988951 -0.20660508 -0.23583971

conv03.bias f4 [22]
000000 e6 12 2b 3e 5a b0 d9 be c7 ba a2 bd 3d e7 ce bd
       0.16706428 -0.42517358 -0.07945781 -0.10102699
000010 2b 01 17 be 18 1a 96 3d 7e cf 0e 3e 67 57 16 bf
       -0.1474654 0.07329196 0.1394634 -0.58727115
000020 7f 06 2c be 81 9a fa bd b5 b7 e7 3d 74 4f e0 bd
       -0.16799353 -0.122365005 0.11314336 -0.109526545
000030 3b cd 02 3f fa de 75 3e 90 1c 8b be a4 ee 92 3d
       0.51094407 0.2401084 -0.2717023 0.07174423
000040 3c f1 93 3e 24 cd 1a bf b3 75 96 bd 6e 9b e7 be
       0.28894985 -0.6046927 -0.07346668 -0.4523577
000050 75 94 e8 3a 99 6f 9e 3d
       0.0017744439 0.07736129
