weights/4. triplet loss model - models/conv2Dfeatures_best_var.pt (torch, 21655 bytes, 6 tensors)

conv00.weight f4 [4, 1, 5, 5]
0	0x3cfddccc	0.030989073
1	0xbd1cd01f	-0.038284417
2	0xbd0352f0	-0.032061517
3	0xbdc18e4a	-0.094509676
4	0xbde085dd	-0.109630324
5	0x3d44c82f	0.048042472
6	0xbdaec57b	-0.0853376
7	0xbe3aa32d	-0.18226309
8	0xbe5078d5	-0.20358594
9	0xbe5f1441	-0.2178507
10	0x3e20b152	0.15692642
11	0x3da86cd2	0.08223881
12	0x3cf31f8f	0.029678134
13	0xbe133035	-0.14373858
14	0xbe1174f9	-0.14204778
15	0x3dbbc1cf	0.091678254
16	0xbc7d6cee	-0.015467865
17	0xbd31b13a	-0.043381907
18	0x3cdee17b	0.027207127
19	0xbd22325c	-0.039598808
20	0x3d739a09	0.05947307
21	0x3afc5f0c	0.00192544
22	0x3d74dd02	0.059781082
23	0xbd4c9a27	-0.0499517
24	0x3cf2261d	0.02955919
25	0x3d70f83e	0.058830492
26	0xbdaf1dd6	-0.08550613
27	0xbe111fa9	-0.14172234
28	0xbe17f140	-0.14838123
29	0xbe3df809	-0.18551649
30	0x3cc6c052	0.024261627
31	0xbc257250	-0.010098055
32	0xbc330676	-0.010926833
33	0xbe08c11a	-0.13354912
34	0xbdf29177	-0.118441515
35	0xbc962253	-0.018326914
36	0x3d1eb4ca	0.038746633
37	0x3d29dbb3	0.041469287
38	0x3d2c5823	0.04207624
39	0x3dbfcefd	0.09365652
40	0x3d06ff95	0.032958586
41	0x3d114894	0.035469607
42	0x3dd3df35	0.10345308
43	0x3e0a53db	0.13508551
44	0x3e042e4e	0.12908289
45	0xbd7748d0	-0.060372174
46	0x3c62ce20	0.013843089
47	0x3d997703	0.07493403
48	0x3d92bd97	0.07165068
49	0x3c830bb2	0.015996788
50	0xbb750182	-0.0037384932
51	0x3d17ddc7	0.037076738
52	0x3cd81bcf	0.026380448
53	0x3d286cc7	0.041119363
54	0x3d6d2278	0.0578942
55	0x3d43a160	0.04776132
56	0x3ca439a4	0.020047016
57	0x3d465a2a	0.04842583
58	0x3d0024c8	0.031285077
59	0x3ce5e59c	0.028063588
60	0x3d9a80a8	0.075440705
61	0x3d2a8ab9	0.041636202
62	0x3d847dc6	0.06469302
63	0x3d83060e	0.06397639
64	0x3d0be18e	0.034150653
65	0x3d8effaf	0.069823615
66	0x3d77b140	0.060471773
67	0x3d57e837	0.05271169
68	0x3d92a67b	0.0716066
69	0x3d935646	0.0719419
70	0x3dacd40b	0.084388815
71	0x3d420c18	0.047374815
72	0x3d25f2a0	0.04051459
73	0x3d5d37d3	0.054008316
74	0x3be067ba	0.0068483027
75	0xbae469ca	-0.0017426547
76	0xbd2fa192	-0.042878695
77	0xbd6860e3	-0.056733023
78	0xbca26870	-0.01982519
79	0xbc798165	-0.015228604
80	0xbca08403	-0.019594198
81	0xbdb29506	-0.0871983
82	0xbcf41ea4	-0.029799767
83	0xbd3789f6	-0.044809304
84	0xbbde7bb6	-0.00678965
85	0xbdea3114	-0.11435142
86	0xbda9e152	-0.082949296
87	0xbdac80c2	-0.08422996
88	0xbab401fe	-0.0013733504
89	0xbcbeb993	-0.023281848
90	0xbda05fb4	-0.07830754
91	0xbd758ba2	-0.059947617
92	0xbd7aabc4	-0.061198965
93	0xbdc979b9	-0.0983767
94	0x3b75463f	0.0037425903
95	0xbd26c725	-0.040717263
96	0xbd4189f3	-0.0472507
97	0xbce4231e	-0.027848776
98	0xbc39c9fc	-0.011339661
99	0x39f9658c	0.0004756864

conv00.bias f4 [4]
0	0xbf658724	-0.89659333
1	0x3d199fa3	0.037505757
2	0xbeb57270	-0.3543887
3	0x3df87b32	0.12132873

conv01.weight f4 [16, 4, 5, 5]
0	0x3d8117ba	0.063033536
1	0x3d06a799	0.032874677
2	0xbd744849	-0.05963925
3	0x3dd04dd8	0.101710975
4	0xbcb41509	-0.021982687
5	0x3dcdab51	0.10042442
6	0x3e4025d1	0.18764426
7	0x3e473a18	0.19455755
8	0x3d39bbb5	0.045345027
9	0xbe01ce96	-0.12676463
10	0x3d40d91d	0.047082055
11	0x3d8cf863	0.068833135
12	0xbe07a259	-0.13245524
13	0xbdcbf312	-0.09958471
14	0xbdb5b18e	-0.088717565
15	0xbcb01210	-0.021492988
16	0xbe60b040	-0.21942234
17	0xbdb0354f	-0.08603918
18	0xbe697046	-0.22796735
19	0xbdc0c3c3	-0.094123386
20	0xbc139ee0	-0.009010047
21	0xbdd5268d	-0.104077436
22	0x3d4f45e0	0.050603747
23	0x3c774826	0.015092885
24	0xbc65f950	-0.0140364915
25	0xbe3e056b	-0.18556754
26	0xbcf448f7	-0.029819949
27	0x3b2f6abd	0.0026766502
28	0xbcedb5ec	-0.029017411
29	0xbd8ac3c3	-0.0677562
30	0x3d5dafa5	0.054122586
31	0x3d115fe8	0.035491854
32	0x3da51233	0.08060112
33	0x3cd7b0b0	0.026329368
34	0x3c90e3df	0.017686782
35	0x3d2103ce	0.03931027
36	0x3c828e1c	0.015936904
37	0xbdac706f	-0.084198825
38	0xbcdfd82b	-0.027324757
39	0x3e14d06b	0.1453263
40	0xbdb916fe	-0.090375885
41	0x3e050bd8	0.129928
42	0x3e532523	0.20619635
43	0xbe495128	-0.19659865
44	0xbdd9dcb4	-0.10637799
45	0x3cca81cc	0.024720095
46	0x3cbec1d1	0.023285778
47	0x3daa63eb	0.08319839
48	0x3d089c29	0.03335205
49	0x3e5a4328	0.2131468
50	0xbe22ec49	-0.15910448
51	0x3cd68d2f	0.026190368
52	0x3dcaadc4	0.098964244
53	0x3d951b9a	0.07280655
54	0xbcc33eb0	-0.023833603
55	0xbdf13b7e	-0.11778925
56	0xbe5cdb30	-0.21567988
57	0xbda494aa	-0.08036168
58	0xbdaefa5d	-0.08543847
59	0xbaaedad5	-0.0013340364
60	0x3db451a0	0.08804631
61	0x3cfe17da	0.031017233
62	0xbd1ccf29	-0.0382835
63	0x3e016ea1	0.12639858
64	0x3e72f999	0.23728026
65	0x3b9e3837	0.0048284787
66	0x3e5cd35d	0.21565004
67	0x3de4025e	0.11133264
68	0x3df9a49b	0.12189599
69	0x3d8035ea	0.06260283
70	0x3d439cbb	0.04775689
71	0x3c73075c	0.014833298
72	0xbd5fa684	-0.05460216
73	0xbe3f704d	-0.18695183
74	0xbe458bd3	-0.1929162
75	0x3dd82eea	0.10555823
76	0x3dd23b4d	0.10265217
77	0xbe0552e1	-0.13019897
78	0x3d88cc91	0.06679643
79	0x3cc766f6	0.024341088
80	0x3d2c54cd	0.04207306
81	0xbc6e1fab	-0.014533917
82	0x3e0894c7	0.13338004
83	0x3d21d90c	0.039513633
84	0x3d107f88	0.035277873
85	0xbb90ead1	-0.0044225235
86	0xbcf5e08a	-0.030014295
87	0xbd8a7e43	-0.06762364
88	0xbdb0f353	-0.086401604
89	0xbe5ddaa1	-0.21665432
90	0x3cce2744	0.025165208
91	0xbe00c63f	-0.12575625
92	0xbce73cd5	-0.02822725
93	0xbb83c3bc	-0.004021136
94	0xbda8e943	-0.08247616
95	0x3c91f218	0.017815635
96	0x3d858776	0.06519978
97	0xbc369592	-0.011144059
98	0x3e0a8bb7	0.1352986
99	0x3e240e6d	0.16021128
100	0x3dbeb702	0.0931225
101	0x3cca786d	0.024715627
102	0x3e41d2fd	0.18928142
103	0xbe7fc0a7	-0.24975835
104	0x3cf068c1	0.029346826
105	0xbd1b68e9	-0.037941847
106	0xbd88192c	-0.06645426
107	0xbd83a11c	-0.064272135
108	0xbe5c6b42	-0.2152529
109	0x3c3160ec	0.010826331
110	0xbe2cfc4c	-0.16893119
111	0xbe05df5d	-0.13073488
112	0xbe05e85f	-0.13076924
113	0x3cf6cbff	0.03012657
114	0xbe03687a	-0.12832823
115	0x3d825f8c	0.0636588
116	0xbdcc270c	-0.09968385
117	0x3e5cc113	0.21558027
118	0x3d6168ee	0.05503171
119	0x3e0d1727	0.13778363
120	0x3db6e3cf	0.0893017
121	0x3e3ce436	0.1844643
122	0x3dfd6131	0.123720534
123	0xbdf4f0e5	-0.119600095
124	0x3bb02c19	0.0053763506
125	0xbdaf200e	-0.08551036
126	0xbd39099f	-0.04517519
127	0xbaed41f5	-0.0018101322
128	0xbe0b38ef	-0.13595937
129	0xbd7a1c78	-0.061062306
130	0x3d49cdc6	0.049268506
131	0x3c8a60fd	0.01689195
132	0x3e017e81	0.12645914
133	0x3d29595b	0.04134498
134	0x3dabcc5f	0.0838859
135	0x3d454f5e	0.048171394
136	0x3e82101c	0.25402915
137	0xbc108f46	-0.008823222
138	0xbd7388c5	-0.059456605
139	0xbc08084d	-0.00830276
140	0xbe5c4422	-0.21510366
141	0x3daf0faa	0.085479096
142	0xbd84cd9b	-0.06484529
143	0x3c94f13a	0.018181432
144	0xbdacbf17	-0.08434885
145	0xbc0f5f7c	-0.008750793
146	0x3da81d89	0.082087584
147	0xbd85e5a6	-0.065379426
148	0xbd8f7270	-0.07004249
149	0x3d8b4bb9	0.06801552
150	0xbd86da05	-0.06584553
151	0x3e6a1e05	0.22863014
152	0x3e051ae4	0.12998539
153	0x3df5822f	0.11987721
154	0x3de06f75	0.10958759
155	0xbd7b445f	-0.0613445
156	0xbd0df95c	-0.034661636
157	0x3c02eaca	0.007990548
158	0xbcbf19af	-0.023327677
159	0xbc1fa037	-0.009742788
160	0x3d29cc29	0.041454468
161	0x3e7329c9	0.23746409
162	0x3c2e6026	0.010643041
163	0x3d09451c	0.033513173
164	0xbd550a38	-0.0520117
165	0xbe76f869	-0.24118198
166	0xbdb71642	-0.08939792
167	0xbe3eaaba	-0.18619815
168	0xbd0e9ed6	-0.034819447
169	0xbe3dc21f	-0.18531083
170	0xbd94abaa	-0.07259305
171	0xbda0cf4c	-0.07852039
172	0xbe0f640b	-0.14003007
173	0x3dc66fab	0.09689268
174	0x3df5cd48	0.12002045
175	0xbdd99c6f	-0.106255405
176	0xbe4122e2	-0.18860963
177	0xbdb4672d	-0.08808742
178	0xbde0812e	-0.10962139
179	0xbe4cdf51	-0.20007063
180	0xbc86738f	-0.016412525
181	0x39bda935	0.00036174958
182	0x3d686f06	0.056746505
183	0x3c975a88	0.018475786
184	0xbe10e259	-0.14148845
185	0x3d7ac8e5	0.061226744
186	0xbe029da3	-0.12755446
187	0xbdac27d2	-0.084060326
188	0xbcd32827	-0.025775982
189	0x3de766b0	0.11298883
190	0x3e593c02	0.21214297
191	0x3e0d1afe	0.13779828
192	0xbc852951	-0.016255053
193	0x3d158e51	0.036512677
194	0x3e69b620	0.22823381
195	0x3dacb371	0.08432663
196	0x3df36f15	0.118864216
197	0x3e3aeead	0.1825511
198	0xbd0b4747	-0.034003522
199	0xbe2cff50	-0.16894269
200	0xbc76c557	-0.015061698
201	0x3d91fd35	0.071283735
202	0x3e5d9ad2	0.2164109
203	0xbd7fc0fa	-0.062439896
204	0xbd2628f6	-0.040566407
205	0xbe3dc96f	-0.18533872
206	0xbe58c080	-0.21167183
207	0xbe62ef5b	-0.2216162
208	0xbd10a7e6	-0.03531637
209	0xbe4ca34d	-0.1998417
210	0x3e263b4b	0.16233556
211	0x3de3fefc	0.11132619
212	0x3d3bc092	0.045837946
213	0x3e20155d	0.1563315
214	0xbd0bf4e3	-0.03416909
215	0xbd79a4c4	-0.06094815
216	0xbcedb50b	-0.029016992
217	0xbda9434c	-0.08264789
218	0x3e1029e2	0.14078477
219	0x3c8114a5	0.015756914
220	0x3d29483c	0.041328654
221	0x3dd0c3f0	0.10193622
222	0xbdf9bd2a	-0.12194283
223	0xbd505ee6	-0.050871752
224	0x3c759fa0	0.014991671
225	0x3dce62c4	0.10077432
226	0x3df67a39	0.12035031
227	0x3e4ec019	0.20190467
228	0xbd43c40c	-0.047794387
229	0xbd17f554	-0.037099198
230	0xbbbb1081	-0.0057087545
231	0xbacd5256	-0.0015664797
232	0xbd6a49bd	-0.05719923
233	0xbe116c7b	-0.14201538
234	0xbe169249	-0.14704241
235	0x3dca7715	0.09885994
236	0x3de3d68a	0.111249045
237	0xbda38874	-0.07985011
238	0xbca7972f	-0.020457832
239	0x3e4a5432	0.1975868
240	0x3e24cb47	0.16093169
241	0x3e165f6e	0.14684841
242	0x3e300b6a	0.17191854
243	0x3debb001	0.115081795
244	0xbcbe9ad4	-0.023267187
245	0x3d5addec	0.053434297
246	0x3d5825ec	0.05277054
247	0xbe81e768	-0.2537186
248	0x3d331eb8	0.043730468
249	0x3bbea675	0.005818183
250	0xbcc71451	-0.02430168
251	0xbd208267	-0.03918686
252	0xbe495cf3	-0.19664364
253	0xbdc46884	-0.09590247
254	0xbcdd5221	-0.027016701
255	0x3dc147f9	0.09437556

conv01.bias f4 [16]
0	0xbc0021b9	-0.00782054
1	0xb9e17ec0	-0.0004300978
2	0xbe1c950e	-0.15291235
3	0xbc0b2b91	-0.008494274
4	0xbe1b464f	-0.1516354
5	0xbd70ae11	-0.058759753
6	0x3da5b37d	0.08090875
7	0x3e493a30	0.19651103
8	0x3dcf4401	0.101203926
9	0xbe502dbc	-0.20329946
10	0xbd7fcaa6	-0.06244912
11	0x3f07e41a	0.5308243
12	0xbd2ace63	-0.041700732
13	0x3e478088	0.19482625
14	0x3e0dc546	0.13844785
15	0x3effef29	0.49987152

conv02.weight f4 [22, 16, 3, 3]
0	0xbd34470a	-0.04401306
1	0xbdfe3edb	-0.124143325
2	0x3c88a994	0.016682424
3	0x3e535845	0.20639141
4	0x3e5caef7	0.21551119
5	0x3e1d6ad2	0.1537278
6	0xbd754f6c	-0.059890196
7	0x3d5f8012	0.054565497
8	0x3ddf72ec	0.109105915
9	0xbcf93489	-0.030420559
10	0xbc672b20	-0.014109403
11	0x3e123c16	0.14280733
12	0xbd85fb91	-0.06542123
13	0xbe9af900	-0.30268097
14	0x3dddde3e	0.10833405
15	0xbdaf016b	-0.08545192
16	0x3d3f2405	0.04666521
17	0xbe1cfc61	-0.1533065
18	0x3cabca5e	0.02097052
19	0x3d185b21	0.037196282
20	0xbdb60efc	-0.08889577
21	0xbbde1551	-0.0067774435
22	0x3e0b1efd	0.1358604
23	0xbe5219a2	-0.2051759
24	0xbbe30180	-0.006927669
25	0x3db3bd4b	0.08776339
26	0x3e3cd3bf	0.1844015
27	0x3b93c4c2	0.0045095393
28	0x3ccac102	0.024750236
29	0x3c5605a8	0.013062872
30	0x3c8b3a0e	0.016995456
31	0x3e162930	0.1466415
32	0xbda11c20	-0.078666925
33	0x3dfa5964	0.12224081
34	0x3c029293	0.007969516
35	0x3d6ea97b	0.058267098
36	0x3d412831	0.04715747
37	0xbcb3d3fd	-0.02195167
38	0xbd8f5b72	-0.06999864
39	0x3de7142e	0.11283146
40	0xbb03efa5	-0.0020131853
41	0xbd375a09	-0.0447636
42	0x3d9e2fa2	0.07723929
43	0x3e03ab81	0.12858392
44	0x3d6c75ee	0.057729654
45	0xbdd81ce1	-0.10552383
46	0xbdc2cadc	-0.095113486
47	0x3de30a1e	0.11085914
48	0x3e28a190	0.16467881
49	0x3b542300	0.0032369494
50	0x3d8fe44e	0.070259675
51	0xbe061bc2	-0.13096526
52	0xbe648b12	-0.22318676
53	0x3d05a1a6	0.032624863
54	0x3cd35d60	0.02580136
55	0x3c9ecb01	0.01938391
56	0xbd972a27	-0.07381087
57	0xbe06316a	-0.13104787
58	0xbcf3abee	-0.029745068
59	0xbd20c87d	-0.0392537
60	0xbc732eef	-0.014842733
61	0xbc266f3e	-0.010158358
62	0x3ce07293	0.027398383
63	0x3dc35910	0.09538472
64	0xbdbb4879	-0.091446824
65	0xbe2b8aeb	-0.16752212
66	0xbc0a2b28	-0.008433141
67	0x3e13ff12	0.1445277
68	0x3c0d24af	0.008614703
69	0x3d48eb0c	0.049052283
70	0x3d67cdf2	0.05659289
71	0x3bb7f92f	0.005614422
72	0xbdf336cb	-0.11875685
73	0x3c412174	0.011787761
74	0x3c40e59e	0.011773495
75	0x3c4ba4dd	0.012429443
76	0xbe53e0b7	-0.2069119
77	0x3ddfc32a	0.109258965
78	0x3d9f92ad	0.07791648
79	0xbd0dd5c2	-0.034627683
80	0x3e3660d8	0.1781038
81	0xbcbbb638	-0.022914037
82	0xbe58a963	-0.21158366
83	0xbe158840	-0.14602757
84	0x3cd51403	0.026010519
85	0x3cf1d826	0.029522013
86	0xbe2db5ae	-0.16963837
87	0xbe05d685	-0.13070114
88	0xbcddb518	-0.027063891
89	0x3d6134cf	0.054982003
90	0xbd3ae919	-0.045632455
91	0xbd7021ec	-0.0586261
92	0x3cf2b6d0	0.029628187
93	0x3e08e6c8	0.13369286
94	0xbe394884	-0.18094069
95	0xbe2c8e98	-0.1685127
96	0xbb44d1d4	-0.0030032294
97	0xbb75b0fe	-0.0037489529
98	0xbe10c6b6	-0.14138302
99	0xbdee1f5e	-0.116270766
100	0x3aa2dbed	0.0012425162
101	0xbd8d260d	-0.06892023
102	0xbe04ef21	-0.12981845
103	0xbe54be72	-0.20775774
104	0xbc173d21	-0.009230883
105	0x3d6b798f	0.057488974
106	0x3dc09b09	0.094045706
107	0x3e0b727d	0.13617893
108	0x39dc8bad	0.00042065736
109	0xbd6ac91d	-0.057320703
110	0x3dcb82a9	0.09937031
111	0x3e36356c	0.17793816
112	0x3e3ada9b	0.18247454
113	0x3d7b9b22	0.061427243
114	0x3da847f4	0.08216849
115	0x3b9b63fa	0.0047421427
116	0x3ca16a4a	0.019704003
117	0x3da8ea19	0.082477756
118	0x3dba8712	0.09107794
119	0x3b85cd8d	0.0040833415
120	0x3d20fae5	0.03930177
121	0xbe393c6e	-0.18089458
122	0x3d16d4ed	0.036824156
123	0xbde884d5	-0.11353461
124	0xbe31dd9b	-0.17369692
125	0x3c825d22	0.01591355
126	0xbbabdce4	-0.005244838
127	0xbd5dab87	-0.05411866
128	0x3d050e35	0.032484252
129	0x3d995f98	0.07488936
130	0xbe2a283b	-0.16616909
131	0x3e5f5ddc	0.21813148
132	0xbdda82ef	-0.10669505
133	0xbcd0f3b4	-0.025506832
134	0xbb7a676b	-0.0038208615
135	0x3b6c4081	0.003604919
136	0x3bc639d0	0.0060493723
137	0x3c840425	0.016115258
138	0xbdb3ad80	-0.08773327
139	0xbe8b21e1	-0.27174285
140	0x3c4b1f0d	0.01239754
141	0x3e049971	0.12949158
142	0x3d32032b	0.043460052
143	0x3d859071	0.06521691
144	0x3d54ccdb	0.051953178
145	0x3e0b331b	0.13593714
146	0x3d0e91d0	0.034807026
147	0x3c73b6ef	0.014875158
148	0xbb98f177	-0.0046674567
149	0x3c9687d3	0.018375313
150	0x3d09c07f	0.033630844
151	0x3bb363ef	0.0054745595
152	0xbdce36ce	-0.10069047
153	0xbe8c129d	-0.2735795
154	0xbb896914	-0.0041934345
155	0xbd3ca7c2	-0.046058424
156	0xbc062453	-0.008187371
157	0x3e126a37	0.1429833
158	0xbd2121ca	-0.039338864
159	0xbd396eb4	-0.04527159
160	0x3d15dfab	0.03659026
161	0xbcd8730a	-0.026422042
162	0xbceb769f	-0.028743086
163	0xbd378dc3	-0.04481293
164	0x3d7f7f4c	0.06237726
165	0xbcdaf9ba	-0.026730407
166	0xbcdbf70f	-0.026851205
167	0xbcd4925c	-0.025948696
168	0xbab38edd	-0.0013699193
169	0xbcfa97b8	-0.030589923
170	0x3d9ec725	0.077528276
171	0xbca4398d	-0.020046974
172	0x3d4c5619	0.049886797
173	0x3d693626	0.056936406
174	0x3bda1883	0.006655754
175	0xbd527a55	-0.051386196
176	0x3d2b3cf7	0.041806187
177	0x3dee7047	0.11642509
178	0xbe9d20fa	-0.30689222
179	0xbce8e429	-0.028429108
180	0xbca8788c	-0.020565294
181	0xbc3a774a	-0.01138098
182	0x3deddc1f	0.116142504
183	0x3d738f99	0.059463117
184	0x3d2b7cf2	0.041867204
185	0xbca9586a	-0.020672042
186	0x3dbe7fd3	0.09301724
187	0xbdb2ec89	-0.08736522
188	0xbd0a699a	-0.033792116
189	0xbe047af3	-0.12937526
190	0xbe04976a	-0.12948385
191	0x3c9f0145	0.019409785
192	0xbdf670b4	-0.12033215
193	0xbd900f71	-0.07034195
194	0xbe7617e4	-0.24032551
195	0x3dba5532	0.09098281
196	0x3e74b855	0.23898442
197	0xbe276096	-0.16345438
198	0xbe163cba	-0.14671603
199	0x3dc9d294	0.09854618
200	0x3d8518b9	0.06498856
201	0x3bcadcc2	0.006190867
202	0xbe053a58	-0.13010538
203	0x3e324c4d	0.17411919
204	0x3d99d575	0.07511417
205	0xbd836b60	-0.064169645
206	0xbe660e96	-0.22466502
207	0x3cf6fe1f	0.030150471
208	0xbd9b65d6	-0.07587783
209	0x3e07949c	0.13240284
210	0xbd14fb8b	-0.036372703
211	0x3dd04ca4	0.10170868
212	0x3e063bf4	0.13108808
213	0xbe8d4a98	-0.27595973
214	0xbde0146b	-0.109413944
215	0xbd9dcbd1	-0.077048905
216	0x3e0a279c	0.13491672
217	0x3da58cb4	0.080834776
218	0x3dacf60a	0.08445366
219	0xbdedfaa6	-0.11620073
220	0xbd0a9881	-0.033836845
221	0xbdacd318	-0.084387004
222	0xbd2614d6	-0.040547214
223	0x3e11276a	0.14175192
224	0x3dfcc656	0.12342517
225	0x3e24e7bc	0.16104025
226	0x3dd34fc8	0.103179514
227	0xbd7f2905	-0.06229498
228	0xbdb81f2f	-0.08990323
229	0xbdc90da6	-0.09817056
230	0x3d6240b6	0.055237494
231	0xbd639dc1	-0.055570368
232	0x3e382a81	0.17984964
233	0x3e03bb54	0.12864429
234	0x3b8569bf	0.004071444
235	0x3cb80fec	0.02246853
236	0x3e073dbc	0.13207144
237	0x3c8c7ce4	0.017149396
238	0xbe166290	-0.14686036
239	0xbd72856d	-0.059209276
240	0x3dccebc8	0.10005909
241	0x3e0b6f2c	0.13616627
242	0x3e6a415f	0.228765
243	0xbcd10426	-0.025514673
244	0xbc2d9fd9	-0.010597193
245	0x3db1dec8	0.0868507
246	0xbd576ba4	-0.05259289
247	0x3d5362a0	0.051607728
248	0xbd096286	-0.033541225
249	0xbe457d0c	-0.19285983
250	0xbe23a919	-0.15982474
251	0x3c8b649a	0.017015744
252	0x3caeaf67	0.021323873
253	0x3d9391a7	0.07205515
254	0x3dc5c034	0.096558005
255	0x3c0d8160	0.008636802

conv02.bias f4 [22]
0	0xbe8e3b56	-0.27779645
1	0xbd8ee57e	-0.06977366
2	0xbe0ade1d	-0.13561292
3	0xbdabf98b	-0.08397206
4	0xbdd226f9	-0.1026134
5	0xbe9e655f	-0.30936715
6	0x3b4d8218	0.003135806
7	0xbe4a106d	-0.19732828
8	0xbe81268e	-0.25224727
9	0xbcb9f724	-0.022700854
10	0xbe1804de	-0.14845607
11	0xbde8d5fc	-0.11368939
12	0x3cc08f59	0.023505853
13	0xbe0292f4	-0.1275137
14	0xbe5a41ae	-0.21314117
15	0xbe138aa0	-0.1440835
16	0xbe7f52fe	-0.24934003
17	0xbe951c90	-0.29123354
18	0xbd3f4043	-0.046692144
19	0xbe9858df	-0.29755303
20	0xbefa87c1	-0.48931697
21	0xbe98d38b	-0.29848894
