weights/3. classify for triplet loss - models/1. 1103 epochs/conv2Dfeatures.pt (torch, 21655 bytes, 6 tensors)

conv00.weight f4 [4, 1, 5, 5]
0.017548965 -0.03516669 -0.020735731 -0.10286954 -0.10362111 0.038012784 -0.05078297 -0.15138742
-0.14871569 -0.16236219 0.12220967 0.07336069 0.0395348 -0.12081823 -0.11691007 0.040757194
-0.00726502 -0.032509055 0.03911717 -0.028547436 0.014718398 0.009863822 0.08489297 -0.044751994
0.0042519155 0.030254401 -0.12306395 -0.18407218 -0.18587212 -0.22579202 0.023170883 -0.013822164
-0.009961065 -0.17923355 -0.13300289 -0.005399118 0.0713011 0.042264078 0.061602216 0.13243318
0.044946436 0.026168743 0.12836513 0.15419722 0.16209137 -0.040177856 -0.009191797 0.07234039
0.044997342 0.058284175 0.013133825 0.079774775 0.053130735 0.045432597 0.03707283 0.07464669
0.0696274 0.08772512 0.074654035 0.023228763 0.07131142 0.09734019 0.09256431 0.10139546
0.048401028 0.098349534 0.065727785 0.06580847 0.10203757 0.045079023 0.07862319 0.03155275
0.045667842 0.04558815 -0.029634062 -0.035519525 -0.05389887 -0.0746383 -0.020317808 -0.017256692
-0.053695466 -0.10956656 -0.08603495 -0.066278584 -0.0396724 -0.11165873 -0.11729313 -0.1255437
-0.06805695 -0.04003926 -0.078228824 -0.086346276 -0.09204141 -0.09794242 -0.005695158 -0.041000575
-0.02640582 -0.029387869 0.0052289157 -0.0037095547
00000000: d9c2 8f3c f20a 10bd fbdd a9bc 44ad d2bd
00000010: 4e37 d4bd 4bb3 1b3d ce01 50bd 4e05 1bbe
00000020: ed48 18be 4642 26be 1049 fa3d 213e 963d
00000030: 3eef 213d 8c6f f7bd 8c6e efbd 04f1 263d
00000040: 680f eebb 3728 05bd 5339 203d 50dc e9bc
00000050: 7025 713c de9b 213c 5edc ad3d de4d 37bd
00000060: a753 8b3b 14d8 f73c f408 fcbd 6b7d 3cbe
00000070: 4355 3ebe 0636 67be ddd0 bd3c 5c76 62bc
00000080: bc33 23bc 0089 37be e931 08be 16eb b0bb
00000090: 5006 923d 191d 2d3d 9b52 7c3d 909c 073e
000000a0: c119 383d d55f d63c 2672 033e e0e5 1d3e
000000b0: 48fb 253e 8991 24bd 3199 16bc 3327 943d
000000c0: 224f 383d 63bb 6e3d 412f 573c f560 a33d
000000d0: 9d9f 593d 8817 3a3d aed9 173d 5de0 983d
000000e0: cf98 8e3d 3aa9 b33d 37e4 983d 3f4a be3c
000000f0: b90b 923d 4b5a c73d 5b92 bd3d 6ca8 cf3d
00000100: 2840 463d 7b6b c93d 4a9c 863d 97c6 863d
00000110: 13f9 d03d c8a4 383d 3205 a13d 753d 013d
00000120: 340e 3b3d a4ba 3a3d 22c3 f2bc ec7c 11bd
00000130: 10c5 5cbd f7db 98bd 8871 a6bc e85d 8dbc
00000140: c7ef 5bbd 6f64 e0bd 1833 b0bd 11bd 87bd
00000150: 877f 22bd 55ad e4bd 6137 f0bd 878e 00be
00000160: 7161 8bbd 3500 24bd 6f36 a0bd 51d6 b0bd
00000170: 3580 bcbd 0996 c8bd 739e babb 38f0 27bd
00000180: 0551 d8bc d4be f0bc 5357 ab3b 001c 73bb

conv00.bias f4 [4]
-0.8347629 -0.034729593 -0.20727807 0.1615032
00000000: 05b3 55bf 9e40 0ebd b440 54be 1861 253e

conv01.weight f4 [16, 4, 5, 5]
0.017011516 -0.10394772 -0.034072228 0.07386625 0.0033647276 0.11278483 0.17338459 0.1580922
0.039912645 -0.060263373 0.028248854 0.10546082 -0.01791134 -0.0475954 -0.058827538 0.019801209
-0.06402661 -0.09786293 -0.13328792 -0.12314326 0.03144738 -0.035400905 0.11363246 -0.020467022
0.0017243669 -0.24417883 -0.05742337 0.04045415 -0.077234566 -0.10418747 0.05361303 -0.0041126506
0.051948078 0.08967057 0.025682807 0.0051318975 -0.047149055 -0.06925103 -0.044088148 0.1229944
-0.1965882 -0.0063858093 0.11422601 -0.12152102 -0.0073479465 0.034998782 0.079406515 0.060056936
-0.03054098 0.18593551 -0.18400232 0.0024270297 0.060712777 0.024622561 -0.013483613 -0.06327903
-0.15344271 -0.09924741 -0.09490898 0.0029978922 0.1045977 0.05088268 -0.06605631 0.15113832
0.23136836 0.061675392 0.13654958 0.035866782 0.15369703 0.08683472 0.025909029 -0.06863424
-0.060159896 -0.15875265 -0.13027483 0.18918107 0.04680807 -0.17111658 0.04623898 0.028274823
0.0628113 0.012189764 0.19350356 0.024228076 0.047519326 -0.025389899 0.010377256 -0.031480957
-0.09120225 -0.17476335 0.0028981771 -0.11837053 -0.027410205 -0.04679567 -0.10524505 -0.020529231
0.015453942 -0.034519725 0.12172436 0.13983046 0.046734367 0.023809463 0.055422597 -0.21693628
0.017551983 -0.029660068 -0.046995796 -0.071177326 -0.15397105 0.0099751735 -0.024581656 -0.05777137
-0.07289975 0.11151714 0.024442036 0.01877991 -0.0022304906 0.09685605 0.07253582 0.08347374
0.09916964 0.19773921 0.1631808 -0.038884968 -0.103487276 -0.027343517 -0.0074887956 0.032404326
-0.0888608 -0.112269245 0.022955162 -0.030462474 0.03602704 -0.033103175 0.108454645 0.042651366
0.18163352 -0.07448358 -0.14577271 0.06924241 -0.20162356 -0.04365468 -0.11932807 -0.04449424
-0.05063557 -0.041109998 0.026529122 -0.12151571 -0.027725598 0.086666375 -0.07822182 0.1827718
0.16843197 0.10591735 0.101252705 0.0016620944 -0.06327322 -0.0029428457 -0.024096787 0.03808623
-0.005177545 0.17017072 0.03848485 0.042884596 -0.10112777 -0.1392978 -0.08007594 -0.16532195
-0.059958227 -0.17589343 -0.03147633 0.016161442 -0.09965832 0.06344269 0.1095227 -0.07426091
-0.16698205 -0.10924434 -0.149334 -0.1517124 0.004902138 -0.018673161 0.06429868 0.033596568
-0.113521725 0.02619157 -0.1308257 -0.06738295 0.0064962087 0.074734524 0.16115393 0.12827586
0.023274345 0.05909427 0.20569384 0.07680074 0.054019004 0.16852109 -0.008796711 -0.102752104
0.0725074 0.2601303 0.12605083 0.015888184 0.036570735 -0.1122726 -0.26130378 -0.20387165
-0.009974963 -0.14004523 0.21513572 0.04908784 0.054727394 0.207602 -0.11130418 -0.004999829
0.013524004 -0.029941257 0.050655976 0.008294542 0.0056085954 0.13292241 0.023338696 -0.06982836
0.03405227 0.13307412 0.13062122 0.14145339 -0.004289761 -0.032310296 -0.09657644 -0.053859357
-0.029980738 -0.046660744 -0.109437004 0.077096246 0.0378767 -0.10147966 -0.053465616 0.16551378
0.067499906 0.08075759 0.11051834 0.18277456 -0.01931985 -0.016847886 -0.08855181 -0.15418945
0.03199778 0.051929004 0.005796402 -0.06971036 -0.17596923 -0.0992745 -0.046239506 0.14986546
00000000: bc5b 8b3c 8be2 d4bd 528f 0bbd 3047 973d
00000010: c382 5c3b bcfb e63d bb8b 313e ece2 213e
00000020: 717b 233d bad6 76bd 246a e73c d8fb d73d
00000030: cdba 92bc 65f3 42bd 25f5 70bd 2536 a23c
00000040: 6220 83bd 5c6c c8bd a17c 08be 8932 fcbd
00000050: f8ce 003d 8a00 11bd 23b8 e83d 75aa a7bc
00000060: 2704 e23a 040a 7abe c534 6bbd 40b3 253d
00000070: 282d 9ebd 3e60 d5bd 5699 5b3d 6ac3 86bb
00000080: 82c7 543d 34a5 b73d c064 d23c 7a29 a83b
00000090: 5e1f 41bd 7cd3 8dbd c695 34bd 7de4 fb3d
000000a0: 6b4e 49be 0d40 d1bb 54ef e93d 03e0 f8bd
000000b0: 0bc7 f0bb e25a 0f3d e29f a23d 43fe 753d
000000c0: 1431 fabc e165 3e3e 1b6b 3cbe cd0e 1f3b
000000d0: f6ad 783d 41b5 c93c 5fea 5cbc 7098 81bd
000000e0: 1620 1dbe 3a42 cbbd a45f c2bd 4978 443b
000000f0: 5237 d63d 5b6a 503d 8848 87bd 01c4 1a3e
00000100: d4eb 6c3e 569f 7c3d a7d3 0b3e 0ce9 123d
00000110: c162 1d3e 67d6 b13d 2c3f d43c 1c90 8cbd
00000120: 396a 76bd 0e90 22be c466 05be afb8 413e
00000130: d2b9 3f3d 2f39 2fbe 1665 3d3d 9aa0 e73c
00000140: 36a3 803d 93b7 473c cc25 463e f579 c63c
00000150: a0a3 423d 7afe cfbc 5e05 2a3c 2df2 00bd
00000160: 3fc8 babd 2af5 32be 58ef 3d3b 406c f2bd
00000170: 5e8b e0bc d1ac 3fbd b78a d7bd eb2c a8bc
00000180: 8832 7d3c 8e64 0dbd 9f4a f93d b72f 0f3e
00000190: 896c 3f3d 100c c33c ce02 633d 8b24 5ebe
000001a0: 2dc9 8f3c acf9 f2bc aa7e 40bd 6bc5 91bd
000001b0: 96aa 1dbe e96e 233c 785f c9bc aca1 6cbd
000001c0: 774c 95bd 1963 e43d aa3a c83c 53d8 993c
000001d0: 6c2d 12bb 775c c63d a98d 943d 48f4 aa3d
000001e0: 7419 cb3d 267c 4a3e de18 273e d845 1fbd
000001f0: 23f1 d3bd 83ff dfbc 9264 f5bb 66ba 043d
00000200: a7fc b5bd 6bed e5bd 770c bc3c 708c f9bc
00000210: 1791 133d 3297 07bd 781d de3d 33b3 2e3d
00000220: 23fe 393e d98a 98bd 7145 15be f7ce 8d3d
00000230: 6876 4ebe 40cf 32bd 4662 f4bd 983f 36bd
00000240: 3e67 4fbd f562 28bd 9a53 d93c 3bdd f8bd
00000250: cb20 e3bc 247e b13d c332 a0bd 8828 3b3e
00000260: 6e79 2c3e 32eb d83d 945d cf3d a2da d93a
00000270: 6495 81bd c2dc 40bb a066 c5bc 4f00 1c3d
00000280: 65a8 a9bb 3c41 2e3e 4aa2 1d3d c2a7 2f3d
00000290: 141c cfbd 15a4 0ebe dbfe a3bd 284a 29be
000002a0: c296 75bd 681d 34be 53ed 00bd 0065 843c
000002b0: a919 ccbd 3eee 813d 704d e03d 1b16 98bd
000002c0: 58fd 2abe 7fbb dfbd 03eb 18be 7f5a 1bbe
000002d0: 1da2 a03b 75f8 98bc 07af 833d 8e9c 093d
000002e0: 147e e8bd b48f d63c 2cf7 05be 1200 8abd
000002f0: 26de d43b 6a0e 993d 8905 253e bf5a 033e
00000300: d7a9 be3c d50c 723d 68a1 523e b549 9d3d
00000310: 0843 5d3d cb90 2c3e 1520 10bc b26f d2bd
00000320: c27e 943d cc2f 853e 7813 013e f027 823c
00000330: 32cb 153d 2def e5bd 9cc9 85be bbc3 50be
00000340: 076e 23bc 0468 0fbe 8a4c 5c3e 5510 493d
00000350: d529 603d 9e95 543e 72f3 e3bd 9bd5 a3bb
00000360: c993 5d3c 5e47 f5bc a47c 4f3d d5e5 073c
00000370: 4fc8 b73b d01c 083e cb30 bf3c 2c02 8fbd
00000380: 657a 0b3d 9544 083e 92c1 053e 28d9 103e
00000390: 2091 8cbb cd57 04bd dec9 c5bd a19b 5cbd
000003a0: 2a9a f5bc 561f 3fbd 8220 e0bd a3e4 9d3d
000003b0: 9924 1b3d 91d4 cfbd c3fe 5abd 727c 293e
000003c0: 643d 8a3d 3c64 a53d 7057 e23d 4129 3b3e
000003d0: a944 9ebc 9404 8abc a75a b5bd d7e3 1dbe
000003e0: 1b10 033d 82b3 543d bfef bd3b 4ec4 8ebd
000003f0: 4731 34be 6e50 cbbd a365 3dbd 5576 193e

conv01.bias f4 [16]
0.008004634 0.015727887 -0.15941934 0.016652578 -0.14844543 -0.030762104 0.091664076 0.18510096
0.0629062 -0.17419639 -0.099860005 0.51945734 0.01564601 0.23751363 0.068643264 0.40416244
00000000: de25 033c c5d7 803c d33e 23be fd6a 883c
00000010: 1402 18be cf00 fcbc 60ba bb3d 1b8b 3d3e
00000020: f7d4 803d 8a60 32be 6783 ccbd 28fb 043f
00000030: 102c 803c c636 733e d794 8c3d 61ee ce3e

conv02.weight f4 [22, 16, 3, 3]
-0.063945636 -0.07469825 0.023094067 0.18116572 0.18738206 0.12520646 -0.06786157 -0.0072977855
0.01977528 0.00019839841 0.046984356 0.11140208 -0.104976624 -0.26028946 0.07635505 -0.049480665
-0.037014887 -0.1332184 -0.023911582 -0.011702355 -0.14553866 -0.03663282 0.06640501 -0.07294811
0.022015875 0.088185474 0.0976512 0.04236004 0.012429115 0.034329485 -0.06968585 0.12497274
-0.016146606 0.20041166 0.05481685 0.03747541 0.07394344 -0.017704263 -0.017123556 0.13913704
-0.03993036 0.025173357 0.11391266 0.17661487 0.11820418 -0.11837184 -0.050997768 0.13093932
0.13784981 0.021329949 0.012104622 -0.27449718 -0.27855185 -0.023521561 0.0036590663 0.013383397
-0.045891136 -0.12094627 0.019617002 -0.022618193 -0.038443625 -0.015103149 0.015571073 0.055179916
-0.028572243 -0.08326107 -0.01471415 0.049794048 -0.005768171 0.024847722 0.0029589965 -0.053799003
-0.07185006 0.0057570995 0.054342236 -0.04150064 -0.16135797 0.07762878 0.09846095 -0.021908732
0.17582195 -0.103202 -0.116007164 -0.13350807 0.017455533 0.17691307 -0.21310373 0.06522341
0.042518765 -0.013253107 -0.06009177 0.033914663 -0.05122832 0.07635611 -0.064991936 -0.036312833
-0.15338926 -0.0013298842 -0.032354884 -0.097276635 0.015267045 0.002197628 -0.17800386 -0.1814908
-0.017288536 0.063217424 0.08492751 0.1283438 -0.011431877 -0.014572354 0.10476027 0.13268025
0.14268409 0.027633691 0.0980571 0.08670026 0.058395106 0.078601584 0.04870705 -0.03604087
-0.03957959 -0.22069263 0.06702602 -0.08830611 -0.17396203 0.06669758 -0.03759054 -0.07427954
0.04567869 0.027239336 -0.11111325 0.14541978 -0.1876123 0.048018742 0.007576168 -0.0042395764
0.011363582 0.015910123 -0.10563408 -0.16572092 -0.023885673 0.121131554 0.068463184 0.011474631
0.025838738 0.12678392 0.00315449 0.070585795 0.030301442 0.010257946 -0.0430491 -0.099602014
-0.13590473 -0.16122854 0.0059473827 0.016738787 -0.03893817 -0.039563924 -0.05113616 0.008782825
-0.0058654933 0.008554668 -0.018784508 0.017896384 0.0041439114 -0.0811302 -0.08675336 -0.06093063
0.0044369237 -0.043288168 0.12492843 0.0074879094 0.16193 0.027617075 0.002466262 -0.076877944
0.072310224 -0.0011496606 -0.31476656 0.016079107 0.022261795 -0.040947717 0.15669584 0.0022226467
-0.021862866 0.005704911 0.09551623 -0.08969289 -0.00027163318 -0.15026742 -0.022038015 -0.033143647
-0.11077115 -0.07025107 -0.14589727 0.074363634 0.16162978 -0.12572739 -0.060534034 0.11794209
0.07363766 -0.0051264963 -0.05072629 0.042880636 0.086719684 -0.14992827 -0.08982928 -0.011555487
-0.020324666 0.14256269 0.020260831 0.10969859 0.103359506 -0.24905717 -0.075287156 -0.040929954
0.15933059 0.103353456 0.03300094 -0.075013585 -0.005377041 -0.07541976 0.009968766 0.112690024
0.082143076 0.2287299 0.01958531 -0.08526456 -0.08810581 -0.042239226 0.056339424 -0.10521903
-0.0049229586 0.01673985 -0.016470494 0.04005023 0.12919241 -0.106472194 -0.17981605 0.017949648
0.060191695 -0.016377313 0.18879323 0.00686215 0.02780848 0.12358397 0.008169617 0.06420874
-0.038536374 -0.20603377 -0.21407221 0.09772737 -0.015653724 -0.00015267872 0.039949022 -0.062807046
00000000: eef5 82bd 65fb 98bd c52f bd3c 8283 393e
00000010: 15e1 3f3e 1f36 003e 02fb 8abd 4322 efbb
00000020: c5ff a13c 2b09 5039 ab72 403d c626 e43d
00000030: fcfd d6bd a944 85be 0960 9c3d 3dac 4abd
00000040: ec9c 17bd 676a 08be 39e2 c3bc 3cbb 3fbc
00000050: 1608 15be 4c0c 16bd 5aff 873d d265 95bd
00000060: a35a b43c 969a b43d 5afd c73d b981 2d3d
00000070: 7da3 4b3c 139d 0c3d 74b7 8ebd b5f1 ff3d
00000080: e345 84bc b738 4d3e a287 603d d17f 193d
00000090: a96f 973d 8808 91bc b346 8cbc f179 0e3e
000000a0: 048e 23bd 5b38 ce3c 0a4b e93d 87da 343e
000000b0: 0815 f23d ef6c f2bd 09e3 50bd f514 063e
000000c0: 8028 0d3e 25bc ae3c 7752 463c e58a 8cbe
000000d0: 599e 8ebe 4ab0 c0bc f2cc 6f3b 0946 5b3c
000000e0: 58f8 3bbd aeb2 f7bd d6b3 a03c ca49 b9bc
000000f0: 1077 1dbd 3373 77bc d01d 7f3c 5604 623d
00000100: 5610 eabc c884 aabd 9e13 71bc d8f4 4b3d
00000110: ed02 bdbb 738d cb3c b9eb 413b 585c 5cbd
00000120: 2026 93bd 0da6 bc3b f795 5e3d 93fc 29bd
00000130: 063b 25be d6fb 9e3d e5a5 c93d f179 b3bc
00000140: ab0a 343e 925b d3bd 2a95 edbd 57b6 08be
00000150: e8fe 8e3c b328 353e dd37 5abe da93 853d
00000160: 2828 2e3d 8f23 59bc ca22 76bd 1aea 0a3d
00000170: c9d4 51bd 9860 9c3d 7e1a 85bd c4bc 14bd
00000180: 1312 1dbe 824f aeba 8e86 04bd f938 c7bd
00000190: a122 7a3c 1406 103b a546 36be b9d8 39be
000001a0: b0a0 8dbc 2378 813d 79ee ad3d 8f6c 033e
000001b0: c44c 3bbc e2c0 6ebc 8d8c d63d 55dd 073e
000001c0: c71b 123e 0d60 e23c 29d2 c83d e88f b13d
000001d0: b52f 6f3d def9 a03d 0b81 473d 979f 13bd
000001e0: 351e 22bd 40fd 61be f044 893d d5d9 b4bd
000001f0: 1a23 32be be98 883d 8af8 19bd df1f 98bd
00000200: 9419 3b3d 0725 df3c 588f e3bd ece8 143e
00000210: 701d 40be 4daf 443d 8141 f83b 25ec 8abb
00000220: 512e 3a3c f255 823c ae56 d8bd bfb2 29be
00000230: e3ab c3bc d213 f83d 6d36 8c3d 1700 3c3c
00000240: c3ab d33c a5d3 013e 8fbb 4e3b 498f 903d
00000250: bb3a f83c f210 283c 4154 30bd 24fc cbbd
00000260: 9c2a 0bbe 1819 25be 43e2 c23b c81f 893c
00000270: a17d 1fbd c80d 22bd 2674 51bd d7e5 0f3c
00000280: 5333 c0bb e128 0c3c f8e1 99bc 709b 923c
00000290: a6c9 873b 9727 a6bd bfab b1bd 6592 79bd
000002a0: 9d63 913b ef4e 31bd 7ada ff3d 235d f53b
000002b0: fad0 253e 343d e23c 03a1 213b 2f72 9dbd
000002c0: 6217 943d 35b0 96ba 1529 a1be 55b8 833c
000002d0: 5e5e b63c cbb8 27bd e074 203e d3a9 113b
000002e0: c119 b3bc 43f0 ba3b 039e c33d e8b0 b7bd
000002f0: fd69 8eb9 b4df 19be 1189 b4bc a2c1 07bd
00000300: fcdb e2bd cbdf 8fbd 1866 15be f64b 983d
00000310: 4782 253e aebe 00be 89f2 77bd 9f8b f13d
00000320: 57cf 963d 2bfc a7bb 5fc6 4fbd 9ba3 2f3d
00000330: 179a b13d cc86 19be 6af8 b7bd 3a53 3dbc
00000340: ea7f a6bc f4fb 113e 0bfa a53c a8a9 e03d
00000350: 26ae d33d d808 7fbe 2730 9abd 2ba6 27bd
00000360: 8f27 233e faaa d33d fe2b 073d b9a0 99bd
00000370: e431 b0bb ad75 9abd 0954 233c 07ca e63d
00000380: a13a a83d 2c38 6a3e 5f71 a03c 309f aebd
00000390: d270 b4bd 0a03 2dbd 2bc4 663d 137d d7bd
000003a0: c550 a1bb 0322 893c 21ed 86bc b60b 243d
000003b0: 044b 043e 180e dabd b321 38be 240b 933c
000003c0: 918b 763d b729 86bc 0353 413e e3db e03b
000003d0: 9cce e33c 9819 fd3d dbd9 053c df7f 833d
000003e0: 51d8 1dbd 84fa 52be bf35 5bbe 4a25 c83d
000003f0: 3d3c 80bc 6218 20b9 96a1 233d fba0 80bd

conv02.bias f4 [22]
-0.23876572 -0.08793364 -0.12661228 -0.107493654 -0.10204815 -0.30007672 0.020152379 -0.22085376
-0.19255103 -0.02972305 -0.11796293 -0.08921718 0.047646847 -0.0986317 -0.18464838 -0.14609754
-0.20855358 -0.27596435 -0.03620418 -0.24576536 -0.45101494 -0.31125277
00000000: 007f 74be 8d16 b4bd a6a6 01be a225 dcbd
00000010: 9ffe d0bd a8a3 99be 9a16 a53c 7d27 62be
00000020: 192c 45be c17d f3bc 8c96 f1bd 7fb7 b6bd
00000030: 5729 433d 6bff c9bd 7714 3dbe 989a 15be
00000040: 128f 55be 334b 8dbe d64a 14bd eaa9 7bbe
00000050: 6eeb e6be 865c 9fbe
