weights/3. classify for triplet loss - models/1. 1103 epochs/fully_connect.pt (torch, 689668 bytes, 10 tensors)

linear00.weight f4 [256, 352]
0	0x3d88bafc	0.066762894
1	0x3da3db99	0.08000869
2	0x3d275749	0.040854726
3	0x3da45310	0.080236554
4	0xbe09e31a	-0.13465539
5	0xbd48455c	-0.04889427
6	0xbde131a2	-0.10995795
7	0xbd01b035	-0.031662185
8	0xba8a5bf4	-0.0010555969
9	0xbdd65d52	-0.10467018
10	0xbd235af0	-0.039881647
11	0x3e5c0629	0.21486725
12	0x3b94371a	0.00452317
13	0x3d4fcfda	0.050735332
14	0xbbb350c2	-0.0054722736
15	0x3e5d875f	0.21633671
16	0xbd1b8ab5	-0.03797408
17	0x3d0c0a3c	0.034189448
18	0x3ddbae3d	0.10726593
19	0x3e21b672	0.15792254
20	0x3db3a3b4	0.08771458
21	0x3da8db2b	0.08244928
22	0x3c5baa21	0.013407261
23	0x3d9904fc	0.07471654
24	0x3dc53839	0.09629864
25	0xbe0d7f08	-0.1381799
26	0x3d83cb10	0.064352155
27	0xbd633bd9	-0.055476997
28	0x3dddce59	0.10830373
29	0x3d5c7fe9	0.053832922
30	0xbc44c77f	-0.012010454
31	0x3ca4b6f2	0.020106766
32	0xba8ec259	-0.001089166
33	0xbba1facf	-0.004943229
34	0xbd2f33b7	-0.04277393
35	0x3b2027a5	0.0024437692
36	0x3bbe0250	0.0057986155
37	0xbd9c8e1e	-0.07644294
38	0xbce99632	-0.028514002
39	0xbdc5158f	-0.096232526
40	0xbce23667	-0.027613832
41	0x3dddb36b	0.10825237
42	0xbd0ba39e	-0.034091584
43	0xbcd7a6c0	-0.02632463
44	0xbc3c6e38	-0.011500888
45	0x3ddda77e	0.10822962
46	0xbe4c7eba	-0.19970217
47	0x3c482b8f	0.012217416
48	0x3c809151	0.015694292
49	0x3de5a1ec	0.11212525
50	0x3cabf3a3	0.020990198
51	0xbd1a12f6	-0.03761574
52	0x3dc43ba1	0.09581686
53	0xbd2decaa	-0.04246203
54	0xbd4e63ff	-0.050388332
55	0xbe0dbba7	-0.13841115
56	0x3d2b2ca7	0.04179063
57	0xbc05b5c3	-0.008161011
58	0xbd90f9a3	-0.070788644
59	0x3e132a9f	0.14371727
60	0x3c9d8750	0.019229561
61	0xbe166191	-0.14685656
62	0xbdf7148e	-0.12064467
63	0x3de74316	0.112920925
64	0x3d395bbf	0.04525351
65	0x3da3da29	0.08000595
66	0x3e3069a5	0.172278
67	0xbbb92f2c	-0.0056513753
68	0x3db01a6b	0.08598789
69	0x3d4df4b2	0.050282188
70	0xbcae65d4	-0.02128879
71	0x3e05b7d3	0.13058405
72	0x3dc5eca9	0.0966428
73	0x3d79ffac	0.061034843
74	0xbd195f86	-0.037444614
75	0x3c322425	0.010872875
76	0x3ce052ba	0.027383197
77	0xbc267b56	-0.0101612415
78	0xbe003de4	-0.1252361
79	0x3d705e85	0.05868389
80	0xbc4ccdb7	-0.012500218
81	0xbd39512c	-0.045243427
82	0x3d4c8236	0.049928866
83	0x3ddab784	0.10679534
84	0xbbc9ca01	-0.006158114
85	0x3c197d99	0.009368324
86	0xbc677b58	-0.014128529
87	0x3d6cd3c3	0.05781914
88	0x3dae847b	0.085213624
89	0x3c342a06	0.010996347
90	0x39719945	0.00023040648
91	0x3d2d539c	0.042316064
92	0xbd96bed0	-0.07360613
93	0xbe20a9b5	-0.15689738
94	0xbe128bb6	-0.14311108
95	0x3def71c0	0.11691618
96	0x3df171ea	0.117893055
97	0xbca93140	-0.020653367
98	0xbba837fe	-0.005133628
99	0x3d26e576	0.040746175
100	0xbcd61783	-0.026134258
101	0xbdcb5827	-0.09928923
102	0x3d151506	0.036397003
103	0xbd0737f2	-0.033012338
104	0xbdb95a64	-0.09050444
105	0xbbc14567	-0.005898166
106	0x3dab848b	0.0837489
107	0xbc2b9321	-0.01047209
108	0x3de3d937	0.11125415
109	0xbb977205	-0.0046217465
110	0x3dc35612	0.09537901
111	0x3de64a6a	0.11244662
112	0xbd724d37	-0.05915567
113	0xbe023530	-0.12715602
114	0x3d8da6cd	0.0691658
115	0x3d281bd8	0.04104218
116	0x3e06caad	0.13163252
117	0x3dfc233c	0.12311408
118	0x3de84598	0.11341399
119	0x3e35ca65	0.17752989
120	0x3db84c92	0.0899898
121	0x3d736b0f	0.05942827
122	0x3d5a0062	0.05322302
123	0xbcea72aa	-0.02861913
124	0x3e62f324	0.22163063
125	0xbddfd089	-0.10928447
126	0x3d1ac6c7	0.037787225
127	0x3e3038c3	0.17209153
128	0xbd995cb3	-0.07488384
129	0xbc6725ef	-0.014108165
130	0xbcb0dea7	-0.021590544
131	0x3d551605	0.052022953
132	0xbd4fd76e	-0.05074256
133	0xbd4a17dc	-0.04933916
134	0x3ce6b146	0.028160702
135	0xbd13a186	-0.036042713
136	0x3d185c0d	0.03719716
137	0xbe0fed95	-0.14055474
138	0x3c27e7c1	0.0102481255
139	0xbca35462	-0.019937698
140	0x3d670204	0.056398407
141	0xbdbac947	-0.09120422
142	0x3b03551c	0.0020039743
143	0x3d90cca6	0.070702836
144	0xbde09a63	-0.10966947
145	0x3c12d696	0.008962294
146	0xbd0f58e5	-0.034996886
147	0x3cc40862	0.023929778
148	0x3dee8067	0.116455846
149	0xbc95eae7	-0.018300487
150	0xbd8293ef	-0.06375872
151	0xbd7c9783	-0.06166793
152	0x3d7da48c	0.061924502
153	0x3dcd6593	0.10029139
154	0x3ce9cec8	0.028540984
155	0xbd0362d1	-0.03207666
156	0xbd4d6b12	-0.05015094
157	0x3db9331a	0.0904295
158	0x3dad52a4	0.08463028
159	0xbd037103	-0.0320902
160	0x3da2fa00	0.0795784
161	0xbd63f2de	-0.055651538
162	0x3d90ee38	0.070766866
163	0xbd11fe9b	-0.0356432
164	0xbd5cb84f	-0.053886708
165	0xbd38b6d7	-0.045096245
166	0xbd88d63d	-0.06681488
167	0xbd3b1a47	-0.045679357
168	0x3dcbf27a	0.09958358
169	0x3d1028ad	0.03519504
170	0xbccf5d11	-0.025312932
171	0xbd0abfd1	-0.033874337
172	0x3e3ec380	0.18629265
173	0xbd247f90	-0.040160716
174	0xbe5f6fd4	-0.21820003
175	0x3db116a5	0.08646897
176	0x3d00eaf0	0.031474054
177	0xbd172581	-0.036901
178	0x3d20954c	0.03920488
179	0x3c458f3d	0.012058076
180	0xbdf24414	-0.11829391
181	0xbda09d69	-0.078425236
182	0xbda7ec1b	-0.081993304
183	0xbdd616ed	-0.104535915
184	0x3d9d68de	0.076860175
185	0x3d1a8eef	0.03773397
186	0x3d3a0ed5	0.0454243
187	0x3d92b9ab	0.071643196
188	0x3d79cfae	0.060989074
189	0x3d5e84b1	0.054325763
190	0xbe5396c7	-0.20662986
191	0xbccc4eb2	-0.024939869
192	0x3d60ca71	0.054880563
193	0xbc62036f	-0.013794764
194	0x3e4b02d6	0.198253
195	0xb915c369	-0.00014282543
196	0xbd218002	-0.03942872
197	0xbd1a4613	-0.037664484
198	0x3dbc51e8	0.0919531
199	0xbde0180a	-0.10942085
200	0xbca30a69	-0.019902425
201	0xbe9c1619	-0.3048561
202	0xbd93f4af	-0.07224404
203	0x3d61d325	0.055133004
204	0xbca3bc2c	-0.019987188
205	0x3d97405e	0.07385324
206	0xbb925870	-0.004466109
207	0x3d933c3d	0.07189224
208	0x3debd7be	0.11515759
209	0xbdb1ce65	-0.08681945
210	0xbd8be6f2	-0.06831159
211	0xbb2c20d1	-0.0026264677
212	0xbdfee4ec	-0.12446007
213	0xbc5c04f4	-0.013428915
214	0xbd190061	-0.037353877
215	0x3d33777d	0.043815125
216	0xbe3f7040	-0.18695164
217	0xbe00a012	-0.12561062
218	0xbd8ffcd6	-0.070306465
219	0x3c9de60e	0.019274738
220	0xbde999b2	-0.11406268
221	0xbca104cb	-0.019655606
222	0xbe893545	-0.26798454
223	0xbd205f0b	-0.03915314
224	0xbb5333cb	-0.0032226916
225	0x3db12c95	0.086510815
226	0xbdfbf894	-0.12303272
227	0x3db0015b	0.085940085
228	0xbd073609	-0.033010516
229	0xbd764286	-0.060122035
230	0x3c71463e	0.01472622
231	0x3ce3e59c	0.027819447
232	0xbbb233d0	-0.0054383054
233	0xbd39d36f	-0.045367654
234	0x3d4a12e6	0.04933443
235	0xbd204c45	-0.039135236
236	0x3e4ae567	0.19814073
237	0xbce91d60	-0.02845639
238	0x3d921ef6	0.071348116
239	0xbe25a967	-0.16177903
240	0x3d361637	0.04445478
241	0x3d6a13ec	0.057147905
242	0xbd2cb1a6	-0.042161606
243	0x3d5bfc5f	0.053707477
244	0xbc96e13a	-0.018417943
245	0xbcc3257a	-0.023821581
246	0xbd785447	-0.06062725
247	0xbb265337	-0.002537919
248	0x3b094c2e	0.0020949948
249	0xbdd4585a	-0.10368414
250	0xbe3114ea	-0.17293134
251	0x3b1c6143	0.0023861683
252	0x3d9b6b34	0.07588807
253	0xbdbf5499	-0.093423076
254	0xbdb577be	-0.0886073
255	0xbe39a87e	-0.18130681

linear00.bias f4 [256]
0	0x3b49612d	0.0030728087
1	0xbb4e9eb4	-0.00315277
2	0xbc259862	-0.010107132
3	0x3ccb4640	0.024813771
4	0xbd690f96	-0.05689963
5	0x3d79be3d	0.06097244
6	0xbe0c5271	-0.13703324
7	0xbd81712e	-0.063204154
8	0xbdae3d50	-0.08507788
9	0xbd19a60f	-0.03751188
10	0xbdef8afb	-0.1169643
11	0xbd50dd7d	-0.050992478
12	0xbc856548	-0.016283646
13	0xbdd8b254	-0.105808884
14	0xbdf46a13	-0.119342946
15	0xbd7a19a6	-0.061059617
16	0xbcda5b76	-0.02665494
17	0xbe1d77f8	-0.15377796
18	0x3d670151	0.05639774
19	0xbd264b0b	-0.04059891
20	0xbde73ff1	-0.11291493
21	0xbdab90d1	-0.08377231
22	0xbd260a61	-0.04053724
23	0x3db69821	0.08915735
24	0xbc9a883c	-0.01886379
25	0x3d88ff53	0.06689324
26	0xbce7e9d5	-0.028309742
27	0xbd499ce5	-0.049221892
28	0xbd250458	-0.040287346
29	0xbd87ca6c	-0.06630406
30	0xbc8e8d2f	-0.017401306
31	0xbca9e494	-0.020738877
32	0x3d32f1c0	0.043687582
33	0xbd29da8a	-0.04146818
34	0xbce76fa4	-0.028251477
35	0xbd59045c	-0.052982673
36	0xbd634a1d	-0.0554906
37	0xbb823654	-0.0039737616
38	0x3e00e455	0.12587102
39	0xbd8ffaef	-0.07030284
40	0xbdf7aff6	-0.12094109
41	0x3da1165b	0.07865592
42	0xbae15d17	-0.0017193881
43	0xbdcae8f7	-0.09907716
44	0xbd1832c6	-0.037157796
45	0xbe20a899	-0.15689315
46	0xbdd90326	-0.10596304
47	0xbd044e3b	-0.03230117
48	0x3b2da862	0.002649807
49	0xbd83008b	-0.06396588
50	0xbceaaa62	-0.028645698
51	0x3cdfb726	0.027309012
52	0xbd6f25a9	-0.058385525
53	0xbd19f741	-0.037589315
54	0xbbf72398	-0.007542085
55	0xbb7b7aca	-0.0038372749
56	0x3ce2da49	0.027691977
57	0x3c16ef9b	0.0092124
58	0xbe06e7c2	-0.13174346
59	0x3c9d6dfd	0.019217486
60	0xbc81f58e	-0.01586416
61	0x3d4f5c18	0.050624937
62	0xbde922d8	-0.11383599
63	0x3cea811e	0.028626021
64	0xbd8d1673	-0.068890475
65	0xbd8c6971	-0.06856049
66	0xbdb18b77	-0.08669179
67	0x3c8d7e0d	0.01727202
68	0xbc8588bc	-0.016300552
69	0x3c9a02af	0.018800108
70	0x3da8e189	0.082461424
71	0x3d88856b	0.066660725
72	0xbe00bfe5	-0.12573202
73	0x3bedfa45	0.0072625005
74	0xbd58d63e	-0.052938692
75	0x3c51278f	0.012765779
76	0x3d051081	0.032486442
77	0x3d9fd954	0.07805124
78	0xbd0dc0c1	-0.034607653
79	0xbc9c63b0	-0.019090503
80	0xbd559509	-0.052144084
81	0x3d3abdb8	0.045591086
82	0x3d3840e6	0.044983767
83	0xbc509f27	-0.012733257
84	0xbd953ac2	-0.07286598
85	0xbcffea21	-0.031239571
86	0xbcd5c3c8	-0.026094332
87	0xbe0d551a	-0.13801995
88	0xbd10b4ec	-0.03532879
89	0x3c4063d2	0.011742549
90	0xbc85a04d	-0.016311789
91	0xbca2cc42	-0.019872788
92	0x3c01faba	0.007933313
93	0xbd336fe5	-0.043807883
94	0xbb9363be	-0.004497974
95	0x3a85e1b8	0.0010214364
96	0xbc0360b8	-0.008018665
97	0xbd359656	-0.044332825
98	0xbbe50ab4	-0.0069898013
99	0xbce703de	-0.028200086
100	0xbd1c228c	-0.038118884
101	0xbe45e77c	-0.19326586
102	0xbd92876d	-0.07154737
103	0xbbd4860e	-0.006485707
104	0xbddb21e4	-0.106998235
105	0x3cfaee38	0.03063117
106	0xbd5ec5b1	-0.054387752
107	0x3d30f9de	0.043207042
108	0x3b19337b	0.0023376632
109	0xbe2fc03a	-0.17163172
110	0x3d14f4f0	0.036366403
111	0xbdfddc60	-0.12395549
112	0xbe15b18d	-0.14618511
113	0xbbfc1169	-0.007692505
114	0xbdcbc58a	-0.09949787
115	0xbd3c2929	-0.04593769
116	0x3da47bd7	0.08031433
117	0xbd1a2d3e	-0.037640803
118	0xbe14ab9b	-0.14518587
119	0xbdde963e	-0.108685
120	0xbcadb13b	-0.021202674
121	0xbd77f6df	-0.06053817
122	0xbd70ad0c	-0.05875878
123	0x3b8ba8ab	0.00426205
124	0xbcb2b01b	-0.02181249
125	0x3c201963	0.009771678
126	0xbccb38d7	-0.024807377
127	0xbd939d61	-0.07207752
128	0x3bc5123c	0.0060141366
129	0xbd401401	-0.046894077
130	0xbe0a4898	-0.13504255
131	0xbd3d584d	-0.04622679
132	0xbcef37b9	-0.029201375
133	0x3d581a76	0.05275961
134	0xbc9955d9	-0.018717693
135	0xbd04acb2	-0.032391258
136	0xbda04e2a	-0.078274086
137	0xbdc72b8c	-0.09725103
138	0xbdaed37f	-0.085364334
139	0x3ca0a736	0.019610982
140	0xbd276d40	-0.040875673
141	0xbe0aeee3	-0.1356769
142	0xbd2b0124	-0.041749135
143	0x3c2ca6cf	0.010537817
144	0xbe2a7e59	-0.1664976
145	0xbdf46e7b	-0.11935135
146	0xbe2fc8d2	-0.1716645
147	0xbcdd7db3	-0.027037477
148	0xbc627940	-0.013822854
149	0x3cb297e6	0.021800946
150	0xbdd4026c	-0.103520244
151	0x3d9edee1	0.077573545
152	0xbd2f6a67	-0.042826083
153	0xbb032628	-0.0020011757
154	0xbda48726	-0.0803359
155	0x3da8c8fe	0.08241461
156	0xbe15e5ba	-0.14638415
157	0x3c489e35	0.012244751
158	0x3c90e3cc	0.017686747
159	0xbd58618a	-0.052827395
160	0xbcb130eb	-0.021629771
161	0xbe16e1d2	-0.14734581
162	0xbe03e980	-0.12882042
163	0x3c75ce6a	0.015002826
164	0xbda694c7	-0.08133846
165	0x3bc0d383	0.005884589
166	0x3d229dc2	0.03970123
167	0xbd2554d0	-0.040364087
168	0xbda9343f	-0.08261918
169	0x3d277f23	0.04089273
170	0xbc97bb5a	-0.018521953
171	0x3cec5777	0.0288503
172	0xbd765039	-0.0601351
173	0xbd0bb402	-0.034107216
174	0x3cc62d18	0.024191424
175	0x3d089547	0.033345487
176	0x3b8b7282	0.0042555938
177	0xbd33095e	-0.043710105
178	0xbdffd356	-0.12491481
179	0x3c4d84c6	0.012543863
180	0xbda1544b	-0.07877406
181	0xbd014526	-0.031560086
182	0x3d67b9d0	0.05657369
183	0xbd30885a	-0.043098785
184	0x3dca51db	0.09878894
185	0x3d7e014d	0.06201296
186	0xbe1d5630	-0.15364909
187	0x3b0b6ff8	0.0021276455
188	0x3d05a187	0.032624748
189	0xbd948a27	-0.07252913
190	0xbd2e353a	-0.04253123
191	0x3d94041b	0.072273456
192	0xbd085ce7	-0.033291724
193	0xbd9e2a60	-0.07722926
194	0x3c7dccd8	0.015490733
195	0xbd04b8c2	-0.03240276
196	0x3d993319	0.07480449
197	0x3c4276a3	0.0118691055
198	0x3c474b5d	0.012163964
199	0x3c9a500c	0.018836997
200	0xbda00486	-0.07813363
201	0x3db11782	0.08647062
202	0xbd37b2b1	-0.044848148
203	0x3d5fe877	0.054665055
204	0x3cf367a0	0.029712498
205	0xbadcd396	-0.0016847725
206	0xbc464875	-0.012102236
207	0xbca69ac6	-0.020337474
208	0xbd139975	-0.03603502
209	0x3db3005f	0.08740305
210	0x3c2cf304	0.010555986
211	0xbd755c24	-0.059902325
212	0x3c958f7c	0.018256895
213	0x3c0f33d0	0.00874038
214	0xbbd70ac8	-0.0065625645
215	0xbda09c45	-0.07842306
216	0x3d5e137d	0.054217804
217	0xbd965e93	-0.07342257
218	0xbc2ed867	-0.0106717115
219	0xbe109d99	-0.14122619
220	0x3d3c8b6a	0.046031393
221	0xbdbbe130	-0.091738105
222	0xbdd61581	-0.1045332
223	0xbd631e4e	-0.055448823
224	0x3d22b9f2	0.039728113
225	0xbd2e21d4	-0.04251273
226	0xbd5e0971	-0.054208223
227	0xbdf776f2	-0.12083234
228	0xbd2ba815	-0.041908342
229	0xbda505cd	-0.08057747
230	0xbd953581	-0.07285596
231	0x3da0973f	0.07841348
232	0xbdc4e9d1	-0.096149094
233	0xbbdc5e72	-0.006725126
234	0xbd00159f	-0.03127062
235	0x3c86edea	0.016470868
236	0xbd41aaaa	-0.0472819
237	0xbbb5de3a	-0.005550173
238	0xbd9ace3d	-0.07558868
239	0xbd07c227	-0.033144142
240	0xbd50cf66	-0.05097904
241	0xbd37a0d5	-0.044831116
242	0xbdf468a1	-0.11934019
243	0x3daf65c4	0.08564332
244	0x3cea7b2b	0.028623184
245	0x3c8dd173	0.017311787
246	0xbd5bbdde	-0.05364787
247	0x3d3319ae	0.043725662
248	0x3d4ff7ef	0.050773557
249	0xbcd046d0	-0.025424391
250	0xbc836a79	-0.016041981
251	0x3cb23fe8	0.021758988
252	0x3dc64cd7	0.09682625
253	0x3ccd9ce4	0.025099225
254	0xbd8f0e2a	-0.069851235
255	0xbd01d8ad	-0.03170078

batch_norm00.weight f4 [256]
0	0x3ff7ca8c	1.9358687
1	0x3feb721d	1.83942
2	0x3ff4ca70	1.9124279
3	0x3fe77243	1.8081745
4	0x3fec95c6	1.8483207
5	0x3fdb002e	1.710943
6	0x3fe5f9b2	1.7966826
7	0x3fdceea0	1.7260323
8	0x3fe5fb30	1.7967281
9	0x3fe105ab	1.7579855
10	0x3fd525f6	1.665221
11	0x3fe960d7	1.8232678
12	0x3fe332e2	1.7749903
13	0x3fe894cc	1.8170409
14	0x3fe6fbce	1.8045595
15	0x3fdbd92a	1.7175648
16	0x3fe3dc93	1.7801689
17	0x3fd0f7ef	1.6325663
18	0x3fdbbc42	1.7166827
19	0x3fe4d1ec	1.7876563
20	0x3fdbc99b	1.71709
21	0x3fd41cad	1.6571251
22	0x3fe60e77	1.7973164
23	0x3fdaf047	1.7104577
24	0x3fe665d2	1.7999823
25	0x3fdd5007	1.7290047
26	0x3ff65293	1.924395
27	0x3fed8e3d	1.8559033
28	0x3fe8c398	1.818469
29	0x3fdd1837	1.7273015
30	0x3fe015b8	1.7506628
31	0x3fd9ba3f	1.7009963
32	0x3fdadad8	1.7098036
33	0x3fdfa873	1.7473282
34	0x3fe6e45c	1.803844
35	0x3ff0e62d	1.8820244
36	0x3fe1e3b3	1.7647613
37	0x3fdd753f	1.7301406
38	0x3fe141ee	1.7598245
39	0x3fe78b04	1.8089299
40	0x3fe1baa4	1.7635083
41	0x3fe329d6	1.7747142
42	0x3fe4b1b1	1.7866727
43	0x3ff78e2e	1.9340265
44	0x3ff7dda3	1.9364513
45	0x3fe9fadf	1.8279685
46	0x3fd3f9bf	1.6560591
47	0x3fd18808	1.6369638
48	0x3fe2f812	1.7731955
49	0x3fd938f0	1.6970501
50	0x3ff0f2ea	1.8824131
51	0x3fde2b55	1.7356974
52	0x3fd850a2	1.6899607
53	0x3fea591e	1.8308446
54	0x3fcfe0b1	1.6240445
55	0x3ff0cca7	1.8812455
56	0x3fd9e38f	1.702257
57	0x3fd69050	1.6762791
58	0x3fcecfe3	1.6157192
59	0x3fdf5c57	1.7450055
60	0x3fd6e8a9	1.6789752
61	0x3fe18901	1.7619935
62	0x3feae4ef	1.8351115
63	0x3fdfd12f	1.7485713
64	0x3fdc470b	1.720918
65	0x3fe40200	1.781311
66	0x3fdbe1da	1.71783
67	0x3ff22b33	1.8919433
68	0x3fddc861	1.7326776
69	0x3fd30b22	1.6487772
70	0x3fe08ac1	1.7542344
71	0x3fe87b0f	1.8162555
72	0x3fe25cf5	1.7684618
73	0x3ff2d2ab	1.8970541
74	0x3fde2ad3	1.7356819
75	0x3fdf27ee	1.743406
76	0x3fed5606	1.8541877
77	0x3fe3bb97	1.7791623
78	0x3fd308f5	1.6487108
79	0x3fdff5c2	1.7496874
80	0x3fdd321f	1.7280921
81	0x3fca9c63	1.5828975
82	0x3fe8fa75	1.8201433
83	0x3feb14e0	1.8365746
84	0x3febf8e7	1.8435334
85	0x3fd52ec4	1.6654897
86	0x3ffb9aff	1.9656676
87	0x3fe44447	1.7833337
88	0x3fe65621	1.7995034
89	0x3fdc4b3d	1.7210461
90	0x3fec74b2	1.8473113
91	0x3fe3948e	1.777971
92	0x3fef4c8b	1.8695234
93	0x3fe4209c	1.7822452
94	0x3fedcfc2	1.8579028
95	0x3fee2a4c	1.8606658
96	0x3fe4c60f	1.7872943
97	0x3fcb83a9	1.5899554
98	0x3fd238ec	1.6423621
99	0x3fee4d7f	1.86174
100	0x3fe1ee21	1.7650796
101	0x3fe9e0d9	1.8271743
102	0x3fdbf508	1.7184153
103	0x3fe7417e	1.8066862
104	0x3ff9ddf1	1.9520856
105	0x3fe886c4	1.8166127
106	0x3ff3e88e	1.9055345
107	0x3fdde3c9	1.733514
108	0x3fe3b93e	1.7790906
109	0x3fd811c6	1.6880424
110	0x3fdffb12	1.7498496
111	0x3fe165e5	1.7609221
112	0x3fe0f44f	1.7574557
113	0x3fe49344	1.7857442
114	0x3ff05121	1.8774759
115	0x3fd2b035	1.6460024
116	0x3fee70ff	1.8628234
117	0x3fe527a2	1.790272
118	0x3ff3f0dc	1.905788
119	0x3fe64324	1.798924
120	0x3fe15648	1.7604456
121	0x3fdd167a	1.7272484
122	0x3fecfbb3	1.8514313
123	0x3fc8faf7	1.5701588
124	0x3fe610e5	1.7973906
125	0x3fd9deff	1.7021178
126	0x3fe44499	1.7833434
127	0x3febfb68	1.8436098
128	0x3fd536bc	1.6657329
129	0x3fe52b01	1.7903749
130	0x3fcd300f	1.6030291
131	0x3ff03b71	1.876814
132	0x3fec0c46	1.8441246
133	0x3fe080a7	1.7539262
134	0x3fdc9adb	1.7234758
135	0x3fe49bd2	1.7860053
136	0x3ff8c90d	1.9436356
137	0x3fd4acdf	1.6615256
138	0x3ff31d5d	1.8993336
139	0x3fce7c17	1.6131619
140	0x3fe9e8f7	1.827422
141	0x3fdd4162	1.7285578
142	0x3fe49d4d	1.7860504
143	0x3ff0bd04	1.8807683
144	0x3fef458e	1.8693101
145	0x3fe2bd4d	1.771402
146	0x3fe2622e	1.7686212
147	0x3fdfd2df	1.7486228
148	0x3fe1009c	1.7578311
149	0x3ff21507	1.8912667
150	0x3fed31dc	1.8530841
151	0x3ff4b04e	1.9116304
152	0x3fc54c9d	1.5414006
153	0x3fd324fb	1.649566
154	0x3fed183b	1.852302
155	0x3fe79d89	1.8094951
156	0x3fd9800c	1.6992202
157	0x3fe5abc9	1.794305
158	0x3fea10ef	1.8286418
159	0x3fe1f0c2	1.7651598
160	0x3fe7b551	1.8102208
161	0x3ff5933b	1.9185556
162	0x3ff6c8da	1.9280045
163	0x3fea7887	1.8318032
164	0x3fda7620	1.7067299
165	0x3ffcc687	1.9748086
166	0x3fe7402a	1.8066456
167	0x3feb227f	1.8369902
168	0x3fd93fb6	1.6972568
169	0x3fde3eb2	1.7362883
170	0x3fd80194	1.6875482
171	0x3fe9d668	1.8268557
172	0x3ff372f4	1.9019456
173	0x3fd9e217	1.7022122
174	0x3fda04c1	1.7032701
175	0x3ff16d0a	1.8861401
176	0x3feeb8e8	1.8650179
177	0x3fdcfaf2	1.7264082
178	0x3fec207d	1.8447415
179	0x3fe722c7	1.8057488
180	0x3fdcd22e	1.7251642
181	0x3fedf2fc	1.8589778
182	0x3fe29c8b	1.7704023
183	0x3ff95e17	1.9481839
184	0x3feee5d9	1.8663894
185	0x3fdd87ab	1.7307028
186	0x3fe94117	1.8222989
187	0x3fd6fd62	1.6796076
188	0x3fd0dd00	1.6317444
189	0x3fe28011	1.7695333
190	0x3fe75d6b	1.8075384
191	0x3fe4ff30	1.7890377
192	0x3ff0053f	1.8751601
193	0x3fd27664	1.644238
194	0x3fd6a386	1.6768653
195	0x3fdc6535	1.7218386
196	0x3fd8ddff	1.6942748
197	0x3fd80cfb	1.6878961
198	0x3fdb7dd2	1.7147772
199	0x3fc88869	1.5666629
200	0x3fd4cedc	1.6625628
201	0x3fd7ab64	1.6849179
202	0x3fe60377	1.7969807
203	0x3fe102ec	1.7579017
204	0x3ff5925b	1.9185289
205	0x3fe2d312	1.7720664
206	0x3fe49851	1.7858983
207	0x3fda6a86	1.7063758
208	0x3fd1e986	1.6399391
209	0x3fddeef3	1.7338547
210	0x3fe5ad77	1.7943562
211	0x3fe35f70	1.77635
212	0x3fe48f2c	1.7856193
213	0x3fee1528	1.8600206
214	0x3fe594da	1.7936051
215	0x3fde09cf	1.7346743
216	0x3fe4d9f1	1.787901
217	0x3feedcce	1.8661134
218	0x3ff36942	1.9016497
219	0x3fe3d033	1.7797912
220	0x3ff790db	1.9341081
221	0x3fdea10b	1.7392896
222	0x3fe40a81	1.7815706
223	0x3fe1d3bb	1.764274
224	0x3fe69e34	1.801703
225	0x3fdb1c6b	1.7118047
226	0x3fe008cf	1.7502688
227	0x3ff36ef7	1.9018239
228	0x3fec39c4	1.8455129
229	0x3fdd13bd	1.7271649
230	0x3fe1207f	1.7588042
231	0x3fe81adf	1.81332
232	0x3fec7af9	1.8475028
233	0x3fd683a1	1.675892
234	0x3fe189f5	1.7620226
235	0x3fe94774	1.8224931
236	0x3fe3270f	1.7746295
237	0x3fdc5b9a	1.7215455
238	0x3fc590fa	1.5434868
239	0x3fde6940	1.737587
240	0x3fec238b	1.8448347
241	0x3fd4290f	1.657503
242	0x3fde1f1b	1.7353243
243	0x3fe645f0	1.7990093
244	0x3ff258fa	1.8933403
245	0x3fdad01b	1.7094759
246	0x3fed49fa	1.8538201
247	0x3ff11ebd	1.8837506
248	0x3fea8497	1.8321713
249	0x3ff8b6ff	1.9430846
250	0x3fe12260	1.7588615
251	0x3ff02f61	1.8764459
252	0x3febe0c4	1.8427968
253	0x3fe163fe	1.760864
254	0x3fd96a2f	1.698553
255	0x3fe62661	1.7980462

batch_norm00.bias f4 [256]
0	0x3e3bab0a	0.18326965
1	0xbdcdc8d4	-0.100480705
2	0xbf5b77f8	-0.8572993
3	0x3da06fe3	0.07833841
4	0x3e782316	0.24232134
5	0xbea92904	-0.33039105
6	0xbe16fea6	-0.14745578
7	0xbf5453a7	-0.82940143
8	0x3df47d66	0.1193798
9	0xbe9f3d09	-0.31101254
10	0x3cd2e764	0.025745101
11	0xbb654987	-0.0034986453
12	0xbee3b3a2	-0.44472986
13	0xbe6aaa51	-0.22916533
14	0x3deec1f4	0.116580874
15	0xbf54ba72	-0.8309699
16	0x3e3095a3	0.17244582
17	0xbf3321f8	-0.6997371
18	0xbe82885c	-0.2549466
19	0x3f36cafb	0.71403474
20	0xbf0c4138	-0.54787016
21	0x3f319b30	0.6937742
22	0x3e5d3429	0.21601929
23	0xbead5ec0	-0.3386135
24	0xbe4eb9b0	-0.20188022
25	0x3de95525	0.11393193
26	0xbf01eb31	-0.507495
27	0x3e43d01c	0.19122356
28	0xbe8cde82	-0.2751351
29	0x3cf209c4	0.029545672
30	0xbe23058c	-0.15920085
31	0xbe68327b	-0.22675507
32	0xbe9e868b	-0.30962023
33	0x3da6c444	0.081429034
34	0xbe04d1ef	-0.12970708
35	0x3e574253	0.21021394
36	0xbd16fbc5	-0.0368612
37	0xbea60bdd	-0.32430926
38	0x3da7e0ad	0.081971504
39	0xbe0ac30a	-0.13550964
40	0xbe7b46af	-0.24538682
41	0x3ea1f9e5	0.31635967
42	0xbf11bd7b	-0.5692975
43	0x3dd68cd4	0.104760796
44	0x3e03a3ce	0.12855455
45	0x3e3a10a6	0.18170413
46	0xbf1e95de	-0.6194743
47	0xbeca8701	-0.39556125
48	0x3e3bc2f3	0.18336086
49	0x3eed9c31	0.46408227
50	0xbedbcba6	-0.4292881
51	0x3e01f366	0.12690505
52	0xbee0f000	-0.43933105
53	0x3ee154cc	0.44010007
54	0xbec45cba	-0.38351995
55	0x3ea41b5e	0.3205213
56	0xbf3a852d	-0.7285946
57	0x3e378b09	0.17924131
58	0xbf540c99	-0.8283172
59	0xbecfee60	-0.40611553
60	0x3e380469	0.17970432
61	0x3eb7d99c	0.3590821
62	0xbefd0dbe	-0.49424547
63	0xbf40cbb0	-0.753108
64	0xbde02b8e	-0.109458074
65	0x3ed0c1c4	0.4077283
66	0xbf26a6e5	-0.6509841
67	0xbeaa0fb9	-0.3321512
68	0xbd504c31	-0.05085391
69	0xbcd7d406	-0.026346218
70	0x3f0607a1	0.5235539
71	0xbeb1b219	-0.3470619
72	0xbd9eaedc	-0.077481955
73	0xbdff9b4f	-0.12480795
74	0x3edd2652	0.431933
75	0xbebd4b06	-0.369713
76	0x3e28861f	0.16457413
77	0x3e8695eb	0.26286253
78	0xbeea573e	-0.45769686
79	0xbf57e22b	-0.8432948
80	0x3ccaedf5	0.02477167
81	0xbf7e6d52	-0.9938556
82	0xbea0eb73	-0.31429633
83	0x3eb9f1db	0.36317334
84	0xbd9f5469	-0.07779772
85	0xbf336f61	-0.70091826
86	0x3ef0d672	0.4703861
87	0xbe769a62	-0.2408233
88	0x3e55126a	0.20807806
89	0xbeb86a33	-0.36018524
90	0x3eab1069	0.33410957
91	0xbdfa5330	-0.12222898
92	0xbe95add8	-0.29234195
93	0xbe811249	-0.25209263
94	0x3d6bbfeb	0.057556074
95	0xbec57777	-0.38567707
96	0xbe1a61ff	-0.15076445
97	0xbf5a996d	-0.8539036
98	0xbf7ebb5c	-0.9950464
99	0x3e8fb9e4	0.2807151
100	0xbe899865	-0.2687408
101	0xbe167bf8	-0.14695728
102	0xbf16582c	-0.5872829
103	0xbde18518	-0.11011714
104	0xbccda29e	-0.025101956
105	0x3eb8f894	0.3612715
106	0x3e943137	0.28943798
107	0x3e303c5e	0.17210528
108	0xbc15a803	-0.009134295
109	0xbea971a7	-0.33094522
110	0x3e59c247	0.21265517
111	0xbf19d430	-0.600894
112	0xbef4476e	-0.47710747
113	0x3e763b10	0.24045968
114	0x3e0cf93b	0.13766949
115	0xbec6c2f2	-0.38820606
116	0x3e868fad	0.2628149
117	0x3e61f76f	0.22067045
118	0xbeb92c1e	-0.3616647
119	0x3ebea54b	0.37235484
120	0xbebaf462	-0.36514574
121	0x3dd7e969	0.10542566
122	0x3c0f9453	0.008763391
123	0x3f736a53	0.9508411
124	0xbe1613a0	-0.14655924
125	0x3e8fa7b2	0.2805763
126	0x3e5bf05a	0.21478406
127	0x3f1e3362	0.61797154
128	0xbee63a40	-0.44966316
129	0xbf5233b6	-0.82110155
130	0xbf641b61	-0.89104277
131	0x3f06f7b7	0.5272173
132	0x3d82a3d1	0.06378902
133	0x3e68f8b1	0.22751118
134	0xbeed225b	-0.46315274
135	0x3f1347e9	0.575316
136	0xbe27c7ba	-0.16384783
137	0xbdb95a9d	-0.09050486
138	0x3dfe5b4f	0.124197595
139	0xbe38399c	-0.17990726
140	0xbeeadff2	-0.45873982
141	0xbe8092fd	-0.25112143
142	0x3d89010f	0.06689655
143	0x3e991348	0.29897523
144	0x3dfa9148	0.122347414
145	0xbe5a9285	-0.21344955
146	0x3f07d307	0.5305638
147	0xbcb5f471	-0.022211285
148	0xbeb0703b	-0.34460625
149	0x3f117988	0.56826067
150	0xbdfc1be1	-0.12310005
151	0xbea19b01	-0.3156357
152	0xbf3fd6c4	-0.7493708
153	0xbcd68fa4	-0.02619154
154	0x3f48a8fe	0.7838286
155	0xbcb49ef9	-0.02204846
156	0xbf44f94b	-0.7694289
157	0x3ee3a47d	0.44461432
158	0x3dcb4952	0.09926094
159	0xbecbba0d	-0.39790383
160	0x3dae013e	0.08496331
161	0xbe8dcbbb	-0.27694497
162	0xbe2dd9f5	-0.16977675
163	0x3e258fbb	0.1616811
164	0xbdfa9b16	-0.122366115
165	0x3d38eaed	0.045145918
166	0xbe67efa7	-0.22650014
167	0x3e89decf	0.26927802
168	0xbde661f5	-0.112491526
169	0x3c957e67	0.01824875
170	0xbf2945fc	-0.6612241
171	0x3e7a9353	0.24470262
172	0x3d66ce0d	0.05634885
173	0x3eb27ae3	0.3485938
174	0x3e005eb4	0.12536126
175	0xbf1db80e	-0.6160897
176	0x3e92b68b	0.28654894
177	0xbd2e9138	-0.04261896
178	0x3c345cff	0.0110085
179	0x3db9d407	0.09073644
180	0xbccdff1f	-0.025146065
181	0xbf1d4d22	-0.6144582
182	0xbb42d0d0	-0.0029726513
183	0xbf104dc5	-0.56368667
184	0x3d95d885	0.073166884
185	0x3f1ede67	0.6205811
186	0x3eab8d27	0.33506128
187	0xbe6ba985	-0.23013885
188	0x3e94a019	0.29028395
189	0xbe9de787	-0.30840704
190	0xbf7dcb49	-0.99138314
191	0x3e9d4b1a	0.3072136
192	0x3d6652fc	0.056231484
193	0xbf5e1b5b	-0.8676049
194	0x3efc4522	0.49271494
195	0x3cd68ceb	0.026190242
196	0xbf68b376	-0.90898836
197	0x3c2c1c02	0.010504724
198	0xbe9a7d37	-0.30173656
199	0xbf4412ef	-0.7659139
200	0xbf1f0a95	-0.6212552
201	0xbd41e44b	-0.047336858
202	0x3dc66d6f	0.096888416
203	0xbd4114e7	-0.047139075
204	0x3ecfda5e	0.40596288
205	0xbe63c8e5	-0.22244604
206	0xbe058efd	-0.13042827
207	0xbdf12ac8	-0.11775738
208	0xbf01176c	-0.50426364
209	0x3e54a0ee	0.20764515
210	0x3f1b6fe0	0.6071758
211	0xbcc045a9	-0.023470717
212	0xbf2b525b	-0.6692254
213	0x3f4762b1	0.77884966
214	0xbdbe6f81	-0.092986114
215	0xbe6fd415	-0.23420747
216	0xbe369b95	-0.17832787
217	0xbe38932d	-0.18024893
218	0x3e39a4db	0.18129294
219	0xbf3c1369	-0.7346712
220	0x3d3c44b1	0.045963947
221	0x3da1dc32	0.07903327
222	0x3d31c8f0	0.04340452
223	0xbb2a2b98	-0.0025965925
224	0x3f2ea960	0.68227196
225	0x3f2f6df3	0.68527144
226	0xbe86abdf	-0.26303002
227	0xbd91abaf	-0.07112824
228	0xbedd031a	-0.4316643
229	0xbe387c2f	-0.18016122
230	0xbf211491	-0.62922007
231	0xbd8f2b18	-0.06990641
232	0x3dc4c663	0.09608152
233	0x3e3437ff	0.17599486
234	0x3eb2bba5	0.34908786
235	0x3ece5a31	0.40303186
236	0xbefb1301	-0.49037936
237	0xbf59e261	-0.8511105
238	0xbf6986fe	-0.91221607
239	0x3d418404	0.04724504
240	0xbf0edc75	-0.5580514
241	0xbf1e3a45	-0.6180766
242	0xbf167b59	-0.58781964
243	0x3e13e73d	0.14443679
244	0x3ea45d7f	0.32102582
245	0xbf29d0db	-0.66334313
246	0xbdf03c85	-0.11730293
247	0xbf2dcb5d	-0.6788843
248	0x3e8e06ed	0.2773966
249	0x3ee2c818	0.44293284
250	0x3e59b80a	0.21261612
251	0x3e7ba797	0.24575649
252	0x3f0657a9	0.5247751
253	0x3f107132	0.5642272
254	0xbdd21261	-0.10257412
255	0x3d8659ba	0.06560083

batch_norm00.running_mean f4 [256]
0	0x3e6c6b57	0.23087822
1	0x3d26d77b	0.040732842
2	0x3da245db	0.0792348
3	0x3db25f12	0.087095395
4	0x3d07b1fc	0.033128724
5	0x3d03960e	0.032125525
6	0x3ccff143	0.025383597
7	0x3d48fe06	0.04907038
8	0x3d73d318	0.059527487
9	0x3d872266	0.06598358
10	0x3da3ff36	0.08007662
11	0x3d60ca6a	0.054880537
12	0x3d617e46	0.055052064
13	0x3d8f8a92	0.07008852
14	0x3d0ec233	0.03485317
15	0x3c82e501	0.015978338
16	0x3d6629f1	0.056192342
17	0x3d3870c7	0.045029428
18	0x3c7da168	0.015480377
19	0x3e061fab	0.13098018
20	0x3d636d16	0.055523954
21	0x3e4c31a4	0.19940811
22	0x3d790ee2	0.06080521
23	0x3e33548a	0.17512718
24	0x3d87454b	0.066050135
25	0x3d885f38	0.066587865
26	0x3de5440c	0.111946195
27	0x3d6ca38d	0.05777316
28	0x3c9801ff	0.01855564
29	0x3b770a60	0.0037695393
30	0x3c970424	0.018434592
31	0x3cc41c56	0.023939293
32	0x3d455b3e	0.04818272
33	0x3c0a038e	0.008423699
34	0x3d88569c	0.066571444
35	0x3d10b358	0.035327286
36	0x3d274f09	0.04084686
37	0x3d4769c1	0.04868484
38	0x3dbe9967	0.09306603
39	0x3dc1e4e9	0.09467489
40	0x3c475749	0.0121668065
41	0x3d67095f	0.05640542
42	0x3d0b5ff7	0.034027066
43	0x3da0c75c	0.07850525
44	0x3db5459b	0.08851167
45	0x3dde846e	0.10865103
46	0x3d9bec4d	0.0761343
47	0xbc15e9bb	-0.009149964
48	0x3d5e3789	0.05425218
49	0x3d1853cc	0.03718929
50	0x3d51cdb0	0.05122155
51	0x3ce5cbbd	0.028051252
52	0x3d5b4093	0.05352838
53	0x3daa4747	0.08314376
54	0x3c68450d	0.014176619
55	0x3d729d7a	0.059232213
56	0x3e3537a5	0.17697008
57	0x3d7f0974	0.062264875
58	0x3bf74bc4	0.0075468738
59	0x3e0ca96f	0.13736509
60	0x3cdf2268	0.027238086
61	0x3a793629	0.00095066667
62	0x3da70556	0.081553146
63	0x3d69efe9	0.05711356
64	0x3d749b4a	0.059718408
65	0x3c893d56	0.01675288
66	0x3d4683d3	0.04846556
67	0x3d903bef	0.070426814
68	0x3cc1276b	0.023578366
69	0x3d2a6f60	0.04161012
70	0x3d4401b4	0.047853187
71	0x3d863406	0.065528914
72	0x3d81cbef	0.06337725
73	0x3d8fccf8	0.070215166
74	0x3d19fec0	0.037596464
75	0x3d3d4b6e	0.046214513
76	0x3de8f7f4	0.11375418
77	0x3cf7c4b4	0.030245163
78	0x3cccf05e	0.02501696
79	0x3cb28a89	0.021794574
80	0x3cc1e07e	0.023666617
81	0x3c98112b	0.018562874
82	0x3d8bbef7	0.06823533
83	0x3d86db41	0.06584788
84	0x3c849f02	0.016189102
85	0x3cde8fe6	0.027168225
86	0x3dcb9daa	0.099421814
87	0x3d165562	0.03670252
88	0x3d1c730f	0.038195666
89	0xbc845da2	-0.016157929
90	0x3d27d6ee	0.040976457
91	0x3d15c87e	0.036568157
92	0x3db6ec84	0.089318305
93	0xbcffafde	-0.03121179
94	0x3d844122	0.064577356
95	0x3e312267	0.1729828
96	0x3d5d48fb	0.054024678
97	0x3d500ecc	0.05079536
98	0x3d4ea3d6	0.050449215
99	0x3dbbed7f	0.09176158
100	0xbb5e7260	-0.0033942685
101	0x3d276949	0.040871892
102	0x3d300180	0.04297018
103	0x3e21046e	0.15724346
104	0x3dc13cf6	0.094354555
105	0x3d865d66	0.06560783
106	0x3d096060	0.033539176
107	0x3d820023	0.06347682
108	0x3d87dee6	0.066343114
109	0x3cdff6b1	0.027339311
110	0x3d09e510	0.033665717
111	0x3ca0b686	0.019618284
112	0x3d797cc2	0.060909994
113	0x3da2ca25	0.07948712
114	0x3e061ba8	0.13096488
115	0x3d4c1b2b	0.049830597
116	0x3bc41e9c	0.0059850942
117	0x3d867d8a	0.065669134
118	0x3cd57596	0.026057046
119	0x3c956049	0.018234389
120	0x3cba4351	0.022737177
121	0x3da69923	0.08134677
122	0x3dd0f297	0.1020252
123	0x3db7fee5	0.08984164
124	0x3c1694c1	0.009190739
125	0x3d242627	0.040075447
126	0x3d7f9d5e	0.062405936
127	0x3d95a39d	0.073065974
128	0x38e1df70	0.000107704545
129	0x3cf8c8b2	0.030369136
130	0x3cf91e8f	0.03041008
131	0x3d95d98b	0.07316884
132	0xbb254166	-0.0025215982
133	0x3dc905f0	0.098155856
134	0x3dadba74	0.08482829
135	0x3d71116a	0.058854498
136	0x3daeac4f	0.08528959
137	0x3d81d06e	0.06338583
138	0x3dd01f78	0.10162252
139	0xbcc6b246	-0.02425493
140	0x3c3c3a2b	0.011488478
141	0x3c28607e	0.010276912
142	0x3cd85009	0.026405351
143	0x3dac6781	0.08418179
144	0x3c894a68	0.016759112
145	0x3d289e82	0.04116679
146	0x3deb7d72	0.11498536
147	0x3dc0467d	0.093884446
148	0x3dd98f68	0.10623056
149	0x3c440aa8	0.011965431
150	0x3d90504a	0.07046564
151	0x3db2e477	0.087349825
152	0x3d631816	0.055442892
153	0x3c9943d4	0.0187091
154	0x3db9f706	0.09080319
155	0x3d53f998	0.051751703
156	0x3d5b632f	0.053561386
157	0x3d2ae42b	0.041721504
158	0x3db4b72e	0.08824001
159	0x3d2f44f3	0.042790364
160	0x3cf0923e	0.029366609
161	0x3d9f7636	0.07786219
162	0x3e35803c	0.17724699
163	0x3d9bf630	0.07615316
164	0x3e112c6e	0.14177105
165	0x3d441c39	0.047878478
166	0x3cd87da0	0.02642709
167	0x3db5bcb5	0.08873884
168	0x3d833f9b	0.06408616
169	0x3d153c08	0.036434203
170	0x3dc9c513	0.09852042
171	0x3cb31ad0	0.021863371
172	0x3d539738	0.051657885
173	0x3c704470	0.014664754
174	0x3d15d831	0.03658313
175	0x3d82a60a	0.06379326
176	0x3d87efff	0.066375725
177	0x3de3eeeb	0.11129554
178	0x3c5734e2	0.013135167
179	0x3db2bf0d	0.08727846
180	0x3d8db78e	0.06919776
181	0x3e0fb6a5	0.14034517
182	0x3d51404d	0.051086713
183	0x3d857271	0.065159686
184	0x3dbfbd32	0.09362258
185	0x3cc1ab60	0.023641288
186	0x3e14786b	0.14499061
187	0xbc66d231	-0.0140881995
188	0x3808a12d	3.2575033e-05
189	0x3d3db7b0	0.046317756
190	0x3d17ec3e	0.037090532
191	0xbc76256d	-0.015023571
192	0x3c38a0f2	0.011268841
193	0x3ca1f3cb	0.01976957
194	0x3dffa8ea	0.1248339
195	0x3cc75a4c	0.02433505
196	0x3d086143	0.03329588
197	0x3c5e7a8f	0.013579025
198	0x3d80916a	0.062777355
199	0x3d1040d2	0.035218067
200	0xbcb49215	-0.022042314
201	0x3d391eca	0.04519538
202	0x3d8d9ba7	0.06914454
203	0x3d6b0019	0.05737314
204	0x3dcd78d3	0.10032811
205	0x3dff6191	0.12469781
206	0x3d8f82ce	0.07007371
207	0x3d2c8719	0.042121027
208	0x3c3d9748	0.011571713
209	0x3c46f1e0	0.012142628
210	0x3db2fe6d	0.08739934
211	0x3daba09e	0.08380245
212	0x3de074fd	0.10959814
213	0x3dc7e4bd	0.09760425
214	0x3d57a502	0.052647598
215	0x3dd0720f	0.10178005
216	0x3cf4b008	0.029869094
217	0x3d1be708	0.038062125
218	0x3d525393	0.051349234
219	0x3d572c1f	0.05253231
220	0x3da47882	0.080307975
221	0x3d89144a	0.06693323
222	0x3d3c157d	0.04591893
223	0x3d38aee5	0.045088667
224	0x3c676e74	0.014125455
225	0x3d306c01	0.04307175
226	0x3d23c954	0.039986923
227	0x3dbe3861	0.09288097
228	0x3c6a0b0d	0.014284861
229	0x3d7e19c2	0.062036283
230	0x3cc5ee12	0.024161372
231	0x3d8a4130	0.06750715
232	0x3defbbdc	0.11705753
233	0x3ae8c853	0.0017759897
234	0x3daa01ab	0.083010994
235	0x3d7fd678	0.062460393
236	0x3d09f97b	0.03368519
237	0x3d8b5497	0.068032436
238	0xbbb34bd6	-0.005471687
239	0xbc8990b1	-0.016792627
240	0x3d3f8744	0.04675986
241	0x3dda3d9d	0.10656283
242	0x3e115d65	0.14195783
243	0x3d0c9167	0.034318354
244	0x3de2e5d1	0.1107899
245	0x3d7149bf	0.05890822
246	0x3cd484da	0.025942255
247	0x3dd1add0	0.1023823
248	0x3da98432	0.082771674
249	0x3d14717b	0.036241036
250	0x3d1b29f1	0.037881795
251	0x3c01adba	0.007914955
252	0x3d51f9a0	0.05126345
253	0x3ceb1aa3	0.028699225
254	0xbbbf5a87	-0.005839649
255	0x3cf3741b	0.02971845

batch_norm00.running_var f4 [256]
0	0x3e8bdb24	0.2731563
1	0x3d7c0ff6	0.06153866
2	0x3e045536	0.1292313
3	0x3dffc8a5	0.12489442
4	0x3d875717	0.06608408
5	0x3d38864c	0.04504995
6	0x3d6527f1	0.055946294
7	0x3da449ca	0.08021887
8	0x3daa2d31	0.08309401
9	0x3d975f03	0.07391169
10	0x3dfec9c2	0.12440826
11	0x3d89a6ca	0.067212656
12	0x3dbbffd1	0.091796525
13	0x3dd1d2f3	0.102453135
14	0x3d5ecc30	0.054393947
15	0x3d3d3dc4	0.046201482
16	0x3dbd4888	0.0924235
17	0x3d5f9c17	0.05459222
18	0x3d169083	0.03675891
19	0x3e4b52e1	0.19855835
20	0x3d9bcf12	0.07607855
21	0x3e7e9269	0.24860539
22	0x3d968e01	0.07351304
23	0x3e52bb54	0.20579273
24	0x3dcaa7fb	0.09895321
25	0x3da932d9	0.082616515
26	0x3e0e0b2c	0.13871449
27	0x3d9fb63f	0.077984326
28	0x3d1c211d	0.038117517
29	0x3cc3fccf	0.02392426
30	0x3d0de20a	0.034639396
31	0x3d42e176	0.047578298
32	0x3d615870	0.05501598
33	0x3d039e6a	0.032133497
34	0x3db90bfe	0.090354905
35	0x3d638ab9	0.055552218
36	0x3d4f9c9d	0.050686467
37	0x3d7ffbbb	0.06249593
38	0x3df6530f	0.12027561
39	0x3deb3c50	0.11486113
40	0x3d1825a1	0.03714526
41	0x3d89e38b	0.067328535
42	0x3d57c6a3	0.05267967
43	0x3da96e37	0.08272975
44	0x3de8c4cd	0.11365662
45	0x3e154533	0.14577179
46	0x3dc78077	0.097412996
47	0x3cdbf91c	0.026852183
48	0x3d9bedc0	0.076137066
49	0x3d844bf7	0.06459802
50	0x3d972aee	0.07381235
51	0x3d80b295	0.06284062
52	0x3d86e26a	0.06586154
53	0x3dd31247	0.103062205
54	0x3d21593f	0.039391752
55	0x3da583c4	0.08081773
56	0x3e7971c8	0.2435981
57	0x3d948d4f	0.07253515
58	0x3cfc50cc	0.030800246
59	0x3e5f8f96	0.21832117
60	0x3d1e1e20	0.03860295
61	0x3d0215e3	0.031759154
62	0x3de88f77	0.11355489
63	0x3d755d5e	0.059903495
64	0x3dbd4460	0.09241557
65	0x3d2de5b8	0.042455405
66	0x3d8cd557	0.06876629
67	0x3dd31e9f	0.10308575
68	0x3d0ac7eb	0.033882063
69	0x3d6dafd4	0.05802901
70	0x3d874242	0.066044345
71	0x3dba25d4	0.090892464
72	0x3dc25056	0.09487979
73	0x3dea04ac	0.11426672
74	0x3d760e57	0.06007227
75	0x3d96be2f	0.073604934
76	0x3e32cf47	0.17461883
77	0x3d1962b3	0.037447643
78	0x3d822323	0.06354358
79	0x3d214996	0.039376818
80	0x3d40bd3c	0.047055468
81	0x3d5b79af	0.053582843
82	0x3dc95a44	0.0983167
83	0x3dbadf93	0.09124675
84	0x3d5e3350	0.054248154
85	0x3d320783	0.043464195
86	0x3df7be6e	0.120968685
87	0x3dccd00b	0.100006185
88	0x3d57d266	0.052690886
89	0x3cb0034d	0.021485949
90	0x3d59f4c5	0.053211946
91	0x3d47d4ca	0.048786916
92	0x3e0ba182	0.13635829
93	0x3c2a56f5	0.010396709
94	0x3dcb2158	0.09918469
95	0x3e57adc8	0.21062386
96	0x3d957efe	0.072996125
97	0x3d93a0d7	0.07208412
98	0x3d85b988	0.06529528
99	0x3e01ab69	0.12663044
100	0x3caff385	0.021478424
101	0x3da8fd78	0.0825147
102	0x3d6ae1ff	0.057344433
103	0x3e3e9754	0.18612415
104	0x3e144e40	0.14482975
105	0x3d90f2bd	0.07077549
106	0x3d7e4a3c	0.062082514
107	0x3d9a37f7	0.07530206
108	0x3dae9d0e	0.085260496
109	0x3d54125e	0.05177533
110	0x3d35db4e	0.0443986
111	0x3d468eb2	0.04847593
112	0x3d89a549	0.06720979
113	0x3de6adbc	0.11263606
114	0x3e28b24b	0.16474263
115	0x3d6b73ce	0.057483487
116	0x3cfac211	0.030610116
117	0x3db850cd	0.089997865
118	0x3d325b57	0.04354414
119	0x3d320ad4	0.043467358
120	0x3d2b1667	0.04176941
121	0x3e027bd9	0.12742557
122	0x3dfa4002	0.1221924
123	0x3dc79771	0.09745682
124	0x3d31bf78	0.04339549
125	0x3da01be8	0.07817823
126	0x3da02f16	0.07821481
127	0x3dd69964	0.10478476
128	0x3ccf77ae	0.025325622
129	0x3d65f6a9	0.056143437
130	0x3d67662f	0.056493934
131	0x3db8c47a	0.0902185
132	0x3d0e2b67	0.03470936
133	0x3de48e8a	0.1116
134	0x3df4d173	0.11954012
135	0x3dacd5ec	0.0843924
136	0x3e03f28d	0.12885495
137	0x3dbadbfb	0.09123989
138	0x3dcb3672	0.09922494
139	0x3c90a4af	0.017656652
140	0x3d18949b	0.037251096
141	0x3d058dda	0.032605983
142	0x3d6fd76d	0.058555055
143	0x3db2682d	0.08711276
144	0x3d2330f2	0.0398416
145	0x3d58b76f	0.05290931
146	0x3e165642	0.14681342
147	0x3de31653	0.110882424
148	0x3e0d0c62	0.13774255
149	0x3d32511b	0.04353438
150	0x3dc3b31c	0.09555647
151	0x3dfbfe65	0.12304381
152	0x3dbfb7e3	0.093612455
153	0x3d2b168c	0.04176955
154	0x3def28c0	0.11677694
155	0x3d6d66fa	0.057959534
156	0x3d971112	0.07376303
157	0x3d75cf59	0.060012195
158	0x3df9516d	0.12173734
159	0x3d9be157	0.076113395
160	0x3d45312c	0.048142597
161	0x3dbe65b5	0.09296743
162	0x3e4510a5	0.1924463
163	0x3dc8cab6	0.09804289
164	0x3e42d1e4	0.1902538
165	0x3d6d592d	0.057946373
166	0x3d2f4f8a	0.042800464
167	0x3dd3228c	0.10309324
168	0x3d9dcfa9	0.07705624
169	0x3d8aca88	0.06776911
170	0x3deb094c	0.114763826
171	0x3d53dddd	0.051725257
172	0x3d96ed78	0.07369512
173	0x3d0109d7	0.031503525
174	0x3d53ba0f	0.05169111
175	0x3dc8da70	0.09807289
176	0x3d9df884	0.07713416
177	0x3e019293	0.1265357
178	0x3d1c1d30	0.038113773
179	0x3df7e88f	0.12104904
180	0x3db6f434	0.08933297
181	0x3e09f684	0.13472944
182	0x3d91fda2	0.07128455
183	0x3daab44f	0.083351724
184	0x3dd467d2	0.10371365
185	0x3d3c2214	0.045930937
186	0x3e450343	0.19239525
187	0x3cad05fc	0.021121018
188	0x3cdaa539	0.026690112
189	0x3d9c7a8c	0.076405615
190	0x3d5a7ef1	0.053343717
191	0x3c438124	0.011932645
192	0x3d03da90	0.03219086
193	0x3d42a6ba	0.047522284
194	0x3e04f8ef	0.12985586
195	0x3d5b40fb	0.053528767
196	0x3d97f8f2	0.074205294
197	0x3cd9fc5a	0.026609588
198	0x3db883f2	0.090095416
199	0x3d54fb86	0.051997684
200	0x3c6692a6	0.01407305
201	0x3d83030a	0.06397064
202	0x3dcd53f0	0.100257754
203	0x3db08d62	0.08620717
204	0x3e04b711	0.1296046
205	0x3e3f4c3d	0.18681426
206	0x3db653a4	0.08902672
207	0x3d5ad882	0.053429134
208	0x3d223679	0.03960273
209	0x3d064796	0.032783113
210	0x3dd20db6	0.102565214
211	0x3e227799	0.15865935
212	0x3dfba2e6	0.1228693
213	0x3e0a4c2c	0.1350562
214	0x3d9235f7	0.07139199
215	0x3debbbf6	0.1151046
216	0x3d2812d7	0.041033592
217	0x3d83795d	0.064196326
218	0x3db2bc39	0.08727307
219	0x3dbc6b19	0.09200115
220	0x3dd14c14	0.10219589
221	0x3da7708a	0.08175762
222	0x3d991fd6	0.07476775
223	0x3d60144d	0.05470686
224	0x3d10d7e8	0.035362154
225	0x3d85d2ef	0.06534373
226	0x3d808f17	0.06277292
227	0x3decee93	0.11568942
228	0x3d202583	0.039098274
229	0x3dc495de	0.095988974
230	0x3d0a5fa8	0.03378263
231	0x3d93f4e2	0.07224442
232	0x3e11470e	0.14187261
233	0x3ccc0067	0.024902536
234	0x3dc43087	0.09579568
235	0x3d9a67cc	0.07539329
236	0x3d46b7f2	0.048515268
237	0x3d971afe	0.07378195
238	0x3cd5d4f0	0.026102513
239	0x3c3b82a2	0.0114447195
240	0x3d912395	0.07086865
241	0x3e0ebb5e	0.13938662
242	0x3e293a5a	0.16526166
243	0x3d55f245	0.052233
244	0x3e03cd6e	0.12871334
245	0x3d946cf2	0.07247342
246	0x3d57835a	0.0526155
247	0x3e0a41c6	0.13501653
248	0x3df9315a	0.12167616
249	0x3d4d00a5	0.050049443
250	0x3d4a83eb	0.049442213
251	0x3d142014	0.036163405
252	0x3d91f32a	0.07126458
253	0x3d746d8c	0.059674785
254	0x3cb5a089	0.022171276
255	0x3d76ff80	0.060302258

linear01.weight f4 [128, 256]
0	0x3d400043	0.04687525
1	0xbd1f7531	-0.03893012
2	0xbd94273d	-0.072340466
3	0x3ba7641d	0.00510837
4	0xbe879a48	-0.26484895
5	0xbe4b48f9	-0.19852056
6	0x3dbbeb41	0.091757305
7	0x3e5f36fc	0.21798319
8	0x3cff29da	0.031147886
9	0xbe29b502	-0.16572955
10	0x3d20ea18	0.03928575
11	0x3d15656e	0.036473684
12	0xbd591224	-0.052995816
13	0xbd2ea1f3	-0.042634916
14	0x3e199e09	0.15001692
15	0xbe67b6d2	-0.22628334
16	0x3e236440	0.15956211
17	0x3c819d82	0.015822176
18	0x3ec2913b	0.38001427
19	0xbe93098b	-0.28718218
20	0x3e199f0b	0.15002076
21	0x3e17ebf4	0.14836103
22	0x3d5b069f	0.05347311
23	0xbe7e8395	-0.24854882
24	0xbecc2d60	-0.39878368
25	0x3e482f3d	0.1954927
26	0x3dc2aaf5	0.09505264
27	0x3e065172	0.13117006
28	0x3dd20cf8	0.1025638
29	0x3e3e1444	0.18562418
30	0xbd6c59ac	-0.057702705
31	0x3d109f70	0.0353083
32	0x3e8ed5fe	0.27897638
33	0x3d80483c	0.062637776
34	0xbee13e5c	-0.4399289
35	0x3ca5f67a	0.02025913
36	0xbe05c8cb	-0.13064878
37	0xbe8404ae	-0.2578482
38	0x3ddc67a6	0.10761957
39	0xbe47452e	-0.19459984
40	0xbe30db11	-0.17271067
41	0x3e00b773	0.1256998
42	0x3df0f3d3	0.11765256
43	0xbe6de4f4	-0.2323187
44	0xbe8c3008	-0.27380395
45	0xbdcb70d1	-0.099336274
46	0xbe94260d	-0.2893528
47	0xbda8cf9a	-0.08242722
48	0xbe68248a	-0.22670189
49	0xbd924872	-0.07142724
50	0xbe40e156	-0.18835959
51	0x3ed9d67e	0.42546457
52	0xbecd4abb	-0.40096077
53	0xbcdd4bd8	-0.027013704
54	0x3ae62c9d	0.0017560903
55	0x3dfdebea	0.12398513
56	0xbdc0fbe6	-0.09423046
57	0xbd908473	-0.07056513
58	0x3e68076e	0.22659084
59	0xbb349668	-0.002755547
60	0xbd9118ff	-0.07084846
61	0xbc2def31	-0.01061611
62	0x3d32d45e	0.04365956
63	0xbe3ae736	-0.18252262
64	0x3e2406ec	0.16018265
65	0x3de8d9a5	0.113696374
66	0xbe0fbca6	-0.14036807
67	0xbee79c96	-0.45236653
68	0xbe582416	-0.21107516
69	0xbe21c184	-0.15796477
70	0xbd01b374	-0.03166528
71	0xbde1c9b9	-0.11024804
72	0xbe4642a1	-0.19361354
73	0xbe6dc979	-0.23221387
74	0x3e6a1787	0.22860537
75	0x3e58314b	0.21112554
76	0x3dedd227	0.11612349
77	0xbd72e691	-0.059301917
78	0x3dbc5b7b	0.09197136
79	0x3d49fce3	0.049313437
80	0x3ddbcaae	0.107320175
81	0xbdf08237	-0.117435865
82	0xbd908453	-0.07056489
83	0x3dad0076	0.084473535
84	0x3ded70b3	0.11593761
85	0xbdf6c7c8	-0.12049824
86	0x3d03028c	0.03198485
87	0xbe5f1924	-0.21786934
88	0x3deac7e8	0.1146391
89	0xbe2ff59b	-0.17183535
90	0x3cb1e35f	0.021714864
91	0x3d9cb572	0.076517954
92	0xbe3f68e4	-0.18692356
93	0x3d228fde	0.039687984
94	0x3e607865	0.21920927
95	0xbc87cc63	-0.016576951
96	0xbe62e430	-0.22157359
97	0x3da71b22	0.08159472
98	0xbe64d4d1	-0.22346808
99	0xbdf5c7a1	-0.12000967
100	0x3e437281	0.19086649
101	0x3ced161a	0.028941203
102	0x3d41a3ee	0.047275476
103	0xbd93e174	-0.07220736
104	0xbe6dfd54	-0.23241168
105	0x3c937bad	0.01800331
106	0xbdf69d80	-0.120417595
107	0x3e7789ad	0.24173613
108	0xbde40554	-0.11133829
109	0x3dd67762	0.10471989
110	0x3cd93c85	0.026518116
111	0xbe0b9799	-0.13632049
112	0x3e0a988b	0.13534753
113	0xbd5bcfab	-0.053664844
114	0x3dc1414e	0.09436284
115	0x3d582d5a	0.052777626
116	0xbe6570d3	-0.2240632
117	0xbdc4162f	-0.09574544
118	0x3eddcb85	0.43319336
119	0xbe0165b1	-0.12636448
120	0x3cb1ccab	0.021704039
121	0xbd66249e	-0.056187265
122	0xbb8a31ef	-0.0042173783
123	0x3e135426	0.14387569
124	0xbf1ed3b6	-0.62041795
125	0xbd44055c	-0.047856674
126	0x3e4adfe1	0.19811966
127	0xbe02795c	-0.12741607
128	0x3dba27e5	0.090896405
129	0xbcbe0012	-0.023193393
130	0x3de4baa7	0.111684136
131	0x3daf9564	0.08573416
132	0xbc8f3f98	-0.017486379
133	0x3e863aea	0.26216823
134	0xbe474b11	-0.1946223
135	0x3e99ffc0	0.30077934
136	0xbe0f2246	-0.13977918
137	0x3dd546d3	0.10413899
138	0xbc5e13cc	-0.013554525
139	0x3ccd53c3	0.025064355
140	0xbdfb0556	-0.12256877
141	0x3e4ffa31	0.20310284
142	0xbbf52379	-0.0074810353
143	0xbe11984f	-0.14218257
144	0xbe9930c3	-0.29920015
145	0xbe13d931	-0.1443832
146	0x3d67dc3a	0.05660651
147	0xbb5651f5	-0.0032702659
148	0xbc7cfdd6	-0.015441379
149	0x3ec6e731	0.3884826
150	0x3b3f1961	0.0029159414
151	0xbcd16548	-0.02556099
152	0x3e4f1264	0.20221859
153	0x3d4cc714	0.049994543
154	0xbe53a70e	-0.20669195
155	0xbcb4e776	-0.022083025
156	0xbea0554f	-0.31315085
157	0x3c9ea7e9	0.019367175
158	0xbde9a329	-0.114080735
159	0x3de5d894	0.112229496
160	0xbe85ee13	-0.261582
161	0xbe300315	-0.17188676
162	0x3d43e273	0.04782338
163	0x3e583f47	0.21117888
164	0x3e0d95f6	0.13826737
165	0xbe3c8905	-0.18411644
166	0xbdca7610	-0.098858
167	0xbe32a815	-0.1744693
168	0xbd5ca89e	-0.053871743
169	0x3e189668	0.14901125
170	0xbd5bba61	-0.05364454
171	0x3c5154ae	0.012776537
172	0x3e1a050d	0.15040989
173	0xbe1770c3	-0.14789109
174	0xbda626be	-0.08112858
175	0xbec22b65	-0.37923732
176	0xbdbeae3d	-0.09310577
177	0x3d9df050	0.077118516
178	0x3d18e0d2	0.03732378
179	0xbe9480a2	-0.2900439
180	0xbd9008b4	-0.0703291
181	0xbe176c4a	-0.14787403
182	0xbe45487b	-0.1926593
183	0x3d1a5ece	0.03768807
184	0xbc66dd77	-0.014090887
185	0x3d51daf8	0.051234215
186	0x3d596637	0.053075995
187	0xbe60b22d	-0.21942969
188	0xbd3ad971	-0.045617525
189	0xbd9bedf9	-0.07613749
190	0x3e4b7431	0.19868542
191	0x3ee3df87	0.44506475
192	0x3c1fa904	0.009744886
193	0x3d9531d8	0.072848976
194	0xbdadf0eb	-0.08493217
195	0xbdf286a5	-0.11842088
196	0xbd91d2b1	-0.07120264
197	0x3e85b902	0.26117712
198	0xbe2554ed	-0.16145678
199	0xbe5727cb	-0.21011274
200	0xbde4e7e5	-0.11177043
201	0xbe02f47c	-0.12788576
202	0xbe7e2e79	-0.24822415
203	0xbc043a00	-0.008070469
204	0xbdaecf2b	-0.08535608
205	0x3cdc75ab	0.026911577
206	0x3b54da9d	0.0032478936
207	0x3dcf5c9c	0.10125086
208	0x3b1f8cee	0.0024345475
209	0xbdbf5366	-0.09342079
210	0xbd321d96	-0.043485247
211	0xbd25491e	-0.040352933
212	0xbeb48c74	-0.35263407
213	0x3d4315e9	0.047628317
214	0xbd39e24b	-0.045381825
215	0x3e2c5e15	0.16832764
216	0xbe929b3a	-0.28634053
217	0x3e721358	0.23640192
218	0x3e0e39f4	0.13889295
219	0x3db3db8c	0.087821096
220	0xbd7190a3	-0.058975827
221	0x3ee47bb8	0.4462564
222	0x3d4a64fc	0.049412712
223	0x3e0836d1	0.13302161
224	0xbb89f069	-0.0042095673
225	0xbe8757f9	-0.26434305
226	0x3dde82cf	0.108647935
227	0xbdfd6e17	-0.123745136
228	0xbe1fb6f9	-0.15597142
229	0x3d5b8107	0.053589847
230	0x3dc80b60	0.097677946
231	0xbdd55cc9	-0.10418088
232	0xbe830b82	-0.25594717
233	0x3c6a5d42	0.014304461
234	0x3aefbc2e	0.0018290335
235	0xbcbc1de2	-0.022963468
236	0xbd903d40	-0.070429325
237	0xbe2b60cb	-0.16736142
238	0xbdc9abfb	-0.09847256
239	0xbd3f5fef	-0.04672235
240	0x3ec5949b	0.3858994
241	0xbc9452e4	-0.018105932
242	0x3e570e01	0.21001436
243	0xbce897c5	-0.028392682
244	0x3e4f1017	0.20220982
245	0xbe7291e6	-0.23688468
246	0x3e04511d	0.12921567
247	0x3e980ac3	0.2969571
248	0xbcc722e0	-0.024308622
249	0x3e1e21e0	0.1544261
250	0xbe392d91	-0.18083788
251	0xbcd422d1	-0.025895508
252	0xbe638784	-0.22219664
253	0x3e80a520	0.2512598
254	0xbe5c256d	-0.21498652
255	0xbe0818f1	-0.13290764

linear01.bias f4 [128]
0	0x3e680632	0.22658613
1	0x3e4f6dd6	0.20256743
2	0x3e5a7976	0.21335396
3	0x3ee21159	0.4415386
4	0x3e8547db	0.26031384
5	0x3ea01189	0.31263378
6	0x3eda49fa	0.42634565
7	0x3eee99a2	0.46601588
8	0x3e93234c	0.28737867
9	0x3e912908	0.28351617
10	0x3ed4e764	0.41582787
11	0x3eb573a0	0.35439777
12	0x3ecc1171	0.39857057
13	0x3ebcd76c	0.36883104
14	0x3eaf4edc	0.34239852
15	0x3ea8cf30	0.32970572
16	0x3e74c3c5	0.23902805
17	0x3e94f7c8	0.29095292
18	0x3e4846a2	0.19558194
19	0x3ea711e9	0.32630852
20	0x3e85aaaa	0.2610677
21	0x3e576add	0.21036859
22	0x3e99c424	0.30032456
23	0x3e8d6648	0.27617097
24	0x3e952ee2	0.2913733
25	0x3ed10aad	0.40828457
26	0x3e6b34fd	0.22969432
27	0x3ea5b7ab	0.3236669
28	0x3eaf7040	0.34265327
29	0x3ed99266	0.42494506
30	0x3e3f9294	0.18708259
31	0x3ee56746	0.44805354
32	0x3e32fd5e	0.17479464
33	0x3e3d6f51	0.18499495
34	0x3e69147e	0.22761723
35	0x3ebed206	0.3726961
36	0x3e870699	0.2637222
37	0x3e318f31	0.1733978
38	0x3de92999	0.11384887
39	0x3f0635cb	0.5242583
40	0x3e624d5f	0.22099827
41	0x3ed7d465	0.42154232
42	0x3db9230e	0.09039889
43	0x3d32a67c	0.043615803
44	0x3e7f5aef	0.24937032
45	0x3e7d631d	0.2474484
46	0x3e250fce	0.1611931
47	0x3ea0b81b	0.3139046
48	0x3e8f5828	0.27996945
49	0x3eb9802c	0.362306
50	0x3ef08ad1	0.4698091
51	0x3e3ce1fc	0.18445581
52	0x3f0136ae	0.5047406
53	0x3e93da22	0.2887736
54	0x3ea2b793	0.3178068
55	0x3eda66ca	0.42656547
56	0x3e92d1c4	0.28675663
57	0x3ee2d84b	0.44305643
58	0x3e7d3f64	0.24731213
59	0x3e334504	0.17506796
60	0x3ed1d73b	0.4098452
61	0x3e52f761	0.2060218
62	0x3e9d1b96	0.3068511
63	0x3e07bef9	0.13256444
64	0x3ecaf483	0.39639673
65	0x3e625d9a	0.22106019
66	0x3e9cfcbd	0.30661574
67	0x3f12576b	0.5716464
68	0x3e7d4811	0.24734522
69	0x3e95daba	0.29268438
70	0x3e9b4800	0.3032837
71	0x3e959508	0.29215264
72	0x3e80f3e9	0.2518609
73	0x3ea9d39f	0.33169267
74	0x3eae72ad	0.34071866
75	0x3ea69600	0.32536316
76	0x3eacb366	0.3373062
77	0x3eff0ecd	0.4981598
78	0x3e55f7ed	0.20895357
79	0x3ea2e3c0	0.31814384
80	0x3ee12be6	0.43978804
81	0x3eaaf0cf	0.33386847
82	0x3e426a25	0.18985803
83	0x3dc4979c	0.0959923
84	0x3f04a3ec	0.51812625
85	0x3ea3f169	0.3202012
86	0x3e56444c	0.2092449
87	0x3e8facda	0.28061563
88	0x3e7297f6	0.23690781
89	0x3e80a2ac	0.2512411
90	0x3e9e03f8	0.30862403
91	0x3e9e3738	0.30901504
92	0x3ebc22ba	0.36745244
93	0x3e86af67	0.26305696
94	0x3e7dbed8	0.24779832
95	0x3edf6ca4	0.43637574
96	0x3e99bd46	0.30027217
97	0x3e698d59	0.22807826
98	0x3e823adc	0.2543553
99	0x3d53ec57	0.051739063
100	0x3e6bb563	0.23018412
101	0x3e49270a	0.19643798
102	0x3eb41b73	0.35177192
103	0x3e6f33af	0.2335956
104	0x3efd4ac4	0.49471104
105	0x3e47817f	0.19482993
106	0x3ed272fc	0.4110335
107	0x3eacd15c	0.3375348
108	0x3ec7ecc1	0.39047816
109	0x3ec1136d	0.37710133
110	0x3ec72ed3	0.38902912
111	0x3eb47585	0.3524591
112	0x3e6a35a4	0.22872025
113	0x3e92b038	0.2865007
114	0x3e77bc47	0.24192916
115	0x3e6a1099	0.22857894
116	0x3e5069f7	0.20352922
117	0x3e98d521	0.29850104
118	0x3e8c5c53	0.27414188
119	0x3e9f6938	0.31134963
120	0x3e7dcbe2	0.24784806
121	0x3eac1f26	0.33617514
122	0x3e2fd630	0.1717155
123	0x3d7194bd	0.05897974
124	0x3e86c03b	0.26318535
125	0x3e969e50	0.29417658
126	0x3ea7cb2a	0.3277219
127	0x3e9fbd4a	0.31199104
