weights/2. triplet loss model - marks/1. 434 epochs/conv2Dfeatures_best_var.pt (torch, 21655 bytes, 6 tensors)

conv00.weight f4 [4, 1, 5, 5]
0	0x3ca3eb13	0.020009553
1	0x3d516d84	0.051129833
2	0x3d8005b2	0.06251086
3	0xbb2f3262	-0.0026732911
4	0x3d73156f	0.059346613
5	0x3ddcfb35	0.107901014
6	0x3da46e16	0.0802881
7	0x3e00c56d	0.12575312
8	0x3d417635	0.04723187
9	0x3e123a15	0.14279969
10	0x3d837e65	0.06420592
11	0x3d0191b9	0.031633113
12	0x3d0c28ae	0.034218483
13	0xbd069d8a	-0.032865085
14	0x3d8a632c	0.06757197
15	0xbd8cf0c2	-0.068818584
16	0xbe0dcf89	-0.138487
17	0xbdfb495a	-0.1226985
18	0xbe0a528e	-0.13508055
19	0xbda1b29f	-0.078953974
20	0xbd7c0f70	-0.06153816
21	0xbe4c0e38	-0.19927299
22	0xbe4e1eba	-0.20128909
23	0xbe50c3ae	-0.20387146
24	0xbdff42f4	-0.12463942
25	0x3d0f00c2	0.034912832
26	0x3d11c90c	0.035592124
27	0x3d232957	0.039834347
28	0x3de05043	0.10952809
29	0x3e16586a	0.14682165
30	0xbd0ef3b1	-0.03490037
31	0x3d2ed80d	0.04268651
32	0x3dbdd60d	0.092693426
33	0x3ded8e65	0.11599425
34	0x3dbf8462	0.09351422
35	0x3d305233	0.04304714
36	0x3d8d81a2	0.06909491
37	0x3da9baf8	0.082876146
38	0x3de274d9	0.11057443
39	0x3dce6af3	0.10078993
40	0x3dcf7822	0.101303354
41	0x3c915b9d	0.01774388
42	0x3d73bee5	0.059508223
43	0x3dcbe1c1	0.099551685
44	0x3b91af2f	0.0044459323
45	0xbe0a111e	-0.13483092
46	0xbd717150	-0.058945954
47	0x3b9d21d1	0.004795291
48	0xbb83d174	-0.0040227715
49	0xbd36393a	-0.04448817
50	0x3e1ae0ff	0.15124892
51	0x3e478170	0.1948297
52	0x3e51f32a	0.20502916
53	0x3e236373	0.15955906
54	0x3dc2af7a	0.09506126
55	0xbe1effb2	-0.15527228
56	0xbd97d427	-0.07413512
57	0xbde58502	-0.1120701
58	0xbdefca78	-0.1170854
59	0xbdebd0cb	-0.115144335
60	0xbda8456a	-0.08216365
61	0xbe290955	-0.16507466
62	0xbdf7429a	-0.1207325
63	0xbe0395dc	-0.12850136
64	0xbe147e3f	-0.14501284
65	0x3d2fbfba	0.042907454
66	0xbd3cc96e	-0.046090536
67	0xbd8b50f7	-0.06802552
68	0xbd2061f3	-0.03915591
69	0xbd7f619e	-0.062348954
70	0xbceb0fab	-0.028693995
71	0x3bbe112f	0.0058003883
72	0x3bda3019	0.0066585657
73	0x3c8b5ad1	0.017011078
74	0x3cd5f226	0.026116442
75	0xbe27026d	-0.16309519
76	0xbe0ad467	-0.13557588
77	0xbe194450	-0.14967465
78	0xbd820b41	-0.06349803
79	0x3c1fdb69	0.009756901
80	0xbe220b03	-0.15824513
81	0xbe0b6120	-0.13611269
82	0xbd5b2934	-0.05350609
83	0xbd8a9481	-0.06766606
84	0xbcb1ece7	-0.02171941
85	0xbe02e589	-0.12782873
86	0xbde34d4d	-0.11098728
87	0xbdea1519	-0.11429805
88	0xbd5c0165	-0.053712267
89	0xbd1baa2b	-0.03800408
90	0xbe3fbe00	-0.18724823
91	0xbdd04f38	-0.1017136
92	0xbd65d7c3	-0.05611397
93	0xbcaf3a5f	-0.021390138
94	0x3d953e43	0.07287266
95	0xbd60c6fc	-0.054877266
96	0x3d25ec45	0.040508527
97	0x3da8e0a6	0.08245973
98	0x3dbfb4d0	0.09360659
99	0x3d99678d	0.07490454

conv00.bias f4 [4]
0	0x3dddd6f2	0.10832013
1	0xbd863281	-0.065526016
2	0xbef66ad7	-0.48128387
3	0xbe0d22c7	-0.13782798

conv01.weight f4 [16, 4, 5, 5]
0	0xbd503f8e	-0.05084186
1	0xbe04eed2	-0.12981728
2	0xbceca113	-0.0288854
3	0x3db6e808	0.08930975
4	0xbb34e328	-0.0027601216
5	0xbd9c42dd	-0.07629941
6	0x3d9fbde6	0.07799892
7	0x3cd4ff96	0.02600078
8	0xbde6cb58	-0.112692535
9	0xbd37ab57	-0.044841137
10	0xbd3d4408	-0.046207458
11	0xbe013b63	-0.1262031
12	0xbd155731	-0.036460105
13	0x3cee48fa	0.029087532
14	0x3d032e6d	0.032026697
15	0x3cf2bdb4	0.029631473
16	0xbcb5620d	-0.02214148
17	0xbbae8d0a	-0.0053268718
18	0xbdd4c7c4	-0.10389665
19	0x3c81208b	0.015762588
20	0x3d463ddb	0.048398834
21	0x3e38471a	0.17995873
22	0x3e37f6cb	0.17965238
23	0x3dc6e40b	0.097114645
24	0xbced86b8	-0.028994903
25	0x3c236268	0.009972192
26	0xbdede65a	-0.11616202
27	0xbdba2394	-0.09088817
28	0xbdcbf889	-0.09959514
29	0xbcb14233	-0.021638012
30	0x3b4a89ae	0.0030904817
31	0xbd995d78	-0.07488531
32	0xbd9c9257	-0.076450996
33	0xbcaf92e9	-0.021432357
34	0xbcd6a817	-0.026203198
35	0x3e80fbbb	0.25192055
36	0xbd245177	-0.040116753
37	0x3e41b596	0.18916926
38	0x3d89c39d	0.067267634
39	0xbd19b112	-0.037522383
40	0x3e50deb0	0.20397449
41	0x3dfb0830	0.12257421
42	0x3d3f48b9	0.046700213
43	0x3d4c808f	0.04992729
44	0xbdcc8f45	-0.09988264
45	0x3d14e136	0.03634759
46	0x3bdde318	0.0067714565
47	0xbd249270	-0.040178716
48	0x3de51001	0.11184693
49	0xbe270a8a	-0.16312614
50	0x3de7c1b0	0.1131624
51	0x3df47a5b	0.119374
52	0x3ded4fbd	0.115874745
53	0xbd6a6c90	-0.05723244
54	0x3d21e994	0.039529398
55	0x3d9c1b7e	0.07622431
56	0x3dd6f8cb	0.10496672
57	0xbe64c38b	-0.22340219
58	0x3cb14973	0.021641469
59	0xbdfef89a	-0.12449761
60	0xbe5f2d69	-0.21794666
61	0xbd36ea26	-0.044656895
62	0xbe2b750b	-0.16743867
63	0xbd13ab4d	-0.036052037
64	0xbe117fbd	-0.14208885
65	0xbd7eca71	-0.062204782
66	0xbe31d660	-0.17366934
67	0x3dc8577a	0.0978231
68	0x3da7953c	0.08182761
69	0xbc33ebbc	-0.010981496
70	0x3e153e9b	0.14574663
71	0x3dfbf992	0.12303461
72	0x3e602ea9	0.218928
73	0xbd9779df	-0.07396292
74	0xbd2e8809	-0.042610202
75	0x3c0c959b	0.008580591
76	0x3d5864c2	0.052830465
77	0x3e81469f	0.25249192
78	0x3d899600	0.06718063
79	0x3db63a20	0.08897805
80	0x3cfe770b	0.031062623
81	0x3d842c1a	0.06453724
82	0x3cf5a8b4	0.02998767
83	0xbd9f66fd	-0.07783315
84	0x3d8e3ae9	0.0694483
85	0xbe7c074b	-0.24612157
86	0x3c6bef8c	0.014400374
87	0xbe071583	-0.131918
88	0xbe392698	-0.18081129
89	0xbd2215ed	-0.03957169
90	0xbd4188fd	-0.047249783
91	0x3cadbd6c	0.021208487
92	0xbc99765c	-0.018733196
93	0x3dc68383	0.096930526
94	0xbc841e8f	-0.016127853
95	0xbd823e5f	-0.063595526
96	0x3dc3c141	0.09558345
97	0x3d800e32	0.062527075
98	0x3d992c09	0.07479102
99	0xbda26022	-0.07928492
100	0xbb06523b	-0.002049579
101	0xbd75104b	-0.05982999
102	0xbe2fccf8	-0.17168033
103	0xbc78b6ed	-0.015180332
104	0x3d857d7d	0.065180756
105	0xbcc6b5da	-0.024256635
106	0x3b928444	0.0044713337
107	0xbdb3dae5	-0.08781985
108	0x3d223918	0.03960523
109	0x3d848078	0.06469816
110	0xbce174f3	-0.027521586
111	0x3af2637e	0.0018492786
112	0xbe35d967	-0.17758714
113	0x3da43dac	0.080195755
114	0x3d04a6fe	0.03238582
115	0x3db47c42	0.08812763
116	0x3d6b720c	0.05748181
117	0xbdce3133	-0.10067978
118	0x3da860c5	0.08221582
119	0xbbb2f7ac	-0.0054616537
120	0x3d9ea1a1	0.07745672
121	0x3c88d027	0.016700817
122	0xbe939f6b	-0.28832564
123	0x3e598a40	0.21244144
124	0x3ea11b5e	0.31466192
125	0x3d8ac069	0.067749806
126	0xbc8a3906	-0.016872894
127	0x39c0d3fe	0.0003677904
128	0x3d3b5836	0.04573842
129	0x3c513801	0.0127697
130	0x3d352d03	0.04423238
131	0xbd8638f3	-0.06553831
132	0xbd9df10a	-0.0771199
133	0x3d586caa	0.052838005
134	0xbd100624	-0.035162106
135	0x3d67f96b	0.056634348
136	0x3d1f9604	0.038961425
137	0x3ca1b530	0.019739717
138	0xbdbe4098	-0.09289664
139	0x3d58045e	0.05273854
140	0xbc19eb9e	-0.009394554
141	0xbc0f23b2	-0.008736538
142	0xbd4a61f8	-0.049409837
143	0xbd93357d	-0.071879365
144	0x3db4d0c5	0.08828882
145	0x3c5f8356	0.013642153
146	0xbd0b0ff9	-0.03395078
147	0x3e15b660	0.14620352
148	0xbe8a88f3	-0.2705761
149	0x3c082bd8	0.008311234
150	0xbd1311bd	-0.03590559
151	0x3d04e877	0.03244826
152	0x3d0614a9	0.032734547
153	0xbc66868f	-0.014070167
154	0x3c8fbb6c	0.017545424
155	0xbdc013a7	-0.093787484
156	0xbddcbae2	-0.107778326
157	0xbea32101	-0.31861117
158	0xbd53afc0	-0.05168128
159	0x3d264c82	0.040600307
160	0x3d56d3e5	0.052448172
161	0xbd806b50	-0.06270468
162	0xbe78d354	-0.24299365
163	0x3dab467a	0.08363052
164	0xbdc01c6c	-0.09380421
165	0x3c15dc7b	0.009146805
166	0x3dd6c397	0.104865246
167	0xbe071563	-0.13191752
168	0xbe0ff783	-0.14059262
169	0xbd6e1fdf	-0.058135863
170	0x3e223402	0.15840152
171	0x3d319ff2	0.043365426
172	0xbea18585	-0.3154718
173	0x3dafe9f3	0.08589544
174	0x3e75c03e	0.23999116
175	0xbbce8491	-0.0063024242
176	0xbe141c56	-0.14463934
177	0x3dac1dcb	0.0840412
178	0xbdbe8655	-0.093029656
179	0xbca38565	-0.019961068
180	0xbdbdfb45	-0.092764415
181	0x3d0848fa	0.03327272
182	0xbd504f81	-0.05085707
183	0x3dfc0556	0.12305705
184	0x3e25a498	0.16176069
185	0x3c603d9d	0.013686565
186	0xbd2ea1d4	-0.0426348
187	0xbe173c91	-0.14769198
188	0x3dd495c4	0.10380128
189	0x3b735098	0.0037126895
190	0xbd3bca5e	-0.04584729
191	0x3cc45ac0	0.023969054
192	0xbe279b5c	-0.16367859
193	0x3d8bd758	0.06828183
194	0xbc9678df	-0.018368183
195	0x3cc31c9c	0.023817353
196	0x3de4bf0f	0.11169254
197	0xbdb70821	-0.08937097
198	0x3dc0ac4f	0.09407865
199	0x3e381641	0.17977239
200	0x37c62e36	2.3624958e-05
201	0x3db677a4	0.089095384
202	0x3d833f13	0.06408515
203	0x3d83e485	0.06440071
204	0x3cb0e2ae	0.021592464
205	0x3e1e7ef3	0.15478115
206	0xbd392bec	-0.045207903
207	0xbdd782bf	-0.10522985
208	0xbe0a86e4	-0.13528019
209	0xbd4948ed	-0.049141813
210	0xbdc355a3	-0.09537818
211	0x3da37b6d	0.07982526
212	0xbdc2db87	-0.09514528
213	0x3caa739b	0.020807078
214	0xbe08bb21	-0.13352634
215	0xbcfe562e	-0.031046953
216	0xbd145c96	-0.03622111
217	0x3d318123	0.043336045
218	0x3e10f214	0.14154845
219	0x3e083cb5	0.13304408
220	0x3d931548	0.071817935
221	0xbd8230ff	-0.063570015
222	0xbe8c4e9c	-0.27403724
223	0xbe327602	-0.17427829
224	0xbd99b014	-0.07504287
225	0xb9b7c86f	-0.00035053815
226	0xbdcddd8e	-0.10052024
227	0x3e2f3df4	0.17113477
228	0xbdced3df	-0.10099005
229	0x3dd47792	0.10374369
230	0x3d887cff	0.06664466
231	0xbde402ee	-0.11133371
232	0x3d437149	0.04771546
233	0xbdac69f2	-0.08418645
234	0xbe040c5b	-0.12895338
235	0xbe0e9119	-0.13922538
236	0x3bfd1a71	0.0077240993
237	0x3e2a1f7d	0.16613574
238	0x3e313e98	0.17309034
239	0x3cec0f72	0.028815959
240	0x3b272fad	0.0025510595
241	0xbd10a476	-0.035313092
242	0xbdc6d4f6	-0.09708588
243	0xbc985fcf	-0.018600373
244	0x3cd05aa3	0.025433844
245	0xbdaa3669	-0.08311159
246	0x3d7d37b9	0.06182072
247	0x3c3b6fbd	0.011440215
248	0x3ccbd70c	0.024882816
249	0xbe01fe45	-0.12694652
250	0x3d367c8b	0.044552367
251	0xbc9cd94b	-0.019146582
252	0x3e7539f1	0.23947884
253	0x3dd6df89	0.10491855
254	0xbd6101d7	-0.054933395
255	0x3e14f0aa	0.14544931

conv01.bias f4 [16]
0	0xbd8bb619	-0.06821842
1	0xbc6e7a19	-0.014555478
2	0xbcb50876	-0.022098761
3	0x3e4e9c1e	0.20176741
4	0xbe7dbd0d	-0.24779148
5	0x3c20140d	0.0097704055
6	0xbe11c188	-0.14233983
7	0xbe22528f	-0.15851806
8	0x3db39a07	0.08769613
9	0xbc634100	-0.013870478
10	0xbd6fdd9f	-0.058560964
11	0xbd0e446c	-0.03473322
12	0xbdc68c8b	-0.09694775
13	0xbe18dcbc	-0.14927953
14	0xbdf9e949	-0.12202699
15	0x3d012328	0.03152767

conv02.weight f4 [22, 16, 3, 3]
0	0x3cbb6dfc	0.022879593
1	0x3c22e5d0	0.009942487
2	0xbd8b3e25	-0.067989625
3	0x3d90aa53	0.07063737
4	0x3dbc0988	0.091815054
5	0xbc6bb638	-0.014386706
6	0x3dd596a5	0.10429124
7	0xbd74ea1e	-0.059793584
8	0xbddfd24e	-0.10928784
9	0x3e1c630c	0.15272158
10	0xbc25c22d	-0.010117096
11	0xbc0be39c	-0.008538153
12	0xbe3eb750	-0.18624616
13	0xbe6a0618	-0.22853887
14	0xbe3d537b	-0.18488877
15	0xbd598e65	-0.053114314
16	0xbdcd0594	-0.100108296
17	0xbd6511ca	-0.055925168
18	0x3ddf75c6	0.109111354
19	0x3e20d427	0.1570593
20	0xbd076cac	-0.033062622
21	0xbcb33ba6	-0.021879029
22	0xbd30639f	-0.043063756
23	0x3dd4b381	0.103858
24	0xbe43073a	-0.19045725
25	0x3cc6553e	0.024210569
26	0xbd00a972	-0.031411596
27	0x3cdbcb26	0.026830267
28	0xbb7b4e57	-0.0038346255
29	0xbe514e94	-0.20440131
30	0x3d7b78f7	0.061394658
31	0xbd8ea8a8	-0.069657624
32	0x3d63da07	0.05562785
33	0x3d7f04a8	0.0622603
34	0xbdef43ac	-0.11682829
35	0xbe0afa9a	-0.1357216
36	0xbe5df1ee	-0.2167432
37	0x3d01a3b7	0.03165027
38	0xbdb9d74a	-0.09074266
39	0xbc7c6b9e	-0.015406517
40	0x3e76e589	0.24110998
41	0x3e2c8688	0.16848195
42	0x3e5a6b28	0.2132994
43	0x3e3d54ed	0.18489428
44	0x3d599ae4	0.05312623
45	0x3dcfd142	0.10147335
46	0xbd435a88	-0.04769376
47	0x3c3dd9cd	0.011587572
48	0xbd7e7133	-0.062119674
49	0x3e3b28fa	0.1827735
50	0x3db755b6	0.08951895
51	0x3bdf987a	0.0068235965
52	0xbda8f4a1	-0.08249784
53	0xbdb7f160	-0.089815855
54	0x3caaeed2	0.020865832
55	0xbd28def3	-0.041228246
56	0x3e112a74	0.14176351
57	0xbca5ad0d	-0.020224119
58	0x3e0969f7	0.13419329
59	0xbdc83e03	-0.09777453
60	0x3c753aa0	0.014967591
61	0xbe046041	-0.12927343
62	0xbc6e86be	-0.014558492
63	0x3c980a9a	0.018559743
64	0xbdeee72d	-0.11665187
65	0xbd796719	-0.060889337
66	0xbcffcb5a	-0.031224895
67	0x3bcf8bd7	0.006333809
68	0xbdf251fe	-0.11832045
69	0x3dd13bc2	0.10216476
70	0xbe72eb17	-0.23722492
71	0xbcad06cd	-0.021121407
72	0xbd860494	-0.06543842
73	0x395e2626	0.00021185781
74	0xbd2498cf	-0.040184792
75	0xbe2e775b	-0.17037718
76	0x3ce27d23	0.02764756
77	0xbd9d9afa	-0.07695575
78	0xbd928a98	-0.07155341
79	0xbe2efe59	-0.17089213
80	0xbcf28479	-0.029604184
81	0xbdb0b63a	-0.08628507
82	0xbe170a98	-0.14750135
83	0xbdd0a1b3	-0.10187092
84	0x3b112691	0.0022148232
85	0xbdc695a0	-0.096965075
86	0x3c899435	0.016794303
87	0x3cd9d086	0.02658869
88	0x3e356f95	0.17718346
89	0xbdbb801d	-0.09155295
90	0x3d32c226	0.043642186
91	0xbd6b2988	-0.057412654
92	0x3cc04c48	0.023473874
93	0x3d343d9b	0.044004064
94	0x3dfece37	0.12441676
95	0xbd3215ab	-0.043477695
96	0xbe1059f4	-0.14096814
97	0x3e290640	0.1650629
98	0x3e50a2e1	0.20374633
99	0xbd772974	-0.060342267
100	0x3c8a2c00	0.016866684
101	0x3d866155	0.06561533
102	0xbdac29df	-0.08406424
103	0x3b5bca0a	0.0033537173
104	0xbe19dfbe	-0.15026757
105	0x3c315375	0.01082312
106	0xbc5665fe	-0.01308584
107	0x3e043c11	0.12913539
108	0xbdb44cc5	-0.08803705
109	0x3d192411	0.03738791
110	0xbcc486c2	-0.023990039
111	0x3dffa325	0.12482289
112	0xbdb3dc4e	-0.08782254
113	0x3db28f74	0.08718768
114	0xbd985ad7	-0.07439201
115	0xbe84d9ec	-0.2594751
116	0x3dc9f201	0.09860612
117	0xbcbbf58c	-0.022944234
118	0x3e650d11	0.22368266
119	0x3dd05094	0.10171619
120	0x3d03c4a7	0.032169964
121	0x3df623dd	0.12018559
122	0x3cd96af6	0.02654026
123	0xbe1449c7	-0.14481269
124	0xbe1c56ca	-0.15267482
125	0x3e58b28c	0.2116186
126	0x3d86d824	0.06584194
127	0x3dfa439e	0.12219928
128	0x3e258afb	0.16166298
129	0xbdfa4dfc	-0.122219056
130	0xbd860a45	-0.065449275
131	0x3bfab075	0.00765043
132	0x3e309399	0.17243804
133	0xbb3af815	-0.0028529216
134	0xbda6ba66	-0.081410214
135	0x3d3790d0	0.04481584
136	0x3dcc623d	0.09979675
137	0xbda293bb	-0.079383336
138	0x3e0a785f	0.1352248
139	0xbdac9f24	-0.08428791
140	0xbc839d21	-0.016066136
141	0xbdce8a5a	-0.10084982
142	0xbd8e1f68	-0.06939584
143	0x3d702257	0.0586265
144	0xbdbe0c95	-0.092797436
145	0x3b987d89	0.004653637
146	0xbda774b4	-0.08176556
147	0xbe75df53	-0.24010973
148	0x3c9fa160	0.01948613
149	0x3b410e2b	0.0029457908
150	0x3b4e878a	0.0031513893
151	0xbe7c249f	-0.24623345
152	0x3dcab19a	0.09897156
153	0xbd21117a	-0.039323308
154	0xbd5c28de	-0.05374991
155	0x3dc8b92e	0.09800945
156	0xbc5d87fe	-0.013521193
157	0x3c89d039	0.016822921
158	0x3db9185e	0.09037851
159	0x3cd7564b	0.026286265
160	0xbe2fd4c5	-0.17171009
161	0xbcac9830	-0.021068662
162	0x3dcfa7b8	0.10139412
163	0xbd6e70a4	-0.05821289
164	0x3d172b2e	0.036906414
165	0x3c9ab824	0.018886633
166	0x3e072f3e	0.13201615
167	0xbd498274	-0.049196675
168	0xbe0ef0df	-0.13959073
169	0x3c274eac	0.010211628
170	0x3e2eb8d2	0.17062691
171	0xbde51444	-0.11185506
172	0x3ca92815	0.020648995
173	0x3d811780	0.063033104
174	0x3d257ee7	0.040404227
175	0xbd83e392	-0.0643989
176	0x3d42ffc6	0.047607206
177	0xbc933352	-0.017968807
178	0x3e436fc2	0.19085601
179	0x3def6e06	0.11690907
180	0xbde61f26	-0.1123641
181	0x3dcef9c7	0.10106235
182	0xbe3a2198	-0.18176877
183	0x3d8042bf	0.06262731
184	0x3da85006	0.08218388
185	0xbc82aaaf	-0.015950529
186	0x3d1757b1	0.036948863
187	0xbe7f9279	-0.24958219
188	0x3ca40c97	0.020025535
189	0x3dd433c9	0.1036144
190	0xbc9b6159	-0.018967317
191	0x3dbaecf0	0.091272235
192	0x3dbf7d81	0.0935011
193	0xbe23c201	-0.15991975
194	0xbdf73c58	-0.120720565
195	0x3c3ec6d4	0.011644084
196	0xbd928cc0	-0.07155752
197	0x3e141ce2	0.14464143
198	0x3db2aaf6	0.087240145
199	0xbe01e20d	-0.12683888
200	0xbcc1c96c	-0.023655616
201	0x3d3817cb	0.044944566
202	0x3dd8abcf	0.10579645
203	0xbdf5c06e	-0.11999594
204	0x3d12680e	0.035743766
205	0x3d8c9124	0.06863621
206	0xbc911240	-0.017708898
207	0x3c91fc0b	0.017820379
208	0xbd91cc0a	-0.071189955
209	0xbdaf14aa	-0.08548863
210	0x3e50bdcb	0.203849
211	0xbc1e7e26	-0.009673631
212	0xbc9a267b	-0.018817177
213	0xbe01463b	-0.12624447
214	0x3bdbeab5	0.006711329
215	0xbe095e02	-0.13414767
216	0x3e806382	0.25075918
217	0x3c86f976	0.016476374
218	0xbd98b54a	-0.07456453
219	0xbd54101d	-0.05177318
220	0x3e0e2362	0.13880685
221	0xbdac84a3	-0.08423736
222	0xbcc00334	-0.023439027
223	0x3d4d7ac0	0.05016589
224	0x3d4802a7	0.048830654
225	0xbb9ff85b	-0.004881901
226	0xbca2b5e1	-0.019862117
227	0xbdf5cbd2	-0.12001766
228	0xbc89d320	-0.016824305
229	0xbe0b9e35	-0.1363457
230	0x3cb7c43b	0.022432437
231	0x3c69b9bd	0.014265475
232	0x3d8e7e82	0.06957723
233	0x3d7d6284	0.06186153
234	0x3ddbc355	0.10730616
235	0x3d07e18f	0.033174094
236	0xbd9dbf56	-0.0770251
237	0xbdc54c17	-0.096336536
238	0xbdcbbf1e	-0.09948562
239	0xbe0b8115	-0.1362346
240	0x3d451b2c	0.048121616
241	0xbe5311e1	-0.20612289
242	0x3d617eac	0.055052444
243	0xbd3882e7	-0.045046713
244	0x3d83d675	0.06437389
245	0x3d101e48	0.03518513
246	0xbca86648	-0.020556584
247	0xbd86902a	-0.06570466
248	0x3caecf06	0.02133895
249	0xbde1f56f	-0.11033141
250	0xbdb69c47	-0.08916526
251	0x3d5a10cd	0.05323868
252	0x3d986623	0.07441356
253	0xbe4797e0	-0.1949153
254	0x3d0946d9	0.03351483
255	0x3e1b99d5	0.15195401

conv02.bias f4 [22]
0	0x3d93cbd6	0.07216613
1	0xbe0959ff	-0.13413237
2	0xbd97cba3	-0.074118875
3	0xbde49ade	-0.11162351
4	0xbe8d0e70	-0.27550077
5	0xbe0425f8	-0.12905109
6	0xbe8b900c	-0.27258337
7	0xbe457429	-0.19282593
8	0xbe360dbb	-0.17778675
9	0xbeb2f243	-0.34950456
10	0xbe44c832	-0.19216993
11	0xbe8c08d6	-0.2735049
12	0xbe049bb5	-0.12950023
13	0xbeb6d329	-0.35707977
14	0x3d3d7a8e	0.046259455
15	0xbe988859	-0.29791525
16	0xbda8b1a2	-0.08237006
17	0xbd834c2b	-0.06411012
18	0xbdc430b8	-0.09579605
19	0xbe6c534a	-0.23078647
20	0xbdc51b7e	-0.09624384
21	0xbd831f22	-0.064024225
