weights/2. triplet loss model - marks/1. 434 epochs/conv2Dfeatures_last.pt (torch, 21655 bytes, 6 tensors)

conv00.weight f4 [4, 1, 5, 5]
0	0x3cb2ba41	0.021817328
1	0x3d3c7819	0.04601297
2	0x3d5a78cf	0.05333787
3	0xbb8ef404	-0.004362585
4	0x3d8e336f	0.06943404
5	0x3dde0151	0.10840095
6	0x3daf2c81	0.0855341
7	0x3e093b55	0.1340154
8	0x3d5c031a	0.053713895
9	0x3e061211	0.1309283
10	0x3d8a63fc	0.06757352
11	0x3d082c21	0.03324521
12	0x3d18d0ec	0.03730862
13	0xbcf05ade	-0.029340204
14	0x3d85fa92	0.06541933
15	0xbd990bb2	-0.07472934
16	0xbe0aa9c7	-0.13541327
17	0xbe050d41	-0.12993337
18	0xbe027df1	-0.12743355
19	0xbda43a62	-0.08018948
20	0xbd7ec7f1	-0.062202398
21	0xbe491d66	-0.19640121
22	0xbe4715e9	-0.19441952
23	0xbe4f34be	-0.20234963
24	0xbdf9faa9	-0.12206013
25	0x3d083f92	0.03326375
26	0x3d311122	0.04322923
27	0x3d0ea0aa	0.03482119
28	0x3dc2f880	0.09520054
29	0x3e192e48	0.14959061
30	0xbd2e8ff6	-0.04261776
31	0x3d59fa44	0.053217188
32	0x3dc2c3b5	0.095099844
33	0x3df27c5f	0.11840128
34	0x3db04bf7	0.08608239
35	0x3d1bbf6f	0.038024362
36	0x3d982b0e	0.07430087
37	0x3dbcbf96	0.092162296
38	0x3dcd02df	0.10010313
39	0x3dc8f9db	0.09813281
40	0x3de51199	0.11184997
41	0x3c6de2ff	0.014519452
42	0x3d5dc8be	0.05414652
43	0x3dccdbd2	0.10002865
44	0x3b05c1fb	0.002040981
45	0xbe121ada	-0.14268056
46	0xbd84d603	-0.06486132
47	0x3c336785	0.010949974
48	0xbc41fec2	-0.011840524
49	0xbd44a049	-0.048004422
50	0x3e14c398	0.14527738
51	0x3e4b95a0	0.19881296
52	0x3e57c3a8	0.2107073
53	0x3e16393e	0.14670274
54	0x3dc67b06	0.096914336
55	0xbe234894	-0.15945655
56	0xbdaaead6	-0.08345573
57	0xbdf552d1	-0.119786866
58	0xbdf87e66	-0.121334836
59	0xbdd1a96e	-0.10237394
60	0xbda6f39b	-0.08151933
61	0xbe2cc9e3	-0.16873889
62	0xbe0118c3	-0.12607102
63	0xbe055346	-0.13020048
64	0xbe12c486	-0.1433278
65	0x3d57a7b9	0.052650187
66	0xbd5bad94	-0.053632334
67	0xbdab8b7a	-0.083762124
68	0xbd48692e	-0.048928432
69	0xbd8a3cfb	-0.06749912
70	0xbca6b72c	-0.020351015
71	0x3add06ff	0.0016863047
72	0x3b592b6e	0.0033137458
73	0x3bed6c2f	0.0072455625
74	0x3d0f48a3	0.03498138
75	0xbe2b24ea	-0.167133
76	0xbe0a1190	-0.13483262
77	0xbe1a1fd4	-0.15051204
78	0xbd5e79d0	-0.05431539
79	0x3c17c4a8	0.009263195
80	0xbe2683b4	-0.16261178
81	0xbe13d7ae	-0.14437744
82	0xbd5b56a9	-0.053549442
83	0xbd9228cc	-0.07136688
84	0xbcdea3e2	-0.027177755
85	0xbe03a9b5	-0.12857707
86	0xbdd35c79	-0.10320372
87	0xbdda44ca	-0.10657652
88	0xbd6e6933	-0.058205795
89	0xbd2acd1f	-0.041699525
90	0xbe3fde48	-0.18737137
91	0xbdd48009	-0.10375983
92	0xbd73940c	-0.05946736
93	0xbc7775f9	-0.0151038105
94	0x3d9d5216	0.07681672
95	0xbd6286c8	-0.05530432
96	0x3d12ee6e	0.035871916
97	0x3da07b6f	0.07836043
98	0x3dc5fe21	0.09667612
99	0x3dabe28e	0.08392821

conv00.bias f4 [4]
0	0x3dda99f1	0.10673893
1	0xbda01ca6	-0.07817964
2	0xbefa0c43	-0.4883748
3	0xbe1a9b1f	-0.15098237

conv01.weight f4 [16, 4, 5, 5]
0	0xbcd6f144	-0.026238091
1	0xbe0609a5	-0.13089617
2	0xbd257dd6	-0.04040321
3	0x3dd4964c	0.10380229
4	0xbc63b501	-0.013898135
5	0xbda6779a	-0.08128281
6	0x3d97b024	0.07406643
7	0x3c3c0102	0.01147485
8	0xbdbe6766	-0.092970654
9	0xbd3253c7	-0.043536928
10	0xbd3704a4	-0.04468216
11	0xbe00e498	-0.12587202
12	0xbd75ac3e	-0.059978716
13	0x3cc1e942	0.023670796
14	0x3d51977a	0.05116985
15	0x3c3eabb3	0.011637616
16	0xbcef63c8	-0.029222384
17	0xbaf97f48	-0.0019035125
18	0xbdeb7025	-0.11495999
19	0x3cef27ae	0.029193725
20	0x3d19c414	0.03754051
21	0x3e2cd297	0.16877209
22	0x3e3dfe3d	0.18554015
23	0x3dc47a83	0.0959368
24	0xbca1644b	-0.019701144
25	0x3ad6d2f5	0.0016389774
26	0xbde18e9c	-0.11013529
27	0xbda6e44e	-0.081490144
28	0xbdc29561	-0.09501148
29	0xbc598424	-0.013276134
30	0x3aff4823	0.0019476454
31	0xbdad912d	-0.08474956
32	0xbdc02a7c	-0.09383103
33	0xbca046aa	-0.019564945
34	0xbd1aa3a4	-0.037753716
35	0x3e84fa79	0.25972345
36	0xbd2b4f4c	-0.04182367
37	0x3e3e78e5	0.18600805
38	0x3d8b407a	0.06799407
39	0xbd3ddd0b	-0.04635338
40	0x3e50b81f	0.20382737
41	0x3e07f63a	0.13277522
42	0x3d4b9296	0.049700342
43	0x3d44ba78	0.048029393
44	0xbdc6dd30	-0.09710157
45	0x3cd54dad	0.026038015
46	0x3c1b9bf1	0.009497629
47	0xbd3ce043	-0.04611231
48	0x3dde67f1	0.10859669
49	0xbe2524ea	-0.16127363
50	0x3dcaa3c0	0.09894514
51	0x3de016a2	0.10941817
52	0x3dbffdd3	0.09374585
53	0xbd6b0d0a	-0.057385482
54	0x3cdf01d3	0.02722255
55	0x3d951eb8	0.0728125
56	0x3deb775a	0.11497374
57	0xbe5c05fa	-0.21486655
58	0xbc8a7cfa	-0.016905297
59	0xbe0a3b88	-0.13499272
60	0xbe72b823	-0.23703055
61	0xbd6f9ba5	-0.058498044
62	0xbe3732f6	-0.17890534
63	0xbc948cfa	-0.01813363
64	0xbdc234f1	-0.09482754
65	0xbd983f55	-0.074339546
66	0xbe35a77d	-0.17739673
67	0x3df5eeab	0.12008413
68	0x3dac41b7	0.084109716
69	0xbc517dd5	-0.012786348
70	0x3e17ad78	0.14812267
71	0x3de39284	0.1111193
72	0x3e6ccee7	0.23125802
73	0xbd766fc1	-0.06016517
74	0xbd3042d3	-0.04303248
75	0x3c94086f	0.018070428
76	0x3d765da7	0.060147908
77	0x3e79307f	0.24334906
78	0x3d31d9e3	0.043420684
79	0x3db0cef5	0.08633224
80	0x3ccb7ac1	0.024838807
81	0x3d826f8b	0.063689314
82	0x3cb22b66	0.02174921
83	0xbda51be3	-0.080619596
84	0x3d9100ed	0.07080255
85	0xbe74907d	-0.23883243
86	0x3bfe813c	0.007766871
87	0xbe10141e	-0.14070174
88	0xbe44f2b9	-0.19233216
89	0xbcc5a4f6	-0.024126511
90	0xbd3bccfe	-0.045849793
91	0x3c472995	0.01215591
92	0xbc92e021	-0.017929139
93	0x3dcc7ce1	0.09984756
94	0xbccabeb8	-0.024749145
95	0xbd6d0856	-0.057869278
96	0x3dcc79e4	0.09984186
97	0x3d7e8d78	0.062146634
98	0x3d91028b	0.07080563
99	0xbdbd7993	-0.09251704
100	0x3c5c8239	0.013458782
101	0xbd862bde	-0.06551336
102	0xbe36329c	-0.17792743
103	0xbc714359	-0.01472553
104	0x3d753722	0.059867032
105	0xbc8054da	-0.01566546
106	0x3c09cdff	0.00841093
107	0xbdcb580f	-0.09928905
108	0x3cba3881	0.022732021
109	0x3d9b87d4	0.075942665
110	0xbc986345	-0.018602023
111	0x3b3fcf0c	0.0029267697
112	0xbe49f4bf	-0.1972227
113	0x3d84ccf6	0.06484406
114	0x3c86b827	0.016445233
115	0x3dad946b	0.08475574
116	0x3d6f0829	0.05835739
117	0xbdb5837d	-0.0886297
118	0x3d99299a	0.07478638
119	0xbc8a7876	-0.016903143
120	0x3daedd41	0.085382946
121	0x3d2cc322	0.04217828
122	0xbe955b9e	-0.2917146
123	0x3e5958a5	0.21225221
124	0x3e9d5cfe	0.3073501
125	0x3d983ff5	0.07434074
126	0xbad2680d	-0.0016052738
127	0xbb86e152	-0.0041162157
128	0x3d24aac1	0.040201906
129	0x3bc00122	0.00585951
130	0x3d27854e	0.040898614
131	0xbd9482e0	-0.07251525
132	0xbda772e0	-0.081762075
133	0x3d7c11c8	0.061540395
134	0xbcb90775	-0.022586564
135	0x3d9f42b6	0.07776396
136	0x3d19888f	0.037483748
137	0x3cd96914	0.026539363
138	0xbddf6bc1	-0.10909224
139	0x3d8e6aa0	0.06953931
140	0xbbbd6cd7	-0.005780797
141	0xbb043f5f	-0.0020179374
142	0xbd693b38	-0.05694124
143	0xbda769ef	-0.08174502
144	0x3dd1c564	0.102427274
145	0x3bc4da27	0.006007451
146	0xbd17e081	-0.037079338
147	0x3e2b4667	0.16726075
148	0xbe8ea40e	-0.2785954
149	0x3be355f2	0.0069377357
150	0xbd118c3d	-0.035534132
151	0x3cbdd190	0.023171216
152	0x3cdb4724	0.02676732
153	0xbc906403	-0.017625814
154	0x3c7ac117	0.015304825
155	0xbde59a33	-0.11211052
156	0xbdc9d159	-0.09854383
157	0xbea1a2bd	-0.31569472
158	0xbd169090	-0.03675896
159	0x3d37c4e1	0.044865493
160	0x3d8f6970	0.070025325
161	0xbdaebefb	-0.085325204
162	0xbe7ecd2d	-0.24882956
163	0x3da35308	0.07974821
164	0xbdb431d7	-0.08798569
165	0x3c6d460b	0.014482032
166	0x3ddd4714	0.10804573
167	0xbde749f8	-0.11293405
168	0xbe1adc24	-0.1512304
169	0xbd840d8b	-0.064478956
170	0x3e13a297	0.14417492
171	0x3d7bfb9c	0.06151925
172	0xbea80bd1	-0.32821515
173	0x3da86781	0.08222867
174	0x3e7de0d9	0.24792804
175	0x3c27dea6	0.010245955
176	0xbe10c317	-0.14136921
177	0x3db91d0f	0.090387456
178	0xbdf37cd9	-0.11889047
179	0xbbbf6fc5	-0.0058421814
180	0xbdcca57f	-0.099925034
181	0x3d45ea54	0.048319176
182	0xbd2d7beb	-0.042354506
183	0x3dfae5b4	0.12250844
184	0x3e2be844	0.16787821
185	0xbb32f34b	-0.0027305658
186	0xbd2b4029	-0.041809235
187	0xbe1be48b	-0.15223901
188	0x3df43781	0.11924649
189	0xbc12293e	-0.008920966
190	0xbd50a373	-0.050937127
191	0x3d246fa2	0.040145524
192	0xbe26dbe7	-0.16294824
193	0x3d63abd0	0.055583775
194	0xbba3f312	-0.0050033415
195	0x3cee44f5	0.029085616
196	0x3df7163b	0.12064787
197	0xbdb7d3d0	-0.08975947
198	0x3de0c42d	0.109749176
199	0x3e430e79	0.1904849
200	0xbc22697c	-0.009912845
201	0x3dd9f53f	0.1064248
202	0x3d80e0de	0.0629289
203	0x3d65d936	0.05611535
204	0x3d1557ad	0.036460567
205	0x3e21d402	0.15803531
206	0xbcf2caed	-0.029637778
207	0xbddd81da	-0.10815783
208	0xbdeade1c	-0.11468145
209	0xbb83fff8	-0.0040283166
210	0xbdb0320d	-0.086032964
211	0x3da1feb9	0.079099126
212	0xbdfa528d	-0.122227766
213	0x3d0c844c	0.034305856
214	0xbe15e706	-0.1463891
215	0xbd04fd9f	-0.032468434
216	0xbd2166e1	-0.039404754
217	0x3d4f0231	0.0505392
218	0x3e1b9738	0.15194404
219	0x3df8e3b6	0.121528074
220	0x3da76781	0.08174039
221	0xbd4451e4	-0.04792966
222	0xbe8e5281	-0.2779732
223	0xbe495d6e	-0.19664547
224	0xbd91df5a	-0.07122679
225	0xbbb4d1ad	-0.0055181594
226	0xbdc7fadb	-0.09764644
227	0x3e52f2fd	0.20600505
228	0xbdcbd176	-0.09952061
229	0x3dbd07a0	0.0922997
230	0x3d9331c6	0.07187228
231	0xbddd766c	-0.10813603
232	0x3d4382bb	0.047732096
233	0xbda836dc	-0.082135886
234	0xbdec017a	-0.11523719
235	0xbe14e2d0	-0.14539647
236	0x3c02d3c9	0.007985064
237	0x3e222d1c	0.1583752
238	0x3e492a6b	0.19645087
239	0x3d083725	0.033255715
240	0xbad1b166	-0.0015998303
241	0xbd71c5c1	-0.059026483
242	0xbde57aa4	-0.112050325
243	0xbc2ba6f1	-0.010476814
244	0x3c685c16	0.014182111
245	0xbd9af23e	-0.07565735
246	0x3d74ce60	0.059767127
247	0x3c85d754	0.016338028
248	0x3ca99920	0.020702899
249	0xbe052645	-0.1300288
250	0x3d49ffa3	0.04931606
251	0xbd0001ee	-0.03125184
252	0x3e813827	0.25238153
253	0x3ddcb9e2	0.10777642
254	0xbd76ed31	-0.060284797
255	0x3e14fc07	0.14549266

conv01.bias f4 [16]
0	0xbd5bdee7	-0.053679373
1	0x3abb1a2b	0.0014274766
2	0xbcc18f66	-0.023627948
3	0x3e5d9f80	0.21642876
4	0xbe80e9ce	-0.2517838
5	0x3c5bba1b	0.01341107
6	0xbe17dd6b	-0.14830558
7	0xbe1eb5f9	-0.15499105
8	0x3dbc182f	0.091843
9	0xbc9c7bfe	-0.019102093
10	0xbd4eddca	-0.050504483
11	0xbcf0ece9	-0.029409843
12	0xbdc9b362	-0.09848668
13	0xbdf3fcf8	-0.11913484
14	0xbe15c6aa	-0.14626566
15	0x3d12b9b4	0.03582163

conv02.weight f4 [22, 16, 3, 3]
0	0x3ca6ab50	0.02034536
1	0x3c8cd080	0.017189264
2	0xbd68e5a2	-0.05685962
3	0x3d99efa2	0.075164095
4	0x3dd14a11	0.10219205
5	0xbb50f19e	-0.0031882296
6	0x3da7c666	0.081921384
7	0xbd6d0867	-0.05786934
8	0xbdd90916	-0.10597436
9	0x3e2d13e5	0.1690212
10	0xbce0b143	-0.027428275
11	0xbbcb59ab	-0.0062057576
12	0xbe2a6ec1	-0.16643812
13	0xbe7ae5f4	-0.24501783
14	0xbe5fd78a	-0.21859565
15	0xbd6c9191	-0.05775601
16	0xbdd9903a	-0.10623212
17	0xbd6fbbaf	-0.0585286
18	0x3dec96f2	0.11552228
19	0x3e245005	0.1604615
20	0xbd82f4cf	-0.0639435
21	0xbd0b5d15	-0.034024317
22	0xbd125262	-0.035723098
23	0x3dd4c18e	0.1038848
24	0xbe540512	-0.20705059
25	0x3c5c6820	0.01345256
26	0xbcdf0d16	-0.02722792
27	0x3c97651c	0.01848083
28	0xbb9fadaf	-0.0048729996
29	0xbe549f46	-0.20763883
30	0x3d855264	0.065098554
31	0xbd8a1e31	-0.0674404
32	0x3d6f7571	0.05846161
33	0x3db5f23a	0.08884092
34	0xbe1188ec	-0.14212388
35	0xbe0566d6	-0.1302751
36	0xbe417357	-0.18891655
37	0x3c3a30b6	0.011364153
38	0xbdc1171c	-0.09428236
39	0xbcb58eeb	-0.022162875
40	0x3e74a478	0.23890865
41	0x3e378a49	0.17923845
42	0x3e6fe48e	0.2342703
43	0x3e4255fe	0.18978116
44	0x3d8e347f	0.069436066
45	0x3dc3eff0	0.09567249
46	0xbd80fc8a	-0.06298168
47	0x3c9182ef	0.01776263
48	0xbd9cc599	-0.07654876
49	0x3e4917d9	0.19638003
50	0x3dcb1c1e	0.09917472
51	0xbc48ec26	-0.012263333
52	0xbdce528a	-0.10074337
53	0xbd8472f6	-0.064672396
54	0x3cac173d	0.021007175
55	0xbced1cd7	-0.028944416
56	0x3e0dec76	0.13859734
57	0xbd166cf4	-0.036725
58	0x3e032064	0.12805325
59	0xbda90313	-0.082525395
60	0x3bad0b73	0.005280906
61	0xbdee5a07	-0.11638265
62	0xbcfa2330	-0.030534357
63	0x3c6ffdb8	0.014647894
64	0xbdf536ba	-0.11973329
65	0xbd79180f	-0.06081396
66	0xbcb8877f	-0.022525547
67	0x3cb82679	0.022479283
68	0xbdea7133	-0.11447372
69	0x3de2cb8c	0.1107398
70	0xbe7c3679	-0.24630155
71	0xbc0b2611	-0.008492962
72	0xbd657876	-0.056023084
73	0x3b9e0571	0.004822426
74	0xbd3788f9	-0.04480836
75	0xbe27d387	-0.16389285
76	0x3cd0687b	0.025440445
77	0xbdb64a27	-0.08900862
78	0xbdb709ee	-0.08937441
79	0xbe2e1f46	-0.17004117
80	0xbd0d254c	-0.034459397
81	0xbda94878	-0.082657754
82	0xbe17b5d7	-0.1481546
83	0xbdeded39	-0.11617512
84	0x3cae1117	0.021248383
85	0xbdde3a8a	-0.10851009
86	0x3c8477f0	0.016170472
87	0x3cf0ea51	0.029408606
88	0x3e54a1d5	0.20764859
89	0xbdf3c4ba	-0.11902757
90	0x3d0aa615	0.033849794
91	0xbd38679f	-0.045020696
92	0x3d0a3f9d	0.033752073
93	0x3d2753cd	0.040851403
94	0x3df14d4b	0.117823206
95	0xbd30c4df	-0.0431565
96	0xbe23b6ba	-0.15987673
97	0x3e3c0b44	0.18363672
98	0x3e50be72	0.20385149
99	0xbd663670	-0.05620426
100	0x3c431c95	0.01190867
101	0x3d485ce4	0.048916712
102	0xbdb87578	-0.090067804
103	0x3bfd096d	0.007722071
104	0xbe15fb1d	-0.14646573
105	0x3c65315c	0.013988819
106	0xbc8c3702	-0.017116074
107	0x3df322dd	0.11871884
108	0xbdc93a6c	-0.09825596
109	0x3d00410e	0.03131204
110	0xbbf0ed11	-0.0073524793
111	0x3e018be3	0.12651019
112	0xbda9b4c2	-0.0828643
113	0x3dd44f1f	0.10366654
114	0xbd8d980d	-0.06913767
115	0xbe8611bf	-0.26185414
116	0x3ddb564f	0.107098214
117	0xbcdcedbe	-0.026968833
118	0x3e62a7ca	0.22134319
119	0x3dc4ba39	0.09605832
120	0x3d1a4b78	0.03766963
121	0x3dc729b8	0.09724754
122	0x3cd1f069	0.025627332
123	0xbe2b43d5	-0.16725095
124	0xbe1f02b7	-0.1552838
125	0x3e653bf3	0.2238615
126	0x3d570395	0.05249365
127	0x3df294c4	0.11844781
128	0x3e206ce7	0.15666543
129	0xbde4e5a6	-0.111766145
130	0xbd5e559f	-0.054280873
131	0xbc1f3813	-0.009717959
132	0x3e3ecf67	0.18633805
133	0x3b238fc5	0.002495752
134	0xbdbfe60b	-0.09370049
135	0x3d506179	0.050874207
136	0x3db9705a	0.090546325
137	0xbd877c6e	-0.0661553
138	0x3dff7035	0.12472574
139	0xbd90c0b6	-0.07068007
140	0xbcf0adea	-0.029379804
141	0xbddcdde9	-0.107845135
142	0xbda8036c	-0.08203778
143	0x3d604b52	0.05475933
144	0xbdbfd565	-0.09366874
145	0xbc3f57c6	-0.011678642
146	0xbd77c351	-0.060489003
147	0xbe7bff51	-0.24609114
148	0x3c914cd8	0.017736837
149	0xbb19b6a4	-0.002345481
150	0xbc217fb1	-0.009857104
151	0xbe91a89e	-0.28448957
152	0x3dbc0d17	0.09182184
153	0xbd1d5b5b	-0.0384172
154	0xbd4713b3	-0.04860277
155	0x3dddb879	0.10826201
156	0xbcedd9b4	-0.029034473
157	0x3cc32aea	0.023824174
158	0x3dd9dbdf	0.1063764
159	0x3c4f753b	0.012662227
160	0xbe361a54	-0.17783481
161	0xbd21f63e	-0.039541475
162	0x3da61ce3	0.081109785
163	0xbda3fa7e	-0.08006762
164	0x3d1cad55	0.03825124
165	0x3cc0a795	0.02351741
166	0x3e0ec9f2	0.13944224
167	0xbc742c96	-0.014903208
168	0xbe132de7	-0.14372979
169	0x3cbff621	0.023432793
170	0x3e2896d1	0.16463782
171	0xbe0390ce	-0.12848207
172	0x3d0f03a8	0.034915596
173	0x3d9c069b	0.076184474
174	0x3d0f8dc0	0.035047293
175	0xbd92cb07	-0.07167631
176	0x3d70f768	0.058829695
177	0xbca3e438	-0.020006284
178	0x3e4542c4	0.1926375
179	0x3e03f5c7	0.12886725
180	0xbdf95fa5	-0.12176446
181	0x3dc90574	0.09815493
182	0xbe5a9281	-0.2134495
183	0x3d7968bb	0.060890894
184	0x3db8ca12	0.09022917
185	0xbd41fdf4	-0.04736133
186	0x3d8480d9	0.06469888
187	0xbe7c001e	-0.2460942
188	0x3c9f91c6	0.01947869
189	0x3df33dfc	0.11877057
190	0xbc8b8d09	-0.017035024
191	0x3db5755a	0.08860274
192	0x3ddff5f8	0.10935587
193	0xbe25dea3	-0.1619821
194	0xbe04e02c	-0.1297614
195	0xba2a1481	-0.00064880407
196	0xbd7e0eb9	-0.06202576
197	0x3e1ada6d	0.15122385
198	0x3dc787a1	0.09742666
199	0xbdcec619	-0.10096378
200	0xbd13a835	-0.036049087
201	0x3d1cc009	0.038269076
202	0x3de67577	0.112528734
203	0xbe0f9f89	-0.14025702
204	0x3d4adc41	0.049526457
205	0x3dcb8d7a	0.09939094
206	0xbc42464d	-0.011857581
207	0xbb111c81	-0.0022142234
208	0xbd536501	-0.051609997
209	0xbd9e5323	-0.07730701
210	0x3e517619	0.20455207
211	0xbc341950	-0.010992363
212	0xbcda435c	-0.026643448
213	0xbe0b10e9	-0.1358067
214	0x3cd28240	0.025696874
215	0xbe0c6741	-0.13711263
216	0x3e89651e	0.2683496
217	0x3c9d6ce3	0.01921696
218	0xbd9fdbc7	-0.07805591
219	0xbd8cd6ac	-0.06876883
220	0x3e12e724	0.14345986
221	0xbdc99e15	-0.09844605
222	0xbd01d20f	-0.031694468
223	0x3d0c319c	0.034227
224	0x3d1c8841	0.03821588
225	0x3c7ec60b	0.015550147
226	0x394f8bae	0.00019793093
227	0xbe06d1ac	-0.13165921
228	0xba315099	-0.0006764024
229	0xbe011eae	-0.1260936
230	0x3c84e0ad	0.016220415
231	0xbc1bc2eb	-0.009506921
232	0x3dacb979	0.084338136
233	0x3d49147b	0.049091797
234	0x3dea0c70	0.114281535
235	0x3c98fe61	0.018675985
236	0xbd966a70	-0.0734452
237	0xbdc6525c	-0.096836776
238	0xbdd94e79	-0.106106706
239	0xbe1f9bee	-0.15586826
240	0x3bb300b8	0.005462732
241	0xbe597e6f	-0.21239637
242	0x3d0fc82b	0.035103004
243	0xbd10ac01	-0.035320286
244	0x3d89c61e	0.06727241
245	0x3cf49532	0.029856298
246	0xbc8874a0	-0.016657174
247	0xbd8ca221	-0.06866861
248	0x3ce3a460	0.027788341
249	0xbe0ce7b8	-0.13760269
250	0xbdc58ae6	-0.096456334
251	0x3d9b44d3	0.075814866
252	0x3d9e64fc	0.07734105
253	0xbe466b9f	-0.19376992
254	0x3d36d67a	0.044638135
255	0x3e27b36f	0.16377042

conv02.bias f4 [22]
0	0x3d9443b2	0.07239474
1	0xbe0235a0	-0.12715769
2	0xbd99422f	-0.07483327
3	0xbddd13b2	-0.10794772
4	0xbe9247cb	-0.285704
5	0xbdfe7c25	-0.124260224
6	0xbe8937f9	-0.26800516
7	0xbe49fc94	-0.19725257
8	0xbe32bfc7	-0.1745597
9	0xbeb09ef2	-0.34496266
10	0xbe46d812	-0.19418362
11	0xbe92f9f9	-0.2870634
12	0xbe0a22b7	-0.13489805
13	0xbeb847c2	-0.35992247
14	0x3d69daf6	0.057093583
15	0xbe9fdbb0	-0.31222296
16	0xbdd2261a	-0.102611735
17	0xbd9b0429	-0.07569153
18	0xbdb49531	-0.088175185
19	0xbe7ce89c	-0.24698108
20	0xbde10d0a	-0.10988815
21	0xbd80dc3c	-0.062920064
