weights/2. triplet loss model - marks/1. 434 epochs/fully_connect_best_var.pt (torch, 566340 bytes, 10 tensors)

linear00.weight f4 [256, 352]
-0.010986646 0.010271634 0.018992888 -0.054099906 -0.036914587 0.024830244 0.03361416 -0.027694311
0.0017978698 0.031689644 0.12298218 0.019770585 0.07234622 0.0018371916 -0.15009649 0.019228067
0.004549166 -0.08645986 0.07492041 -0.0081915 0.05430526 0.055262536 -0.03862276 0.04358979
0.027768912 0.14271559 0.051605944 0.020610237 -0.08010211 -0.03717008 0.09878926 0.034752656
-0.10907548 -0.03547432 0.076307625 -0.037087165 -0.062062275 -0.14530334 0.068442374 -0.041407473
0.0075548505 -0.0054136645 -0.23125315 0.027938163 0.007035801 -0.13166714 -0.07501242 -0.0027710472
0.036673393 0.06387889 0.033311103 0.07016863 0.042369485 -0.0360793 0.077311 -0.09431326
0.09249022 -0.0312658 -0.031109769 -0.039548874 -0.12884219 -0.090967916 -0.2123511 -0.024456296
-0.06491838 -0.13935626 0.08209335 0.045457773 -0.021970328 -0.19550091 0.12425507 0.021899838
-0.025206152 0.11612585 -0.07509289 -0.100078076 -0.042068202 -0.049767178 -0.15301278 0.22758684
0.05653142 0.037357893 0.034964245 -0.0070543434 0.059342396 -0.077026874 0.06444382 0.01423726
0.08945048 0.06288787 0.004889021 0.0352256 -0.07847101 0.1413955 -0.07677448 -0.009282878
-0.08010127 -0.12017285 -0.088176794 -0.11638704 -0.016238904 0.015445081 0.04267673 0.017494246
-0.043226298 -0.008780572 -0.10369109 -0.11974097 0.054317616 0.09638949 -0.11080192 0.13488944
0.17322388 -0.031231035 -0.101595715 0.024988865 0.024292754 0.07326742 0.058933653 0.13454653
0.027897028 0.059619118 0.08959549 -0.052229136 -0.08909781 -0.026713258 0.100207254 0.12054262
0.04755684 0.0483155 -0.061521914 -0.027025659 -0.07355225 0.039712455 0.063399866 -0.010984561
-0.05821866 -0.08933255 -0.07753987 -0.09967931 -0.0031000308 0.0379068 -0.021237617 -0.108275406
-0.05344258 0.0070394427 0.02423955 0.038033925 0.001629826 -0.018577212 -0.07417307 -0.055405173
0.014045836 -0.03799291 -0.029578425 -0.039197993 0.031943254 -0.08494961 -0.03549401 0.045755282
0.09919768 -0.042342596 -0.029789008 0.021207094 0.030257896 -0.017059784 0.029571448 0.1016154
0.12327205 0.023245499 0.101869926 0.020798724 0.0023120355 -0.06676374 -0.09280074 -0.11916651
0.0676408 -0.016889093 0.09909994 0.0054429774 -0.17088123 -0.08862989 0.11982626 -0.13285576
-0.03468532 -0.021418802 -0.17180705 -0.033830512 0.012264029 -0.10993889 0.19362664 0.06269214
0.09272422 -0.04682434 -0.018750532 0.06400309 0.0010071313 0.07955346 0.01992062 0.033759274
0.09268423 -0.1661768 0.17635421 -0.13562918 -0.058685113 0.07659414 -0.18821721 0.069411874
-0.026828533 0.065196574 0.016678814 -0.011203137 -0.05518131 -0.00697058 -0.15698814 0.039055593
0.0022548393 -0.21458288 0.16315237 -0.012069814 0.03468768 -0.08046417 0.019354613 0.13963175
-0.049346346 0.01575572 0.07640706 0.010175007 0.013824729 0.07084714 0.047765866 0.022687713
-0.08363376 0.00030347976 -0.083979554 -0.097250745 0.02427945 -0.008378953 -0.17926876 0.03471458
-0.013893609 0.01426892 0.0013662493 -0.036374386 0.10759196 0.042920414 0.043133806 -0.081340134
-0.067000896 -0.1199024 0.14032595 -0.0022656894 0.30223817 -0.08440532 0.079223774 -0.08428986
00000000: 5501 34bc 5b4a 283c f996 9b3c dd97 5dbd
00000010: c033 17bd cc68 cb3c 00af 093d 2edf e2bc
00000020: 80a6 eb3a 00cd 013d 15de fb3d ecf5 a13c
00000030: 412a 943d eccd f03a e5b2 19be 2e84 9d3c
00000040: 2c11 953b de11 b1bd df6f 993d a435 06bc
00000050: 316f 5e3d f85a 623d e632 1ebd 358b 323d
00000060: a17b e33c 0924 123e c160 533d cdd6 a83c
00000070: 930c a4bd a73f 18bd 0652 ca3d cd58 0e3d
00000080: f762 dfbd 854d 11bd 2c47 9c3d b6e8 17bd
00000090: 0335 7ebd 66ca 14be 842b 8c3d e29a 29bd
000000a0: ae8e f73b 1c65 b1bb a0cd 6cbe 93de e43c
000000b0: 948c e63b c0d3 06be 1da0 99bd 759a 35bb
000000c0: d736 163d efd2 823d 3971 083d 92b4 8f3d
000000d0: a08b 2d3d e3c7 13bd 3b55 9e3d 4f27 c1bd
000000e0: 836b bd3d 9110 00bd ead9 febc 00fe 21bd
000000f0: 35ef 03be 634d babd 9172 59be 9258 c8bc
00000100: edf3 84bd 68b3 0ebe 8f20 a83d ee31 3a3d
00000110: 1efb b3bc 6431 48be 7179 fe3d 4a67 b33c
00000120: 227d cebc 64d3 ed3d 4dca 99bd bcf5 ccbd
00000130: b54f 2cbd abd8 4bbd 62af 1cbe 860c 693e
00000140: 7e8d 673d 9704 193d ab36 0f3d 1f28 e7bb
00000150: 0311 733d 44c0 9dbd 1ffb 833d 6643 693c
00000160: d031 b73d 5bcb 803d 1534 a03b b848 103d
00000170: 69b5 a0bd fbc9 103e f03b 9dbd 3617 18bc
00000180: 220c a4bd 2f1d f6bd 0996 b4bd 545c eebd
00000190: 7307 85bc 5d0d 7d3c cbcd 2e3d 1850 8f3c
000001a0: 0f0e 31bd 63dc 0fbc ff5b d4bd c13a f5bd
000001b0: 267c 5e3d da67 c53d 1eec e2bd 7520 0a3e
000001c0: 9a61 313e 3ad8 ffbc 6a11 d0bd 73b5 cc3c
000001d0: 9901 c73c 3b0d 963d 6a64 713d 91c6 093e
000001e0: 4f88 e43c 2d33 743d d77d b73d 38ee 55bd
000001f0: ea78 b6bd c3d5 dabc 7639 cd3d 0ddf f63d
00000200: f6ca 423d 79e6 453d 67fe 7bbd ea64 ddbc
00000210: 90a2 96bd 87a9 223d cad7 813d 97f8 33bc
00000220: b176 6ebd fcf3 b6bd 39cd 9ebd ab24 ccbd
00000230: e329 4bbb 2944 1b3d 83fa adbc 7fbf ddbd
00000240: 9be6 5abd 20ab e63b 0592 c63c 76c9 1b3d
00000250: e39f d53a 3d2f 98bc 0de8 97bd 89f0 62bd
00000260: 8220 663c 749e 1bbd 744e f2bc 138e 20bd
00000270: eed6 023d 10fa adbd 2b62 11bd e469 3b3d
00000280: 2728 cb3d 6e6f 2dbd 1408 f4bc 80ba ad3c
00000290: 68df f73c f6c0 8bbc d23f f23c bc1b d03d
000002a0: 0e76 fc3d 586d be3c 2ea1 d03d 1662 aa3c
000002b0: 8585 173b 6dbb 88bd 500e bebd 920d f4bd
000002c0: 4287 8a3d ff5a 8abc e9f4 ca3d 015b b23b
000002d0: 7dfb 2ebe 9683 b5bd 7867 f53d 570b 08be
000002e0: 3212 0ebd 7c76 afbc 30ee 2fbe dd91 0abd
000002f0: 11ef 483c a427 e1bd 1046 463e bd64 803d
00000300: 32e6 bd3d e1ca 3fbd b79a 99bc 0d14 833d
00000310: b801 843a edec a23d 9130 a33c 2a47 0a3d
00000320: 3bd1 bd3d 402a 2abe 3396 343e 60e2 0abe
00000330: cd5f 70bd 63dd 9c3d 03bc 40be d027 8e3d
00000340: 83c7 dbbc c885 853d 02a2 883c 5d8d 37bc
00000350: cc05 62bd 7769 e4bb 80c1 20be c2f8 1f3d
00000360: edc5 133b 9dbb 5bbe 6a11 273e 78c0 45bc
00000370: ab14 0e3d 66ca a4bd 918d 9e3c a0fb 0e3e
00000380: 651f 4abd 2412 813c 4e7b 9c3d 13b5 263c
00000390: 1e81 623c 4e18 913d 24a6 433d 95db b93c
000003a0: 2d48 abbd 5d1c 9f39 79fd abbd 662b c7bd
000003b0: b2e5 c63c e047 09bc 3b92 37be e030 0e3d
000003c0: 05a2 63bc 30c8 693c b813 b33a 4ffd 14bd
000003d0: 2c59 dc3d 51cd 2f3d 13ad 303d a895 a6bd
000003e0: c437 89bd 648f f5bd 9bb1 0f3e f67b 14bb
000003f0: f6be 9a3e b2dc acbd 1340 a23d 2aa0 acbd

linear00.bias f4 [256]
-0.020969555 -0.06301799 -0.018267617 -0.027518557 -0.07151498 -0.06331517 -0.19379123 -0.07525739
-0.15246603 -0.012149997 -0.023292037 -0.04181563 -0.084285565 -0.09799464 0.028093789 -0.16949084
0.039590005 0.07450495 -0.10700937 0.031548053 -0.10012822 -0.055760413 -0.11780852 -0.043775894
-0.02286148 -0.09518974 0.014606372 0.097668104 -0.07355125 -0.07910774 0.03230117 0.033039518
-0.03499512 0.014608304 -0.02190129 -0.03748103 -0.056982584 -0.015519288 -0.06492334 -0.113436244
0.0018213073 -0.0017607156 0.032117017 0.067909 -0.004076964 -0.14940973 0.053802375 -0.036190126
0.009165339 0.009512635 -0.004525186 -0.14921533 -0.0679208 0.020503696 0.018337803 0.014547348
0.074962 -0.041810125 0.06137117 0.019193236 -0.013901657 -0.10871665 -0.004835523 0.050479006
0.08033778 -0.03945519 -0.04598636 -0.05668915 -0.15492709 0.0022759575 -0.18309471 0.008861345
0.068347886 -0.03226237 -0.063189246 0.04818324 -0.07749317 0.08850454 -0.09125618 -0.061290085
-0.038425837 0.018538421 -0.14217171 0.07906963 -0.06315937 -0.18067798 -0.03722906 -0.090670675
-0.11017948 -0.08136633 -0.0675087 -0.091457464 -0.1254669 -0.09630589 -0.08273295 -0.09503785
0.10663277 0.0482695 0.09004892 0.024405265 0.060126964 -0.08572703 -0.012123844 -0.1963198
-0.039940346 -0.01630672 -0.03620872 0.034110505 0.033094104 -0.17622823 -0.07434959 -0.068219036
-0.11819442 -0.020671602 -0.07629433 -0.06984648 -0.038410954 -0.01482532 0.009492508 0.031115029
0.004430857 -0.08542142 -0.13193804 0.0060696527 0.02509861 -0.056826632 0.03893024 -0.006606171
-0.08325635 -0.041361798 0.022063147 0.011950133 -0.06680523 0.032363717 0.013585538 -0.036849957
-0.12990434 -0.08944379 -0.020029392 -0.038211778 -0.025918527 0.05293397 -0.06373801 -0.12658735
0.07025457 -0.013767946 0.010264066 0.050863918 -0.009768346 -0.086191796 -0.03623945 -0.013365696
0.06359267 -0.006464343 0.042648222 -0.050049674 0.010695221 0.00588915 -0.04482193 -0.018449184
-0.011282269 -0.10872948 -0.04637799 -0.018773612 -0.0026576172 -0.024186993 -0.12181663 -0.06439288
-0.051852502 -0.06585296 0.0062630232 -0.03462158 -0.06601611 0.051222127 -0.011803467 -0.06483849
-0.0030624983 -0.07162651 -0.09298348 0.022117706 -0.03843297 -0.17961149 -0.11981862 -0.1740894
-0.105579324 -0.009498598 -0.030942542 -0.084442735 -0.122486815 -0.05734248 -0.016402641 0.018668791
-0.10263246 0.020656379 0.059676163 -0.106343955 0.009546698 0.015805846 0.00038511385 0.035116475
0.035859484 -0.016929697 -0.0378441 -0.04930251 -0.10277231 -0.15852837 -0.026181417 0.02591932
-0.024047239 -0.015950207 0.021035766 0.019738045 0.012585499 0.07018922 -0.051481932 0.010318788
-0.105782494 -0.18187606 0.016408483 -0.006329376 -0.086563274 0.05888987 -0.010216369 -0.12444123
-0.088181525 -0.045372427 -0.05031065 -0.18722166 0.02474963 -0.06580842 0.018993525 -0.048167326
-0.023349807 -0.009709112 0.0011334986 -0.0019213139 -0.056471348 0.009073019 -0.05557638 -0.11003426
-0.011091775 -0.10148495 0.0068793036 -0.03899264 -0.06883391 -0.09927793 -0.09951164 -0.028428288
-0.0006434255 -0.014895886 -0.14704464 0.0077876383 -0.085624024 0.0045371195 -0.0069930423 0.030254638
00000000: 58c8 abbc 930f 81bd f8a5 95bc 996e e1bc
00000010: 7276 92bd 62ab 81bd 3571 46be 8c20 9abd
00000020: 0e20 1cbe c810 47bc f1ce bebc de46 2bbd
00000030: e99d acbd 6ab1 c8bd f224 e63c 028f 2dbe
00000040: 2129 223d 0d96 983d bb27 dbbd 8838 013d
00000050: 0610 cdbd 0865 64bd 9845 f1bd 5a4e 33bd
00000060: 0048 bbbc d7f2 c2bd 914f 6f3c 3706 c83d
00000070: 0aa2 96bd 3d03 a2bd 3b4e 043d 7254 073d
00000080: 0b57 0fbd ab57 6f3c 566a b3bc b585 19bd
00000090: 9266 69bd 9d44 7ebc 87f6 84bd 4351 e8bd
000000a0: efb8 ee3a d0c7 e6ba 228d 033d e013 8b3d
000000b0: 0e98 85bb ddfe 18be e15f 5c3d 193c 14bd
000000c0: 382a 163c e2da 1b3c 0348 94bb e7cb 18be
000000d0: 0f1a 8bbd 5ef7 a73c 2939 963c 0058 6e3c
000000e0: ad85 993d 1841 2bbd 5660 7b3d 223b 9d3c
000000f0: c7c3 63bc d6a6 debd 4f73 9ebb 13c3 4e3d
00000100: 2288 a43d c49b 21bd 325c 3cbd e232 68bd
00000110: 35a5 1ebe 3b28 153b 2e7d 3bbe 2d2f 113c
00000120: faf9 8b3d 8c25 04bd 5d69 81bd ca5b 453d
00000130: bdb4 9ebd de41 b53d 85e4 babd 500b 7bbd
00000140: 6964 1dbd e3dd 973c 7695 11be 42ef a13d
00000150: b359 81bd a603 39be 807d 18bd 8cb1 b9bd
00000160: c7a5 e1bd 64a3 a6bd 0042 8abd 0d4e bbbd
00000170: 657a 00be 063c c5bd e56f a9bd 34a3 c2bd
00000180: 4862 da3d 3db6 453d 916b b83d 8ded c73c
00000190: b147 763d a791 afbd 16a3 46bc 0f08 49be
000001a0: 7d98 23bd ac95 85bc 984f 14bd 75b7 0b3d
000001b0: af8d 073d 2c75 34be 9944 98bd 6cb6 8bbd
000001c0: eb0f f2bd 7e57 a9bc 3440 9cbd ac0b 8fbd
000001d0: ce54 1dbd e6e5 72bc 7786 1b3c f2e4 fe3c
000001e0: b930 913b 6df1 aebd c41a 07be f0e3 c63b
000001f0: 9a9b cd3c 0bc3 68bd 5175 1f3d 9478 d8bb
00000200: 4e82 aabd fd6a 29bd c6bd b43c 7eca 433c
00000210: 2ed1 88bd d18f 043d e095 5e3c fbef 16bd
00000220: a505 05be 4e2e b7bd ae14 a4bc f483 1cbd
00000230: 1753 d4bc 4ad1 583d 1389 82bd 1da0 01be
00000240: a1e1 8f3d f392 61bc 9d2a 283c af56 503d
00000250: 6a0b 20bc 5385 b0bd d16f 14bd cbfb 5abc
00000260: e03c 823d d7d2 d3bb e7af 2e3d e300 4dbd
00000270: 023b 2f3c c5f9 c03b 3397 37bd be22 97bc
00000280: 44d9 38bc 90ad debd d9f6 3dbd 1ecb 99bc
00000290: 6b2b 2ebb cd23 c6bc ff7a f9bd 6ae0 83bd
000002a0: 4a63 54bd ebdd 86bd 0c3a cd3b 5ccf 0dbd
000002b0: 7433 87bd 4bce 513d 5463 41bc 0bca 84bd
000002c0: 32b4 48bb ebb0 92bd 1f6e bebd 3130 b53c
000002d0: e46b 1dbd 13ec 37be 7763 f5bd 7e44 32be
000002e0: f939 d8bd 02a0 1bbc 377b fdbc 50f0 acbd
000002f0: 5eda fabd f3df 6abd d55e 86bc 4bef 983c
00000300: f830 d2bd 9137 a93c fe6e 743d dcca d9bd
00000310: c169 1c3c 437b 813c 1be9 c939 4bd6 0f3d
00000320: 65e1 123d 26b0 8abc 6a02 1bbd 6ef1 49bd
00000330: 4a7a d2bd 4355 22be 697a d6bc c154 d43c
00000340: b7fe c4bc 02aa 82bc 3353 ac3c aeb1 a13c
00000350: 6933 4e3c 5ebf 8f3d b8de 52bd 2210 293c
00000360: 7ea4 d8bd b83d 3abe 156b 863c a766 cfbb
00000370: 1648 b1bd 8136 713d 8f62 27bc 0bdb febd
00000380: 8498 b4bd 70d8 39bd 8a12 4ebd 09b7 3fbe
00000390: bcbf ca3c 91c6 86bd 4f98 9b3c 1a4b 45bd
000003a0: 1848 bfbc f812 1fbc e791 943a 99d4 fbba
000003b0: 804e 67bd 00a7 143c 0fa4 63bd a459 e1bd
000003c0: 47ba 35bc 57d7 cfbd c86b e13b bfb6 1fbd
000003d0: cbf8 8cbd 3a52 cbbd c2cc cbbd 71e2 e8bc
000003e0: 8eab 28ba e00d 74bc df92 16be 722f ff3b
000003f0: a65b afbd 1eac 943b e425 e5bb 93d8 f73c

batch_norm00.weight f4 [256]
1.5130254 1.4455423 1.4858823 1.5488174 1.5670483 1.5818264 1.5587637 1.4513642
1.6381977 1.5912176 1.6526786 1.448467 1.4774804 1.5077342 1.478401 1.5973244
1.4843247 1.3939224 1.6467129 1.4755338 1.5818783 1.615728 1.7626909 1.3878253
1.4795673 1.4623343 1.4006226 1.4528613 1.5931121 1.5400492 1.5115583 1.4813795
1.4163878 1.434628 1.5067152 1.473136 1.4873949 1.3950768 1.4973177 1.5269259
1.4809076 1.4029514 1.5346339 1.4853063 1.4292445 1.493713 1.4385486 1.5037237
1.4778306 1.6128535 1.5217166 1.5534235 1.4670873 1.6080835 1.4737451 1.5353583
1.4448876 1.5494183 1.4664396 1.5920986 1.4438576 1.5095981 1.5125833 1.4958304
1.4394267 1.5304996 1.6150723 1.4395989 1.4001689 1.5421413 1.4256892 1.6257693
1.5772105 1.6366372 1.5559558 1.4732152 1.5342094 1.4578474 1.4999056 1.3864081
1.3927182 1.4869114 1.5237962 1.466276 1.5400378 1.5230563 1.523211 1.5781648
1.4725176 1.5368977 1.5991981 1.5720878 1.5862664 1.6601598 1.3812368 1.440267
1.3792914 1.4147408 1.4398968 1.5554063 1.5126238 1.5267979 1.5028236 1.4718051
1.4810864 1.4947418 1.5866092 1.5159769 1.4346201 1.4410124 1.6342568 1.3882277
1.6195964 1.3840737 1.6649996 1.356894 1.5309341 1.5024239 1.5275474 1.5150949
1.4811897 1.6477627 1.550492 1.5170003 1.3925343 1.5195494 1.4837205 1.511976
1.5710344 1.4460807 1.4899476 1.5116909 1.3585458 1.5176778 1.5547271 1.4874547
1.5085634 1.4755056 1.5143484 1.5012627 1.5159909 1.487353 1.4346431 1.6174399
1.4888866 1.5010724 1.4040573 1.4110062 1.4275321 1.4575971 1.4971701 1.55511
1.3831657 1.3665026 1.4525439 1.493081 1.5456687 1.4927492 1.5536149 1.508918
1.5635068 1.50009 1.5006353 1.564685 1.5141093 1.5007094 1.6151878 1.4011577
1.4129454 1.5572517 1.4843035 1.3732911 1.4947522 1.571963 1.6065243 1.439289
1.6002942 1.5305206 1.5381516 1.6031672 1.4587756 1.5806273 1.6068141 1.5356601
1.4935304 1.5465966 1.5595584 1.5426263 1.5335746 1.4887389 1.5143077 1.5153507
1.6549321 1.5427103 1.5226147 1.5459665 1.5644634 1.5426106 1.6258135 1.5031341
1.503046 1.5238 1.4678612 1.518568 1.585595 1.533186 1.4716426 1.4414665
1.5972521 1.5774925 1.6058434 1.4169843 1.5072504 1.5130218 1.4944198 1.4484664
1.5496172 1.5829887 1.3889463 1.4304692 1.5560583 1.4453893 1.4492798 1.4512385
1.500796 1.3273206 1.4653567 1.5421097 1.5692956 1.4784894 1.4591309 1.477998
1.4701408 1.3806857 1.3731247 1.4016197 1.4792113 1.5267636 1.4461725 1.4895036
1.5224206 1.5587946 1.3367233 1.5417839 1.5170805 1.6199765 1.6029587 1.3707442
1.514922 1.5468763 1.4826915 1.4768381 1.487251 1.4601291 1.4043522 1.4377944
00000000: d1aa c13f 8807 b93f 6431 be3f a63f c63f
00000010: 0a95 c83f 4a79 ca3f 9285 c73f 4dc6 b93f
00000020: 76b0 d13f 05ad cb3f f98a d33f 5e67 b93f
00000030: 141e bd3f 6ffd c03f 3e3c bd3f 2075 cc3f
00000040: 5afe bd3f 0d6c b23f 7dc7 d23f 4bde bc3f
00000050: fd7a ca3f 2dd0 ce3f db9f e13f 42a4 b13f
00000060: 7662 bd3f c52d bb3f 9a47 b33f 5cf7 b93f
00000070: 19eb cb3f 5520 c53f be7a c13f d89d bd3f
00000080: 324c b53f e4a1 b73f 0bdc c03f b88f bc3f
00000090: f562 be3f e091 b23f 1ba8 bf3f 4f72 c33f
000000a0: 618e bd3f e993 b33f e26e c43f 841e be3f
000000b0: 7cf1 b63f fd31 bf3f 5c22 b83f 057a c03f
000000c0: 8e29 bd3f fc71 ce3f 9cc7 c23f 95d6 c63f
000000d0: 84c9 bb3f aed5 cd3f aea3 bc3f 9f86 c43f
000000e0: 14f2 b83f 5753 c63f 4bb4 bb3f e3c9 cb3f
000000f0: 53d0 b83f 833a c13f 549c c13f 5f77 bf3f
00000100: 223f b83f 69e7 c33f b0ba ce3f c744 b83f
00000110: bc38 b33f e364 c53f fc7c b63f 3519 d03f
00000120: 09e2 c93f 547d d13f 8f29 c73f 5192 bc3f
00000130: f960 c43f be9a ba3f e8fc bf3f d275 b13f
00000140: 9744 b23f 1d53 be3f c10b c33f efae bb3f
00000150: f51f c53f 82f3 c23f 94f8 c23f 4e01 ca3f
00000160: 757b bc3f 10b9 c43f 86b2 cc3f 2c3a c93f
00000170: c70a cb3f 1e80 d43f 5ecc b03f ab5a b83f
00000180: 9f8c b03f 3a16 b53f 8a4e b83f 8e17 c73f
00000190: a89d c13f 1d6e c33f 865c c03f 1c64 bc3f
000001a0: 3d94 bd3f b353 bf3f 0316 cb3f 880b c23f
000001b0: a2a1 b73f 1873 b83f 542f d13f 72b1 b13f
000001c0: ef4e cf3f 5429 b13f b51e d53f b4ae ad3f
000001d0: a6f5 c33f 6d4f c03f ac86 c33f a1ee c13f
000001e0: a097 bd3f e3e9 d23f 8676 c63f 112d c23f
000001f0: 903e b23f 9880 c23f 8eea bd3f 6e88 c13f
00000200: a817 c93f 2c19 b93f 9ab6 be3f 167f c13f
00000210: d4e4 ad3f 4443 c23f 4c01 c73f ea64 be3f
00000220: 9b18 c13f 5edd bc3f 2bd6 c13f 6029 c03f
00000230: fd0b c23f 9561 be3f 63a2 b73f 4508 cf3f
00000240: d693 be3f 2423 c03f 26b8 b33f da9b b43f
00000250: 5fb9 b63f 8b92 ba3f 45a3 bf3f d80d c73f
00000260: 930b b13f 8fe9 ae3f f5ec b93f 471d bf3f
00000270: 79d8 c53f 6812 bf3f dadc c63f 3a24 c13f
00000280: fe20 c83f f302 c03f d114 c03f 9947 c83f
00000290: 55ce c13f 3f17 c03f 79be ce3f 2359 b33f
000002a0: 65db b43f 0654 c73f a8fd bd3f 01c8 af3f
000002b0: 0a54 bf3f 1536 c93f 97a2 cd3f 9f3a b83f
000002c0: 71d6 cc3f 19e8 c33f 27e2 c43f 9534 cd3f
000002d0: 29b9 ba3f ff51 ca3f 16ac cd3f 8390 c43f
000002e0: 012c bf3f e1f6 c53f 9c9f c73f c774 c53f
000002f0: 2c4c c43f ff8e be3f d6d4 c13f 03f7 c13f
00000300: d1d4 d33f 8877 c53f 0ae5 c23f 3be2 c53f
00000310: 5640 c83f 4474 c53f a81a d03f b366 c03f
00000320: d063 c03f e10b c33f e0e2 bb3f 7060 c23f
00000330: c7f4 ca3f 703f c43f c95e bc3f f981 b83f
00000340: c272 cc3f 46eb c93f 478c cd3f be5f b53f
00000350: 95ed c03f b3aa c13f 2649 bf3f 5967 b93f
00000360: db59 c63f 609f ca3f fec8 b13f 9d19 b73f
00000370: eb2c c73f 8402 b93f 0082 b93f 2fc2 b93f
00000380: 151a c03f a4e5 a93f cf90 bb3f da63 c53f
00000390: aede c83f 243f bd3f cdc4 ba3f 0a2f bd3f
000003a0: 932d bc3f 4fba b03f 8dc2 af3f 4668 b33f
000003b0: cc56 bd3f fd6c c33f 2e1c b93f 0ea8 be3f
000003c0: aede c23f 9586 c73f c019 ab3f 2d59 c53f
000003d0: b22f c23f 645b cf3f c02d cd3f 8c74 af3f
000003e0: f7e8 c13f 0b00 c63f d6c8 bd3f 0809 bd3f
000003f0: 3e5e be3f 83e5 ba3f d0c1 b33f a609 b83f

batch_norm00.bias f4 [256]
0.21093196 -0.008622912 0.049190104 -0.1526661 0.18333128 -0.05710361 -0.0362259 -0.23874922
0.043533426 0.031444773 0.21614772 0.036717113 -0.188527 0.07102675 -0.10131161 0.052230384
-0.17206459 0.09180454 0.078310594 -0.1288085 -0.1303009 -0.0848451 -0.016083824 0.26004723
0.08432764 -0.04690848 0.21965979 -0.1201794 0.06899685 -0.03501805 0.25062034 0.17978747
0.3165506 -0.022221299 -0.088101365 -0.10602554 0.24341184 -0.107468896 -0.17204942 -0.24324293
0.30762768 -0.20301189 -0.055345085 -0.31505963 -0.11526993 -0.06125679 0.382987 -0.26341054
0.18619344 -0.04840351 0.06079377 -0.117444396 -0.11909157 0.11424129 0.023986896 0.13207084
0.19368753 -0.17765857 -0.22030096 0.075447135 0.05675017 0.09221292 -0.1343716 0.12825963
0.14607862 0.041099582 -0.0840573 0.035447657 0.001398196 0.08263052 0.3491525 0.4149202
-0.1762961 -0.17314458 -0.14753717 -0.052812904 -0.18624136 0.083830036 -0.0500876 0.18651924
0.12684739 0.11849702 0.10301829 0.029871657 0.049308825 -0.14265916 0.096451685 0.06255269
-0.14456819 -0.0719669 0.097002156 -0.087471634 0.020472873 0.09769832 0.21837467 -0.1502238
0.29236987 -0.121961124 0.17227793 0.22939722 0.2176046 -0.043876223 -0.3124228 -0.39697784
-0.1364989 0.031350672 -0.002837156 -0.25345078 -0.061460774 0.010709371 -0.29000074 -0.11945798
0.14388748 -0.27535313 -0.33301547 -0.37851283 -0.25401267 -0.1412729 0.0028222022 -0.06610521
0.121442094 0.037587773 0.017516257 0.07282286 -0.11594176 0.30111292 0.018814838 -0.19639562
0.09219129 -0.011469238 -0.16085488 0.16894525 0.008295273 0.238974 0.1631099 0.03479798
0.003016191 0.29233426 0.0021641962 0.16156015 -0.17367569 0.39193255 0.22073787 0.06722075
0.1017215 -0.0960756 -0.16885604 0.33421037 -0.025722748 0.056706723 0.15722653 0.13460135
0.07293388 -0.24556921 -0.10255448 -0.18373765 -0.31497929 0.34926465 0.2620703 0.0826813
0.14336772 -0.02786894 -0.2735031 0.06285973 -0.41889235 -0.25117934 -0.30256563 0.013971808
-0.31148002 -0.15819338 -0.29514182 0.20340858 -0.007239363 -0.4157908 -0.19386114 -0.26461455
-0.22632025 0.027081683 -0.13620664 0.024745913 0.21986029 0.07265582 -0.44369504 -0.24983603
0.10256184 0.11064724 -0.16533165 0.023097606 0.3623837 -0.14589414 0.10558149 -0.029135251
0.06676162 -0.18674512 -0.5210748 0.3006811 -0.06615112 -0.18646598 -0.045878652 -0.3084249
-0.08837928 -0.26085827 -0.06943369 -0.06433334 0.085588746 -0.15704262 -0.047207013 -0.038318124
0.021069707 0.0966547 0.07233144 -0.11475832 -0.20356074 -0.0207335 -0.08485631 0.17000924
-0.04645265 -0.020345911 -0.09724527 0.010171505 0.08761171 -0.0096781915 -0.000287933 0.32044896
-0.15976706 0.112523 -0.24960329 0.05682242 -0.054716244 -0.19557011 -0.096535936 -0.23340711
0.39309457 -0.09199173 0.09596876 -0.05213966 0.46733963 0.24831177 -0.05349314 0.165689
-0.042001244 0.048421916 -0.2510082 0.07327547 -0.19412544 0.26697126 0.33002055 -0.30966938
0.16855405 -0.23863077 -0.15736154 0.087698296 0.30354792 -0.045969717 0.279921 -0.14489962
00000000: 8cfe 573e 1d47 0dbc 907b 493d 8154 1cbe
00000010: 32bb 3b3e 7ae5 69bd 9c61 14bd ad7a 74be
00000020: 1b50 323d 3ccc 003d d455 5d3e af64 163d
00000030: 390d 41be 7976 913d 767c cfbd 87ef 553d
00000040: b331 30be 0504 bc3d 4e61 a03d 60e6 03be
00000050: 996d 05be 45c3 adbd 39c2 83bc e924 853e
00000060: f8b3 ac3d 1b23 40bd 7fee 603e 9e20 f6bd
00000070: 384e 8d3d 166f 0fbd 4f51 803e 351a 383e
00000080: ec12 a23e 7109 b6bc 7d6e b4bd eb23 d9bd
00000090: f440 793e a718 dcbd b92d 30be ad14 79be
000000a0: 6081 9d3e 59e2 4fbe 87b1 62bd 7f4f a1be
000000b0: a412 ecbd 66e8 7abd df16 c43e bfdd 86be
000000c0: 7ea9 3e3e c242 46bd e302 793d b086 f0bd
000000d0: 48e6 f3bd 56f7 e93d 2b80 c43c 943d 073e
000000e0: 0656 463e 21ec 35be 9396 61be 0784 9a3d
000000f0: de72 683d 21da bc3d b598 09be 7e56 033e
00000100: a295 153e 0958 283d 3c26 acbd 9031 113d
00000110: ac43 b73a 313a a93d 1ec4 b23e 6c70 d43e
00000120: f786 34be d04c 31be fc13 17be 5852 58bd
00000130: 0eb6 3ebe 15af ab3d a828 4dbd e6fe 3e3e
00000140: 48e4 013e 91ae f23d 41fb d23d 68b5 f43c
00000150: 0df8 493d 3e15 12be 7688 c53d a01b 803d
00000160: af09 14be 6263 93bd 11a9 c63d 5424 b3bd
00000170: bab6 a73c 0f16 c83d 9c9d 5f3e 45d4 19be
00000180: 81b1 953e c1c6 f9bd a069 303e 1be7 6a3e
00000190: bed3 5e3e 8eb7 33bd e2f5 9fbe ae40 cbbe
000001a0: 5ec6 0bbe 9069 003d 94ef 39bb 4dc4 81be
000001b0: 4bbe 7bbd 5c76 2f3c fa7a 94be 63a6 f4bd
000001c0: 3d57 133e 16fb 8cbe 0181 aabe 6fcc c1be
000001d0: f30d 82be d8a9 10be b2f4 383b 2b62 87bd
000001e0: a2b6 f83d a3f5 193d 417e 8f3c 2724 953d
000001f0: e072 edbd 792b 9a3e 9321 9a3c ef1b 49be
00000200: c9ce bc3d 79e9 3bbc 24b7 24be fcff 2c3e
00000210: e6e8 073c 9ab5 743e 4806 273e 5488 0e3d
00000220: 4aab 453b d6ac 953e 30d5 0d3b 0670 253e
00000230: 0ad8 31be 62ab c83e 1c09 623e 08ab 893d
00000240: 5d53 d03d 49c3 c4bd 99e8 2cbe 9f1d ab3e
00000250: 83b8 d2bc 4f45 683d feff 203e f0d4 093e
00000260: 5c5e 953d 7f76 7bbe 1508 d2bd b925 3cbe
00000270: f744 a1be d1d2 b23e 142e 863e d054 a93d
00000280: fdce 123e 674d e4bc 9908 8cbe 9abc 803d
00000290: 0f79 d6be 949a 80be e2e9 9abe 03ea 643c
000002a0: 4f7a 9fbe 72fd 21be d41c 97be 574a 503e
000002b0: 2e38 edbb 88e2 d4be 8983 46be 8f7b 87be
000002c0: 7fc0 67be 68da dd3c c179 0bbe f1b7 ca3c
000002d0: 0e23 613e 93cc 943d ff2b e3be 04d5 7fbe
000002e0: f10b d23d 059b e23d b34c 29be 3137 bd3c
000002f0: 5b8a b93e 4665 15be 1c3b d83d 0dad eebc
00000300: 51ba 883d 1d3a 3fbe 2865 05bf e0f2 993e
00000310: 3d7a 87bd f0f0 3ebe 41eb 3bbd dee9 9dbe
00000320: 3200 b5bd 378f 85be 4033 8ebd 33c1 83bd
00000330: 2749 af3d c8cf 20be 245c 41bd 77f3 1cbd
00000340: 619a ac3c e6f2 c53d 8222 943d 6906 ebbd
00000350: 3a72 50be 4dd9 a9bc 25c9 adbd e716 2e3e
00000360: 2245 3ebd 78ac a6bc 8728 c7bd 62a6 263c
00000370: c56d b33d 4791 1ebc b7f5 96b9 e311 a43e
00000380: fa99 23be 7572 e63d 0198 7fbe a0be 683d
00000390: 241e 60bd 8843 48be a2b4 c5bd 4602 6fbe
000003a0: b143 c93e 2966 bcbd 458b c43d 6590 55bd
000003b0: 2447 ef3e 7145 7e3e 9f1b 5bbd 61aa 293e
000003c0: 7f09 2cbd 0f56 463d 2684 80be 7311 963d
000003d0: d2c8 46be 75b0 883e 74f8 a83e fc8c 9ebe
000003e0: 6f99 2c3e a05b 74be 6223 21be 2a9b b33d
000003f0: a26a 9b3e be4a 3cbd ce51 8f3e 9160 14be

batch_norm00.running_mean f4 [256]
0.00039465856 0.007544831 0.11226739 0.03879264 0.02234631 -0.00014950272 0.022696912 0.034778375
0.07754298 0.024840526 0.059866887 0.04866986 0.044648536 -0.0035141709 -0.0057294597 0.05524976
0.09813122 -0.0076598683 0.063751236 0.031341963 0.007813187 0.038133584 0.13641301 0.025456486
0.0151811205 0.03441728 0.037245505 0.034263536 0.08730558 0.035228867 0.063561834 0.035111636
0.09547111 0.010417068 0.01626315 0.05126688 0.021622157 0.06216913 0.023331571 0.035054237
0.024139369 -0.010851137 0.032113418 -0.0004924086 0.022320235 0.071947254 0.09185802 0.042474195
0.013557071 0.054386977 0.05529472 0.041889805 0.033486184 0.085526764 -0.008361848 0.040681813
0.042215254 0.049456224 0.013276554 0.041709147 0.09296138 0.06987523 0.027127324 -0.0027488796
0.010292681 0.103885695 0.08552206 0.05325127 -0.0052136183 0.03872729 0.028851358 0.07711802
0.042248085 0.040595025 0.04500905 0.061316147 0.042590465 0.0015663382 0.07313056 0.022434056
0.047627404 0.03559824 0.029332705 0.03187114 0.08962939 0.06071292 0.035235047 0.123492055
0.0460483 0.06446865 0.045212477 0.039068345 0.05571566 0.06660933 0.03932666 0.0062781265
0.007336867 0.018208742 0.02552992 0.08522243 0.044514168 0.06932368 -0.008238772 0.048581216
0.044987544 0.025725368 0.08996262 0.021924473 0.045926284 0.036107074 0.05604147 0.029180307
0.0854657 0.018064123 0.07034534 -0.01138178 0.0021486338 -0.01164396 0.048737843 -0.025472356
0.0950656 0.044713583 0.013955475 0.1407851 0.00395603 0.019140719 0.0455452 0.004137451
0.14047875 0.008045191 0.03431872 0.010553294 0.0354559 0.048063498 0.04397222 0.0063185445
0.066444986 0.056999214 0.05101526 -0.010086651 0.06300503 -0.0048923977 0.09461681 0.14833935
0.042923663 0.01457394 0.010223743 0.0069508674 0.03686086 0.06738351 0.00818583 0.07229821
0.013913894 0.016875036 -0.00088188215 0.016725373 0.03345718 -0.013941548 0.046183202 0.007886083
0.07501669 0.013765083 0.044198807 0.022168325 0.019392971 0.044139687 0.04689138 0.080606975
0.026777502 0.06412351 0.04208242 0.010089643 0.020157155 0.036599215 0.10027394 0.005229829
0.018027602 0.032639917 0.056737542 0.13576835 0.015131947 0.045771606 0.058386303 0.069540896
0.07802932 0.0500677 0.055984534 0.07397525 0.0781412 0.03231436 0.032920174 0.013161742
0.057752278 0.13602015 0.0590406 0.09412192 0.074728355 -0.023168726 0.0062854355 0.025098648
0.006602681 0.062111452 0.013437129 0.004127865 0.054889478 0.039322004 0.041296624 0.01006257
0.07673965 0.14216925 0.059122898 -0.0011148627 0.014416212 0.04834569 0.079953276 0.03508255
0.03089666 0.030038504 -0.022119474 0.017606812 0.045946356 0.061189435 0.017433116 0.086092286
0.048716936 0.0102728885 0.042404573 0.0577095 0.019947918 -0.005786291 -0.00068227574 0.030255504
0.019479793 0.009219321 -0.012151253 0.033740938 0.0100000445 0.07326283 0.035893764 0.02333619
0.012179266 0.07686935 -0.010856623 0.027386568 0.0094165085 0.03154118 0.066072635 0.012278869
0.058298826 0.0058455677 0.026089985 0.009572618 0.036450926 0.0567678 0.04831231 0.021705886
00000000: 2dea ce39 a13a f73b 72ec e53d 08e5 1e3d
00000010: 9c0f b73c d5c3 1cb9 e0ee b93c c573 0e3d
00000020: dbce 9e3d 5c7e cb3c fb36 753d 0c5a 473d
00000030: 62e1 363d 014e 66bb 31be bbbb 934d 623d
00000040: 05f9 c83d a2ff fabb 0290 823d 6e60 003d
00000050: e202 003c f631 1c3d daaf 0b3e 1f8a d03c
00000060: 3cba 783c 22f9 0c3d be8e 183d ec57 0c3d
00000070: 45cd b23d 254c 103d b52c 823d 38d1 0f3d
00000080: 5b86 c33d 5aac 2a3c 4c3a 853c 38fd 513d
00000090: f320 b13c 0fa5 7e3d da21 bf3c 0895 0f3d
000000a0: edbf c53c f8c8 31bc 5c89 033d fb14 01ba
000000b0: edd8 b63c 1559 933d 0f20 bc3d 6cf9 2d3d
000000c0: 7a1e 5e3c e1c4 5e3d b77c 623d a594 2b3d
000000d0: cf28 093d a828 af3d 2200 09bc f9a1 263d
000000e0: e7e9 2c3d 9c92 4a3d e785 593c 36d7 2a3d
000000f0: 8962 be3d bf1a 8f3d 1f3a de3c 8c26 34bb
00000100: a2a2 283c 06c2 d43d 3126 af3d 011e 5a3d
00000110: 00d7 aabb 82a0 1e3d af59 ec3c 0df0 9d3d
00000120: 540c 2d3d f846 263d 695b 383d a426 7b3d
00000130: 5773 2e3d 974d cd3a 7ac5 953d a0c7 b73c
00000140: f414 433d 76cf 113d 244b f03c 508b 023d
00000150: 9d8f b73d 1cae 783d a052 103d 67e9 fc3d
00000160: 249d 3c3d 2408 843d b830 393d 2106 203d
00000170: 1b36 643d 796a 883d fe14 213d beb8 cd3b
00000180: 1a6a f03b 802a 953c 1f24 d13c 1989 ae3d
00000190: 7d54 363d 93f9 8d3d eafb 06bc 19fd 463d
000001a0: dc44 383d 02be d23c 523e b83d f49a b33c
000001b0: 331d 3c3d 03e5 133d be8b 653d 8a0b ef3c
000001c0: a408 af3d 36fb 933c 3811 903d a57a 3abc
000001d0: 18d0 0c3b 4fc6 3ebc 55a1 473d 67ab d0bc
000001e0: c1b1 c23d 9725 373d 81a5 643c f829 103e
000001f0: 96a1 813b ffcc 9c3c 9b8d 3a3d 7493 873b
00000200: a9d9 0f3e facf 033c c991 0c3d b9e7 2c3c
00000210: 353a 113d 3bde 443d 371c 343d cb0b cf3b
00000220: 4f14 883d 0278 693d 61f5 503d 7b42 25bc
00000230: c808 813d 6850 a0bb 75c6 c13d 45e6 173e
00000240: b9d0 2f3d 89c7 6e3c 7c81 273c 1ac4 e33b
00000250: 6afb 163d 5e00 8a3d dc1d 063c 1511 943d
00000260: 1af7 633c 843d 8a3c 1c2e 67ba a603 893c
00000270: 650a 093d 176b 64bc 992a 3d3d a134 013c
00000280: 5aa2 993d f186 613c cf09 353d 599a b53c
00000290: 02de 9e3c d1cb 343d 2d11 403d 4515 a53d
000002a0: 7e5c db3c 3053 833d 9e5e 2c3d 084f 253c
000002b0: 9e20 a53c 0fe9 153d 6c5c cd3d fc5e ab3b
000002c0: 9fae 933c 6fb1 053d a065 683d dc06 0b3e
000002d0: fceb 773c 027b 3b3d 7a26 6f3d 756b 8e3d
000002e0: d6cd 9f3d ca13 4d3d 0a50 653d 5680 973d
000002f0: 7e08 a03d 105c 043d 4ed7 063d 59a4 573c
00000300: a78d 6c3d de48 0b3e 8ed4 713d fec2 c03d
00000310: 2e0b 993d 57cc bdbc 0ef6 cd3b ae9b cd3c
00000320: 4d5b d83b 9468 7e3d 6727 5c3c 0b43 873b
00000330: cad3 603d 1c10 213d a626 293d 7add 243c
00000340: ad29 9d3d d194 113e da2a 723d 9620 92ba
00000350: fa31 6c3c 2106 463d 8bbe a33d b8b2 0f3d
00000360: fe1a fd3c 4f13 f63c e633 b5bc 293c 903c
00000370: 3f32 3c3d c6a1 7a3d e5cf 8e3c 2751 b03d
00000380: 698b 473d 9e4f 283c 6bb0 2d3d cc60 6c3d
00000390: d169 a33c ed9a bdbb c0da 32ba 64da f73c
000003a0: 1694 9f3c a30c 173c 0d16 47bc f033 0a3d
000003b0: 3ad7 233c d30a 963d 5705 133d 8a2b bf3c
000003c0: 8b8b 473c ae6d 9d3d fadf 31bc cc59 e03c
000003d0: b347 1a3c 5331 013d 1751 873d 4f2d 493c
000003e0: c0ca 6e3d 2d8c bf3b aaba d53c 78d6 1c3c
000003f0: 914d 153d 5a85 683d 21e3 453d 8bd0 b13c

batch_norm00.running_var f4 [256]
0.021105755 0.02573323 0.11204867 0.040137567 0.025960544 0.018841658 0.02935185 0.038692925
0.0730376 0.022426931 0.056676075 0.039451055 0.034935508 0.012571705 0.014133476 0.05916149
0.08050159 0.016591538 0.06751673 0.028017228 0.022212591 0.033260882 0.17258163 0.029796861
0.020430377 0.032836754 0.036634274 0.03613754 0.06713516 0.032705814 0.044369075 0.034438107
0.07843627 0.028565142 0.02869454 0.0382061 0.04058992 0.059142094 0.033081446 0.03278812
0.022011504 0.013510361 0.032458276 0.021904474 0.031221708 0.0852821 0.07269139 0.04300906
0.016333468 0.04409506 0.046461277 0.043170385 0.04788025 0.074492976 0.011069177 0.042960014
0.039873734 0.05859213 0.028923692 0.033674378 0.0772855 0.059209358 0.025873043 0.012530279
0.02303744 0.10116917 0.08469715 0.04336534 0.012223262 0.034612328 0.029900778 0.06135726
0.03665083 0.036722768 0.050980974 0.073416 0.041717686 0.02556899 0.064251885 0.0287655
0.03305256 0.052752476 0.028096292 0.03186326 0.08317037 0.058437668 0.037842304 0.10157787
0.041776575 0.07036139 0.052162427 0.03759031 0.059182752 0.06575382 0.036932144 0.017220866
0.020372594 0.021274626 0.032964244 0.06687238 0.03822996 0.07876758 0.017158242 0.050320435
0.05205156 0.03503198 0.09180693 0.033068344 0.04691462 0.031314414 0.06710292 0.0463206
0.10080174 0.023117686 0.07406961 0.013418588 0.019240009 0.011834474 0.042211097 0.011034821
0.072305 0.04344077 0.020580815 0.12889779 0.018468093 0.03387952 0.04789664 0.016872637
0.12154469 0.02398695 0.036556687 0.021572983 0.03741396 0.041396085 0.03564427 0.014479058
0.062333528 0.051210836 0.051595423 0.016967312 0.06392513 0.014592717 0.08585533 0.17081647
0.04169142 0.03007676 0.019338666 0.01715657 0.03889946 0.07942557 0.025162067 0.085952505
0.021596817 0.024070693 0.0110668745 0.02828741 0.03318337 0.0074422304 0.050085038 0.01538966
0.06737143 0.025159327 0.04598679 0.027803982 0.032665864 0.0365217 0.04585036 0.07480066
0.039397847 0.05520813 0.04140356 0.025915975 0.027588852 0.052068148 0.104409344 0.022267416
0.0265143 0.03184975 0.05511354 0.114983946 0.021685036 0.05698705 0.05665323 0.07257597
0.06945051 0.05235499 0.05690948 0.058399145 0.07019359 0.032422476 0.033454396 0.023075104
0.05510354 0.15809774 0.052166022 0.08862571 0.081429765 0.008281116 0.021743655 0.022970831
0.013533013 0.06913726 0.024955934 0.02480409 0.048901103 0.04025685 0.04724235 0.02725172
0.06444313 0.13239256 0.05006653 0.009768754 0.023232594 0.042394564 0.06308726 0.02979347
0.026529867 0.029539108 0.007863336 0.02478596 0.04169142 0.056543037 0.024196329 0.09563896
0.038629718 0.018205037 0.049761795 0.06508372 0.036222376 0.008834203 0.024288936 0.035389207
0.025691902 0.033161245 0.018381983 0.030335236 0.019461183 0.07144916 0.05573377 0.027819742
0.021813089 0.073739305 0.010396787 0.028270373 0.01804178 0.030915232 0.07612245 0.017303739
0.040885787 0.020398362 0.028808603 0.019376418 0.031591043 0.055604275 0.04052141 0.037250064
00000000: fae5 ac3c 7fce d23c c679 e53d 4a67 243d
00000010: 35ab d43c d259 9a3c 4a73 f03c 797c 1e3d
00000020: bd94 953d afb8 b73c 2c25 683d 6e97 213d
00000030: 8918 0f3d 8df9 4d3c 1890 673c 5253 723d
00000040: 05de a43d faea 873c 3646 8a3d 6384 e53c
00000050: 2ef7 b53c 903c 083d 3db9 303e 8c18 f43c
00000060: 9b5d a73c d57f 063d d20d 163d f504 143d
00000070: 297e 893d 88f6 053d 59bc 353d f90e 0d3d
00000080: 32a3 a03d 7201 ea3c d010 eb3c 007e 1c3d
00000090: 9e41 263d fb3e 723d 6980 073d d64c 063d
000000a0: 7851 b43c 905a 5d3c f8f2 043d 0371 b33c
000000b0: abc4 ff3c 62a8 ae3d 39df 943d 452a 303d
000000c0: c4cd 853c 069d 343d 2e4e 3e3d 6ed3 303d
000000d0: 151e 443d c68f 983d 7e5b 353c d7f6 2f3d
000000e0: a452 233d 4dfe 6f3d 61f1 ec3c 25ee 093d
000000f0: dc47 9e3d 8385 723d b4f3 d33c cd4b 4d3c
00000100: 03b9 bc3c c831 cf3d b375 ad3d db9f 313d
00000110: 1444 483c a8c5 0d3d 7af2 f43c c051 7b3d
00000120: 2e1f 163d 9d6a 163d 6dd1 503d 215b 963d
00000130: 2ae0 2a3d 0f76 d13c 7e96 833d a0a5 eb3c
00000140: 1f62 073d fb12 583d 322a e63c 0d83 023d
00000150: 3a55 aa3d 565c 6f3d 8800 1b3d 0f08 d03d
00000160: ea1d 2b3d a219 903d 45a8 553d 4cf8 193d
00000170: 9d69 723d f0a9 863d 2946 173d c612 8d3c
00000180: 6de4 a63c 2048 ae3c 8405 073d 63f4 883d
00000190: 0597 1c3d e650 a13d 718f 8c3c cd1c 4e3d
000001a0: 0434 553d b27d 0f3d 4605 bc3d ac72 073d
000001b0: 8b29 403d 8b43 003d 416d 893d abba 3d3d
000001c0: 2571 ce3d 4d61 bd3c cfb1 973d a3d9 5b3c
000001d0: 399d 9d3c 62e5 413c 8be5 2c3d 65cb 343c
000001e0: a514 943d f3ee 313d 1999 a83c c8fd 033e
000001f0: 664a 973c 40c5 0a3d 442f 443d 7c38 8a3c
00000200: 6cec f83d 4880 c43c 77bc 153d d3b9 b03c
00000210: 613f 193d f18e 293d baff 113d 9239 6d3c
00000220: 7151 7f3d 74c2 513d b955 533d 08ff 8a3c
00000230: 2eeb 823d 4b16 6f3c ebd4 af3d 83ea 2e3e
00000240: 9fc4 2a3d 8a63 f63c 1f6c 9e3c ef8b 8c3c
00000250: 0a55 1f3d e0a9 a23d ae20 ce3c de07 b03d
00000260: cfeb b03c e72f c53c d651 353c 00bb e73c
00000270: 49eb 073d f4dd f33b f825 4d3d ea24 7c3c
00000280: 08fa 893d ef1a ce3c a55c 3c3d 2dc5 e33c
00000290: a4cc 053d c797 153d 96cd 3b3d 1731 993d
000002a0: a35f 213d ec21 623d c896 293d bd4d d43c
000002b0: 0402 e23c 6945 553d 91d4 d53d 286a b63c
000002c0: 8434 d93c e274 023d bcbe 613d b47c eb3d
000002d0: d1a4 b13c 416b 693d 380d 683d b6a2 943d
000002e0: 123c 8e3d 3072 563d ea19 693d f133 6f3d
000002f0: a8c1 8f3d 6ecd 043d 7a07 093d 0008 bd3c
00000300: 40b4 613d 60e4 213e 0aac 553d 6581 b53d
00000310: a6c4 a63d 85ad 073c c01f b23c 532d bc3c
00000320: 92b9 5d3c d697 8d3d 6370 cc3c f231 cb3c
00000330: 864c 483d 5ee4 243d 3281 413d 003f df3c
00000340: c2fa 833d ea91 073e 9012 4d3d 200d 203c
00000350: 4852 be3c eca5 2d3d e533 813d 6f11 f43c
00000360: 2a55 d93c 00fc f13c 39d5 003c ed0b cb3c
00000370: 9fc4 2a3d ac99 673d 6137 c63c 5cde c33d
00000380: 323a 1e3d bb22 953c 06d3 4b3d 9d4a 853d
00000390: ea5d 143d 55bd 103c 97f9 c63c 46f4 103d
000003a0: d377 d23c 16d4 073d d095 963c 9a81 f83c
000003b0: 0f6d 9f3c f053 923d 1849 643d 3ae6 e33c
000003c0: 5db1 b23c a204 973d 4957 2a3c 4597 e73c
000003d0: 5bcc 933c f141 fd3c 16e6 9b3d 92c0 8d3c
000003e0: db77 273d 771a a73c 0500 ec3c 4bbb 9e3c
000003f0: 9c65 013d 4fc1 633d c7f9 253d 8693 183d

linear01.weight f4 [128, 256]
-0.105401404 -0.14215264 -0.049157374 -0.18989584 0.2600718 -0.059276488 -0.13790114 -0.06970958
-0.3334885 -0.14105986 0.14285256 0.29042855 -0.17192149 -0.023537895 -0.10079542 -0.36885718
-0.09262016 -0.12888275 0.12616174 0.15060933 0.099052586 -0.16127355 -0.33670446 0.1177043
-0.19666034 0.01795291 0.036908593 -0.3365649 -0.11260243 0.12628691 0.24499922 -0.10165305
0.083660394 -0.0070842784 -0.3248807 0.034854118 -0.08760945 -0.08446548 0.074490845 0.06851888
-0.08788282 -0.12128602 -0.1703309 0.1545159 0.11329848 0.11064072 -0.29631197 -0.10369283
-0.14355469 0.09054787 0.060731348 -0.2480266 0.20373815 -0.13194598 -0.06238687 0.071342535
-0.058160827 0.020859702 -0.15976521 -0.081875674 0.020953722 -0.2743039 -0.21886536 0.0593289
0.038709387 0.0060547795 0.057260886 0.3398825 -0.030616216 0.016590279 0.016210645 0.009843349
-0.04369724 0.20607275 0.047965705 0.21396361 0.15389113 0.016047435 0.021442773 0.28134215
0.1484399 0.06329417 0.048877608 -0.37227055 0.16921642 0.056306526 -0.050092757 0.23981048
-0.03207555 0.23192774 -0.07482633 0.24377152 0.0021657369 -0.3421653 0.0010374759 -0.19048172
0.1660691 0.009014913 0.1768666 -0.10817062 0.16166194 0.16805622 -0.21599749 0.14846519
-0.13583279 0.07158668 -0.06050952 -0.032042477 -0.080013335 0.20061642 -0.13017315 0.09826594
-0.20423657 0.32080355 -0.032997686 0.06458285 0.092783436 -0.07739965 -0.12834182 -0.07465491
0.0041222093 -0.1285027 -0.12132643 -0.35758534 0.15927161 -0.42638537 0.06658366 -0.104640156
0.009106451 0.039998427 -0.022854809 -0.03742694 0.07233099 -0.16561651 -0.01528536 0.17929
0.15032835 -0.013004927 -0.23415129 -0.007837186 -0.079800606 0.16864288 0.15968896 -0.07329556
-0.3635107 0.11952519 -0.0276841 -0.0010423126 -0.26714018 0.08444949 -0.11378365 -0.15107551
0.027045012 0.011234352 0.23737155 0.17479359 0.02420369 -0.23239209 -0.11165051 -0.0063895863
0.027757224 0.2371107 -0.26668823 -0.15894158 0.19993857 0.22747755 -0.2625769 0.08950717
-0.059186097 0.19733621 -0.048003886 -0.03684836 0.040024374 0.21961397 -0.14839512 -0.18719214
-0.14193757 0.03746983 -0.08546164 -0.26317617 -0.14973629 0.03486747 0.03816636 0.07629659
0.1492486 0.14837776 0.13463049 0.012313633 -0.07921822 0.20577309 -0.41034147 -0.06081428
-0.07413858 -0.11663951 0.04500738 -0.3524886 0.03485512 0.036956202 -0.04509389 0.13851313
0.03170047 -0.040157434 -0.16597028 0.06804105 -0.11258121 -0.041801065 0.109960444 -0.1849923
-0.09387464 0.19899952 0.01907016 -0.10432494 -0.18147644 0.012916556 0.20370871 -0.1384355
-0.2794725 -0.18450041 -0.01762692 -0.23883 0.022798132 -0.014506518 0.019425696 0.1522707
-0.22860278 0.072758235 0.035273433 0.01547737 -0.21306528 -0.1568276 -0.17925131 0.0022966044
-0.15227595 -0.16867161 0.03795372 -0.06427388 -0.23596482 -0.024177276 -0.076652996 0.22979686
-0.26117072 0.24775021 -0.087986514 0.21865164 -0.037996408 0.26673394 0.022545429 -0.17835088
0.07269011 0.14547063 0.27210984 0.12928979 -0.31687954 -0.24133511 0.25362402 0.12613702
00000000: b1dc d7bd 7690 11be 3e59 49bd 0e74 42be
00000010: 2228 853e e7cb 72bd f535 0dbe e5c3 8ebd
00000020: 01bf aabe ff71 10be f147 123e 0db3 943e
00000030: 300c 30be 8bd2 c0bc d46d cebd d9da bcbe
00000040: a3af bdbd d7f9 03be 8b30 013e 5539 1a3e
00000050: 15dc ca3d e524 25be 8764 acbe f40e f13d
00000060: 5461 49be fb11 933c 772d 173d 3c52 acbe
00000070: 1a9c e6bd 5b51 013e 13e1 7a3e 792f d0bd
00000080: 2456 ab3d 3c23 e8bb c356 a6be 31c3 0e3d
00000090: 956c b3bd 3dfc acbd a88e 983d a053 8c3d
000000a0: e8fb b3bd ce64 f8bd 396b 2ebe 6b39 1e3e
000000b0: 0909 e83d 9a97 e23d 34b6 97be e85c d4bd
000000c0: 0000 13be 2971 b93d 6fc1 783d affa 7dbe
000000d0: bca0 503e d91c 07be 6089 7fbd 091c 923d
000000e0: 0c3a 6ebd f7e1 aa3c 7e99 23be 6fae a7bd
000000f0: 24a7 ab3c 9071 8cbe 3e1e 60be dc02 733d
00000100: bc8d 1e3d 2c67 c63b 648a 6a3d 1405 ae3e
00000110: dcce fabc 56e8 873c 30cc 843c 0046 213c
00000120: e1fb 32bd bc04 533e b077 443d 4719 5b3e
00000130: a395 1d3e e975 833c c1a8 af3c 140c 903e
00000140: a100 183e 60a0 813d e333 483d 3f9a bebe
00000150: 1247 2d3e aca1 663d 102e 4dbd e190 753e
00000160: a761 03bd 777e 6d3e 8c3e 99bd 3e9f 793e
00000170: 09ef 0d3b 4a30 afbe eafb 873a a40d 43be
00000180: 050e 2a3e 49b3 133c 851c 353e 8f88 ddbd
00000190: b58a 253e ee16 2c3e 722e 5dbe 4207 183e
000001a0: c017 0bbe 0a9c 923d d5d8 77bd f93e 03bd
000001b0: 08de a3bd 646e 4d3e 1c4c 05be a73f c93d
000001c0: 6423 51be 5d40 a43e 9528 07bd 0344 843d
000001d0: 3e05 be3d b583 9ebd 0a6c 03be ace4 98bd
000001e0: 9913 873b 3696 03be fe79 f8bd 6d15 b7be
000001f0: 1918 233e 2f4f dabe 045d 883d 944d d6bd
00000200: 3933 153c 64d5 233d 023a bbbc fe4c 19bd
00000210: 4522 943d 6097 29be 726f 7abc cc97 373e
00000220: adef 193e 9e12 55bc 5bc5 6fbe 8a67 00bc
00000230: 806e a3bd b8b0 2c3e 8185 233e fc1b 96bd
00000240: 131e babe 9fc9 f43d c4c9 e2bc 359e 88ba
00000250: 99c6 88be dbf3 ac3d 6707 e9bd 8ab3 1abe
00000260: 808d dd3c 4a10 383c 8711 733e 17fd 323e
00000270: d146 c63c 31f8 6dbe 06a9 e4bd bc5f d1bb
00000280: 1e63 e33c 26cd 723e 5c8b 88be 95c1 22be
00000290: b2bc 4c3e e0ef 683e 7b70 86be 894f b73d
000002a0: 1f6d 72bd 8112 4a3e b99f 44bd 4eee 16bd
000002b0: 99f0 233d 7ce2 603e e4f4 17be 4caf 3fbe
000002c0: 1558 11be f779 193d 8306 afbd 07bf 86be
000002d0: 7854 19be 31d1 0e3d 5454 1c3d 6341 9c3d
000002e0: a0d4 183e 57f0 173e 93dc 093e 1fbf 493c
000002f0: 2a3d a2bd 2eb6 523e 4718 d2be 6518 79bd
00000300: f8d5 97bd b2e0 eebd a959 383d 6379 b4be
00000310: 3ec4 0e3d 635f 173d 5fb4 38bd 63d6 0d3e
00000320: 5ad8 013d 1f7c 24bd 1df4 29be 1b59 8b3d
00000330: fa90 e6bd 9837 2bbd f132 e13d 9f6e 3dbe
00000340: 5941 c0bd 88c6 4b3e 0639 9c3c 50a8 d5bd
00000350: f6d4 39be f69f 533c 0499 503e 09c2 0dbe
00000360: 0517 8fbe aded 3cbe 5566 90bc da8f 74be
00000370: 26c3 ba3c bfac 6dbc a322 9f3c daec 1b3e
00000380: d916 6abe 4502 953d e07a 103d cb94 7d3c
00000390: c92d 5abe 6a97 20be a88d 37be a182 163b
000003a0: 3aee 1bbe 40b8 2cbe 5c75 1b3d 06a2 83bd
000003b0: c3a0 71be 6c0f c6bc 3ffc 9cbd de4f 6b3e
000003c0: 2bb8 85be 3bb2 7d3e 4632 b4bd 37e6 5f3e
000003d0: 1fa2 1bbd 5a91 883e 31b1 b83c 9da1 36be
000003e0: 8dde 943d 41f6 143e fb51 8b3e 8b64 043e
000003f0: 093e a2be 8d20 77be 02db 813e 102a 013e

linear01.bias f4 [128]
0.08499235 0.39071155 0.2853167 0.26215538 -0.04080388 0.09204963 0.31299073 0.19155627
-0.006785533 0.27250287 0.28430963 0.19146965 0.1470283 0.09965094 0.3064776 0.25688076
0.70414186 0.24700882 0.365336 0.23487489 0.27051407 0.075037085 0.17425016 0.23015293
0.25742102 0.17087655 -0.17001149 0.3406235 0.27386793 -0.3374981 0.22412525 0.02700022
0.06061737 0.41189632 0.3880842 -0.016267292 0.2295832 0.21979764 0.3393712 0.21924248
0.22474979 0.18844672 0.1951248 0.09516486 0.113771036 0.08430476 0.25119925 0.37143198
0.14023155 0.33995727 0.09358739 0.182896 0.14737976 0.2465068 0.24222155 0.39516813
0.25334123 0.008126982 0.055841308 0.2671958 0.015166384 0.163933 0.2081504 0.26197538
0.027808314 0.32358357 0.3872052 0.033033233 0.058399577 0.29950368 0.027917465 0.12594528
0.25354478 0.16987227 0.020158192 0.38820958 0.08182471 0.22490254 0.30035794 0.41063905
0.38220218 0.057512347 0.42143023 0.11584103 0.14795417 0.1678231 0.18018997 0.3029818
0.12872179 0.055260092 0.2698922 -0.1068987 0.060090747 0.30764562 0.22663376 0.42263627
-0.07120902 0.61892 0.027383132 0.017026938 0.2098256 0.27563888 0.22639364 -0.010884455
0.6006217 0.24020466 -0.11978068 0.076560356 0.2110169 0.009524995 0.10366863 0.0069411313
0.27192616 0.32515806 0.092053995 0.22718062 0.23978569 0.028309312 0.31798568 0.17242873
0.07326696 0.11600081 0.24694145 -0.15351929 0.3397383 0.21614955 0.12384156 0.24471512
00000000: 7810 ae3d 580b c83e 0815 923e 3b39 863e
00000010: f821 27bd 8484 bc3d 5240 a03e 5427 443e
00000020: 2d59 debb 7f85 8b3e 0891 913e 9f10 443e
00000030: 968e 163e cb15 cc3d a2ea 9c3e e085 833e
00000040: a442 343f e1ef 7c3e 520d bb3e 0b83 703e
00000050: d280 8a3e 0bad 993d a26e 323e 36ad 6b3e
00000060: b0cc 833e 43fa 2e3e 7e17 2ebe 3466 ae3e
00000070: 6b38 8c3e 8dcc acbe 1781 653e 912f dd3c
00000080: eb49 783d 13e4 d23e f9b2 c63e fc42 85bc
00000090: dc17 6b3e a212 613e 10c2 ad3e 1a81 603e
000000a0: cf24 663e 2df8 403e ccce 473e cbe5 c23d
000000b0: ca00 e93d f9a7 ac3d 309d 803e 552c be3e
000000c0: dc98 0f3e e10e ae3e bfaa bf3d 1749 3b3e
000000d0: b8ea 163e 476c 7c3e ed08 783e 7a53 ca3e
000000e0: f1b5 813e 0827 053c dbb9 643d e3cd 883e
000000f0: 6d7c 783c 0dde 273e 6125 553e a321 863e
00000100: 43ce e33c bfac a53e c33f c63e db4d 073d
00000110: 6534 6f3d 8c58 993e 2bb3 e43c cdf7 003e
00000120: 9fd0 813e fff2 2d3e cb22 a53c 68c3 c63e
00000130: b793 a73d da4c 663e 84c8 993e 483f d23e
00000140: 01b0 c33e 1192 6b3d b4c5 d73e 103e ed3d
00000150: 4c81 173e d2d9 2b3e b883 383e 6e20 9b3e
00000160: a5cf 033e 6858 623d 4f2f 8a3e b5ed dabd
00000170: b721 763d ba83 9d3e ae12 683e c863 d83e
00000180: 09d6 91bd 8b71 1e3f 9752 e03c 147c 8b3c
00000190: 86dc 563e 8a20 8d3e bcd3 673e b754 32bc
000001a0: 58c2 193f 36f8 753e 934f f5bd adcb 9c3d
000001b0: d014 583e ba0e 1c3c 3850 d43d 6e72 e33b
000001c0: e839 8b3e 1e7b a63e ce86 bc3d 09a2 683e
000001d0: 618a 753e eee8 e73c 05cf a23e 2891 303e
000001e0: fd0c 963d d591 ed3d 38de 7c3e 2934 1dbe
000001f0: 2ef2 ad3e 4f56 5d3e a5a0 fd3d 9a96 7a3e
