weights/2. triplet loss model - marks/1. 434 epochs/fully_connect_last.pt (torch, 566340 bytes, 10 tensors)

linear00.weight f4 [256, 352]
-0.029781708 0.011510421 0.011058256 -0.051202886 -0.03947829 0.06473491 0.03523492 0.007826924
-0.0110196 0.037951373 0.123078614 0.05289465 0.10675521 0.0068427017 -0.16489427 0.04609951
-0.008565578 -0.09603888 0.05500051 0.005111873 0.04745863 0.06728893 -0.03291849 0.040744305
0.038260125 0.12715603 0.0711273 0.012282263 -0.08151008 -0.067246795 0.08563355 0.06016141
-0.13506697 -0.032909643 0.055721764 -0.06763849 -0.05727411 -0.153163 0.09174196 -0.017339783
0.042325005 -0.0041127433 -0.22990265 0.015525406 0.02989196 -0.11266216 -0.10947578 -0.018449275
0.03534442 0.021904174 0.0591902 0.06654125 0.02554455 0.0016045575 0.0999079 -0.14581583
0.09137584 -0.03512707 -0.016753765 -0.04319442 -0.108861886 -0.12340931 -0.20206054 0.0071169706
-0.07567059 -0.16835247 0.019980721 0.032097206 0.0142503055 -0.214514 0.094778374 -0.020106887
-0.009905073 0.12096153 -0.07293659 -0.11663601 -0.07296595 -0.067765914 -0.12651272 0.25473702
0.067507416 0.031142302 0.019954162 -0.03130785 0.05798789 -0.07865632 0.093388595 0.041974813
0.08747273 0.041301135 0.018186139 0.04896409 -0.09429943 0.100514054 -0.07291647 -0.041595582
-0.044350572 -0.1403505 -0.10533474 -0.11067893 0.013727384 0.04135153 0.0644004 -0.006867636
-0.046861555 -0.0007809659 -0.072227515 -0.10000229 0.08436337 0.07829046 -0.07478307 0.15177482
0.18818405 -0.053701352 -0.06696983 -0.0028264741 0.012984924 0.08175418 0.060873646 0.120572865
0.02601208 0.080146246 0.0931858 -0.07342294 -0.11073326 -0.042510655 0.112765595 0.14041717
0.04729837 0.034571383 -0.061164558 -0.03919909 -0.06299241 0.049109753 0.05644171 -0.0045565167
-0.026799994 -0.112064034 -0.089833595 -0.11461756 0.0028824594 0.02845681 0.00020286319 -0.10706293
-0.047825933 0.017568273 0.015506248 0.0418456 0.01434874 -0.048726525 -0.03344626 -0.044062853
0.035582848 -0.015691303 -0.031742588 -0.03613639 0.02746885 -0.07937368 -0.04160117 0.051795032
0.102712356 -0.03500949 -0.0249139 -0.0011187522 0.043854598 -0.028029425 0.011414718 0.12886402
0.11884402 -0.009879437 0.11061647 0.03660571 -0.0007524331 -0.053380605 -0.079503454 -0.12306048
0.041804947 -0.061006047 0.07346751 -0.003282033 -0.16530856 -0.08379461 0.12302449 -0.15381457
-0.022500802 -0.031508204 -0.15698342 -0.03158132 0.03948414 -0.10128568 0.22980925 0.07563117
0.07933405 -0.02836982 -0.008458758 0.05581063 -0.00060450146 0.08419664 0.044781737 0.029423757
0.095331855 -0.18831326 0.16434081 -0.1527911 -0.058710244 0.062566474 -0.18868381 0.050586108
-0.032723695 0.053272665 0.017681185 -0.049796816 -0.06253746 0.012085986 -0.13610394 0.041047443
0.00059008267 -0.2162164 0.20503569 -0.036994394 0.06368769 -0.091164805 0.026209807 0.15302442
-0.03089989 0.0039649904 0.062228218 0.008363134 0.024341866 0.08127111 0.07533042 0.06529325
-0.068854384 0.022290217 -0.093684696 -0.107726984 0.024907853 -0.013186929 -0.20315087 0.013285564
-0.03717303 0.01816259 0.012400148 -0.031118805 0.106745765 0.055556703 0.06654449 -0.09528923
-0.07374544 -0.12973878 0.13102522 0.018239766 0.284133 -0.11783169 0.09608508 -0.082007736
00000000: c5f8 f3bc 3496 3c3c b02d 353c 1eba 51bd
00000010: fdb3 21bd bd93 843d 7e52 103d 803c 003c
00000020: 8d8b 34bc e672 1b3d a410 fc3d 0fa8 583d
00000030: 7aa2 da3d be38 e03b 0bda 28be d7d2 3c3d
00000040: a356 0cbc 08b0 c4bd 3748 613d 8081 a73b
00000050: fb63 423d c7ce 893d 8ad5 06bd 80e3 263d
00000060: a6b6 1c3d 3135 023e 31ab 913d 8b3b 493c
00000070: c2ee a6bd b0b8 89bd a560 af3d d06b 763d
00000080: ff4e 0abe 43cc 06bd 813c 643d 0c86 8abd
00000090: 4298 6abd c3d6 1cbe 35e3 bb3d 290c 8ebc
000000a0: fc5c 2d3d 31c4 86bb 9a6b 6bbe 465e 7e3c
000000b0: fcdf f43c 6bbb e6bd d634 e0bd ef22 97bc
000000c0: 4fc5 103d 6270 b33c 6c71 723d c746 883d
000000d0: ce42 d13c 0450 d23a 839c cc3d bf50 15be
000000e0: 4223 bb3d 67e1 0fbd 313f 89bc a2ec 30bd
000000f0: fbf2 debd 05be fcbd f5e8 4ebe 7a35 e93b
00000100: 2ff9 9abd 9764 2cbe 9cae a33c 5c78 033d
00000110: 1d7a 693c 8fa9 5bbe 2a1b c23d 33b7 a4bc
00000120: e348 22bc aeba f73d c75f 95bd dcde eebd
00000130: 2c6f 95bd dbc8 8abd 8d8c 01be e46c 823e
00000140: 5441 8a3d 241e ff3c e976 a33c a93c 00bd
00000150: b684 6d3d 9116 a1bd 8542 bf3d c8ed 2b3d
00000160: e724 b33d 612b 293d 19fb 943c 928e 483d
00000170: 0f20 c1bd 50da cd3d 3b55 95bd 2160 2abd
00000180: f2a8 35bd 0bb8 0fbe bdb9 d7bd a3ab e2bd
00000190: d2e8 603c 3960 293d 5be4 833d e809 e1bb
000001a0: e7f1 3fbd bcb9 4cba 05ec 93bd 00ce ccbd
000001b0: b4c6 ac3d c056 a03d de27 99bd dc6a 1b3e
000001c0: 52b3 403e f3f5 5bbd 7a27 89bd 5e3c 39bb
000001d0: b8be 543c bc6e a73d a556 793d e8ee f63d
000001e0: 4917 d53c b723 a43d 32d8 be3d c45e 96bd
000001f0: 1fc8 e2bd a71f 2ebd a6f1 e63d 85c9 0f3e
00000200: f0bb 413d b99a 0d3d b087 7abd 3a8f 20bd
00000210: 2a02 81bd 4f27 493d 6c2f 673d d54e 95bb
00000220: a98b dbbc d481 e5bd adfa b7bd 9cbc eabd
00000230: a5e7 3c3b 421e e93c acb7 5439 cf43 dbbd
00000240: 20e5 43bd 57eb 8f3c eb0d 7e3c 4b66 2b3d
00000250: fa16 6b3c 7795 47bd f2fe 08bd 407b 34bd
00000260: 52bf 113d 0c8b 80bc 8404 02bd c003 14bd
00000270: 5b06 e13c ab8e a2bd fd65 2abd 0727 543d
00000280: db5a d23d 1c66 0fbd 3c18 ccbc 18a3 92ba
00000290: e1a0 333d f79d e5bc cc04 3b3c eef4 033e
000002a0: 7e64 f33d 5ddd 21bc e38a e23d deef 153d
000002b0: ee3e 45ba 9fa5 5abd b5d2 a2bd 2207 fcbd
000002c0: aa3b 2b3d 7ae1 79bd 2276 963d 6017 57bb
000002d0: a646 29be 829c abbd 44f4 fb3d 9181 1dbe
000002e0: 9a53 b8bc bf0e 01bd 43c0 20be 6a5b 01bd
000002f0: 1fba 213d de6e cfbd 1e53 6b3e 84e4 9a3d
00000300: e479 a23d d367 e8bc 9a96 0abc b099 643d
00000310: 6877 1eba 4a6f ac3d 0e6d 373d 170a f13c
00000320: 593d c33d 31d5 40be f548 283e 4575 1cbe
00000330: 277a 70bd da22 803d 5436 41be 6133 4f3d
00000340: 4809 06bd 7034 5a3d 22d8 903c bff7 4bbd
00000350: a413 80bd 4d04 463c d55e 0bbe 5d21 283d
00000360: c7af 1a3a d567 5dbe e0f4 513e 6f87 17bd
00000370: b16e 823d 9db4 babd f3b5 d63c 6fb2 1c3e
00000380: c421 fdbc c0ec 813b 04e3 7e3d 8705 093c
00000390: 9868 c73c 7871 a63d d646 9a3d 78b8 853d
000003a0: 8703 8dbd f999 b63c c3dd bfbd f79f dcbd
000003b0: 8e0b cc3c fd0d 58bc c806 50be b2ab 593c
000003c0: bf42 18bd b6c9 943c fe29 4b3c ddec febc
000003d0: 869d da3d 6d8f 633d 7a48 883d 0027 c3bd
000003e0: d907 97bd 3eda 04be 7a2b 063e 906b 953c
000003f0: e179 913e be51 f1bd 41c8 c43d acf3 a7bd

linear00.bias f4 [256]
-0.014522266 -0.08088752 -0.017934725 -0.019177059 -0.06612713 -0.049761042 -0.20613196 -0.06748096
-0.16141778 -0.012345291 -0.0435367 -0.042293914 -0.077545226 -0.09826759 0.03060205 -0.17721616
0.02963642 0.09146887 -0.122416414 0.028412705 -0.11963254 -0.06188507 -0.1394063 -0.05321703
-0.018940045 -0.09399076 0.016145794 0.110881194 -0.08694332 -0.10818489 0.00974892 0.02309035
-0.029480312 0.014416954 -0.019715628 -0.052354105 -0.0678136 0.0017918224 -0.08398102 -0.12586428
0.004868525 0.0060422337 0.039531734 0.07300618 -0.021213643 -0.16922267 0.042146236 -0.024021557
-0.0014432191 -0.008229345 0.0008533869 -0.16457899 -0.07966279 0.010009864 0.023511188 0.014678866
0.06668113 -0.048232064 0.07274832 0.018472381 -0.035740547 -0.11559727 -0.0064500966 0.05792302
0.08007027 -0.054793216 -0.050150488 -0.053275287 -0.14799727 0.0015985774 -0.18834952 -0.0033723938
0.059140373 -0.033099536 -0.07240772 0.052752703 -0.07372238 0.09834917 -0.10750481 -0.06491678
-0.03763217 0.018204983 -0.13787207 0.08375739 -0.079723366 -0.20161383 -0.036328457 -0.09563929
-0.117299475 -0.09758292 -0.07464864 -0.108816914 -0.14373383 -0.107931204 -0.09515015 -0.10861204
0.11529388 0.04929653 0.115494244 0.0025041099 0.056908954 -0.092210226 -0.0105154775 -0.21997657
-0.05469674 -0.012393868 -0.044273447 0.041084897 0.049095023 -0.17678823 -0.08750169 -0.07718917
-0.11675688 0.00061158004 -0.09816073 -0.07509506 -0.036247957 -0.009289552 -0.012438468 0.036045417
-0.02232326 -0.11288102 -0.13977371 -0.022571754 0.035740353 -0.043074906 0.042700086 -0.015134601
-0.08859308 -0.038237162 0.035669144 0.013373596 -0.06398606 0.026757915 -0.005189262 -0.035560705
-0.14838131 -0.09948029 -0.037045952 -0.03245871 -0.040658753 0.044711113 -0.0754541 -0.1537964
0.067804895 -0.009603482 0.012572614 0.03736592 -0.009764322 -0.092293434 -0.045402348 -0.025918676
0.06792427 -0.021832285 0.058881857 -0.050984535 0.015206771 0.012513781 -0.054609437 -0.016436303
-0.020661814 -0.12464729 -0.06944283 -0.029538658 -0.014296244 -0.044792213 -0.11620315 -0.07296988
-0.054179184 -0.08051521 0.017519623 -0.026479958 -0.07301888 0.05371811 -0.016004683 -0.071103565
-0.009040498 -0.082958326 -0.091918826 0.015362458 -0.04038258 -0.18068257 -0.13299616 -0.20402028
-0.10897247 -0.01166721 -0.023603063 -0.10853496 -0.14895998 -0.08120824 -0.016170911 0.021036198
-0.11968902 0.006707636 0.053083673 -0.13201039 -0.0038020606 0.016872002 -0.0042568613 0.0451068
0.03759265 -0.018533492 -0.033970214 -0.043175045 -0.11878875 -0.17291959 -0.03223512 0.03271925
-0.027591856 -0.03125818 0.030093752 0.023750061 0.015045695 0.08153159 -0.06494177 0.020390185
-0.09537732 -0.20229268 0.021848986 -0.0033481792 -0.09088608 0.046954196 -0.019157577 -0.15096477
-0.10627508 -0.043390747 -0.063356414 -0.20035334 0.02617121 -0.05032719 0.024463523 -0.04385728
-0.024622152 -0.009581826 -0.0022488371 0.0027618054 -0.049446147 0.0052206945 -0.061614573 -0.11571253
0.00046907723 -0.10576392 0.011816009 -0.050417554 -0.08637549 -0.10838161 -0.09351538 -0.02964096
-0.0035008548 0.00031634816 -0.17385666 0.015715372 -0.10232374 0.011824837 -0.0037783505 0.03455001
00000000: ccee 6dbc 5ba8 a5bd d8eb 92bc 3519 9dbc
00000010: a96d 87bd 3cd2 4bbd 4214 53be 7533 8abd
00000020: b44a 25be e743 4abc 8a53 32bd 623c 2dbd
00000030: 08d0 9ebd 8540 c9bd 26b1 fa3c 2778 35be
00000040: 14c8 f23c 0854 bb3d 75b5 fabd c3c1 e83c
00000050: e801 f5bd 337b 7dbd 86c0 0ebe 1afa 59bd
00000060: 2728 9bbc 3a7e c0bd 2f44 843c ae15 e33d
00000070: 570f b2bd 0a90 ddbd efb9 1f3c f927 bd3c
00000080: b280 f1bc 1635 6c3c ab82 a1bc 4271 56bd
00000090: dbe1 8abd 95db ea3a 3efe abbd 91e2 00be
000000a0: 2688 9f3b eefd c53b 07ec 213d 4484 953d
000000b0: 3cc8 adbc b548 2dbe 88a1 2c3d dbc8 c4bc
000000c0: 662a bdba 60d4 06bc d3b5 5f3a 6587 28be
000000d0: 3f26 a3bd 6a00 243c 899a c03c a07f 703c
000000e0: 1e90 883d fc8e 45bd 12fd 943d 6453 973c
000000f0: ae64 12bd 43be ecbd 555b d3bb b040 6d3d
00000100: e2fb a33d da6e 60bd 996a 4dbd 3037 5abd
00000110: 998c 17be 5b87 d13a b2de 40be 6103 5dbb
00000120: 2d3d 723d 6193 07bd 804a 94bd 3813 583d
00000130: c2fb 96bd 4a6b c93d 7b2b dcbd 17f3 84bd
00000140: 3124 1abd 9e22 953c 562e 0dbe ff88 ab3d
00000150: 0146 a3bd db73 4ebe 26cd 14bd 88de c3bd
00000160: b53a f0bd 8ed9 c7bd 63e1 98bd 67db debd
00000170: f62e 13be 090b ddbd 15de c2bd fd6f debd
00000180: 331f ec3d 29eb 493d 3f88 ec3d fe1b 243b
00000190: 5d19 693d b7d8 bcbd 1c49 2cbc 8a41 61be
000001a0: b009 60bd a60f 4bbc 1358 35bd a348 283d
000001b0: dd17 493d f907 35be 1634 b3bd 5b15 9ebd
000001c0: 3b1e efbd 7152 203a 7e08 c9bd 70cb 99bd
000001d0: bd78 14bd 3533 18bc b7ca 4bbc 5ca4 133d
000001e0: 45df b6bc 2a2e e7bd d720 0fbe 66e8 b8bc
000001f0: 7a64 123d 506f 30bd 49e6 2e3d 1ef7 77bc
00000200: 4a70 b5bd 929e 1cbd cf19 123d ed1c 5b3c
00000210: 200b 83bd 6a33 db3c af0a aabb 1aa8 11bd
00000220: 45f1 17be 53bc cbbd 7fbd 17bd 6df3 04bd
00000230: cb89 26bd 0023 373d ae87 9abd ce7c 1dbe
00000240: 4bdd 8a3d ec57 1dbc 5dfd 4d3c 020d 193d
00000250: 89fa 1fbc 5704 bdbd d0f7 39bd 6753 d4bc
00000260: e11b 8b3d 9fd9 b2bc 1a2e 713d 29d5 50bd
00000270: d225 793c 9a06 4d3c 25ae 5fbd 6da5 86bc
00000280: f742 a9bc 1447 ffbd 0b38 8ebd 0efb f1bc
00000290: cb3a 6abc 0a78 37bd ebfb edbd 3c71 95bd
000002a0: feea 5dbd 29e5 a4bd 5085 8f3c 7fec d8bc
000002b0: ec8a 95bd 8507 5c3d 411c 83bc bf9e 91bd
000002c0: 991e 14bc 0ee6 a9bd f03f bcbd d2b2 7b3c
000002d0: 3468 25bd da04 39be 2530 08be b1ea 50be
000002e0: f52c dfbd d327 3fbc 365b c1bc 9447 debd
000002f0: f788 18be 8150 a6bd dc78 84bc 1b54 ac3c
00000300: 841f f5bd bbcb db3b 446e 593d bb2d 07be
00000310: fe2b 79bb 2737 8a3c 247d 8bbb e8c1 383d
00000320: c0fa 193d 8dd3 97bc 5a24 0bbd 51d8 30bd
00000330: 8447 f3bd d511 31be f908 04bd 9f04 063d
00000340: 5108 e2bc 9408 00bd 2c87 f63c 7d8f c23c
00000350: 3882 763c 09fa a63d 3100 85bd 5109 a73c
00000360: 2f55 c3bd d025 4fbe a5fc b23c 206d 5bbb
00000370: 7b22 babd 0b53 403d 5af0 9cbc 8296 1abe
00000380: c0a6 d9bd 7fba 31bd 02c1 81bd 6d29 4dbe
00000390: 0165 d63c e223 4ebd ba67 c83c b1a3 33bd
000003a0: 65b4 c9bc 17fd 1cbc 3a61 13bb 68ff 343b
000003b0: 0b88 4abd 5c12 ab3b 905f 7cbd b1fa ecbd
000003c0: 7bee f539 c19a d8bd ef97 413c a382 4ebd
000003d0: a2e5 b0bd 2df7 ddbd fe84 bfbd 99d1 f2bc
000003e0: 996e 65bb 88db a539 7b07 32be 86bd 803c
000003f0: 1c8f d1bd f6bc 413c 349e 77bb 5084 0d3d

batch_norm00.weight f4 [256]
1.5184773 1.4636768 1.5204784 1.5957565 1.6243178 1.6058408 1.5808747 1.4312758
1.6702441 1.6132338 1.6603538 1.4678693 1.5248466 1.5218945 1.5031484 1.6499573
1.4794346 1.3968856 1.6974916 1.4783968 1.6312268 1.6344258 1.854838 1.4428961
1.4559971 1.4840791 1.4198086 1.4521339 1.5890406 1.5772607 1.5416158 1.5118835
1.4359692 1.4420894 1.5302236 1.526273 1.5010684 1.4296044 1.5380716 1.5184666
1.4956764 1.4345443 1.5456786 1.5088223 1.448782 1.5274179 1.4362694 1.5304351
1.473756 1.6234504 1.5374831 1.5782552 1.477967 1.6426586 1.4499916 1.5688432
1.4706935 1.561894 1.4779334 1.5940236 1.5057204 1.5386925 1.5305604 1.5029525
1.4476902 1.5689867 1.6877778 1.4539113 1.399962 1.5414069 1.3966026 1.6789771
1.5818719 1.6661193 1.5702124 1.4570835 1.5730175 1.4643831 1.5210958 1.4340811
1.4397659 1.5278457 1.5639037 1.4869449 1.6312872 1.5631799 1.5570902 1.6176901
1.4982014 1.5220668 1.6563532 1.6098372 1.5870103 1.7182395 1.4062517 1.4879903
1.3571961 1.419262 1.4555478 1.581467 1.5629315 1.5795742 1.5633745 1.4569743
1.504457 1.5031794 1.6078844 1.546893 1.4781846 1.4690512 1.7019409 1.4231253
1.6689591 1.3715742 1.7161163 1.4104551 1.5267007 1.5085883 1.5865148 1.546324
1.5542984 1.6704452 1.5776206 1.5374227 1.4373949 1.5111623 1.5150845 1.5251883
1.6102079 1.4732841 1.4906889 1.5031666 1.3924044 1.5457454 1.5968703 1.5434775
1.5289956 1.5485153 1.5421607 1.5371017 1.5570735 1.4830482 1.4476479 1.6872528
1.4877156 1.4926006 1.4378024 1.4270407 1.5333077 1.458995 1.5227898 1.5600245
1.4228888 1.3875425 1.4384967 1.4886853 1.5581675 1.5114095 1.6209533 1.565913
1.5884148 1.5211402 1.4938794 1.5969188 1.5427788 1.5503367 1.7307154 1.4476951
1.4004136 1.5739615 1.5147306 1.3908248 1.5068371 1.605671 1.6202551 1.4468242
1.5900083 1.569806 1.5341306 1.6608957 1.4943769 1.5985174 1.6303526 1.5418259
1.4932901 1.5744996 1.5449874 1.584334 1.572691 1.4907652 1.5382054 1.5074352
1.7125404 1.5747004 1.5722944 1.5678878 1.6050102 1.5520031 1.6044409 1.5179017
1.4658072 1.5526884 1.494546 1.5676562 1.610499 1.5812984 1.5247684 1.4566368
1.6233681 1.6507483 1.6474572 1.4371625 1.5214504 1.5364189 1.5552424 1.4521528
1.5855995 1.6039412 1.4169922 1.4467542 1.6182058 1.476428 1.5126209 1.4738456
1.5126286 1.3332471 1.5052377 1.5878443 1.5544236 1.4883645 1.4652976 1.4836984
1.4544344 1.3949264 1.4122944 1.406943 1.4761295 1.5574266 1.4608316 1.4907731
1.5488272 1.596571 1.3265173 1.5627248 1.5965893 1.6634808 1.6263793 1.38291
1.5290153 1.5962108 1.5237887 1.5415567 1.4886037 1.4999902 1.4267833 1.4252015
00000000: 775d c23f c359 bb3f 099f c23f c041 cc3f
00000010: a5e9 cf3f 318c cd3f 1a5a ca3f 0c34 b73f
00000020: 8fca d53f 727e ce3f 7986 d43f 24e3 bb3f
00000030: 2c2e c33f 70cd c23f 2b67 c03f cd31 d33f
00000040: 1d5e bd3f 26cd b23f 6847 d93f 1b3c bd3f
00000050: 0acc d03f dd34 d13f 556b ed3f d2b0 b83f
00000060: 1d5e ba3f 4ef6 bd3f 4abc b53f 86df b93f
00000070: af65 cb3f aee3 c93f ab53 c53f 6685 c13f
00000080: d7cd b73f 6396 b83f 5ede c33f ea5c c33f
00000090: 0223 c03f 47fd b63f 88df c43f 1d5d c23f
000000a0: 5372 bf3f 269f b73f ccd8 c53f 1721 c13f
000000b0: b071 b93f 6e82 c33f add7 b73f 4ce5 c33f
000000c0: 09a4 bc3f 39cd cf3f 3fcc c43f 4404 ca3f
000000d0: 062e bd3f a342 d23f 5399 b93f dbcf c83f
000000e0: af3f bc3f 25ec c73f ec2c bd3f f708 cc3f
000000f0: 72bb c03f e0f3 c43f 67e9 c33f bf60 c03f
00000100: ea4d b93f 8ed4 c83f 1a09 d83f c419 ba3f
00000110: f431 b33f d24c c53f e0c3 b23f b9e8 d63f
00000120: c77a ca3f 6643 d53f b8fc c83f b681 ba3f
00000130: a358 c93f e870 bb3f 44b3 c23f f88f b73f
00000140: 404a b83f 7390 c33f ff2d c83f 3654 be3f
00000150: 05ce d03f 4716 c83f bb4e c73f 7810 cf3f
00000160: 10c5 bf3f 16d3 c23f 6203 d43f 250f ce3f
00000170: 2723 cb3f 46ef db3f 0e00 b43f 7776 be3f
00000180: 9ab8 ad3f 61aa b53f 644f ba3f 836d ca3f
00000190: 240e c83f 7d2f ca3f a81c c83f 227e ba3f
000001a0: 0c92 c03f 2f68 c03f 28cf cd3f 9700 c63f
000001b0: 2735 bd3f df09 bc3f 33d9 d93f f828 b63f
000001c0: 74a0 d53f be8f af3f b3a9 db3f cb89 b43f
000001d0: ee6a c33f 6c19 c13f eb12 cb3f f2ed c53f
000001e0: 40f3 c63f 26d1 d53f 79ef c93f 44ca c43f
000001f0: 8efc b73f c46d c13f 4aee c13f 5f39 c33f
00000200: 4b1b ce3f 9394 bc3f e5ce be3f c367 c03f
00000210: 4f3a b23f fcda c53f 3f66 cc3f ac90 c53f
00000220: 21b6 c33f c035 c63f 8665 c53f c0bf c43f
00000230: 2f4e c73f 86d4 bd3f 874c b93f e6f7 d73f
00000240: 776d be3f 890d bf3f e909 b83f 45a9 b63f
00000250: 6d43 c43f 59c0 ba3f c7ea c23f e2ae c73f
00000260: 3821 b63f fe9a b13f a920 b83f 3d8d be3f
00000270: 0872 c73f de75 c13f 667b cf3f d66f c83f
00000280: 2d51 cb3f b9b4 c23f 7137 bf3f d667 cc3f
00000290: c779 c53f 6f71 c63f 1588 dd3f 134e b93f
000002a0: c140 b33f 9277 c93f b1e2 c13f 8c06 b23f
000002b0: 0ae0 c03f a186 cd3f 8564 cf3f 8931 b93f
000002c0: 6485 cb3f 67ef c83f 645e c43f 3b98 d43f
000002d0: be47 bf3f 389c cc3f 65af d03f 8d5a c53f
000002e0: 2124 bf3f 3489 c93f 26c2 c53f 75cb ca3f
000002f0: f04d c93f 65d1 be3f eae3 c43f a3f3 c03f
00000300: 8634 db3f c88f c93f f140 c93f 8cb0 c83f
00000310: f970 cd3f 0aa8 c63f 525e cd3f 9a4a c23f
00000320: 929f bb3f 7ebe c63f 494d bf3f f5a8 c83f
00000330: d524 ce3f fc67 ca3f 9c2b c33f 1373 ba3f
00000340: 87ca cf3f b84b d33f e1df d23f f1f4 b73f
00000350: e3be c23f 60a9 c43f 2f12 c73f 25e0 b93f
00000360: edf4 ca3f f24d cd3f 0060 b53f 3e2f b93f
00000370: 5e21 cf3f 98fb bc3f 909d c13f f9a6 bc3f
00000380: d09d c13f d7a7 aa3f a1ab c03f 7b3e cb3f
00000390: 5af7 c63f ba82 be3f df8e bb3f d4e9 bd3f
000003a0: e82a ba3f f38c b23f 10c6 b43f b516 b43f
000003b0: d0f1 bc3f c159 c73f 88fc ba3f a7d1 be3f
000003c0: f83f c63f 705c cc3f 52cb a93f 5e07 c83f
000003d0: 0a5d cc3f f0ec d43f 322d d03f 3203 b13f
000003e0: c6b6 c33f a350 cc3f 820b c33f bb51 c53f
000003f0: 918a be3f aeff bf3f d6a0 b63f 016d b63f

batch_norm00.bias f4 [256]
0.25698525 0.028075121 0.11207975 -0.08323151 0.20230275 -0.019566044 0.041009955 -0.2523075
0.1028349 0.0869735 0.2719443 0.036697116 -0.14369246 0.12667763 -0.12479514 0.13663775
-0.15206394 0.08156546 0.13721585 -0.124245346 -0.11896001 -0.06188846 0.058527585 0.26620755
0.12659806 -0.029874368 0.28541508 -0.11165935 0.12915616 -0.0025739172 0.26332387 0.21503453
0.39022452 0.036930613 -0.032248456 -0.07652974 0.28636009 -0.078428835 -0.13563494 -0.24331693
0.36000168 -0.22093041 -0.039401248 -0.33883652 -0.11344178 -0.0009233772 0.4125565 -0.25289822
0.20429128 -0.039084893 0.08787287 -0.06824882 -0.09961054 0.15424937 -0.0065470305 0.16738217
0.23208217 -0.14704119 -0.22799261 0.07515659 0.08530023 0.14630266 -0.10352436 0.08201677
0.11521836 0.06996554 -0.008657826 0.05253792 0.04414576 0.105436884 0.39882627 0.4857999
-0.1758469 -0.17515376 -0.11697656 -0.07534986 -0.17333205 0.07081259 -0.0023686108 0.20207427
0.13627493 0.16400954 0.1730248 0.019683007 0.10368104 -0.10784179 0.14153978 0.103306
-0.11237785 -0.06879794 0.13105656 -0.09901577 0.04755963 0.1850694 0.26186228 -0.120998494
0.31274974 -0.08175172 0.19619301 0.30704784 0.22715275 0.01706698 -0.24289949 -0.4034548
-0.14317602 0.015608863 0.01973926 -0.22712466 -0.0203824 0.044814337 -0.25638407 -0.07694093
0.20335223 -0.33967614 -0.28712738 -0.34611246 -0.25170377 -0.14867273 0.04227177 -0.07578065
0.17205122 0.086442806 0.027064884 0.1613043 -0.1221737 0.3376911 0.030435197 -0.20165053
0.14408705 -0.027865522 -0.12945372 0.16964495 0.049684994 0.28818578 0.23301134 0.04729698
0.041486762 0.3591268 0.061082922 0.23628789 -0.105805285 0.41432384 0.24030171 0.13629568
0.14397697 -0.09245698 -0.17001376 0.32634202 0.051507544 0.11422596 0.2202947 0.17829776
0.065089196 -0.21386163 -0.14553024 -0.16621703 -0.32159096 0.35599038 0.32431796 0.08578273
0.16951096 -0.04751922 -0.23462382 0.11314707 -0.3923993 -0.22928184 -0.22832891 0.069415376
-0.2775874 -0.14442666 -0.28658357 0.20951098 -0.01281468 -0.3857559 -0.15672997 -0.23094164
-0.23131035 0.031274043 -0.111401945 0.09622081 0.27134517 0.104588024 -0.396024 -0.19613335
0.16390368 0.14309862 -0.14129308 0.059244942 0.44966483 -0.14968485 0.15392399 -0.03494512
0.1328363 -0.17163989 -0.47449088 0.399123 0.0016943836 -0.21446106 -0.0051286034 -0.32928115
-0.06645545 -0.26609468 -0.07392607 -0.033714153 0.13858151 -0.14521118 -0.012067372 -0.059655864
0.06914555 0.1366483 0.11278319 -0.09534365 -0.19675562 -0.039816786 -0.046390448 0.1585357
0.022634145 0.055304613 -0.07707899 0.018963382 0.13099721 0.019229522 0.06124126 0.3706977
-0.12677683 0.08577876 -0.22548202 0.12905215 -0.06170921 -0.1754431 -0.11219441 -0.2671107
0.41935146 -0.062963605 0.09649921 0.009851334 0.50288105 0.27955696 -2.869065e-05 0.24090087
-0.04148416 0.10942875 -0.26566026 0.08590952 -0.18155536 0.32978386 0.37938643 -0.26141185
0.19283509 -0.21350367 -0.13890764 0.09165067 0.3900425 -0.014506249 0.33974585 -0.15283144
00000000: 9293 833e ccfd e53c 118a e53d 4875 aabd
00000010: 7428 4f3e f848 a0bc 0efa 273d 732e 81be
00000020: 1b9b d23d 2a1f b23d 493c 8b3e b74f 163d
00000030: 1e24 13be c8b7 013e 9894 ffbd c4ea 0b3e
00000040: a6b6 1bbe cb0b a73d 5082 0c3e 5874 febd
00000050: 4ea1 f3bd c17e 7dbd 9fba 6f3d 5b4c 883e
00000060: eca2 013e 17bb f4bc ed21 923e a8ad e4bd
00000070: 8341 043e 2aaf 28bb 63d2 863e 0332 5c3e
00000080: 82cb c73e 8e44 173d f516 04bd a0bb 9cbd
00000090: ca9d 923e 4c9f a0bd e3e3 0abe 1328 79be
000000a0: 2452 b83e 953b 62be 3463 21bd fb7b adbe
000000b0: 2a54 e8bd cc0e 72ba 9b3a d33e e07b 81be
000000c0: bc31 513e 7b17 20bd b1f6 b33d 0ac6 8bbd
000000d0: 9c00 ccbd 8cf3 1d3e 7988 d6bb 3b66 2b3e
000000e0: f3a6 6d3e f791 16be e576 69be b3eb 993d
000000f0: e3b1 ae3d 5dd0 153e 9404 d4bd 69f8 a73d
00000100: 9bf7 eb3d 184a 8f3d 8ed9 0dbc 0132 573d
00000110: 2fd2 343d 4bef d73d f532 cc3e c4ba f83e
00000120: 3611 34be 825b 33be 6891 efbd 0751 9abd
00000130: f57d 31be 3106 913d b23a 1bbb 8fec 4e3e
00000140: a88b 0b3e 1ef2 273e 6a2d 313e 423e a13c
00000150: ba56 d43d 28dc dcbd ceef 103e 1992 d33d
00000160: 5c26 e6bd efe5 8cbd b133 063e c8c8 cabd
00000170: e3cd 423d d582 3d3e d012 863e 0fce f7bd
00000180: bc20 a03e 726d a7bd d2e6 483e 6035 9d3e
00000190: bb9a 683e 0dd0 8b3c a5ba 78be a191 cebe
000001a0: bc9c 12be 51bc 7f3c 3bb4 a13c 5e93 68be
000001b0: fef8 a6bc 3d8f 373d c644 83be 3593 9dbd
000001c0: 913b 503e 08ea adbe 5c02 93be a735 b1be
000001d0: 51df 80be aa3d 18be 2a25 2d3d e332 9bbd
000001e0: 322e 303e ed08 b13d 2db7 dd3c f42c 253e
000001f0: 3436 fabd d9e5 ac3e 3c53 f93c 7a7d 4ebe
00000200: 8e8b 133e 3c46 e4bc 848f 04be 68b7 2d3e
00000210: 7e82 4b3d 168d 933e 869a 6e3e 7aba 413d
00000220: 06ee 293d 78df b73e 1632 7a3d 74f5 713e
00000230: 71b0 d8bd 4122 d43e a711 763e 1891 0b3e
00000240: b36e 133e 165a bdbd 1618 2ebe 4d16 a73e
00000250: 93f9 523d 4def e93d ef94 613e b093 363e
00000260: 7c4d 853d 8bfe 5abe e105 15be cc34 2abe
00000270: 92a7 a4be 5f44 b63e 010d a63e dbae af3d
00000280: 4894 2d3e 83a3 42bd 3a41 70be a7b9 e73d
00000290: 90e8 c8be dcc8 6abe 0ecf 69be a629 8e3d
000002a0: f01f 8ebe 95e4 13be 15bb 92be 0c8a 563e
000002b0: aaf4 51bc cc81 c5be d27d 20be f77b 6cbe
000002c0: 9fdc 6cbe 3619 003d b426 e4bd 6b0f c53d
000002d0: c1ed 8a3e 3f32 d63d a8c3 cabe 2ed7 48be
000002e0: 5ed6 273e 7288 123e 22af 10be d3aa 723d
000002f0: 783a e63e fc46 19be 409e 1d3e 9d22 0fbd
00000300: 3d06 083e 5ec2 2fbe 78f0 f2be da59 cc3e
00000310: 1416 de3a ae9b 5bbe d80d a8bb 8a97 a8be
00000320: cc19 88bd 903d 88be 8d66 97bd da17 0abd
00000330: 50e8 0d3e 3db2 14be 3ab6 45bc b559 74bd
00000340: 2f9c 8d3d 88ed 0b3e e0fa e63d 8843 c3bd
00000350: 4e7a 49be ed16 23bd e903 3ebd 2f57 223e
00000360: 3e6b b93c 1787 623d 97db 9dbd 1859 9b3c
00000370: 2224 063e 3b87 9d3c 1ed8 7a3d 17cc bd3e
00000380: c9d1 01be c6ac af3d c2e4 66be 3f26 043e
00000390: ccc2 7cbd 5ba7 33be 2fc6 e5bd bcc2 88be
000003a0: 3cb5 d63e 10f3 80bd 61a1 c53d 7d67 213c
000003b0: d0bc 003f 1722 8f3e b4ac f0b7 b8ae 763e
000003c0: 4beb 29bd 2e1c e03d 9f04 88be 55f1 af3d
000003d0: a6e9 39be 6ed9 a83e f03e c23e c6d7 85be
000003e0: 9076 453e b5a0 5abe ce3d 0ebe 59b3 bb3d
000003f0: a7b3 c73e 9eab 6dbc 2bf3 ad3e d87f 1cbe

batch_norm00.running_mean f4 [256]
0.054315716 0.017147968 0.07172518 0.034318186 0.042635284 0.0072376104 0.030818652 0.03484288
0.05502449 0.06272845 0.047912747 0.03664331 0.09587032 -0.0057486873 -0.004544919 0.080633335
0.089056455 0.02291113 0.047275048 0.02943706 0.09130209 0.030955726 0.089449726 0.032511953
0.06671518 0.08480048 0.011422381 0.028834 0.060115952 0.04227305 0.031568173 0.045955215
0.030481054 0.047093242 0.08436875 0.035185255 -0.006889238 0.07443215 0.02140484 0.013374625
0.02680091 0.011051501 0.03173242 0.013095679 0.037115864 0.042909823 0.026725095 0.08692345
0.02950783 0.0762227 0.081729785 0.03594121 0.11212023 0.09421593 0.053075306 0.008232518
0.0750943 0.06770889 0.026103783 0.019831711 0.0498119 0.086766146 0.05019571 -0.012751268
0.014883154 0.035321664 0.099058054 0.05761159 0.034048136 0.04368561 0.057499573 0.088600256
0.08770202 0.04097212 0.06596745 0.039317865 0.03854809 0.0026563664 0.027469888 0.040106025
0.06579145 0.036919296 0.05918947 0.031230332 0.08039816 0.050334416 0.078588985 0.10098005
0.039868046 0.045786764 0.08971921 0.06059673 0.08918995 0.10825194 0.023089461 0.031172438
0.014576436 0.013643564 0.030941568 0.06638027 0.04699287 0.048991833 0.05479513 0.06700167
0.034931723 0.009868609 0.086278096 0.040200755 0.03256226 0.06548301 0.10065393 0.017621951
0.13214004 0.023845889 0.08725079 0.065256886 0.04079869 0.042345207 0.12957576 -0.035950713
0.07455919 0.063497365 0.032656223 0.10703572 0.021567672 0.016198197 0.04293304 0.029290585
0.0714302 -0.000121961806 0.09146021 0.037669767 0.027885383 0.008620442 0.07059898 0.033066932
0.070202515 0.06960892 0.042070225 0.010737598 0.03912839 -0.013989549 0.07714416 0.08657282
0.04265292 0.017374538 0.012296968 0.02262922 0.058809128 0.04374921 -0.025039129 0.07317226
0.010218029 0.033261135 -0.010268233 0.049955748 0.08238908 -0.008666379 0.054121397 0.06281971
0.06784783 0.018530335 0.039923612 0.073677234 0.08864484 0.040108573 0.07974573 0.05916791
0.07990754 0.025626762 0.045246016 0.010799617 0.050323505 0.053267118 0.098366894 0.03855865
0.018646408 0.12067114 0.051704135 0.096499756 0.02414304 0.07199396 0.07085758 0.03595408
0.046949856 0.06669102 0.07053321 0.031507913 0.052747726 0.052370165 0.06298009 0.04526931
0.07509523 0.07186217 0.025386328 0.03747315 0.052326176 0.00071837497 0.032575313 0.020329256
0.019797824 0.066450365 0.04513209 0.07596576 0.050351482 0.026066279 0.05276452 0.019722259
0.06075889 0.056705765 0.066456504 0.016934471 0.026518416 0.02088691 0.05483565 0.04708085
0.025877489 0.04743875 0.0011478302 0.041055553 0.075265236 0.02620802 0.039361205 0.05394134
0.030487353 -0.004657776 0.06204376 0.064572394 0.010901464 0.0578899 -0.014231558 0.037867967
0.053007085 0.023863345 -0.029989133 0.039828897 0.025532339 0.11483371 0.041569844 0.050737258
0.025106091 0.07139262 0.010311907 0.060036644 0.11111772 0.05708824 0.0412816 0.06919372
0.05086063 0.0016807244 0.06258531 0.0071866508 0.028687732 0.08380217 0.073079064 8.488177e-05
00000000: 287a 5e3d e579 8c3c a7e4 923d 3a91 0c3d
00000010: 56a2 2e3d 7a29 ed3b 6677 fc3c 68b7 0e3d
00000020: 5c61 613d c677 803d 2840 443d 4c17 163d
00000030: a957 c43d 7c5f bcbb 8bed 94bb 1723 a53d
00000040: 3b63 b63d 1fb0 bb3c 7ba3 413d fd25 f13c
00000050: 97fc ba3d dd96 fd3c 6b31 b73d 412b 053d
00000060: f8a1 883d e0ab ad3d f024 3b3c 4835 ec3c
00000070: 253c 763d 8126 2d3d a14d 013d 893b 3c3d
00000080: 67b3 f93c d8e4 403d 86c9 ac3d 6a1e 103d
00000090: 1ebf e1bb e26f 983d 3459 af3c 3e21 5b3c
000000a0: 958d db3c 5b11 353c dbf9 013d 428f 563c
000000b0: ce06 183d 36c2 2f3d 96ee da3c ec04 b23d
000000c0: 68ba f13c a61a 9c3d f261 a73d 1737 133d
000000d0: 4b9f e53d 48f4 c03d 7e65 593d afe1 063c
000000e0: 0acb 993d f5aa 8a3d 9ad7 d53c 1d76 a23c
000000f0: 9007 4c3d 73b2 b13d 049a 4d3d b2ea 50bc
00000100: 79d8 733c 73ad 103d f3de ca3d 21fa 6b3d
00000110: 0f76 0b3d afef 323d ac84 6b3d 0d74 b53d
00000120: 1e9d b33d 62d2 273d f119 873d c50b 213d
00000130: 9ae4 1d3d 6f16 2e3b 8808 e13c 3746 243d
00000140: abbd 863d b038 173d a870 723d c1d6 ff3c
00000150: caa7 a43d 762b 4e3d 43f3 a03d a1ce ce3d
00000160: ad4c 233d e78a 3b3d b5be b73d 4734 783d
00000170: 38a9 b63d 31b3 dd3d 1c26 bd3c 575d ff3c
00000180: 01d2 6e3c 4189 5f3c 2c79 fd3c 61f2 873d
00000190: 987b 403d a9ab 483d dc70 603d 2c38 893d
000001a0: 9114 0f3d f2af 213c 92b2 b03d 8ca9 243d
000001b0: 0160 053d f51b 863d a623 ce3d e95b 903c
000001c0: b84f 073e 7458 c33c 8bb0 b23d 67a5 853d
000001d0: 871c 273d 2b72 2d3d 82af 043e 0e41 13bd
000001e0: 7db2 983d e80a 823d 88c2 053d 8b35 db3d
000001f0: b0ae b03c 15b2 843c 8eda 2f3d cff2 ef3c
00000200: ff49 923d bfc5 ffb8 7e4f bb3d 9d4b 1a3d
00000210: e36f e43c c13c 0d3c 3396 903d 3171 073d
00000220: 56c6 8f3d 1f8f 8e3d d451 2c3d c0ec 2f3c
00000230: 1745 203d 6c34 65bc c2fd 9d3d 174d b13d
00000240: d4b4 2e3d 0c55 8e3c 3979 493c ea60 b93c
00000250: d7e1 703d 5f32 333d dc1e cdbc 56db 953d
00000260: 8569 273c d43c 083d 173c 28bc 669e 4c3d
00000270: 9bbb a83d 6efd 0dbc 66ae 5d3d 9fa7 803d
00000280: cef3 8a3d eecc 973c f186 233d 17e4 963d
00000290: 6d8b b53d e348 243d bb51 a33d 0d5a 723d
000002a0: 90a6 a33d 37ef d13c e353 393d e0f0 303c
000002b0: 0520 4e3d 9f2e 5a3d 9574 c93d adef 1d3d
000002c0: 5ac0 983c 6e22 f73d b7c7 533d aaa1 c53d
000002d0: a0c7 c53c 9271 933d c71d 913d 9644 133d
000002e0: 7e4e 403d 4d95 883d b773 903d 710e 013d
000002f0: 000e 583d 1982 563d b5fb 803d 506c 393d
00000300: 87cb 993d 792c 933d fdf6 cf3c 727d 193d
00000310: f953 563d 5451 3c3a b16d 053d 8a89 a63c
00000320: 0c2f a23c 2117 883d 6ddc 383d f093 9b3d
00000330: 5b3d 4e3d f388 d53c 9c1f 583d 9390 a13c
00000340: 50de 783d 4e44 683d 591a 883d 29ba 8a3c
00000350: 263d d93c 061b ab3c 599b 603d d9d7 403d
00000360: 07fd d33c 224f 423d ca72 963a de29 283d
00000370: a924 9a3d 34b2 d63c 3739 213d 98f1 5c3d
00000380: 9dc0 f93c 42a0 98bb 9921 7e3d 883e 843d
00000390: 0e9c 323c f61d 6d3d 7b2b 69bc 711b 1b3d
000003a0: f51d 593d 107d c33c c5ab f5bc a023 233d
000003b0: 3229 d13c f02d eb3d 2445 2a3d dfd1 4f3d
000003c0: 4aab cd3c 4b36 923d 46f3 283c fce8 753d
000003d0: b091 e33d 5cd5 693d e516 293d 70b5 8d3d
000003e0: 3c53 503d c14b dc3a ba2c 803d ff7d eb3b
000003f0: 8902 eb3c 79a0 ab3d 7aaa 953d 8e02 b238

batch_norm00.running_var f4 [256]
0.05318326 0.02505063 0.066290274 0.03990218 0.040243622 0.01613601 0.034449473 0.039139327
0.048621718 0.052825563 0.04724474 0.038928345 0.08282028 0.017650256 0.013179706 0.08215655
0.0745694 0.039819453 0.047923677 0.03130829 0.09215824 0.025945384 0.102460444 0.03616383
0.05986634 0.07293281 0.015750904 0.0344376 0.04868773 0.050935905 0.032480124 0.05236445
0.03007752 0.054911423 0.07096391 0.03396207 0.008713063 0.070774525 0.02505147 0.026610058
0.030747868 0.018961886 0.042160038 0.03009606 0.046434466 0.05663616 0.02936184 0.079792276
0.029707437 0.07050054 0.08913564 0.041989684 0.11992587 0.094509974 0.04454508 0.019727193
0.06824959 0.05317767 0.03179501 0.036079757 0.060887687 0.08502992 0.04568168 0.0074494747
0.02423565 0.036064394 0.10473816 0.054219015 0.042355206 0.041995578 0.057628274 0.07668405
0.075149335 0.03836136 0.0714166 0.038897607 0.042591877 0.022729188 0.032483146 0.045463737
0.05615135 0.047800593 0.044470653 0.028504914 0.07818777 0.068213984 0.07276514 0.09173033
0.035162635 0.04008524 0.08249583 0.06056347 0.10104685 0.109209426 0.039352994 0.033461623
0.025303915 0.018933844 0.029692119 0.05800565 0.049955793 0.06783694 0.05571576 0.06823807
0.050140433 0.015911387 0.075372726 0.04360751 0.03782173 0.06428088 0.1054183 0.03494155
0.14143454 0.029503051 0.07282658 0.07811285 0.045622732 0.048495576 0.13036609 0.010999772
0.075571775 0.05776239 0.032219104 0.08486506 0.03517939 0.024066065 0.06085378 0.039737117
0.07549059 0.012866508 0.09245839 0.037648942 0.03355701 0.021265393 0.05693949 0.041313235
0.07068283 0.067988254 0.042260345 0.028657926 0.040700372 0.011817256 0.0754643 0.08918409
0.028858745 0.026717488 0.019839019 0.03066764 0.049942385 0.038789686 0.0095861945 0.07595704
0.018695332 0.040891886 0.005825816 0.055079076 0.09752661 0.013836298 0.05894904 0.053678077
0.0678353 0.025832444 0.052588847 0.071544275 0.09638953 0.038733657 0.069659464 0.058943525
0.08000561 0.025860708 0.043671917 0.021210639 0.06279794 0.054193713 0.12474433 0.047095515
0.04046362 0.115360595 0.049250674 0.0883188 0.02323194 0.06080644 0.0652605 0.0662662
0.054628257 0.08251447 0.06030772 0.03076064 0.053638726 0.05386888 0.0535211 0.051414035
0.0640362 0.07420595 0.028397247 0.042615075 0.056722045 0.015345932 0.0342324 0.02162965
0.017361192 0.0703096 0.058322802 0.06497189 0.043311253 0.030217173 0.052369304 0.02874681
0.061469026 0.05212434 0.08011823 0.023114968 0.028114446 0.025557538 0.056874536 0.04849235
0.025517317 0.054375827 0.01937857 0.041740913 0.069333084 0.034472264 0.039021157 0.059485257
0.030631632 0.010062508 0.06884858 0.05699805 0.022575978 0.053983826 0.0128645515 0.041556727
0.046503745 0.038423758 0.0057972567 0.039301384 0.028724127 0.12723956 0.058973353 0.05281974
0.03184979 0.07059754 0.028157307 0.056161083 0.097305216 0.045088876 0.058784716 0.05454283
0.047622986 0.012996804 0.053889614 0.01786813 0.030590795 0.075120166 0.07074874 0.014904912
00000000: b1d6 593d fb36 cd3c 32c3 873d 7870 233d
00000010: 7fd6 243d aa2f 843c e41a 0d3d 8f50 203d
00000020: 9127 473d 9e5f 583d b383 413d 5473 1f3d
00000030: ae9d a93d 4597 903c b2ef 573c b141 a83d
00000040: d7b7 983d b919 233d 9e4b 443d 1f3d 003d
00000050: 76bd bc3d 6a8b d43c c8d6 d13d 8620 143d
00000060: 6836 753d cc5d 953d 0a08 813c 710e 0d3d
00000070: c96c 473d 2ba2 503d e109 053d 1b7c 563d
00000080: 2265 f63c cdea 603d 8755 913d d01b 0b3d
00000090: 3cc1 0e3c 3cf2 903d be38 cd3c 56fd d93c
000000a0: f4e2 fb3c f555 9b3c 01b0 2c3d 038c f63c
000000b0: 1132 3e3d 51fb 673d 3e88 f03c 226a a33d
000000c0: 035d f33c 9662 903d bf8c b63d 60fd 2b3d
000000d0: b29b f53d 728e c13d e774 363d ec9a a13c
000000e0: 71c6 8b3d d4d0 593d 7c3b 023d 5ec8 133d
000000f0: 5e65 793d 2b24 ae3d b71c 3b3d b91a f43b
00000100: d889 c63c 42b8 133d f680 d63d c214 5e3d
00000110: a77c 2d3d 8e03 2c3d a00b 6c3d 870c 9d3d
00000120: e5e7 993d cd20 1d3d de42 923d 1953 1f3d
00000130: d274 2e3d 9032 ba3c 0c0d 053d 2f38 3a3d
00000140: f5fe 653d 8eca 433d dc26 363d 2383 e93c
00000150: e920 a03d c6b3 8b3d e405 953d 1cdd bb3d
00000160: b206 103d 6c30 243d 93f3 a83d 6711 783d
00000170: a7f1 ce3d 31a9 df3d 9b30 213d 0e0f 093d
00000180: 284a cf3c 261b 9b3c e33c f33c 5597 6d3d
00000190: 729e 4c3d 18ee 8a3d 3536 643d 67c0 8b3d
000001a0: 0e60 4d3d 9958 823c 045d 9a3d ca9d 323d
000001b0: f5ea 1a3d b2a5 833d 8de5 d73d df1e 0f3d
000001c0: 37d4 103e 62b0 f13c 1a26 953d a1f9 9f3d
000001d0: e7de 3a3d 4ca3 463d b07e 053e 6338 343c
000001e0: 60c5 9a3d 4198 6c3d 2ef8 033d bccd ad3d
000001f0: 4418 103d 3226 c53c d041 793d 63c3 223d
00000200: cf9a 9a3d 0cce 523c d35a bd3d c735 1a3d
00000210: 1373 093d c334 ae3c 6239 693d 1138 293d
00000220: 29c2 903d 6d3d 8b3d 2f19 2d3d 07c4 ea3c
00000230: 6fb5 263d 2a9d 413c 078d 9a3d 26a6 b63d
00000240: 2d69 ec3c a2de da3c 7085 a23c b43a fb3c
00000250: 6390 4c3d efe1 1e3d 6a0f 1d3c 5d8f 9b3d
00000260: f426 993c 407e 273d 7de6 be3b 999a 613d
00000270: 08bc c73d a4b1 623c 8c74 713d 8bdd 5b3d
00000280: 3ced 8a3d 909e d33c 6767 573d ce85 923d
00000290: e067 c53d 2fa7 1e3d 9fa9 8e3d c46e 713d
000002a0: fbd9 a33d d6d9 d33c 53e1 323d efc1 ad3c
000002b0: 359c 803d 3afa 5d3d f579 ff3d 3ae7 403d
000002c0: 2ebd 253d 2d42 ec3d 13bb 493d 7de0 b43d
000002d0: e950 be3c 2c10 793d 4ca7 853d 93b6 873d
000002e0: e1c1 5f3d 59fd a83d 3a05 773d bdfd fb3c
000002f0: 48b4 5b3d 9da5 5c3d f138 5b3d 8697 523d
00000300: 6925 833d 4af9 973d 58a1 e83c 258d 2e3d
00000310: 6055 683d 816d 7b3c 4637 0c3d aa30 b13c
00000320: 0f39 8e3c 7bfe 8f3d e4e3 6e3d fb0f 853d
00000330: 2467 313d 018a f73c 3281 563d 6e7e eb3c
00000340: f2c6 7b3d 5580 553d 0715 a43d 9a5b bd3c
00000350: 4450 e63c 0b5e d13c 46f5 683d ea9f 463d
00000360: b109 d13c 30b9 5e3d cfbf 9e3c 85f8 2a3d
00000370: 81fe 8d3d ca32 0d3d a6d4 1f3d d0a6 733d
00000380: 30ef fa3c 38dd 243c 7c00 8d3d ca76 693d
00000390: 42f1 b83c 251e 5d3d d7c5 523c 6337 2a3d
000003a0: b67a 3e3d 3b62 1d3d eaf6 bd3b 7dfa 203d
000003b0: dc4e eb3c 164b 023e 0b8e 713d 8359 583d
000003c0: ed74 023d 7195 903d 27aa e63c 2a09 663d
000003d0: f547 c73d 1daf 383d 3ec8 703d 4d68 5f3d
000003e0: 5210 433d 8cf0 543c 5bbb 5c3d 2f60 923c
000003f0: 8c99 fa3c 9ad8 993d b7e4 903d bb33 743c

linear01.weight f4 [128, 256]
-0.16326421 -0.16443974 -0.018370708 -0.24277936 0.24151726 -0.05714674 -0.15561527 -0.07915855
-0.394962 -0.17535529 0.16786502 0.27539605 -0.20656842 -1.8250175e-05 -0.14768626 -0.3519036
-0.106601 -0.06644502 0.13928713 0.10287788 0.06137652 -0.20391147 -0.33654815 0.13377723
-0.23088613 0.010480037 0.044581603 -0.36012372 -0.07518399 0.12718038 0.23879446 -0.086696975
0.107591935 -0.016922524 -0.34746313 0.0009639634 -0.10613814 -0.074084856 0.09003389 0.04396929
-0.06526676 -0.10782109 -0.15695772 0.15437266 0.0984513 0.08472497 -0.2792959 -0.11405381
-0.14834464 0.098108195 0.004783445 -0.32044923 0.17382 -0.17323972 -0.056905303 0.06715328
-0.047290627 0.021158695 -0.09225456 -0.14026588 0.03584694 -0.30135906 -0.19936706 0.022475354
0.03200177 -0.03503551 0.09293059 0.3208274 -0.012396121 -0.030888563 0.06731626 -0.021134583
-0.048829783 0.24666733 0.028502846 0.20283614 0.11612794 -0.015094852 0.06295118 0.27744815
0.16873072 0.036257833 0.024322243 -0.38722676 0.13773444 0.03655489 -0.05729982 0.2246068
-0.053646255 0.21791963 -0.04609652 0.220518 -0.0060990346 -0.2737394 0.042454835 -0.24393515
0.14730875 0.05638378 0.2050488 -0.059566893 0.19015464 0.1440046 -0.24389139 0.092442505
-0.13308379 0.07321283 -0.061040133 -0.05685052 -0.10137036 0.2272449 -0.14486928 0.09150722
-0.21631217 0.30866322 -0.06871941 0.07825966 0.08665828 -0.09807953 -0.15826297 -0.0964418
0.032598387 -0.14256349 -0.10816239 -0.3475897 0.18264334 -0.4288205 0.07061717 -0.16656631
-0.016564773 0.049352057 -0.042277705 -0.048243053 0.08539578 -0.1612872 0.027270902 0.12497024
0.14740914 0.030122923 -0.24908508 -0.059283413 -0.082514234 0.14949417 0.1840561 -0.10013374
-0.3394792 0.1113893 -0.07543906 0.020455288 -0.274272 0.0867364 -0.08629011 -0.17281589
0.048330884 -0.04879426 0.2340415 0.15382674 0.020654676 -0.2508822 -0.13253249 0.008178065
0.07618896 0.2062737 -0.25254413 -0.13322465 0.21582936 0.21357787 -0.26607078 0.11219418
-0.018638594 0.1836847 -0.06974343 -0.08924427 0.017103167 0.17461868 -0.109882824 -0.20916778
-0.14935245 0.042684298 -0.08036161 -0.25974932 -0.16040042 0.08322412 0.03487265 0.11306224
0.1462673 0.13248742 0.15161136 -0.010421409 -0.05704371 0.20434718 -0.3990911 -0.1404194
-0.1245374 -0.10678694 0.035065196 -0.36556932 0.023985129 0.007700953 -0.04809371 0.13007219
0.010136455 -0.066757575 -0.21114846 0.020248873 -0.14293122 -0.07237919 0.099640995 -0.21732967
-0.056063917 0.23939346 0.008962589 -0.058234435 -0.2241041 0.03611788 0.20388523 -0.15305251
-0.32572228 -0.16249737 -0.017580401 -0.2613413 0.014435011 -0.015078629 0.033231143 0.14623034
-0.26367825 0.087295726 0.06728452 0.006182234 -0.2577935 -0.14870615 -0.19749038 0.030722387
-0.15136644 -0.23568985 0.077942945 -0.043088194 -0.28164494 -0.03992643 -0.0489096 0.21390292
-0.30040774 0.22829787 -0.089152224 0.1760039 0.004025277 0.2763849 0.013974034 -0.16368654
0.06940076 0.12496325 0.26489472 0.18274675 -0.31950635 -0.297247 0.28370377 0.13911825
00000000: bc2e 27be e462 28be 2b7e 96bc 279b 78be
00000010: 4d50 773e b312 6abd 9c59 1fbe e11d a2bd
00000020: 7638 cabe 5690 33be cfe4 2b3e b600 8d3e
00000030: ac86 53be f417 99b7 113b 17be b52c b4be
00000040: a051 dabd 5414 88bd 49a1 0e3e a3b1 d23d
00000050: f265 7b3d 2bce 50be 0a50 acbe e6fc 083e
00000060: 6a6d 6cbe 76b4 2b3c 339b 363d 2362 b8be
00000070: 10fa 99bd 933b 023e 8986 743e 2f8e b1bd
00000080: 2959 dc3d 1ba1 8abc b0e6 b1be 7db2 7c3a
00000090: f45e d9bd cdb9 97bd b063 b83d 2419 343d
000000a0: 94aa 85bd 4ed1 dcbd 86b9 20be de13 1e3e
000000b0: d6a0 c93d 4984 ad3d dfff 8ebe 0b95 e9bd
000000c0: a8e7 17be f3ec c83d 72be 9c3b ec11 a4be
000000d0: dffd 313e c165 31be 8915 69bd a987 893d
000000e0: d1b3 41bd 0055 ad3c f5ef bcbd dca1 0fbe
000000f0: 3ed4 123d bc4b 9abe e126 4cbe 3c1e b83c
00000100: 4a14 033d 6581 0fbd 6552 be3d 7d43 a43e
00000110: 1a19 4bbc 030a fdbc 1bdd 893d 6f22 adbc
00000120: bd01 48bd 5c96 7c3e cd7e e93c 47b4 4f3e
00000130: 7cd4 ed3d 6650 77bc 8cec 803d af0d 8e3e
00000140: bfc7 2c3e 1883 143d 713f c73c 9642 c6be
00000150: 420a 0d3e 95ba 153d 37b3 6abd 53ff 653e
00000160: 2dbc 5bbd 5326 5f3e b4cf 3cbd 78cf 613e
00000170: 69da c7bb 9227 8cbe 1fe5 2d3d 23ca 79be
00000180: 1bd8 163e aef2 663d 50f8 513e 6afc 73bd
00000190: e6b7 423e f175 133e aabe 79be 7f52 bd3d
000001a0: 1e47 08be 9cf0 953d 3805 7abd 17dc 68bd
000001b0: 439b cfbd e3b2 683e 9d58 14be 2368 bb3d
000001c0: f080 5dbe 1b09 9e3e c3bc 8cbd 9a46 a03d
000001d0: e579 b13d ecdd c8bd b00f 22be 4783 c5bd
000001e0: e385 053d 2afc 11be 3e84 ddbd 47f7 b1be
000001f0: db06 3b3e 5c8e dbbe bc9f 903d 5c90 2abe
00000200: d9b2 87bc 6225 4a3d 632b 2dbd 829a 45bd
00000210: fce3 ae3d 7928 25be 3a67 df3c 66f0 ff3d
00000220: 6cf2 163e 59c4 f63c 2910 7fbe 2ad3 72bd
00000230: 39fd a8bd 0015 193e 3479 3c3e eb12 cdbd
00000240: 38d0 adbe 1320 e43d cb7f 9abd d991 a73c
00000250: 616d 8cbe dba2 b13d dfb8 b0bd a6f6 30be
00000260: 9bf6 453d 7ddc 47bd 93a8 6f3e c284 1d3e
00000270: ff33 a93c a273 80be 99b6 07be 4afd 053c
00000280: f508 9c3d 6a39 533e 774d 81be 0b6c 08be
00000290: 5f02 5d3e 28b4 5a3e 6e3a 88be 10c6 e53d
000002a0: f7af 98bc d817 3c3e a5d5 8ebd b3c5 b6bd
000002b0: f11b 8c3c 3dcf 323e 3f0a e1bd 1430 56be
000002c0: d9ef 18be bbd5 2e3d a194 a4bd ddfd 84be
000002d0: 0240 24be 6871 aa3d a0d6 0e3d 2d8d e73d
000002e0: 18c7 153e c8aa 073e 0240 1b3e 8fbe 2abc
000002f0: aaa6 69bd 6340 513e ab55 ccbe 1aca 0fbe
00000300: 770d ffbd 1cb3 dabd 86a0 0f3d e72b bbbe
00000310: 767c c43c 4758 fc3b e9fd 44bd a531 053e
00000320: 6013 263c 32b8 88bd 4d37 58be f7e0 a53c
00000330: 905c 12be 8a3b 94bd 9410 cc3d ab8b 5ebe
00000340: 47a3 65bd 8f23 753e d3d7 123c 3b87 6ebd
00000350: 8c7b 65be 58f0 133d 4ac7 503e ccb9 1cbe
00000360: 12c5 a6be b665 26be c604 90bc 87ce 85be
00000370: d380 6c3c 5b0c 77bc 611d 083d 68bd 153e
00000380: d600 87be 1ac8 b23d 77cc 893d 5694 ca3b
00000390: 82fd 83be 6d46 18be eb3a 4abe 84ad fb3c
000003a0: ceff 1abe ae58 71be 8da0 9f3d 3f7d 30bd
000003b0: c433 90be e589 23bd 6f55 48bd 5e09 5b3e
000003c0: 0bcf 99be ebc6 693e 7195 b6bd 5e3a 343e
000003d0: 79e6 833b 5282 8d3e 59f3 643c 729d 27be
000003e0: fc21 8e3d bbec ff3d 48a0 873e f721 3b3e
000003f0: 5696 a3be c230 98be 9f41 913e 0475 0e3e

linear01.bias f4 [128]
0.0501311 0.39240223 0.25338924 0.19225706 -0.08357494 0.07851692 0.3150956 0.1582841
0.0054533556 0.20138767 0.22809982 0.19535434 0.10800954 0.07738794 0.32275975 0.27553993
0.78219455 0.2307373 0.35466868 0.16356833 0.22586642 -0.031960614 0.13070434 0.23255315
0.2454589 0.14452365 -0.2164069 0.38732547 0.25813454 -0.4044551 0.10344431 0.029198961
0.07775135 0.39985648 0.38503042 -0.07760964 0.20983261 0.29498276 0.29844847 0.21650667
0.2046738 0.20211685 0.20293549 0.10066667 0.08982278 0.087988965 0.25600493 0.3306727
0.15921614 0.31292194 0.06251591 0.14370044 0.14361167 0.21380144 0.21906443 0.31680116
0.23317294 -0.06066757 -0.050593298 0.2735403 -0.00867673 0.10996204 0.19682023 0.28181547
0.00096538616 0.31451517 0.38323563 0.014755062 0.022846086 0.3311686 -0.004026763 0.06722136
0.21222964 0.106789045 -0.026184453 0.4252635 0.07460025 0.23041691 0.2792902 0.40385965
0.34732178 0.043046564 0.46687594 0.09263247 0.113126785 0.14096797 0.17537574 0.30861717
0.13860555 0.039731283 0.2341463 -0.14239325 0.018248828 0.30609524 0.21588632 0.48067066
-0.07493268 0.5630109 -0.05345653 -0.03526711 0.18052334 0.2626668 0.20789841 -0.0815917
0.6563808 0.16603072 -0.14458196 0.040950425 0.21613145 -0.004649028 0.09752377 -0.041434158
0.26097637 0.35358968 0.08915868 0.20567052 0.23877849 0.05128891 0.3224002 0.14390813
0.035380676 0.12907355 0.24733074 -0.24386252 0.37399304 0.20472553 0.1501408 0.2574141
00000000: 4556 4d3d f2e8 c83e 3cbc 813e 09df 443e
00000010: 5729 abbd 7bcd a03d 3654 a13e 3a15 223e
00000020: 10b2 b23b 9238 4e3e 0093 693e f80a 483e
00000030: 1b34 dd3d 917d 9e3d c440 a53e 9213 8d3e
00000040: e73d 483f 6646 6c3e 2297 b53e 757e 273e
00000050: 8749 673e 22e9 02bd 5cd7 053e 6a22 6e3e
00000060: 9459 7b3e 02fe 133e c599 5dbe 864f c63e
00000070: 362a 843e bd14 cfbe 9cda d33d a932 ef3c
00000080: 1a3c 9f3d fdb9 cc3e b522 c53e cef1 9ebd
00000090: 5cde 563e fb07 973e 3dce 983e edb3 5d3e
000000a0: 0296 513e b8f7 4e3e 52ce 4f3e 542a ce3d
000000b0: 01f5 b73d 8f33 b43d 1413 833e ef4d a93e
000000c0: 8e09 233e 4e37 a03e 5708 803d 3526 133e
000000d0: f00e 133e c4ee 5a3e 6d52 603e c333 a23e
000000e0: e3c4 6e3e 8f7e 78bd eb3a 4fbd 790d 8c3e
000000f0: d828 0ebc c733 e13d 3e8b 493e 1e4a 903e
00000100: f811 7d3a 2208 a13e 7637 c43e 37bf 713c
00000110: b727 bb3c ee8e a93e f0f2 83bb 5aab 893d
00000120: ba52 593e 37b4 da3d c780 d6bc 23bc d93e
00000130: 04c8 983d 69f2 6b3e 20ff 8e3e b1c6 ce3e
00000140: 29d4 b13e 9851 303d 5d0a ef3e 18b6 bd3d
00000150: 04af e73d e859 103e b395 333e 1203 9e3e
00000160: 9dee 0d3e 45bd 223d 0cc4 6f3e 89cf 11be
00000170: 917e 953c 84b8 9c3e 4e11 5d3e 771a f63e
00000180: 4e76 99bd 7b21 103f 3cf5 5abd 3f74 10bd
00000190: 1cdb 383e 437c 863e 52e3 543e 8d19 a7bd
000001a0: 9208 283f f503 2a3e 4b0d 14be a2bb 273d
000001b0: 9051 5d3e e056 98bb 8bba c73d ddb6 29bd
000001c0: b29e 853e b509 b53e d398 b63d 4b9b 523e
000001d0: 5982 743e 5214 523d a411 a53e a75c 133e
000001e0: 54eb 103d db2b 043e 4544 7d3e 19b7 79be
000001f0: 047c bf3e 92a3 513e 83be 193e c8cb 833e
