weights/4. triplet loss model - models/2. 456 epochs/conv2Dfeatures_last.pt (torch, 21655 bytes, 6 tensors)

conv00.weight f4 [4, 1, 5, 5]
00000000: 4435 e23c 8659 2cbd ebfe 00bd c739 b4bd
00000010: 47cf ddbd 6fec 5c3d 01e6 a9bd 8621 38be
00000020: 1e24 52be 61d4 60be 0e6a 213e 1e47 a33d
00000030: 4945 ee3c 571f 14be a040 16be 96d9 c83d
00000040: a6a6 69bc abb9 2abd 34c1 fa3c d490 28bd
00000050: 4ff2 6e3d e5e8 993a f35d 6b3d 6c66 57bd
00000060: d67c f73c 3308 503d a87f afbd 7b1b 0dbe
00000070: a21a 17be 0844 3bbe 1d81 653c a784 79bc
00000080: f906 69bc 5abf 0ebe 10ce fabd 6013 b8bc
00000090: 1f94 fb3c d40a 253d ee28 253d 4ebb c53d
000000a0: fa4a 113d 712d 0d3d 4aee d63d ddff 093e
000000b0: e2b7 053e 8fff 74bd 0c4f 603c 4fad 9a3d
000000c0: 742a 8c3d 89e6 533c 25a4 c9bb 6020 0d3d
000000d0: ace9 cd3c e4d5 373d e793 663d b811 493d
000000e0: 6003 af3c f0d7 453d 2063 e13c 10e3 b63c
000000f0: 8cc9 a73d 2d20 493d c931 8a3d 5077 773d
00000100: a5e7 ec3c 3dd5 903d 00d8 753d ce01 5d3d
00000110: 5763 783d 0c72 883d 9642 b83d b63a 3c3d
00000120: 4746 3a3d 3c02 693d a211 233c bb81 64ba
00000130: 01d9 31bd 1966 71bd 500a d2bc b458 bbbc
00000140: 05e1 b6bc c89f a9bd 722e d8bc 5127 51bd
00000150: 42be 4bbc 8f5c ecbd 069e 8ebd 55d5 98bd
00000160: b290 143b 2b52 d0bc aed6 9fbd bc56 53bd
00000170: 5b65 53bd cd27 c1bd a40a 1e3c a8ca 3dbd
00000180: 3d38 34bd fcc7 f5bc 0aa8 7abc 5c8e 7f39
0.02761329 -0.042077564 -0.03149311 -0.08800083 -0.10830551 0.05393642 -0.08295823 -0.17981538
-0.2052159 -0.21956016 0.15763113 0.07972549 0.029085772 -0.1446508 -0.1467309 0.09807126
-0.0142609235 -0.041680973 0.030609705 -0.041153744 0.058336552 0.0011742382 0.057462644 -0.05258791
0.030210894 0.05078907 -0.0856927 -0.13780014 -0.14756253 -0.1828767 0.014007834 -0.015229381
-0.014222854 -0.13940182 -0.122463346 -0.022470176 0.030710278 0.04029353 0.040322237 0.09654866
0.035471894 0.034467164 0.10494669 0.1347651 0.13058427 -0.059814032 0.013690721 0.07552587
0.06844035 0.012933382 -0.0061536008 0.034454703 0.025135837 0.044881716 0.056293394 0.049089164
0.021363914 0.048301637 0.027513087 0.022325069 0.08192739 0.04910295 0.06747777 0.06041652
0.02891905 0.07071922 0.060020447 0.0539568 0.060641613 0.06662378 0.08997075 0.04595443
0.045477178 0.056886896 0.009952934 -0.0008716841 -0.04341984 -0.05893526 -0.025639683 -0.022869445
-0.022324095 -0.08282429 -0.026389334 -0.051062886 -0.012435498 -0.11541092 -0.06963734 -0.07462565
0.0022669253 -0.025429806 -0.07804619 -0.05159639 -0.051610332 -0.094314195 0.009646092 -0.046335846
-0.043998946 -0.030002587 -0.015298853 0.00024371728

conv00.bias f4 [4]
00000000: c0f9 67bf 552f fd3c d28d b7be 3fff f23d
-0.90615463 0.030906359 -0.35850388 0.118650906

conv01.weight f4 [16, 4, 5, 5]
00000000: 1dd5 7f3d 84a8 2e3d 073b 82bd b19e f73d
00000010: 67fc 08bc f396 d03d 8baa 453e 00e1 403e
00000020: 9ec9 013d 7a4b 15be b360 673d 587d 9f3d
00000030: baef 17be 458e bbbd ef4a b7bd 3e61 06bc
00000040: 951f 6ebe c2a4 9dbd ff2a 73be 3322 afbd
00000050: 37f8 50bb a210 f3bd 6a68 143d a4d8 1f3c
00000060: fb57 1cbd 3eef 38be 1511 07bd afcb 333c
00000070: 0445 b9bc e79c a3bd 9dc8 4a3d 74e8 283d
00000080: 04cd 8c3d dad2 3c3c da09 2e3d f848 063d
00000090: c351 7d3c e682 c1bd 4844 b7bc 7c45 0d3e
000000a0: 4a91 c7bd 8123 0c3e f0c2 523e ca69 3fbe
000000b0: 9196 bfbd 4d21 b53c c341 f73c 6290 ab3d
000000c0: 087b 2a3d fd3d 4b3e dbe7 16be 597d c93c
000000d0: e7dd df3d cd65 9e3d 39d4 d4bc 023f f4bd
000000e0: 0baf 63be e483 98bd 635f acbd f712 ddbb
000000f0: 2789 bc3d 2a0e f63c ecc9 13bd c0e6 f63d
00000100: 80b1 7d3e c536 20bc 96ac 633e 7536 fc3d
00000110: 17f4 043e 741f 8f3d 7eda 533d 2832 b73c
00000120: 4c82 6abd 7ae8 3abe d36b 4ebe f3b9 c03d
00000130: 5c79 d83d 4721 06be a54f 863d 751e d23c
00000140: 39e9 1a3d 97c8 48bc d71e fb3d 0f96 093d
00000150: 8fe0 c33c 80d3 92bc 4c65 03bd ee9c 9dbd
00000160: b92b b1bd 8d96 63be a051 813c 9912 05be
00000170: da18 e0bc 061b 8cb9 c58c a2bd 581e 9f3c
00000180: 757d 843d dfa7 20bc e159 063e c08c 293e
00000190: a942 cf3d 8738 bc3c 23a3 4e3e 544c 80be
000001a0: d0e3 cd3c 10f2 78bd b302 8ebd 71b6 53bd
000001b0: 7b34 51be 5d62 d1bb 952c 39be 80c0 f1bd
000001c0: 5b19 06be 87ff 7b3c 8527 15be 2eb7 8c3d
000001d0: 6460 bdbd b23f 5a3e 268d 123d 207c f53d
000001e0: f0df 9e3d d860 2f3e e882 d63d 2e0f eebd
000001f0: 3084 e63c bfe2 8fbd 37cc 28bd fd25 b3ba
00000200: 0161 17be 7fa8 88bd 717b 493d ded6 5c3c
00000210: 4bbb 0e3e 3c93 1c3d 981f 703d 513b 0b3d
00000220: 2992 793e c8b8 b4bc e127 99bd ed90 2dbc
00000230: f611 58be fd8a b93d 5c95 5abd cd74 fa3c
00000240: 5f46 a6bd 1951 b7bc 7875 ae3d 80d6 84bd
00000250: 66c1 6dbd e48e 6c3d e5eb 9cbd 6203 643e
00000260: 5767 fd3d 7d06 fd3d 1576 f13d b027 9bbd
00000270: c8e6 23bd ea89 353c f9c6 a0bc 4642 e6bb
00000280: 0441 463d 7da1 763e 9de0 4f38 5f34 7f3c
00000290: ef01 54bd ba4e 85be 60f4 c5bd 0a2f 42be
000002a0: ffbf ecbc c70f 3bbe 867d 99bd f8ce b4bd
000002b0: f8c2 05be 1993 da3d a2ea e93d ed30 e2bd
000002c0: 705d 45be e825 b9bd cadd dabd bc0b 4ebe
000002d0: f902 e2bc 675f a2ba 69b1 5f3d 8d06 363c
000002e0: 3a85 13be f022 6d3d 91df f7bd 6899 a9bd
000002f0: 1fa0 05bd 42eb d93d da08 583e 33cf 183e
00000300: 1b73 6ebc eab2 243d d4f8 6b3e 2cee a73d
00000310: eebe 003e aecd 373e 74d8 14bd 7b4d 3abe
00000320: c3d7 98bc 3709 253d a5fc 5f3e 2f80 92bd
00000330: c7e6 56bd e3f5 2dbe d8a6 53be 74e0 60be
00000340: a433 b3bc 3fbb 53be df18 303e 5225 cf3d
00000350: a391 723d ce4d 1a3e 8ba5 a0bc 608c 7ebd
00000360: 5483 67bd a57f 83bd 7696 1c3e ecda ec3c
00000370: 212b 343d e77e c53d ed8c 01be 56f4 6fbd
00000380: ac13 ee3c f866 b33d 3be7 e73d 1534 533e
00000390: cf9a 58bd 43d6 0ebd 495f 503c 3d68 903c
000003a0: 1f88 35bd ddc0 21be 6951 21be a1c2 c73d
000003b0: e5a6 e13d d8a7 b8bd 3aed c6bc 51dd 5a3e
000003c0: e6ed 3d3e c4d8 1b3e 101d 213e 5da0 cc3d
000003d0: 1a4d a1bc 717a 8d3d 3afe 5a3d 095e 80be
000003e0: a90e 4c3d 87d5 7abc b8c3 f1bc 12e2 03bd
000003f0: 3002 47be 5f9a bebd 174e 1fbd b364 a03d
0.0624591 0.042641178 -0.06358915 0.12090815 -0.008360959 0.10185041 0.19303338 0.1883583
0.031686418 -0.14579573 0.056488704 0.07787579 -0.14837542 -0.09157995 -0.08949839 -0.008201895
-0.23254235 -0.07697441 -0.2374687 -0.08551445 -0.0031886229 -0.11868407 0.03623239 0.009756241
-0.038169842 -0.18060014 -0.032975275 0.010973855 -0.022615917 -0.07988911 0.049507726 0.04123731
0.06875041 0.01152488 0.042489864 0.032784432 0.015461388 -0.09448795 -0.022371426 0.13796037
-0.097445086 0.13685419 0.20582175 -0.18692699 -0.0935489 0.022110606 0.030182725 0.08377148
0.041621238 0.19847865 -0.14736883 0.024595903 0.109309964 0.07734261 -0.025980102 -0.1192608
-0.22234742 -0.07447031 -0.08416631 -0.0067466456 0.09205847 0.03003605 -0.03608124 0.12055731
0.24774742 -0.009778683 0.22233805 0.12315074 0.12983738 0.06988421 0.051722042 0.022362784
-0.057253167 -0.18252745 -0.20158319 0.09410467 0.105700225 -0.13098632 0.0655816 0.025649289
0.037820075 -0.012254856 0.122617416 0.033590373 0.023910789 -0.017923117 -0.032079026 -0.076959476
-0.086509176 -0.222254 0.015785992 -0.12995376 -0.0273556 -0.00026723015 -0.07937006 0.019423649
0.064692415 -0.009805649 0.13120224 0.16557598 0.10120136 0.022976173 0.20179419 -0.25058234
0.025133044 -0.060777724 -0.069341086 -0.05168766 -0.20430176 -0.0063898996 -0.18083413 -0.118042946
-0.1309561 0.015380747 -0.14565857 0.06870876 -0.09246901 0.2131336 0.03577914 0.119865656
0.077575564 0.17126787 0.10474187 -0.11623989 0.028139204 -0.0702567 -0.04121038 -0.0013667938
-0.14783098 -0.06672763 0.04918999 0.013478963 0.13938634 0.03822635 0.05862388 0.033992115
0.24372162 -0.022060767 -0.074783094 -0.010593635 -0.21100602 0.09059713 -0.053365096 0.030573273
-0.08118891 -0.022377538 0.08518499 -0.06486225 -0.058045767 0.05775346 -0.07662181 0.22266915
0.12373226 0.12354753 0.117901005 -0.07575929 -0.040015012 0.011080245 -0.019626128 -0.0070269434
0.048401847 0.2408504 4.9561833e-05 0.015576451 -0.051759657 -0.26036626 -0.096657515 -0.18963256
-0.028900145 -0.18267737 -0.07494645 -0.08828539 -0.13062656 0.10672588 0.11421706 -0.11044488
-0.19273925 -0.09040433 -0.10686834 -0.20121664 -0.027589308 -0.0012388051 0.05461255 0.01110996
-0.1440629 0.057894647 -0.12103189 -0.08281213 -0.032623406 0.10640575 0.21097127 0.1492279
-0.0145538105 0.04020969 0.23044139 0.081997246 0.12572834 0.17949554 -0.03633924 -0.18193619
-0.01865757 0.04029199 0.2187372 -0.07153355 -0.05246618 -0.1698833 -0.20669115 -0.21960622
-0.02187521 -0.20676897 0.17196988 0.1011454 0.05922092 0.15068743 -0.019610187 -0.06214559
-0.05652173 -0.06420831 0.15291771 0.028912984 0.043986443 0.09643345 -0.12651415 -0.058582626
0.029062115 0.08759874 0.113234006 0.20625336 -0.052882012 -0.034872305 0.01271803 0.01762783
-0.04431927 -0.15796228 -0.15753712 0.097539194 0.11018161 -0.09016389 -0.02428304 0.21373488
0.18547782 0.15219408 0.15733743 0.09991524 -0.019690085 0.069081195 0.053465106 -0.25071743
0.04981867 -0.015309698 -0.029512271 -0.03219802 -0.19434428 -0.09306788 -0.03889283 0.07831707

conv01.bias f4 [16]
00000000: a19b 2cbc 38af 08bc 3ecc 18be 4af8 1bbc
00000010: 6de6 1cbe fbaa 86bd dde8 9e3d 4102 523e
00000020: 0b58 e43d 50c7 4fbe 6e3e 7abd 97ca 083f
00000030: 89cc 54bd 4aec 423e 5bfd 0e3e 76ca 003f
-0.010535152 -0.008342557 -0.14921662 -0.009519646 -0.15322275 -0.06575581 0.07759259 0.20508672
0.11149605 -0.20290875 -0.061094694 0.5343413 -0.051952872 0.1903545 0.13963835 0.5030893

conv02.weight f4 [22, 16, 3, 3]
00000000: 50c3 23bd a87f 0fbe 38ca 463c f080 5a3e
00000010: 2d7c 523e e437 063e 38fd 9ebd e7ae 843d
00000020: 2fdb e33d 8c91 02bd 8d82 88bc ef96 143e
00000030: cb09 97bd a7eb 95be f854 e63d 1050 bcbd
00000040: f19b 523d cc51 19be 5783 9b3c 8f90 073d
00000050: 91e7 babd 1a60 afbb cb80 183e 74be 46be
00000060: 3d54 9bbc f427 c13d 0524 503e 5ffc 9a3a
00000070: e735 5a3d ed10 b63c 6a87 043d cdf8 203e
00000080: 929c 92bd 27ca f03d 69cc 183c ca9b 353d
00000090: 4fbf 523d 9d40 e9bc dc01 9fbd 4dc9 d73d
000000a0: 13a9 3ebc d668 30bd 1983 a03d 1e27 083e
000000b0: 1eb5 723d a5be cdbd ef04 c6bd 7a28 ec3d
000000c0: 10f4 2e3e a2ce a33b ddf4 a53d 5554 03be
000000d0: 4353 72be 7502 cb3c 5bf4 4a3c b267 da3c
000000e0: 2832 90bd 556c 1fbe 41e7 2fbd 284a 4bbd
000000f0: 90b2 d6bb 1aed 19bc 0c05 cd3c fb05 d73d
00000100: 45f1 c8bd 0498 2bbe 253b b4bc a9f8 153e
00000110: 8029 793c d6ad 753d abff 5d3d 3096 8f3c
00000120: 6d85 0bbe ec9f e13b 8153 f3ba 4192 a43b
00000130: 2116 4ebe 47f7 f13d 038a 9d3d 2ac5 2dbd
00000140: 3fd6 423e a744 3abc cb8c 60be e0d3 11be
00000150: 9bff 0f3d 6e78 8b3c 4d7a 2ebe 3b6a 13be
00000160: 094e 89bc 9f36 613d 1e86 5ebd f162 8dbd
00000170: 2cc7 363d e06d f23d 73c9 40be ebc7 36be
00000180: 8da0 d03b 4220 61bc 1f33 1fbe a11c fabd
00000190: a785 ab3a 07e2 9bbd 028c f7bd e256 4ebe
000001a0: 8205 e9bb f181 953d 941f db3d 327e 0d3e
000001b0: e285 913c 5a65 3fbd e3a5 cf3d 9506 353e
000001c0: 9c39 3b3e 70c2 5e3d ca56 c03d d7eb 933a
000001d0: 5f3a 943c fb81 a13d 0ae3 c23d 2b6e 993a
000001e0: 99f0 483d 46ef 37be 309c 093d 950f 02be
000001f0: 8266 21be 0e29 c33b 3265 97bc 40bd 72bd
00000200: b63a 213d bc93 ab3d aacc 25be 2b47 693e
00000210: 9cad cbbd 28ba 18bd 62c6 103b 5b4e 173c
00000220: e2b0 deba cfd1 c43c 5901 b7bd 1aab 8ebe
00000230: b2e0 c23c 15d1 ed3d a26d 4d3d e08c 923d
00000240: ad1f 8b3d 559a 0d3e 408c 053d 2c6e 6e3c
00000250: edfe 66bc 8260 b23c 1a8c 243d 9a2a cc3b
00000260: 3a83 bfbd 062b 86be 0056 0a3c 7c0b 3dbd
00000270: ac75 3cbc ffa8 203e f9ac 43bd ff92 56bd
00000280: fbde 603d 7be0 d2bc 8234 c9bc af99 4dbd
00000290: 9369 093d bfd7 d6bc 8f47 20bd cafd 18bc
000002a0: c23d 383b 784c f1bc b90c ae3d 4f92 bbbc
000002b0: de09 2d3d 75a2 5e3d c507 093c 34d5 58bd
000002c0: dd03 273d 933b 043e 47c1 92be 6456 b3bc
000002d0: 430e c0bc 76f9 36bb fe8a da3d 0b51 763d
000002e0: 15fd 3a3d 3a75 4abc fd8f d33d c378 a0bd
000002f0: 2aae 1abd 37a9 e7bd bcec 0dbe 880c e33b
00000300: e368 e2bd fd8b 8bbd e8fc 71be ce91 c33d
00000310: d446 773e 2ecd 31be 173c 1fbe b06e b83d
00000320: 467c 5c3d eb05 2b3c b507 07be 8b52 343e
00000330: af27 7a3d 8303 5dbd 8a64 6abe 75db d73c
00000340: 2f8e 9dbd 2c52 043e 6de9 1cbd 1c0d c63d
00000350: e4f9 113e 6b1a 94be f5ef ecbd 340d a0bd
00000360: 5183 0a3e 1921 9d3d 3f3f a83d 75b3 e2bd
00000370: db1f 07bd 6c8e adbd 79b3 1fbd a491 193e
00000380: a5ca 003e 2441 193e 91f9 cf3d 191b 67bd
00000390: 5532 cdbd b82c c8bd 1eee 2c3d 307f 92bd
000003a0: 0773 4a3e 9149 fa3d 93a8 903a 0525 963c
000003b0: 32be 053e 23a8 743c 032f 23be b343 51bd
000003c0: 0f4b e73d 7f87 143e 7956 733e 9c25 d1bc
000003d0: 8778 36bc b3a7 b93d c131 63bd 9fc5 443d
000003e0: 727d 19bd daea 48be 8395 17be b438 dd3b
000003f0: 6090 a93c d5fa 9c3d d033 c53d 0875 bb39
-0.039981186 -0.1401354 0.012133174 0.21338248 0.20555182 0.13107258 -0.077631414 0.064786725
0.1112579 -0.031877086 -0.016663814 0.14510702 -0.07374915 -0.2928135 0.11246675 -0.09194958
0.05141825 -0.1497261 0.018983526 0.033096846 -0.09126199 -0.0053520324 0.1489288 -0.1940859
-0.018961066 0.094314486 0.2032624 0.001182448 0.05327406 0.022224868 0.032355703 0.1571991
-0.0715877 0.117573075 0.009326079 0.044338025 0.051451977 -0.028473193 -0.077640265 0.10536442
-0.01163699 -0.04306873 0.07837505 0.13296172 0.059254758 -0.10046128 -0.0966891 0.11531158
0.1708529 0.004998998 0.081033446 -0.12825139 -0.23664574 0.024781445 0.01238736 0.026660774
-0.070408165 -0.15568669 -0.04294515 -0.049631268 -0.006552048 -0.009394908 0.02502682 0.104991876
-0.098116435 -0.16757208 -0.022000859 0.14645638 0.015207648 0.059980236 0.054198902 0.01752767
-0.13625117 0.0068855193 -0.0018564315 0.0050223176 -0.20125629 0.118147425 0.07692339 -0.04242436
0.19027041 -0.011368907 -0.21928708 -0.1424098 0.035155874 0.017025199 -0.17038842 -0.14395992
-0.016760843 0.05498373 -0.054327123 -0.06903637 0.04462354 0.11837363 -0.18826847 -0.178497
0.0063667954 -0.013740601 -0.15546845 -0.12212492 0.0013086096 -0.07611471 -0.12087251 -0.2015033
-0.0071112523 0.07300175 0.106993824 0.13817671 0.017764036 -0.046727516 0.10139062 0.17678292
0.18283695 0.05438465 0.09391554 0.0011285496 0.01809424 0.0788612 0.095159605 0.0011705806
0.049057577 -0.1796237 0.033596218 -0.12701257 -0.1576176 0.005955822 -0.01848087 -0.059262514
0.03936263 0.083777875 -0.16191354 0.22781055 -0.09945223 -0.037286907 0.0022090902 0.00923499
-0.0016989971 0.024025826 -0.08935804 -0.27864915 0.023788784 0.11612145 0.050153382 0.07155776
0.06793151 0.13828404 0.032604456 0.014552634 -0.014098865 0.021774534 0.040172674 0.0062306644
-0.09351201 -0.262047 0.008443356 -0.04615353 -0.011502665 0.15689467 -0.04777238 -0.05238628
0.05490015 -0.025741806 -0.02456117 -0.050195392 0.03354795 -0.026225923 -0.039130744 -0.009337852
0.0028112982 -0.029455408 0.084985204 -0.022896914 0.04224574 0.05435415 0.008363669 -0.0529377
0.04077517 0.12913351 -0.28663084 -0.02189178 -0.0234443 -0.0027919686 0.10671042 0.060135882
0.045651514 -0.012357051 0.10330198 -0.078355335 -0.037763752 -0.11311572 -0.13859838 0.006928984
-0.11055162 -0.0681381 -0.23631632 0.095492944 0.24148113 -0.17363426 -0.15550266 0.09005487
0.053829454 0.010438423 -0.13186534 0.17609613 0.061073 -0.053958427 -0.22889915 0.026349762
-0.07693135 0.12921971 -0.03830855 0.09670469 0.14255482 -0.28926405 -0.11569206 -0.07815018
0.13526656 0.076723285 0.08215188 -0.11069385 -0.032989364 -0.084744304 -0.038989518 0.14996964
0.12577303 0.14966255 0.10155023 -0.056422327 -0.10019366 -0.097741544 0.042219274 -0.07153165
0.19770442 0.12221063 0.0011036567 0.0183282 0.13060835 0.014932665 -0.15935902 -0.051089954
0.11293613 0.14504813 0.23763455 -0.025530629 -0.011137134 0.09065189 -0.05546737 0.04804003
-0.03747315 -0.19620839 -0.14803128 0.0067511443 0.020698726 0.0766503 0.09629023 0.00035754615

conv02.bias f4 [22]
00000000: 72c2 8fbe f81f 8cbd fb57 0fbe 08e9 a7bd
00000010: 6329 cebd ade3 9dbe e272 063c 93cc 4bbe
00000020: f338 83be db1d adbc bc0b 1cbe 37e5 dfbd
00000030: ac41 c43c 94b4 07be 1f04 5abe 88f7 15be
00000040: 4b88 84be 5571 96be ccc8 3dbd c724 9abe
00000050: 9ab1 fbbe 2a67 9abe
-0.28078038 -0.06842035 -0.13998406 -0.08198744 -0.10066488 -0.30837765 0.008206101 -0.19902258
-0.25629386 -0.0211324 -0.15238851 -0.10932391 0.023957096 -0.13252479 -0.21290635 -0.14645207
-0.25885233 -0.2938334 -0.046334073 -0.30106184 -0.49158937 -0.30156833
