weights/4. triplet loss model - models/2. 456 epochs/fully_connect_best_var.pt (torch, 533316 bytes, 10 tensors)

linear00.weight f4 [256, 352]
000000 63 bf dd 3d 49 61 de 3d 0d d8 61 bb f9 5c 53 3c
       0.1082752 0.108583994 -0.0034461052 0.012900584
000010 04 73 3f be bd a3 c4 3b 6c 62 9f bd 9a c3 15 bc
       -0.18696219 0.0060009644 -0.07782444 -0.009140873
000020 d8 a9 af 3d b6 2f 2c be 7e 70 bb bd 73 bf 25 3e
       0.08577317 -0.16815075 -0.091523156 0.16186313
000030 f6 e3 aa bd dd 2e 87 bc 2b 1c 2a bd 33 9f 4c 3e
       -0.08344261 -0.016501838 -0.04153077 0.19982605
000040 64 c4 38 be 5d da 28 ba d0 f7 ce 3d 99 b1 41 3e
       -0.18043667 -0.000644123 0.1010586 0.18915404
000050 d6 b9 e9 3d ef 6b af 3d 34 60 15 3d c7 8c 98 3d
       0.114123985 0.085655086 0.0364687 0.07448726
000060 bd 63 66 3d 57 e2 13 be c8 96 9a 3d 78 75 18 bd
       0.05624746 -0.1444181 0.075482905 -0.037221402
000070 8d 47 e8 3d d6 e6 3c 3d bf ab 07 bd c5 71 97 3c
       0.11341772 0.04611858 -0.033122774 0.018486867
000080 52 20 19 bd 22 f2 62 3c 36 86 91 bc cd c3 5a bb
       -0.03738434 0.013851674 -0.017764192 -0.0033380867
000090 a2 d0 76 bd 0e b7 70 bd 9e 18 65 bb 0a 17 a9 bd
       -0.06025756 -0.058768325 -0.00349573 -0.082563475
0000a0 56 29 64 3d d1 5a cd 3d 6e e7 17 bd cc e0 a7 bd
       0.055703484 0.100270875 -0.037085943 -0.081971735
0000b0 a1 bf 2a 3d 0a ac 89 3d 2a 4a 71 be 74 ae 87 bd
       0.041686658 0.06722267 -0.23563448 -0.06625071
0000c0 e0 78 22 bc a8 93 72 3d 12 66 d1 3c b4 98 67 bd
       -0.009916514 0.059222847 0.025561366 -0.056542113
0000d0 65 0e 9f bc d0 8c 7c bd c1 90 9c bd 6c ba e9 bd
       -0.019416044 -0.061657727 -0.07644797 -0.1141251
0000e0 9f 36 ef 3d 19 1d f9 bb 92 74 e0 bd ec c1 1b 3e
       0.1168034 -0.0076023457 -0.10959734 0.15210694
0000f0 55 08 d9 3b 03 f2 2c be e9 a3 f2 bd a8 65 15 3e
       0.0066233077 -0.16889195 -0.1184767 0.1458956
000100 f4 2b 6f bd 6e 9e a0 bc bf f1 17 3e a6 cf 94 bc
       -0.058391526 -0.019606795 0.14838313 -0.01816542
000110 98 95 6e 3d bd f3 b3 3c 4a f2 72 bd bf 04 36 3e
       0.058248132 0.02196681 -0.059313096 0.17775248
000120 7b ca 19 3e 9e e4 3b 3d be c6 12 bd 48 87 76 3b
       0.15018646 0.045872323 -0.035834067 0.0037617255
000130 a3 1a 35 3d a9 4e af 3d 1d f2 02 be ed e0 de 3d
       0.044214856 0.08559925 -0.12787671 0.10882745
000140 c8 2f 5b bd 0a cd 38 bd 0b 33 17 3c 44 6a d1 3d
       -0.053512365 -0.045117415 0.009228478 0.10225347
000150 9d 68 67 3c e0 ac 31 3b b3 15 b0 bd 0f c5 7d 3c
       0.014124063 0.0027111098 -0.08597889 0.015488877
000160 58 0b 2b 3e a4 b5 5b bc 22 0d 2b 3d b4 c7 a0 3c
       0.16703546 -0.013410006 0.04176057 0.019626476
000170 79 d7 d8 bc 6e 5f c5 bd e5 29 1b be 31 25 a8 3d
       -0.026469933 -0.096373424 -0.151527 0.08210219
000180 03 a9 bc 3d ad 31 7c bc c0 7f 91 bd f1 1f 08 bd
       0.09211924 -0.015392703 -0.071044445 -0.033233587
000190 28 5a cf bc 30 bc a2 bd 39 bb 93 bb 64 77 d6 bc
       -0.025311545 -0.0794605 -0.0045084027 -0.026179977
0001a0 ff 62 6e 3c 6f c9 8a 3c c8 1d 8d 3d c8 28 73 3d
       0.01454997 0.016941754 0.06890446 0.059365064
0001b0 ab cb 19 3e a6 92 0e 3d 51 01 e1 3d fb 2c ac 3d
       0.150191 0.034807824 0.10986579 0.08407017
0001c0 f9 35 dd 3b c3 a8 91 bd 21 f2 43 3d b8 aa e0 bb
       0.006750819 -0.07112267 0.047838334 -0.0068562888
0001d0 1f 5b ec 3d 4b d8 0d 3d 28 8a be 3d d5 1a 23 3e
       0.115408175 0.0346301 0.09303695 0.15928204
0001e0 b2 6f b1 3d d8 7d af 3d f9 79 3f 3d 34 30 e9 bc
       0.08663882 0.08568925 0.04674718 -0.028465368
0001f0 9e 66 d4 3d b8 ce f7 bd d2 f2 c1 3b 6c dc 0f 3e
       0.10371135 -0.12099975 0.005918839 0.14048928
000200 96 6c b2 bc 52 f0 05 bd f2 c5 98 bd 40 16 c3 bc
       -0.021780293 -0.03269989 -0.0745963 -0.02381432
000210 67 ba 28 bd d9 ee d1 3a f5 4f 17 3b a9 b7 bb bc
       -0.041193392 0.0016016617 0.002308843 -0.022914724
000220 cd 40 26 3d a1 b3 10 be fc 9b ad 3d 9f 02 3c bd
       0.040589143 -0.14131023 0.08477017 -0.045900937
000230 4f 54 a1 3d 49 e3 ed bd b3 9e b8 3d 2e 59 95 bd
       0.07877409 -0.11615617 0.090146445 -0.072924
000240 cc 77 67 bd 17 56 e0 bc 37 4c b8 bd 4b 17 a0 3c
       -0.05651073 -0.0273848 -0.08998912 0.019542357
000250 09 ef 1f 3d 63 1c 40 3d c2 4c 55 bd c9 27 e2 bd
       0.03904632 0.04690207 -0.052075155 -0.11042745
000260 04 70 87 3c 9d 2b 19 3c 8a ee c8 bc 60 c4 88 bd
       0.016532905 0.009348777 -0.024527807 -0.066780806
000270 67 4c d5 3c 6d 97 ac 3d 71 24 30 3d b2 a1 b7 bc
       0.026037408 0.0842732 0.043003503 -0.02241597
000280 79 fb fc 3d 45 53 74 bd 58 2e c7 3d c6 fa ee bb
       0.12352652 -0.059649725 0.09725636 -0.007293078
000290 69 b6 94 bd f9 d6 81 bd 93 cf 14 be e5 7c bb bd
       -0.072613545 -0.06339831 -0.14532308 -0.09154681
0002a0 5b ec b5 3d 3c fd 39 bd 0a a9 e7 bc b3 d6 44 3d
       0.08882972 -0.04540752 -0.028278846 0.048056316
0002b0 c4 c2 74 3e 1e c7 88 bb f3 e5 72 be ed 93 48 bc
       0.23902422 -0.0041741272 -0.23720531 -0.0122422995
0002c0 b7 57 cd bc f7 58 fa bc a1 2c 30 3d ea 7c f6 bd
       -0.02506624 -0.03056 0.04301131 -0.12035544
0002d0 e5 41 0a be 99 0c 0d bd d9 6b ab bd 38 a1 af bd
       -0.135017 -0.034435842 -0.0837018 -0.08575672
0002e0 29 5a a1 3d 8b 2c ba bc 2c 65 8f bb 52 a6 db 3d
       0.07878525 -0.022726318 -0.0043760743 0.107250825
0002f0 8d 17 af 3d 2a 22 b4 bc b7 77 3a be 40 9a 36 be
       0.08549414 -0.021988947 -0.1820973 -0.17832279
000300 37 ce a6 3c 00 10 88 bc b6 01 64 3e 53 a8 1e 3e
       0.020362003 -0.016609192 0.22266278 0.15493898
000310 09 2f e5 bc 2d dc d3 bc ca cd 37 3e e2 0d 6b bd
       -0.02797653 -0.025861824 0.17949596 -0.057386287
000320 18 da dd bb 0d 26 a9 be 12 5e 33 bc 28 20 7a bc
       -0.0067703836 -0.33036843 -0.010947721 -0.015266456
000330 3c cf 68 bc fe 13 27 3e 23 0d 0f be 1e e0 06 3e
       -0.014209565 0.1631622 -0.13969855 0.13171431
000340 cd 7b 03 3e 80 76 e7 bd b1 5b bc bd 43 d9 f7 3c
       0.12840195 -0.11301899 -0.09197176 0.030254966
000350 14 2a 09 be 1e e1 59 bd 5a 7e e4 39 e0 48 b6 3d
       -0.13394958 -0.053193204 0.00043581688 0.089006186
000360 0c d9 16 be c1 28 88 be d9 d4 40 be 94 ab 24 bd
       -0.14731234 -0.26593593 -0.18831195 -0.040202692
000370 49 75 73 be 1b 26 e0 bd f3 9e 78 be d6 f1 f7 bc
       -0.2377521 -0.10944768 -0.24279384 -0.030266684
000380 67 db 87 3d 4d bf a8 3d 8c 82 81 bd 4e f7 07 3e
       0.066336446 0.08239613 -0.06323728 0.13277933
000390 a1 b1 33 bc 61 e6 56 bd 2f a7 3e 3d c9 20 48 bd
       -0.010967643 -0.0524658 0.046546157 -0.04885939
0003a0 20 11 7f bb 8b ee cd bc 22 90 61 bd 46 51 5e bd
       -0.003892012 -0.02513816 -0.055069096 -0.054276727
0003b0 1d c0 80 3e ce d2 53 bd f7 57 e9 3d 69 bf 98 be
       0.2514657 -0.05171471 0.11393731 -0.29833534
0003c0 7c eb 9d 3c 2f 25 85 3d 17 c1 50 bd 05 9e 60 3d
       0.019277327 0.06501233 -0.050965395 0.0548382
0003d0 a0 25 b8 bd 38 27 96 bd 9a 8c 88 bd 6e 65 ab 3c
       -0.089915514 -0.07331699 -0.066674426 0.020922389
0003e0 a5 d2 96 3c 81 af a0 bd 29 0c 51 be 71 c4 4e bd
       0.01841099 -0.07845975 -0.20414795 -0.05048031
0003f0 6b e5 53 3d 32 98 f6 bd 27 2e cd bd 29 1c 54 be
       0.051732462 -0.12040748 -0.100185685 -0.20713867

linear00.bias f4 [256]
000000 18 d4 7c 3c fa 51 00 3d bb 4a 33 bd 13 e4 6c 3d
       0.015431426 0.03132818 -0.04377244 0.057834696
000010 f6 38 23 bd 19 17 5e 3c 1d 6b 19 be 43 82 94 bb
       -0.039849244 0.013555312 -0.14982267 -0.00453213
000020 9d bb ba bd f2 6a 1f bd 41 23 8e bd 8f 13 b5 bd
       -0.09117816 -0.03892035 -0.06940318 -0.08841621
000030 ae f7 be 3c 05 b6 1a be 62 8e 0e be 50 44 5f bd
       0.023311462 -0.15108497 -0.13921502 -0.054508507
000040 14 51 c2 3b 8d 53 29 be 74 55 02 3d ca 4e 5a bd
       0.0059300754 -0.16535778 0.031819776 -0.053297795
000050 c5 8a 12 be 94 ed 8c bd 16 cc 44 bc 93 a7 e0 3c
       -0.14310749 -0.06881252 -0.0120115485 0.027423656
000060 d2 dd e8 bc 3a 73 a8 3d 97 02 af bb 0a 3a 04 bd
       -0.028426085 0.08225103 -0.005340885 -0.032281913
000070 1c 18 50 bd a2 c0 26 bd 57 af 41 bd 51 4d fa bc
       -0.050804242 -0.040711053 -0.047286358 -0.030554445
000080 7c c7 51 3d 91 e0 39 bd df 23 18 bd fe f3 6d bd
       0.051215634 -0.04538018 -0.037143584 -0.058094017
000090 aa 89 8d bd c6 4a 56 bc b8 e5 1c 3e 8c d5 f7 bc
       -0.06911023 -0.013079351 0.15322006 -0.030253194
0000a0 b4 7a f8 bd 66 a8 cd 3d 5d 26 18 bd 08 b0 10 be
       -0.12132779 0.10041885 -0.03714596 -0.1412965
0000b0 44 ae 31 bb 9f ff 03 be a7 39 ce bd f9 ab 71 bd
       -0.0027111927 -0.1289048 -0.1006959 -0.059001897
0000c0 f2 8e c3 3c b9 20 94 bd bb 61 1f bd 89 8d 0f 3d
       0.023871873 -0.07232804 -0.038911562 0.035047088
0000d0 3b 74 ab bd 38 ec 64 bd 31 cf 12 bd be 73 39 bc
       -0.083717786 -0.05588934 -0.035842124 -0.011319099
0000e0 e6 33 88 3c b3 1d 50 3c d3 24 fd bd fc 03 c2 bc
       0.01662631 0.012702393 -0.12360539 -0.02368354
0000f0 28 4f 7f bc a9 66 a1 3d 47 d8 10 be 29 76 f8 3b
       -0.015582837 0.07880909 -0.14145003 0.007582445
000100 5c 3c a4 bd 73 d3 9f bd 5c 6d 61 bd c3 63 61 3c
       -0.08019325 -0.078040026 -0.055035934 0.013756695
000110 31 55 5b 3c 10 ef ba b8 c4 4d a8 3d f9 99 b8 3d
       0.01338701 -8.9137e-05 0.082179576 0.09013743
000120 44 88 db bd 19 e9 b6 3c cd e6 29 bd d0 50 2a bb
       -0.1071935 0.022327946 -0.041479874 -0.002598811
000130 2d a8 fb 3c 54 fe a5 3d d4 e5 9c bd dd 86 04 bd
       0.03071984 0.0810515 -0.07661024 -0.03235518
000140 1e 51 f2 bc 72 ce d1 3c 6b c1 08 3d c6 0a b0 3c
       -0.029579695 0.025611136 0.033387583 0.021489512
000150 c3 e3 c8 bc 51 a5 d3 bc 2d ce 95 bb 21 74 14 be
       -0.024522668 -0.025835665 -0.004571697 -0.14497425
000160 63 d6 1d bd 1d 21 17 3d db 9b 37 bd 78 66 c3 bc
       -0.038534533 0.036896814 -0.04482637 -0.023852572
000170 c4 c6 08 3d ab 2c 5a bd 33 da d6 3c e4 29 f2 bc
       0.033392683 -0.053265255 0.026227092 -0.02956099
000180 b3 ee 16 3d 52 ff 0b bd e9 14 af bc 6a d5 55 bd
       0.036848735 -0.03417904 -0.021372275 -0.05220548
000190 18 76 78 bc dd c5 3e be 44 bc c2 bd b4 6e 97 bd
       -0.0151648745 -0.18630166 -0.09508565 -0.07394162
0001a0 38 66 04 be 88 3e 05 3c 03 f4 3b 3b ad 10 89 3d
       -0.12929618 0.008132584 0.0028679378 0.06692634
0001b0 d5 1b cb bb 41 d7 34 be 35 41 47 3d 45 6f 36 be
       -0.006198386 -0.17660238 0.04864617 -0.17815883
0001c0 ad 45 1a be 10 49 ed bb a3 7b ee bd 48 cd 42 bd
       -0.15065642 -0.0072413757 -0.116446756 -0.047559053
0001d0 e2 9f a5 3d 57 dc 8b bc d5 ba c9 bd e3 d3 e1 bd
       0.08087136 -0.01707284 -0.098500885 -0.11026742
0001e0 88 98 22 bc f9 c8 53 bd 71 50 25 bd d1 41 6d 3d
       -0.009924062 -0.051705334 -0.040359918 0.057924096
0001f0 8b b8 59 bd 78 a1 33 bd 1f 37 41 bd af 9f 8e bd
       -0.05315451 -0.04385516 -0.04717171 -0.06964051
000200 72 c5 00 bd 7a a7 73 bd c1 5a 17 be 9d 75 ad bb
       -0.0314383 -0.05948589 -0.14780714 -0.0052935616
000210 9f fb 42 bc 18 62 b8 3c 1c 4d 82 bd 8c 41 59 bd
       -0.011900811 0.022507712 -0.06362364 -0.053041026
000220 3f 0a 5d bd 3b 5b d3 bd b2 40 b0 bd f5 6a 83 bb
       -0.05396485 -0.10320135 -0.0860609 -0.004010553
000230 41 9c b6 bd 30 7f fb bd f9 29 1b bd 08 a5 b8 ba
       -0.08916522 -0.122801185 -0.037881825 -0.0014087269
000240 d8 d5 2c be 6c ec 1f be 62 5a 07 be 30 38 7b bd
       -0.1687845 -0.15617532 -0.13218072 -0.06133288
000250 e6 b6 63 bc ee 30 f6 3c be 4c c7 bd e6 62 9b 3d
       -0.013898587 0.030052628 -0.09731434 0.07587223
000260 c6 92 29 bd 87 b2 11 bc ed 14 f2 bd 1a 22 f0 3d
       -0.04139974 -0.008892662 -0.118203975 0.11725254
000270 a9 21 4d be e7 a6 18 3d 6c d6 9f bc ba 61 95 bd
       -0.20032372 0.037268545 -0.019511424 -0.072940305
000280 c2 a7 12 bb c8 b5 23 be 94 09 e0 bd 46 02 38 3d
       -0.0022377823 -0.15987313 -0.10939327 0.044924043
000290 9e ec a0 bd 8a 57 1b 3d 68 2c 2d 3c f3 b9 73 bd
       -0.07857631 0.03792528 0.010569669 -0.059503507
0002a0 5a 46 0a be b2 bc e5 3c f4 0e 51 bd 91 b2 bc 3c
       -0.135034 0.028044078 -0.05103965 0.023034366
0002b0 03 ae 79 bd 9a 23 a1 3a 42 31 0c 3d b5 69 9c 3d
       -0.060956966 0.0012293935 0.034226663 0.076373495
0002c0 5c 23 0f 3d b6 6c e4 bc c7 a0 e4 bd 92 5a a6 bb
       0.03494583 -0.027883869 -0.11163478 -0.005076715
0002d0 e2 c1 bc bd ea 5f 1b bc e8 83 3d 3d 8d f2 98 bc
       -0.09216668 -0.009483317 0.046268374 -0.018670345
0002e0 a4 c1 db 3d 30 78 65 3d fe ae 31 be 2e 36 74 3d
       0.107302934 0.056022823 -0.1735191 0.059621982
0002f0 2e ec 29 3d d9 da 02 be 1c 71 11 bd 76 8e 42 3d
       0.041485004 -0.12778796 -0.03550826 0.047499143
000300 eb 92 41 bd 19 e9 c0 bd fc 6a b1 3c b4 e9 69 bd
       -0.047259253 -0.0941946 0.02165746 -0.057107642
000310 6e 0f f5 3d 43 33 c8 3c fb d2 27 3d 8b 35 18 3d
       0.119658336 0.024438506 0.04097269 0.037160438
000320 0e 91 ed bd d2 a6 93 3d df 8c a8 bd 7b e3 42 3d
       -0.115999326 0.07209553 -0.08229994 0.047580224
000330 95 71 94 3d 5c b4 50 3c c4 61 31 bc e8 d3 de bc
       0.072482266 0.0127383135 -0.010826532 -0.027200654
000340 22 93 12 bc c0 13 94 3d b9 f8 58 bb 9d 48 8d bd
       -0.008946212 0.072303295 -0.0033107235 -0.068986155
000350 5a b0 c0 3c 22 7a 18 bd 70 f1 c1 3b 0d f0 ad bd
       0.023521591 -0.03722585 0.005918674 -0.08493052
000360 4d 13 1f 3d 17 28 89 bd fb de e5 3c dd 42 0c be
       0.038836766 -0.066971 0.028060427 -0.13697381
000370 e3 42 7e 3d 73 67 a5 bd 5d e6 af bd 3d de 43 bd
       0.062075507 -0.08076372 -0.0858886 -0.047819365
000380 9a 34 78 bc 15 a4 6f ba aa f1 ab bd 89 22 03 be
       -0.01514926 -0.00091415766 -0.08395703 -0.12806143
000390 d6 49 47 bd 63 68 cd bd e0 7d 0c be c6 2a 17 3d
       -0.0486544 -0.10029676 -0.13719893 0.036906026
0003a0 0f 79 f8 bd 3f 04 bd bb 31 85 33 bd 8e 70 01 3d
       -0.12132465 -0.0057683284 -0.043828193 0.03160148
0003b0 57 b5 e9 bd 92 ed 5e bc 17 f7 e0 bd 6c 81 a2 bc
       -0.11411541 -0.013606446 -0.10984629 -0.019837104
0003c0 a4 d9 86 bd 56 cf 98 bd 92 9a 17 be 86 80 c7 3d
       -0.065844804 -0.07461421 -0.14805058 0.09741311
0003d0 79 8f 08 3c cb 88 f7 bc f4 d8 c2 bd 64 f5 fd 3c
       0.008334988 -0.030216595 -0.09514037 0.0310008
0003e0 b6 cd 6d 3d f1 a6 8b bc 78 1b 41 bc 95 39 88 3c
       0.05805751 -0.017047377 -0.011786334 0.01662902
0003f0 a5 c1 c7 3d de 61 d2 3c 94 b9 95 bd 75 2d ac bc
       0.09753732 0.025681432 -0.07310787 -0.02101777

batch_norm00.weight f4 [256]
000000 57 bc fd 3f 64 9b f2 3f ba 3a 00 40 68 fb ee 3f
       1.9823102 1.8953671 2.0035844 1.8670473
000010 a7 83 fe 3f 51 ae fb 3f ea fd 00 40 35 bd f7 3f
       1.9883927 1.9662572 2.0154977 1.9354616
000020 f5 2e f1 3f 15 be f6 3f 6d 1a ef 3f 6b ce f7 3f
       1.8842455 1.9276758 1.867994 1.9359869
000030 0a 19 f9 3f 06 d6 fb 3f 5e 78 fa 3f d0 d7 f2 3f
       1.9460766 1.967469 1.9567983 1.8972111
000040 be 99 f2 3f ac c5 e6 3f 0b d1 f6 3f 1c c2 eb 3f
       1.8953168 1.8029075 1.9282545 1.8418612
000050 c2 3a fc 3f 58 6f db 3f d4 a0 f0 3f 17 fd f0 3f
       1.9705431 1.7143354 1.8799081 1.8827237
000060 38 60 fb 3f 52 a7 f0 3f 71 be 00 40 b5 db f8 3f
       1.9638739 1.8801062 2.0116236 1.9442049
000070 7a 20 00 40 ec 72 f5 3f 38 79 fa 3f bc be ed 3f
       2.0019822 1.9175696 1.9568243 1.8573833
000080 66 6a f6 3f 00 4c ed 3f 30 80 fa 3f ad 79 ef 3f
       1.925122 1.8538818 1.957037 1.8709008
000090 33 d4 eb 3f 95 bc ec 3f cc 89 f6 3f 6b d1 f7 3f
       1.8424133 1.8495051 1.9260802 1.9360784
0000a0 7f e9 ee 3f 61 cf ed 3f 95 0e fd 3f c8 49 04 40
       1.8665007 1.8578912 1.9770075 2.0670033
0000b0 4d a8 06 40 6f 6b f8 3f 04 c3 ef 3f 8b 3d e5 3f
       2.1040223 1.9407786 1.8731389 1.7909406
0000c0 c7 56 f0 3f 55 bb da 3f 70 61 fe 3f d6 c6 e8 3f
       1.8776482 1.7088419 1.9873486 1.818568
0000d0 d1 b2 ed 3f 09 ca e6 3f 5a 64 e1 3f f4 1f fe 3f
       1.8570195 1.8030406 1.760875 1.9853501
0000e0 37 75 dc 3f 17 9b e8 3f 67 7e f4 3f 3d f6 f7 3f
       1.7223271 1.817233 1.9101075 1.9372021
0000f0 8c 46 e5 3f c8 c0 ef 3f e9 d4 fb 3f cb d5 f7 3f
       1.7912154 1.8730707 1.967435 1.936212
000100 da 16 f9 3f 0b f5 f8 3f c9 92 f0 3f 7f 40 02 40
       1.9460099 1.9449781 1.8794795 2.0351865
000110 d6 cf ea 3f a1 ae e8 3f 44 0c e8 3f bd 2f ff 3f
       1.8344676 1.8178293 1.8128743 1.9936444
000120 dd ff f3 3f 22 1b 02 40 ac 76 e6 3f 2d 39 ec 3f
       1.9062458 2.032906 1.8004966 1.8454949
000130 f1 98 01 40 a8 0c f8 3f cd d1 ea 3f a3 21 01 40
       2.0249598 1.9378862 1.8345276 2.017678
000140 6b e7 ec 3f f7 e4 dc 3f c5 5d 00 40 12 88 ec 3f
       1.8508123 1.7257375 2.0057232 1.8479025
000150 85 44 02 40 74 84 e9 3f 4d f0 fa 3f 24 74 f1 3f
       2.035432 1.8243546 1.9604584 1.8863568
000160 1f 13 fe 3f c5 2c f3 3f 7f fc ed 3f f4 62 ed 3f
       1.9849585 1.8998038 1.8592681 1.8545823
000170 9f d6 02 40 ce b6 f0 3f ba b9 f7 3f 82 8f fe 3f
       2.0443494 1.8805788 1.9353554 1.9887545
000180 06 15 f8 3f 50 84 e6 3f 56 9b ea 3f a3 cf f2 3f
       1.9381416 1.8009129 1.8328655 1.8969616
000190 13 d3 ef 3f e3 dc f8 3f d7 82 f7 3f 16 12 f9 3f
       1.873629 1.9442409 1.9336804 1.9458644
0001a0 0c 4a 01 40 5f a0 f3 3f b9 c5 fd 3f 01 9d f5 3f
       2.0201445 1.9033316 1.9825965 1.9188539
0001b0 03 0c ef 3f 01 a8 f1 3f 75 00 f8 3f 41 2c f3 3f
       1.8675541 1.8879396 1.937514 1.899788
0001c0 26 99 f8 3f a3 60 ed 3f 31 5d 02 40 b4 50 e7 3f
       1.9421737 1.8545116 2.036938 1.8071504
0001d0 cf c0 ff 3f b6 74 f0 3f 93 24 02 40 e2 8e ef 3f
       1.9980716 1.8785617 2.0334823 1.8715479
0001e0 44 c5 f1 3f ca c0 f1 3f 1f 7e 01 40 69 08 d4 3f
       1.8888326 1.888696 2.0233228 1.6565067
0001f0 d6 bc 01 40 f9 a4 ec 3f e2 fc f5 3f 97 8c ea 3f
       2.0271506 1.8487846 1.9217799 1.8324155
000200 0c bc e9 3f 27 bc f4 3f 05 e4 ee 3f 9c f6 f2 3f
       1.8260512 1.911992 1.8663336 1.8981509
000210 6b 68 fd 3f bc 3b e9 3f 69 3c fa 3f 3c b7 ef 3f
       1.9797491 1.8221354 1.9549686 1.8727794
000220 90 44 04 40 d3 e1 f9 3f 1f 4f 02 40 af b0 ec 3f
       2.0666847 1.9522041 2.0360792 1.849142
000230 1b 10 06 40 cf 99 df 3f 0d a7 f8 3f 06 4a f5 3f
       2.094733 1.7468814 1.942598 1.9163215
000240 2c ab 00 40 1c d0 fa 3f bf 76 e8 3f e8 1e fb 3f
       2.0104475 1.959476 1.8161238 1.9618807
000250 39 fa f9 3f 92 88 ef 3f b4 98 fe 3f 7d 59 04 40
       1.9529487 1.8713553 1.9890351 2.067962
000260 1b c2 e6 3f 19 24 e3 3f 3a a9 ea 3f 6a 1c fb 3f
       1.8027986 1.7745391 1.8332894 1.9618046
000270 66 a7 f1 3f fd 01 ed 3f 40 71 f6 3f 67 96 f9 3f
       1.8879211 1.8516232 1.9253311 1.9499024
000280 16 f8 f4 3f 07 58 02 40 74 77 03 40 5c c7 fd 3f
       1.913821 2.0366228 2.0541658 1.9826465
000290 66 fa ec 3f c8 40 02 40 9a 7d f3 3f db 4a fc 3f
       1.8513916 2.035204 1.9022706 1.9710344
0002a0 97 df ef 3f 85 30 ee 3f 42 11 ef 3f 99 ed fa 3f
       1.8740109 1.8608557 1.8677142 1.9603759
0002b0 88 fd fe 3f ca e1 f3 3f 4f 26 e7 3f 4b 2a fd 3f
       1.9921122 1.905328 1.8058566 1.9778532
0002c0 61 9b f6 3f 98 99 f0 3f 4b 06 ff 3f f1 f8 f2 3f
       1.9266168 1.8796873 1.9923795 1.8982221
0002d0 b4 60 eb 3f 6f d2 fd 3f 2d 23 ee 3f 1d c4 09 40
       1.8388886 1.9829844 1.8604485 2.1525948
0002e0 5a 7e fe 3f 04 ba ef 3f 61 5c ec 3f 97 b8 f2 3f
       1.988231 1.8728642 1.8465692 1.8962582
0002f0 98 da da 3f 7e 67 f3 3f 9c c4 00 40 7b fb ed 3f
       1.709796 1.9015958 2.012 1.8592371
000300 3c 66 01 40 a3 f3 ea 3f f2 99 e8 3f c5 53 ec 3f
       2.021865 1.8355602 1.817198 1.8463064
000310 91 7a fe 3f b9 07 e5 3f 74 06 f3 3f 2e f9 ed 3f
       1.9881154 1.7892982 1.8986344 1.8591669
000320 6b 99 ed 3f 63 98 ee 3f 6a 81 fa 3f 93 34 f1 3f
       1.8562444 1.8640255 1.9570744 1.8844169
000330 57 16 fe 3f 3a 2f f0 3f 53 ee f9 3f f0 83 f0 3f
       1.9850568 1.8764412 1.9525856 1.8790264
000340 92 cd e9 3f 29 bc ee 3f e4 ac e0 3f a7 d8 ee 3f
       1.826586 1.8651172 1.7552762 1.8659867
000350 04 61 fd 3f 8d e6 ed 3f 0b e6 f6 3f 21 c8 f7 3f
       1.9795232 1.8585984 1.9288954 1.935795
000360 2a b9 fd 3f 0c b0 f8 3f af 6b f3 3f b4 b3 00 40
       1.9822133 1.9428725 1.9017237 2.0109682
000370 7b 33 fe 3f 65 7b ea 3f 04 a9 eb 3f 09 15 f9 3f
       1.985946 1.8318907 1.8410954 1.9459544
000380 eb 17 e3 3f d9 a0 e2 3f a4 22 ef 3f 9b 2e 00 40
       1.7741674 1.7705337 1.8682446 2.0028446
000390 58 64 f8 3f d5 2b fa 3f 88 f9 02 40 af b1 f1 3f
       1.9405622 1.9544626 2.0464802 1.888235
0003a0 6a 5f fe 3f cf d8 e5 3f 7d a3 ed 3f b6 8c ee 3f
       1.9872868 1.795679 1.8565518 1.8636692
0003b0 25 eb f6 3f 64 9a ec 3f 45 eb de 3f 0f 02 fb 3f
       1.929051 1.8484616 1.7415549 1.9610003
0003c0 99 78 03 40 76 0c ef 3f 2f 65 f9 3f ed 04 ee 3f
       2.0542357 1.8675678 1.9484004 1.8595253
0003d0 01 5e f8 3f e0 5a f5 3f 98 d7 f4 3f eb 2a f7 3f
       1.9403688 1.9168358 1.9128294 1.9309973
0003e0 a4 b4 f0 3f ad 05 fa 3f 5f c4 f0 3f 7e f4 e5 3f
       1.8805127 1.9532982 1.8809928 1.7965238
0003f0 f3 7c f1 3f 22 07 e5 3f 12 92 e6 3f 20 e8 f4 3f
       1.8866256 1.7892802 1.8013327 1.9133339

batch_norm00.bias f4 [256]
000000 a4 11 98 3e 64 e2 a2 bd 3d 90 5e bf 05 68 0c 3e
       0.2970096 -0.07953337 -0.8693884 0.13711555
000010 f7 53 d1 3e b5 60 e1 be 39 48 1b bd fa 13 6a bf
       0.40884373 -0.44019094 -0.037910674 -0.9143673
000020 37 86 77 3e 98 7b a0 be e2 60 39 3e 15 92 9c 3d
       0.24172293 -0.31344295 0.18103364 0.076450504
000030 aa 4a f4 be 08 dd 86 be 3a b7 7a 3e 38 37 76 bf
       -0.47713214 -0.26340508 0.24483958 -0.9617801
000040 ba fe b6 3e 05 4c 4c bf f4 a4 80 be 0a f4 6d 3f
       0.35741216 -0.79803497 -0.2512585 0.929505
000050 09 eb 26 bf d7 bb 67 3f 5f 18 9b 3e 21 c7 d5 be
       -0.65202385 0.90520996 0.3029203 -0.41753486
000060 4b 82 71 be 1a e4 54 3e 27 3f 1c bf ac 33 9b 3e
       -0.23584859 0.20790139 -0.6103386 0.3031286
000070 59 96 b9 be 64 88 13 3c 8a 80 fc bd 57 a2 8a be
       -0.3624752 0.009004686 -0.123292044 -0.2707698
000080 df e4 aa be 67 0e 30 3e 88 c6 30 be b2 83 80 3e
       -0.3337774 0.17192994 -0.17263234 0.25100476
000090 d6 4d 20 3d 69 e5 b8 be bb 7c bd 3d 70 46 0e be
       0.03913673 -0.36112526 0.09252306 -0.13894057
0000a0 7e 98 6f be 23 77 bc 3e 8d 91 38 bf b4 40 f7 3d
       -0.23398015 0.36809644 -0.7209709 0.12072888
0000b0 b7 fb 46 3e bc 30 5d 3e e8 c8 22 bf 34 58 0a bf
       0.19431959 0.21600622 -0.6358781 -0.5404084
0000c0 70 8c 5b 3e 82 48 22 3f 48 7d e7 be 26 a9 7a 3e
       0.21440291 0.6339189 -0.4521277 0.24478588
0000d0 c8 37 00 bf 6f 42 0e 3f 40 57 fc be c3 89 cd 3e
       -0.50085115 0.5557012 -0.49285316 0.40144166
0000e0 9e a1 55 bf 43 04 31 3e cb e0 6e bf 76 f7 f4 be
       -0.83449733 0.17286782 -0.93311757 -0.47845048
0000f0 d6 77 6d 3e a6 1a d7 3e 8a 7b 01 bf c2 ca 55 bf
       0.23190245 0.4201252 -0.5057913 -0.8351251
000100 9f 1f f3 bd 01 12 c9 3e 71 01 23 bf 18 cb 96 be
       -0.118712656 0.39271548 -0.63674074 -0.29451823
000110 d9 05 1c bc 01 0e 3e bd 77 54 31 3f c4 f4 03 bf
       -0.009522879 -0.046400074 0.6926951 -0.5154536
000120 86 d6 33 bc 00 7d 0c be 42 5f 18 3f 0b 43 c1 be
       -0.010976439 -0.13719559 0.5952035 -0.37746462
000130 4a 2e 72 3e 35 b4 b5 3e 7a 0a 00 bf 63 99 67 bf
       0.2365047 0.3548905 -0.50015986 -0.90468425
000140 31 68 5b 3c 8c 1c 8e bf e0 93 7a be 47 c9 fe 3e
       0.01339154 -1.1102462 -0.24470472 0.49762937
000150 f7 c3 98 3b b1 06 4e bf 39 05 0c 3f b4 f4 31 be
       0.0046620327 -0.8047896 0.5469547 -0.17378503
000160 6b da 48 3e d2 59 e3 be 47 4e e9 3e 20 5e cd bc
       0.1961457 -0.44404465 0.45567533 -0.025069296
000170 d1 7f 92 be a9 2a a2 be 8e 6f ad 3d 7f 63 d3 be
       -0.2861314 -0.31673172 0.08468543 -0.41286847
000180 15 55 06 be cb 9b 65 bf 37 bb 8b bf 0b 83 c8 3e
       -0.13118394 -0.89690846 -1.0916508 0.39162478
000190 38 ea 91 be 99 ea 2a be f4 b9 1f bf 1b f0 d4 bd
       -0.28499007 -0.16691054 -0.62393117 -0.10397359
0001a0 b4 ed f7 3d e6 39 01 3f 52 3c e5 3e 17 35 46 3e
       0.12105885 0.5047897 0.44772583 0.1935619
0001b0 a7 40 a5 3d e4 94 b1 be 2f b7 57 3e e6 3b 24 bf
       0.08068972 -0.34683907 0.21065973 -0.641539
0001c0 76 8f 01 bf 33 a2 ab 3e b6 9a 56 3e 62 83 ca be
       -0.5060953 0.33522186 0.20957455 -0.39553362
0001d0 45 c1 c2 3e ca 56 c0 3e 34 1d 8e be 0f 27 02 3f
       0.38038078 0.37566215 -0.27756655 0.5084085
0001e0 98 35 d5 be fa 9a 0c 3e 70 6f 5e bb 39 6e 90 3f
       -0.4164245 0.13730994 -0.0033940934 1.1283637
0001f0 a4 f5 2b be 8e 23 b9 3e 96 c0 b9 3e 14 63 43 3f
       -0.16792923 0.3615994 0.36279744 0.76323056
000200 7e 00 04 bf 72 c3 63 bf 57 9c 70 bf 09 d1 13 3f
       -0.5156325 -0.889701 -0.93988556 0.5774084
000210 a2 8d 2b 3e bd dc 69 3e 17 6b e8 be 5f 84 2c 3f
       0.16753247 0.22838111 -0.45394203 0.6738948
000220 2d 9e 08 be 64 be 9d bc ec 7f 8f 3e 68 80 3a be
       -0.1334159 -0.019255824 0.28027284 -0.18213046
000230 49 4d e3 be 22 4c 23 be 53 15 0a 3e 1e 1b db 3e
       -0.443949 -0.15947011 0.13484697 0.42794126
000240 0f 54 38 3e 51 38 74 be 1f 02 2c 3f 3b dc fa 3c
       0.18000816 -0.23849608 0.67190737 0.030622592
000250 96 8e 8c be cf 78 45 3f 78 ef ce bd ea ea e8 be
       -0.27452534 0.77137464 -0.10104269 -0.45491725
000260 29 3a 52 bf 64 79 ac 3c fa 71 74 3f 4c 4e e9 3d
       -0.82119995 0.021053977 0.95486414 0.11391887
000270 16 ce 54 bf 36 58 13 3f bc 15 22 3e d4 db bd be
       -0.8312696 0.57556474 0.15828604 -0.37081778
000280 a8 eb ce 3d be 1e 7b be 93 71 96 bd e9 ee ac 3e
       0.101035416 -0.24523446 -0.07345881 0.33776024
000290 83 2e 8c bd bf b5 0c 3e 36 76 6d be c1 12 c4 3e
       -0.06844809 0.13741206 -0.23189625 0.38295558
0002a0 f2 64 0b be 45 36 a0 bc 71 56 2d bf 55 bb ae 3e
       -0.13612726 -0.019557128 -0.67710024 0.34127298
0002b0 d8 6f 22 3e aa c8 b8 3e 33 89 3d 3e 22 64 32 bf
       0.15862978 0.36090595 0.18509369 -0.6968404
0002c0 aa e2 ba 3e 33 bf fc bd dc 72 32 3d 46 bc 63 3e
       0.36501056 -0.12341156 0.04356657 0.2223979
0002d0 77 a3 b3 3d 2c af 40 bf e3 07 ce bc b2 4f 1d bf
       0.08771413 -0.7526729 -0.025150245 -0.6144973
0002e0 dc f9 a3 3d 9d c2 41 3f a5 c3 f3 3e 08 d6 8c be
       0.08006641 0.7568758 0.47610202 -0.27507043
0002f0 8e 65 c1 3e e9 9a 80 be 6e 9a 8f bf ef 3a d6 3e
       0.37772793 -0.25118187 -1.1219003 0.41841838
000300 c5 13 de 3c f7 ab 6c bf 3f 31 0e 3f ee 3a f6 3d
       0.027109036 -0.924499 0.55543894 0.12022959
000310 1a 0e 7a bf a4 d9 f3 3d 44 9b a8 be a3 ec 44 bf
       -0.9767777 0.11906746 -0.32930958 -0.7692358
000320 f3 65 23 bf 53 21 38 bd 7d 22 4a 3e 49 10 4e bd
       -0.6382744 -0.044953655 0.19739719 -0.0503085
000330 db d5 d3 3e 66 81 81 be 40 93 00 be 0d b8 01 be
       0.41374096 -0.25294036 -0.12556171 -0.12667866
000340 d7 9e 0f bf eb 45 8d 3e 70 d0 34 3f ca 93 09 3d
       -0.56101745 0.27592406 0.7063055 0.03358821
000350 7a 64 29 bf 98 b8 62 3f 7c 10 e7 bd 2a 4d 98 be
       -0.6616894 0.8856292 -0.11282441 -0.29746372
000360 99 16 4b be 7f 45 4f be 82 c3 46 3e 8e d3 55 bf
       -0.19832839 -0.20241354 0.19410518 -0.8352593
000370 c1 5a 15 3d b8 34 34 3e 60 68 17 3e 3d c2 02 3e
       0.036463503 0.17598236 0.1478591 0.12769409
000380 2d f8 61 3f bd 58 4b 3f ed 7b a9 be 0a eb ac bd
       0.8826931 0.7943228 -0.3310236 -0.08443268
000390 27 6e f5 be 2c 23 ff bd 7e a6 25 bf ae 56 41 bd
       -0.47935602 -0.124578804 -0.6470717 -0.047201805
0003a0 77 4c 3a 3e c3 55 7e 3e 7c a3 00 3f 75 ae 0a 3f
       0.18193232 0.24837403 0.5024946 0.5417245
0003b0 8e b3 f7 be 8b b1 71 bf 20 29 84 bf 75 cd 94 3d
       -0.48379177 -0.94411534 -1.032505 0.0726575
0003c0 bb 4a 1a bf 9a d7 21 bf 4a f4 32 bf e8 a6 3b 3e
       -0.6027028 -0.63219607 -0.69904006 0.18325388
0003d0 c6 64 b5 3e 31 b5 30 bf 54 af d4 bc 2e 34 3b bf
       0.35428447 -0.69026476 -0.02596251 -0.73126495
0003e0 99 9f f3 3e df b5 f1 3e 40 27 74 3e 49 2f ea 3e
       0.475827 0.4720907 0.23843098 0.457392
0003f0 b8 e8 2f 3f bf 50 32 3f 98 eb 66 bd 8a 32 d5 3d
       0.68714476 0.6965446 -0.056377023 0.1041003

batch_norm00.running_mean f4 [256]
000000 b3 10 02 3c d3 b6 86 3d 38 13 ab 3d ba f0 bc 3d
       0.007938552 0.0657784 0.08353275 0.092256024
000010 6d b6 2c 3d 5a 63 9d 3d 8b a2 fc 3d 2a 29 80 3d
       0.042166162 0.076849654 0.1233569 0.062578514
000020 48 2e cb 3c 0a 92 73 3d 25 54 5a 3d b5 f7 85 3d
       0.024802342 0.059465446 0.053302903 0.06541387
000030 db 21 2f 3d 1a 74 73 3d b3 d2 d8 3d d2 14 b7 3d
       0.042756896 0.059436895 0.10587063 0.08939518
000040 f7 bc d3 3c 07 b4 36 3d 6b 1c 1d 3d 84 9b c7 3d
       0.025846941 0.04460528 0.03835718 0.09746459
000050 16 cb f0 3d 68 7a a1 3d 9d 19 68 3d 54 3a f0 3c
       0.117574856 0.07884675 0.05666505 0.029324688
000060 ab 82 e5 3c e2 cc 62 3d 0f eb 7b 3d 50 66 95 3b
       0.028016409 0.055371173 0.061503466 0.0045593157
000070 49 3f 44 3d fc a7 0a 3c aa bd 5f 3d 33 b2 8b 3d
       0.047911916 0.008462902 0.054624237 0.06821098
000080 7f 4c 5c 3d 88 60 ad 3d e4 88 05 3e e0 b5 94 bc
       0.05378389 0.084656775 0.13040501 -0.018153131
000090 32 cf 80 3d 20 e6 c0 3c 02 a3 88 3d 68 2e 87 3d
       0.06289519 0.023547232 0.06671716 0.06600648
0000a0 66 71 ca 3b ff 90 c5 3d 54 3f 4a 3d 4f b3 1b 3d
       0.006178069 0.096467964 0.0493768 0.0380128
0000b0 5e c0 e0 3d 8a 62 86 3c fc cc 95 3d 76 6b 08 3b
       0.10974191 0.016404409 0.07314488 0.0020816005
0000c0 fd b6 cf 3c 1c b6 9b 3c dc a2 2a 3d 8a 15 d3 ba
       0.02535581 0.019007735 0.04165922 -0.0016104442
0000d0 87 86 25 3d 9d 39 75 3d 3f 64 9c 3c 50 e9 fc 3c
       0.0404115 0.059869397 0.01909077 0.03087297
0000e0 5c d4 93 bb 6d d9 d3 bb 82 d9 d5 3d 21 26 61 3d
       -0.004511399 -0.006465128 0.10441877 0.054968003
0000f0 32 f3 2a bb 66 4c ec 39 35 b0 dc 3d 29 d8 b5 3d
       -0.0026084897 0.0004507035 0.10775796 0.0887912
000100 27 49 0f 3d de a0 d1 3c 84 37 cd 3d 58 1e 6f 3d
       0.034981873 0.025589403 0.100203544 0.058378547
000110 43 5b b4 3d a5 e5 51 3d 5e 0d 9a 3c 81 4b 28 3d
       0.08806469 0.051244397 0.018805202 0.04108763
000120 82 68 d8 3d 2e a1 b7 3d 8e 4c 3d 3d 58 e3 85 3d
       0.10566808 0.089662895 0.046215586 0.06537503
000130 fa 37 45 3d e4 c7 8f 3c f4 ab 3a 3c 54 cf e7 3d
       0.048149087 0.01755137 0.011393536 0.113188416
000140 57 66 e8 3c 57 19 1c 3d 4f 65 82 3d 06 8f dd bb
       0.028369112 0.038110103 0.06366979 -0.0067614345
000150 77 38 51 3d 99 26 90 3d c9 76 94 bc 4e 53 8f 3d
       0.05107924 0.07038612 -0.018123047 0.06998311
000160 ac dd 70 3d 82 82 4f 3d 2a d8 3a 3d 82 50 de 3c
       0.058805153 0.05066157 0.045616306 0.027137998
000170 11 01 49 3d 4f a5 c7 3c 33 1a c7 3d 89 9c 3e 3d
       0.049073283 0.024370817 0.09721794 0.046536002
000180 00 06 43 3d 36 67 54 bc 0f 93 28 3e 89 d3 98 bb
       0.047613144 -0.0129640605 0.16462348 -0.004663889
000190 c9 88 60 3c 3d 4d a8 3d 0a 5f bd 3d d4 59 4a 3c
       0.013704487 0.08217857 0.09246643 0.012350518
0001a0 ef 16 b4 3d 5f 25 a4 3d e9 ac 8d 3d 47 c7 5c 3d
       0.08793437 0.080149405 0.069177456 0.053900983
0001b0 fa 4c 61 3d a0 ac 09 3b e7 a3 01 3d 7c 39 bc 3d
       0.05500505 0.0021007434 0.03165045 0.09190652
0001c0 b7 0c c0 3c 4d 31 bc 3c 21 7c ce bb 02 00 8b 3d
       0.023443563 0.022972727 -0.0063014184 0.06787111
0001d0 a1 bb f1 3d d0 45 83 3d 24 67 07 3d e4 28 6a 3d
       0.118033655 0.064098 0.033057347 0.057167903
0001e0 4e 13 20 3d ce 02 a4 3d 44 a2 57 3d 1f 1f 09 3d
       0.03908091 0.080083475 0.052644983 0.033476945
0001f0 1b e5 5e 3d d2 0e 55 3d 39 ae 89 3c 55 c5 ed 3c
       0.05441771 0.052016087 0.016806709 0.02902476
000200 b6 32 df 3d b3 87 c6 3d a3 37 67 3d 8a ac c2 3c
       0.10898344 0.09693851 0.056449544 0.023763914
000210 ce 86 d5 3c 0e f3 95 3d 57 eb a0 3d 84 77 70 3d
       0.026065256 0.0732175 0.078573875 0.05870773
000220 b6 ff 91 3d c9 1e bd 3d ba 9e f3 3d 4a 21 b3 3d
       0.07128851 0.092343874 0.11895509 0.08746584
000230 9e 38 0c 3e 2b 44 62 3d df da 6b 3d 31 90 eb 3b
       0.13693473 0.05524079 0.05758178 0.00718882
000240 dc db 65 3d 02 b4 e3 3c 6f 66 78 3c 45 15 76 3d
       0.056117877 0.027795795 0.015161141 0.060078878
000250 e0 88 4d 3d fb d3 4f 3c 91 2f 33 3d ac 83 be 3d
       0.050179362 0.012684817 0.043746535 0.09302458
000260 f5 d0 7e 3d 4d b8 4f 3d 77 89 ce 3c f5 fb c3 3d
       0.062210996 0.050712872 0.025212033 0.09569541
000270 de 83 c8 3d 2d 7e e5 bb f6 1e 2b 3d 40 0e c6 3c
       0.09790777 -0.0070035667 0.041777574 0.024176717
000280 69 bc e2 3b 9e a2 b4 3c b6 d0 da 3b 4c e1 bb 3d
       0.006919433 0.022050198 0.0066777123 0.09173831
000290 52 be c9 3c 36 c0 d8 3d 59 4c 05 3d 38 39 05 3d
       0.024626885 0.10583536 0.032543514 0.03252527
0002a0 a2 10 87 3c 78 b4 c7 bb 39 21 83 3d 96 39 b1 3c
       0.016487423 -0.0060945116 0.06402821 0.021633904
0002b0 ea d7 c0 3d c9 c4 8a 3c d2 bd 9f 3c 87 b4 a0 3d
       0.09416182 0.016939538 0.019499693 0.07846933
0002c0 2b 65 dd 3c ce 30 b3 3a 90 6a a0 3d 2c ea 31 3d
       0.02702578 0.0013671161 0.07832825 0.043436214
0002d0 5b 5c a5 3d 45 c9 b5 3d d0 a4 30 3d 46 41 d3 3d
       0.08074256 0.0887628 0.043125927 0.10315184
0002e0 9a 7d 84 3c 6d 8e 6c 3d 44 26 10 3b 5a 94 cc 3a
       0.016173173 0.057753015 0.0021995464 0.0015608177
0002f0 51 87 05 3c 58 fc ea 3d 88 0d e0 3d c4 7a a6 bc
       0.008149938 0.11473912 0.10940081 -0.020322211
000300 fa d3 35 3d e9 75 03 3e d5 cb b0 3d f6 af 0d 3b
       0.04439161 0.12837948 0.08632628 0.0021619773
000310 93 0b 08 3e 68 56 2c 3c 60 31 86 3d e3 66 d9 3d
       0.13285665 0.010518648 0.06552386 0.10615327
000320 7e 00 41 3c 04 4b f4 3c a9 27 5c 3d 46 a4 77 3c
       0.0117799025 0.029820926 0.05374876 0.015114849
000330 f2 8c f8 3b 4a f3 45 3d d4 c1 03 3d 4c 31 1b 3d
       0.0075851614 0.04832772 0.03216727 0.03788881
000340 51 2c d8 3d a4 6e 6a 3d 1e c3 a8 3d e5 02 30 3d
       0.10555328 0.05723442 0.08240341 0.04297151
000350 05 7a 98 3d 8c 98 95 3d 32 f5 84 3d d5 d0 dc 3c
       0.074451484 0.07304487 0.0649208 0.026955048
000360 5c b8 49 3d 1d 83 90 3c 4d 91 50 3d 3f 6c 48 3d
       0.049248084 0.017640645 0.05091982 0.048931357
000370 88 96 41 3d 13 ef 4c 3c 7c b8 1c 3d 84 c0 6f 3d
       0.0472627 0.012508172 0.038261876 0.058533207
000380 39 fc 87 bc 06 7d 2c 3d 06 52 32 3d bc 08 6a 3d
       -0.016599761 0.04211142 0.043535255 0.057137236
000390 bc 50 d2 3d e2 08 ef 3d bc 3f e9 3d 09 f0 8c 3d
       0.10269305 0.11671616 0.113891095 0.068817206
0003a0 fd a6 e5 3c 81 3e 34 3d c4 a3 5f 3d 9e 01 ae bc
       0.028033728 0.04400492 0.05459954 -0.021241006
0003b0 42 35 18 3d 43 5d c8 3d 3f 0f 5a 3d fb 12 77 3d
       0.037160166 0.09783413 0.053237196 0.060320836
0003c0 76 4e a6 3d c6 c7 9f 3d ee ff 89 3c 21 7c 60 bb
       0.08120434 0.07801776 0.01684567 -0.0034253674
0003d0 c5 fd 42 3d 62 96 85 3d e0 c3 27 3d ea e2 8f 3d
       0.047605295 0.06522824 0.040958285 0.07025702
0003e0 c7 8c fd 3c 9e 78 7f 3d a9 9b 77 3d b2 96 f2 bc
       0.030950917 0.06237089 0.060451183 -0.029612873
0003f0 6e 88 d8 3c b5 52 eb 3c d8 e9 02 3d ba b4 e1 3c
       0.026432242 0.028725961 0.031961292 0.027551997

batch_norm00.running_var f4 [256]
000000 09 3f be 3c f2 ea 88 3d 0a 85 9f 3d ac 0d dd 3d
       0.023223417 0.06685437 0.07789047 0.10793623
000010 4c 0a 3c 3d 09 87 98 3d c6 c4 f7 3d fc 15 5e 3d
       0.045908257 0.07447631 0.120980784 0.054220185
000020 2f 1f 66 3d b9 06 78 3d 0d 44 82 3d 55 5c 8a 3d
       0.056182083 0.060553286 0.06360636 0.06755892
000030 27 da 4e 3d 71 aa 70 3d 7c 0c f1 3d 10 e4 ce 3d
       0.050501015 0.058756296 0.11769959 0.10102093
000040 95 94 10 3d b1 18 2a 3d fe 84 40 3d cc d5 f7 3d
       0.03529795 0.041527454 0.04700183 0.121013254
000050 a4 34 17 3e 96 76 c8 3d ca 58 4c 3d fb b7 2b 3d
       0.14766175 0.097882435 0.049889363 0.041923504
000060 79 37 30 3d 49 03 89 3d fe 0b 8d 3d 4f ae d6 3c
       0.043021653 0.0669008 0.06887053 0.026206164
000070 3b 6b 42 3d 35 ae b5 3c 87 db 85 3d d1 aa 8c 3d
       0.047465544 0.022177795 0.06536012 0.06868518
000080 80 99 90 3d 80 7d d8 3d b4 30 fc 3d 7f 32 59 3c
       0.07060528 0.10570812 0.12313977 0.013256668
000090 4a 62 79 3d c7 85 e9 3c 34 23 6f 3d 54 37 94 3d
       0.06088475 0.028506173 0.05838318 0.072371155
0000a0 5c 07 9c 3c de cf c5 3d 3b 9f 76 3d 27 8a 6a 3d
       0.019046478 0.09658788 0.060210448 0.05726066
0000b0 7f d4 d3 3d 5c c7 f0 3c 4f 16 89 3d 88 dd b9 3c
       0.10343265 0.029391937 0.06693708 0.022688642
0000c0 05 43 13 3d 14 ea cf 3c 89 95 84 3d 77 d5 c2 3c
       0.035952587 0.025380172 0.06473834 0.023783429
0000d0 5a 0a 4f 3d 48 b1 94 3d 89 61 57 3d f0 0b 02 3d
       0.05054698 0.07260376 0.05258325 0.031749666
0000e0 5e 41 e6 3c 16 78 b8 3c cd d1 25 3e 15 93 a1 3d
       0.028107341 0.022518199 0.16193314 0.07889382
0000f0 04 f2 47 3c b4 67 e2 3c 15 e9 be 3d 86 af b1 3d
       0.012203697 0.02763734 0.093218006 0.086760566
000100 de 7a 21 3d e4 8d 31 3d 47 80 c2 3d 58 57 88 3d
       0.039423816 0.043348208 0.09497123 0.066572845
000110 c7 fb a0 3d 6f 7d a7 3d 81 46 38 3d bf 51 62 3d
       0.07860523 0.081782214 0.044989113 0.05525374
000120 8a 05 03 3e a8 83 d5 3d ac 8f 24 3d bb 44 98 3d
       0.12795082 0.10425502 0.04017608 0.07434984
000130 e3 48 8e 3d 0f 8b db 3c 70 95 e3 3c 41 8d f7 3d
       0.06947496 0.026799707 0.027781218 0.12087489
000140 b0 47 2d 3d 07 29 58 3d 9f 54 88 3d 17 75 88 3c
       0.042304695 0.0527735 0.06656765 0.016657395
000150 18 61 78 3d 17 f8 78 3d 93 7b 0e 3c e5 4d aa 3d
       0.06063947 0.060783472 0.008696455 0.083156385
000160 12 3d 5d 3d bf a6 73 3d 73 eb 2a 3d 03 12 04 3d
       0.05401332 0.059485193 0.041728448 0.03224374
000170 2b df 45 3d f1 93 13 3d 2d f0 d2 3d 96 a7 63 3d
       0.048308533 0.03602976 0.10299716 0.055579744
000180 0c 08 50 3d 60 5f 17 3c 80 b6 62 3e a3 a2 c1 3c
       0.050788924 0.009239048 0.2213993 0.023637122
000190 72 1f fe 3c 86 9e c9 3d b0 a5 a5 3d 48 1d bd 3c
       0.031020854 0.09844689 0.08088243 0.023085251
0001a0 b7 88 eb 3d 8b c7 ab 3d d7 a8 8f 3d 94 f7 2c 3d
       0.11500686 0.08387669 0.070146255 0.042228296
0001b0 94 13 61 3d ee e3 c6 3c 2a 2c 1d 3d 7b 95 d5 3d
       0.05495031 0.024278607 0.038372196 0.10428902
0001c0 82 f8 16 3d 9d 49 07 3d 50 0c 71 3c b7 e8 85 3d
       0.03685809 0.033029187 0.014712408 0.065385275
0001d0 45 bb df 3d 10 cc 85 3d 7d 7e 53 3d 78 37 87 3d
       0.10924391 0.065330625 0.0516343 0.06602377
0001e0 f5 14 63 3d 04 39 f2 3d 40 72 3d 3d 22 8c 1b 3d
       0.055439908 0.11827281 0.046251535 0.037975438
0001f0 44 e7 8e 3d 60 88 8a 3d 65 8a 16 3d 7f 57 4a 3d
       0.06977704 0.06764293 0.036753077 0.04939985
000200 97 30 e6 3d 2d d7 c0 3d aa db 74 3d ec f4 0b 3d
       0.112397365 0.094160415 0.0597798 0.034169123
000210 da a2 0b 3d 52 50 7a 3d aa 92 bd 3d a5 de 5c 3d
       0.034090854 0.061111756 0.092564896 0.053923268
000220 0e 11 a0 3d 3d e4 ab 3d f5 8f d8 3d b1 50 cc 3d
       0.07815753 0.08393142 0.105743326 0.09976328
000230 ba 9f 18 3e 33 30 78 3d 15 ea 9a 3d e2 d3 ab 3c
       0.14904681 0.06059284 0.07564179 0.020975057
000240 78 99 62 3d 3e 2c 25 3d ff 50 14 3d a4 b1 6b 3d
       0.05532214 0.040325396 0.036210056 0.05754246
000250 ec 05 8c 3d 03 7d 21 3d f1 17 33 3d 3c 84 cb 3d
       0.06837067 0.03942586 0.043724004 0.09937331
000260 9e 47 91 3d 87 0e 79 3d 7a 61 16 3d bb 3d c2 3d
       0.07093738 0.06080487 0.036714055 0.094844304
000270 dc ef c8 3d 3e be 82 3c 0f 8c 97 3d 4d d2 26 3d
       0.098113745 0.015959855 0.07399761 0.040727902
000280 8d 41 f4 3c 2f 8e 0c 3d 06 8e c7 3c 95 c3 a3 3d
       0.029816413 0.034315284 0.024359714 0.07996289
000290 a0 d1 26 3d 36 e6 d3 3d 52 69 10 3d e5 f2 49 3d
       0.040727258 0.103466436 0.03525669 0.049303908
0002a0 03 e6 11 3d 9c f5 b3 3c 62 72 f2 3d 2a 4e d7 3c
       0.035619747 0.021967702 0.11838223 0.026282389
0002b0 60 e9 b5 3d 1a 05 dd 3c a9 4e e0 3c 64 62 b4 3d
       0.088824034 0.026979972 0.027381258 0.08807829
0002c0 cd a3 fb 3c 57 0f 96 3c 8e f9 99 3d a2 0d 4e 3d
       0.030717755 0.018317861 0.07518302 0.05030597
0002d0 d0 a4 96 3d 2b 88 c0 3d fb a2 6b 3d 0d b4 c4 3d
       0.07355654 0.09400972 0.057528477 0.096046545
0002e0 73 13 ed 3c 23 ce 94 3d 16 31 92 3c 7e 49 9c 3c
       0.028939938 0.0726588 0.017845672 0.019078013
0002f0 d1 e0 03 3d 6c 4e 35 3e 2a 3b e6 3d c8 45 23 3c
       0.032196824 0.17705697 0.112417534 0.009965368
000300 59 bd 87 3d 51 9a 10 3e 6b b5 e6 3d 82 7b 87 3c
       0.06627912 0.14121367 0.112650715 0.016538385
000310 6e f8 54 3e ff c6 d3 3c 8e 3c 87 3d b8 88 dc 3d
       0.20797893 0.025851725 0.06603347 0.107682645
000320 ff ec cd 3c e9 5d 3d 3d 15 2a 78 3d 4e 9f 0a 3d
       0.025137423 0.046232138 0.060587008 0.03384333
000330 70 f1 18 3d 41 e3 ab 3d 82 aa 3c 3d 5a 22 23 3d
       0.037339628 0.083929546 0.046061046 0.039827682
000340 e6 83 b6 3d f3 13 ab 3d cc cb 9e 3d 70 d6 8b 3d
       0.089118764 0.083534144 0.07753715 0.0682801
000350 d7 19 f0 3d 3e e0 ac 3d 7d b9 9b 3d ff 6d 12 3d
       0.117236786 0.08441208 0.076037385 0.03574943
000360 bf 20 3d 3d e3 7e 01 3d c1 4a 80 3d e8 94 a8 3d
       0.046173807 0.03161515 0.06264258 0.082315266
000370 99 9e 65 3d fb f6 dd 3c 0e a7 45 3d 38 f9 89 3d
       0.056059454 0.027095309 0.04825502 0.06736988
000380 0a ab 0c 3c 89 dc 5b 3d 90 59 6c 3d 19 11 6b 3d
       0.008585701 0.053677116 0.0577026 0.057389352
000390 6c 09 11 3e 42 06 fb 3d 9c de 0e 3e 33 1c 85 3d
       0.1416375 0.12257053 0.13952106 0.06499519
0003a0 1b 42 19 3d 51 ac 53 3d cc 65 58 3d 52 89 0e 3c
       0.03741656 0.051678006 0.052831456 0.008699732
0003b0 ce a9 36 3d b1 4b c7 3d dc 38 60 3d 72 6e 53 3d
       0.044595532 0.09731234 0.054741725 0.051619
0003c0 8c 00 a3 3d 4d 7c b8 3d e4 45 07 3d f3 a6 8d 3c
       0.07959089 0.090080835 0.033025637 0.017291522
0003d0 2c 3e 66 3d 02 86 8d 3d 19 b4 2c 3d fb 93 b1 3d
       0.056211635 0.069103256 0.042163942 0.08670803
0003e0 e1 dc 6f 3d ee 98 91 3d 39 3b 6a 3d fc 7a dd 3b
       0.058560256 0.07109247 0.057185385 0.0067590456
0003f0 70 5d 27 3d a9 5c 3f 3d 40 ae 66 3d 32 5c 49 3d
       0.040860593 0.046719227 0.05631852 0.04916019

linear01.weight f4 [128, 256]
000000 8c 4e 6d 3b 83 68 c0 3d 7e 5e 8e bc ac bc 56 bd
       0.0036210148 0.09394934 -0.017379042 -0.052426025
000010 69 4a 87 be 22 3b b4 be 09 b1 da 3d 8c d2 63 3e
       -0.26423958 -0.35201365 0.10678298 0.22248286
000020 5f 68 99 bd 93 bb a6 bd 5a 06 95 ba 09 f9 a0 3c
       -0.0749061 -0.08141246 -0.0011369691 0.01965
000030 c0 83 7d 3b 66 8c 24 bd 18 b3 58 3d 7e 6d a4 be
       0.0038683265 -0.040172957 0.052905172 -0.32114786
000040 93 2d 4d 3e d4 22 09 3d b8 27 9d 3e 4d 62 0d bf
       0.20036916 0.03348048 0.30694366 -0.5522812
000050 3a 2b 19 3e 97 1e 61 3e 76 52 c0 bc b9 70 a7 be
       0.14957896 0.21984325 -0.02347682 -0.32703188
000060 6b 7f c6 be a0 19 77 3e 44 b4 54 3d dd 86 c7 3b
       -0.38769087 0.24130869 0.051929727 0.006089075
000070 d1 86 64 3d 22 2a bf 3d 19 59 69 be 07 c5 b1 3c
       0.055792633 0.09334208 -0.22787894 0.021700395
000080 28 81 7c 3e b1 cb be bc 00 47 1c bf 7f f5 5a bc
       0.24658644 -0.023290487 -0.6104584 -0.013364195
000090 35 3c 10 be 71 41 65 be c5 fa 00 3e 32 33 bc bd
       -0.14085467 -0.22388245 0.12595661 -0.09189452
0000a0 fa a0 8a be 09 eb c0 3d 1d dc 3f 3e 44 8a 73 be
       -0.2707594 0.094198294 0.1873631 -0.23783213
0000b0 22 da f7 be 27 a1 7e bc b6 86 c4 be 45 7f 18 bd
       -0.4840861 -0.015541351 -0.38384026 -0.03723075
0000c0 49 a6 45 be ec 22 41 be 19 ba 14 be ae 50 fe 3e
       -0.19301714 -0.18860978 -0.14524116 0.4967093
0000d0 47 5c df be 88 59 20 3c 76 05 85 bd 55 12 d8 3d
       -0.4362509 0.009786971 -0.06495182 0.105503716
0000e0 f2 98 65 bd 15 96 58 bd 4e b6 39 3e 6f e5 1b be
       -0.056054063 -0.052877504 0.1813595 -0.1522424
0000f0 7b 16 5b bd a4 f9 85 bd 9a 66 b0 bd 58 aa 83 be
       -0.053488236 -0.06541756 -0.0861332 -0.257159
000100 8d 32 2b 3e e2 4b a7 3d ad 7e 8c be 08 31 da be
       0.16718502 0.081687704 -0.27440396 -0.42615533
000110 7b c6 83 be 81 af 9a be 52 d5 0a bd 62 cb c1 bd
       -0.25737366 -0.30212024 -0.033894844 -0.0946262
000120 f7 ad a5 be 42 ab c1 be 61 60 97 3d c5 13 1b 3e
       -0.32359287 -0.37825972 0.0739143 0.1514426
000130 64 80 8f bc ac c1 fd bd 5b 92 16 3d 52 c4 b3 bd
       -0.017517276 -0.123904556 0.03676067 -0.087776795
000140 46 e6 b7 3d 16 01 b4 bd 60 3d 0a be 83 d7 51 bd
       0.08979468 -0.087892696 -0.13499975 -0.05123092
000150 f0 fe a9 3d 4a ae 43 3c e1 85 50 3b 28 b6 ba be
       0.083005786 0.011943409 0.003181808 -0.364671
000160 19 d0 86 3d 77 74 db bd 31 98 d6 ba 41 bb a3 bd
       0.0658266 -0.10715573 -0.0016372261 -0.079947
000170 56 c8 dc bd 9a c3 eb bc d5 df 4d 3e 09 7e db 3a
       -0.107803985 -0.028779794 0.20104916 0.0016745935
000180 18 89 1e be 5b 98 24 3e aa 3b 8d be 6f e3 20 be
       -0.15481985 0.16073744 -0.27584583 -0.15711759
000190 cf f0 88 3e ed 49 18 3d dd db d4 bb 00 ee 64 be
       0.26746222 0.037179876 -0.0064959363 -0.22356415
0001a0 80 c6 f0 be 4e fd 77 bb 82 38 1c be 2a 2d 31 3e
       -0.47026443 -0.003784019 -0.15255931 0.17302385
0001b0 d2 67 8a bd b5 6a ee 3d c1 ed d3 3d 31 64 95 be
       -0.067580834 0.116414465 0.10348082 -0.29178002
0001c0 e3 10 f8 3d a8 b8 c3 bd 68 7f b5 bb a7 87 9d bc
       0.12112596 -0.09556705 -0.0055388696 -0.019229723
0001d0 ec 53 97 be 94 38 f9 bd af 25 c1 3e d1 99 1e be
       -0.29556215 -0.121689945 0.37724063 -0.15488364
0001e0 f0 68 89 3d 05 85 fa bd de 9f 1b bd 99 a5 ec 3c
       0.06709468 -0.12232403 -0.037994258 0.028887557
0001f0 1a 2a 38 bf 9e 5f 44 bc 9f 72 13 3e b4 29 3a be
       -0.7193924 -0.011985688 0.14399193 -0.18179971
000200 87 60 34 3e c0 16 9f 3d 91 76 6c 3e aa 20 75 3c
       0.17614947 0.07768011 0.23092104 0.014961401
000210 14 a9 d9 bd 18 a6 7d 3e bc 14 83 be d0 1e 98 3e
       -0.10627952 0.24770391 -0.25601757 0.29711008
000220 72 5c dd bd 37 5f 13 be 4f b3 1d 3d 19 f2 10 bd
       -0.10808648 -0.1439179 0.03850108 -0.035387132
000230 45 4f 43 be 14 e4 68 3d b5 ac 05 bc cf 34 61 be
       -0.19073208 0.056858137 -0.008158852 -0.21992801
000240 46 15 b0 be 75 07 71 be ab 32 0d 3d bc 5c 1c 3d
       -0.3439123 -0.23538001 0.03447215 0.038174376
000250 8a 85 df 3c 58 5f 8a 3e 01 5e 9c bc 20 11 63 bd
       0.027285356 0.27025867 -0.019087793 -0.055436254
000260 93 9d 8b 3e 01 7d c5 3d d8 83 99 be ff 25 21 bd
       0.27268657 0.09642983 -0.299834 -0.039342877
000270 31 89 e2 be e1 8c 9d ba a9 cc 06 be 90 37 88 bc
       -0.44245294 -0.0012020135 -0.13164009 -0.016628057
000280 b7 e9 78 be c9 58 9d be f2 64 26 3c 62 dd 52 3e
       -0.24307905 -0.307318 0.010155903 0.20592263
000290 e2 8a 10 3c 0f 01 85 be d1 a8 5d be 8e c4 89 be
       0.008822175 -0.2597737 -0.2164643 -0.26907772
0002a0 79 ce 3b be 4f 49 10 3e 1e 0d ce bd 26 fc fd bb
       -0.18340482 0.14090465 -0.10061096 -0.0077510057
0002b0 00 1b a4 3d d5 97 42 be c5 bc 91 bd a5 8c c9 be
       0.08012962 -0.19003232 -0.07116083 -0.39365116
0002c0 7d e3 ea bd 73 9e c8 3c 1d a4 d1 bd e6 88 87 be
       -0.11469171 0.024489617 -0.1023638 -0.26471633
0002d0 84 dc 1a be cc 32 a2 be da 0c 52 be 0c 7a 2e be
       -0.15123183 -0.3167938 -0.20512715 -0.17038745
0002e0 37 c8 e4 bd b7 a6 d6 3c 8f a3 f2 3b 45 d7 8b be
       -0.111710005 0.026202543 0.0074047516 -0.27312675
0002f0 65 eb 4f be 46 72 de bd 3f 18 41 3e 30 18 02 3f
       -0.2030464 -0.1086164 0.18856905 0.5081816
000300 14 4d 12 be 95 f3 4f 3e 73 da 4d be cc 99 11 be
       -0.14287215 0.20307763 -0.20102863 -0.14218825
000310 4e 6a 93 bd cf 68 91 3e 5a 52 31 be 02 47 31 be
       -0.071980104 0.28400275 -0.17316571 -0.17312244
000320 db 4c 0a be 4a c6 e3 bd 5c 7e a0 be 17 51 f9 bd
       -0.1350588 -0.11121805 -0.31346405 -0.1217367
000330 a2 cb a2 bc 34 53 49 3d 0a a7 1b 3c 88 84 50 3c
       -0.01987249 0.049151614 0.009500274 0.01272691
000340 fd 8a 85 bd b6 4f 25 be 6c 09 2b 3d 69 09 af bc
       -0.065206505 -0.16143689 0.041757032 -0.021366792
000350 14 0f ad be 2d 24 4e 3a 93 25 a9 bd af c5 b1 3d
       -0.33800566 0.0007863667 -0.0825912 0.08680283
000360 83 a1 b2 be 47 55 7f 3e 15 9c 44 3e c0 56 ed 3d
       -0.3488885 0.24934874 0.19200166 0.11588812
000370 c4 81 17 bd 08 39 00 3f af 7c 1a 3d d7 87 95 3d
       -0.03698899 0.5008702 0.037716564 0.073013
000380 11 7e cf bd d8 f0 71 be ff ab 49 3d 4c b8 1d be
       -0.10131467 -0.23627031 0.049236294 -0.15402335
000390 ba c6 2f be eb a4 f3 3d 93 e0 af bd 3d f7 a2 be
       -0.17165652 0.1189669 -0.08587756 -0.31829253
0003a0 29 e3 bf be 59 72 c8 bc ea ad 1b be f6 4c 4e bd
       -0.37477997 -0.024468588 -0.15203062 -0.050366364
0003b0 78 17 ac bd b9 91 79 be 89 36 23 be 86 ac 1c be
       -0.08402914 -0.24371995 -0.15938772 -0.15300187
0003c0 98 90 8a 3e d3 3a 8b bd b1 0b 0d 3e 9b e5 ab 3c
       0.2706344 -0.06798329 0.13773991 0.020983508
0003d0 21 9e 25 3e 21 20 d4 be 95 bd 35 3e 6b 73 a5 3e
       0.16173603 -0.41430762 0.17748101 0.3231462
0003e0 c3 fb 17 be 62 28 0e 3e 5c c3 c4 be f9 d7 07 be
       -0.14842133 0.13882592 -0.38430297 -0.13265981
0003f0 6c 76 b0 be 87 a7 53 3e e1 57 80 be c8 ac 59 be
       -0.3446535 0.20669375 -0.25067046 -0.21257317
