weights/4. triplet loss model - models/2. 456 epochs/fully_connect_last.pt (torch, 533316 bytes, 10 tensors)

linear00.weight f4 [256, 352]
000000 41 c3 c1 3d e0 da bf 3d a6 1a 82 bc d3 9f ea 3b
       0.0946107 0.09367919 -0.015881848 0.007160166
000010 75 e1 51 be ff 5d a5 bb cd d8 cb bd ce f8 23 3a
       -0.20496161 -0.0050466056 -0.09953461 0.00062550313
000020 24 02 d5 3d 1d a6 2a be 3d a2 c2 bd 99 b3 3e 3e
       0.10400799 -0.1666493 -0.09503601 0.18623199
000030 39 aa 6b bd 7f e3 b2 3b a8 b8 cc bc 26 01 3a 3e
       -0.057535384 0.0054592486 -0.024990395 0.181645
000040 84 d9 62 be f7 6a b8 3c 91 60 cc 3d 29 ea 3d 3e
       -0.22153288 0.022511942 0.09979356 0.18546356
000050 b2 60 f2 3d fc 13 ae 3d 63 ae e8 3c 9a 5a 93 3d
       0.118348494 0.084999055 0.028403467 0.07195015
000060 ad d8 38 3d 61 9f 0d be f8 19 8c 3d c1 a5 15 bd
       0.045128513 -0.1383033 0.06840891 -0.03653503
000070 4e 93 d0 3d 5d 6f 06 3d 95 3d 34 bd 6c 52 63 3c
       0.10184346 0.032821048 -0.04400404 0.013874631
000080 08 28 77 bd 21 92 5f 3c 39 ba fc bb 45 82 c2 3b
       -0.06034091 0.01364568 -0.007712629 0.0059359395
000090 60 55 c7 bd e8 f8 28 bd 34 9e 9b bc 06 18 72 bd
       -0.09733081 -0.041253 -0.018996336 -0.05910494
0000a0 36 a3 a2 3d 97 9b ed 3d 7b fe 17 bd ae 66 d6 bd
       0.07941286 0.11601942 -0.037107926 -0.10468803
0000b0 8b 24 76 3d 43 78 7f 3d 8b ad 80 be ac 8c 98 bd
       0.060093444 0.06237055 -0.25132403 -0.07448706
0000c0 c6 7c 8c bc 94 88 5c 3d 58 be 42 3d 2e f9 20 bd
       -0.01714934 0.05384119 0.047544807 -0.039300136
0000d0 1f 0c 7b bc bc 25 41 bd 9f f5 a7 bd e6 26 03 be
       -0.015322714 -0.047155127 -0.082011454 -0.12807807
0000e0 71 e1 0e 3e 75 30 15 bc b7 da ca bd c5 3c 1b 3e
       0.13953187 -0.009105791 -0.09904998 0.151599
0000f0 7e 9e 92 bc 21 c2 35 be 52 82 08 be ca 42 15 3e
       -0.01789784 -0.17749836 -0.13330963 0.1457626
000100 e4 11 c0 bd 63 cb 30 bd a8 29 04 3e a2 d1 79 bc
       -0.09378412 -0.043162715 0.12906516 -0.015247734
000110 45 26 93 3d 12 67 0d 3d 6d 95 3d bd 6a e4 29 3e
       0.07185034 0.034522124 -0.04628508 0.1659104
000120 0e 6c 14 3e da 5e 56 3d cd 12 14 bd da ec 71 3c
       0.14494345 0.05233655 -0.036150742 0.0147659425
000130 9a 75 1c 3d 7e 20 8e 3d d7 43 f7 bd 0f 44 e2 3d
       0.03819809 0.06939791 -0.12073486 0.110481374
000140 ed 14 95 bd 51 de 3d bd e5 62 7b bb 3a 34 e7 3d
       -0.07279382 -0.046354596 -0.0038358506 0.11289258
000150 48 e7 8d 3c f3 b2 11 bc d6 98 bb bd dd 80 bd ba
       0.017322198 -0.0088927625 -0.091600105 -0.001445796
000160 66 f3 2b 3e f2 cf ad 3a 3c fb 11 3d c2 35 81 3c
       0.16792068 0.0013260825 0.035639986 0.015772704
000170 7b d3 c7 bc 85 b6 c9 bd 14 7b 15 be c8 eb 78 3d
       -0.024392834 -0.09849266 -0.14597732 0.060771734
000180 2a 2b 90 3d 7a 99 cb bc e7 f0 b3 bd c3 fe 53 bd
       0.07039483 -0.024853457 -0.08786183 -0.05175663
000190 65 2b c1 bc f7 32 94 bd 57 50 1d 3c 54 fe a9 bc
       -0.023580262 -0.07236283 0.009601674 -0.020751156
0001a0 13 16 3b 3d f5 57 d1 3b 8b 77 ac 3d 54 27 90 3d
       0.04567535 0.006388659 0.084212385 0.07038751
0001b0 e9 3b 18 3e bc 5a 01 3d 49 f2 df 3d 08 e3 9d 3d
       0.14866604 0.03158067 0.10934884 0.077093184
0001c0 43 8b 90 bc 9b de 83 bd 06 f2 4e 3d 28 e4 23 bc
       -0.01764453 -0.06438943 0.05052378 -0.010003127
0001d0 9b f1 e7 3d 9e c7 b3 3c 8d 69 87 3d 8c 57 19 3e
       0.113253795 0.02194577 0.06611929 0.14974803
0001e0 dd 84 d5 3d fc 3e b3 3d 21 8e 24 3d 62 a6 bd bc
       0.10425732 0.08752248 0.040174607 -0.023150627
0001f0 ab 22 91 3d 79 ff 00 be c0 51 7d bc 71 66 e6 3d
       0.070866905 -0.12597455 -0.015461385 0.11250008
000200 a0 e4 e1 bc bb 8b 0b bd 52 1c 85 bd fd 41 cd bc
       -0.027574837 -0.034068804 -0.06499542 -0.02505588
000210 d1 f2 22 bd a5 c4 cb 3b 58 b4 bf 3a cf b2 9a bc
       -0.03978235 0.00621851 0.001462589 -0.01888409
000220 ee 5b 40 3d c6 8e 0a be dc b5 ba 3d 24 e0 02 bd
       0.04696267 -0.13531026 0.09116718 -0.03195204
000230 8c 0f b4 3d 6e 88 0c be 68 4f aa 3d 01 4c bb bd
       0.08792028 -0.13723919 0.08315927 -0.09145356
000240 c1 87 81 bd 03 35 b5 bb 40 4e 99 bd 7d 7d be 3c
       -0.06324721 -0.005530001 -0.07485628 0.023253197
000250 1d 93 1b 3d 04 b8 3f 3d 3b 7d 85 bd fc 8d dd bd
       0.037982095 0.04680635 -0.065180264 -0.10818097
000260 4b 98 d8 3c ca 34 a4 3c 20 dc 2e bd 74 23 90 bd
       0.026439806 0.020044703 -0.042690396 -0.07038012
000270 6c 48 ee 3c 14 f3 d0 3d ac 8b 7b 3d ca 89 5a bc
       0.029087268 0.102026135 0.0614125 -0.013338516
000280 71 6e a9 3d bb 84 6d bd b2 38 ce 3d 5b ff 45 3c
       0.08273018 -0.05798791 0.100694075 0.012084807
000290 a1 ca 9f bd 74 13 93 bd 16 b1 26 be fa 56 bd bd
       -0.0780232 -0.07181445 -0.1627849 -0.09245105
0002a0 46 f4 92 3d 9d c7 2e bd e0 01 f3 bc 36 5e 81 3d
       0.07175498 -0.042670835 -0.02966398 0.063167974
0002b0 df ac 85 3e fb 7c 01 bc 1c 6f 6e be f7 b7 2c bc
       0.26108453 -0.007903333 -0.23284572 -0.0105419075
0002c0 fd 22 21 bd 13 d7 08 bd 93 42 18 3d 0e 40 02 be
       -0.039340008 -0.033408236 0.037172865 -0.12719747
0002d0 28 c3 e7 bd 45 e4 80 3c 61 40 c5 bd fd e1 b7 bd
       -0.1131652 0.015733847 -0.0963142 -0.08978651
0002e0 c0 a8 b7 3d 10 3e ec bc 7c 2c 91 bc 68 e6 01 3e
       0.089677334 -0.028838187 -0.017721407 0.1268555
0002f0 af ec da 3d d8 2f 9e bc 5c a9 43 be 60 7f 4b be
       0.10689675 -0.019309923 -0.19107574 -0.19872808
000300 c6 d6 6b 3c 91 54 b6 ba 53 17 5b 3e d4 95 37 3e
       0.014394468 -0.0013910701 0.21395616 0.17928249
000310 45 de f5 bc 1c 36 42 bc 2a c2 32 3e f8 1d 2b bd
       -0.030013213 -0.011853721 0.1745688 -0.041776627
000320 7b 63 8e 3a 69 37 a7 be f4 af 84 bc 18 25 21 bd
       0.0010863388 -0.32659462 -0.016197182 -0.039342016
000330 47 f9 ae bc d3 c0 28 3e 5d ce 1d be b6 e7 ed 3d
       -0.0213591 0.16479807 -0.15410753 0.11616461
000340 3a 01 06 3e ea 72 03 be d2 07 cd bd 66 0c 45 3d
       0.13086405 -0.12836805 -0.10011257 0.048107527
000350 39 3d 01 be 99 6f f2 bc 52 d2 de 3c e2 01 ac 3d
       -0.12621011 -0.02959423 0.027199898 0.083987966
000360 e7 de 15 be 46 25 88 be ce 9f 4a be 2c 68 07 bd
       -0.14635812 -0.26590937 -0.19787523 -0.03305833
000370 44 c7 84 be c0 da d4 bd cf d6 7d be 77 95 f2 bc
       -0.25933278 -0.10393286 -0.24788974 -0.029612286
000380 f2 9d 46 3d bf b1 a2 3d 06 39 3b bd 4c 1a 08 3e
       0.048490472 0.079440586 -0.04570868 0.13291281
000390 d7 f5 06 bc 01 53 52 bd 67 86 25 3d 56 fb 9a bd
       -0.008237324 -0.05134869 0.04041138 -0.0756747
0003a0 8f 21 d0 ba f3 24 84 bc 14 d5 8d bd 01 ff 95 bc
       -0.0015879142 -0.0161309 -0.06925407 -0.018310072
0003b0 e4 da 82 3e ee 6c 35 bd 93 68 e8 3d 36 cd a2 be
       0.25557625 -0.044293337 0.11348071 -0.3179719
0003c0 05 b3 63 3b 2e e8 ac 3d 95 b4 49 bd 13 75 a8 3d
       0.0034744155 0.08442722 -0.049244482 0.08225455
0003d0 8b e6 ce bd 4d 72 c8 bd 8c 8c bc bd b6 11 3e 3c
       -0.10102566 -0.09787426 -0.09206495 0.011600902
0003e0 ad 1f ea 3c 50 a1 1d bd 8a 15 41 be cd ce 32 bd
       0.028579557 -0.038483918 -0.18855873 -0.04365425
0003f0 3b 7d 86 3d 7d 68 0b be 07 fe c7 bd 0f 71 5a be
       0.065668546 -0.13614078 -0.09765249 -0.21332191

linear00.bias f4 [256]
000000 a9 80 a6 3c fa e6 bc 3c 4e 9e 6f bd ce cb 4e 3d
       0.020325022 0.023059357 -0.05850058 0.050487332
000010 d2 bf 21 bd af 95 fb 35 64 a0 29 be 6b 87 29 3a
       -0.039489575 1.8744521e-06 -0.1656509 0.0006467017
000020 d5 11 b9 bd 15 1e 35 bd 0e a2 8d bd 8b ab c1 bd
       -0.09036604 -0.04421814 -0.06915675 -0.09456547
000030 48 8c 02 3d fa aa 1b be 3a e2 12 be 81 d3 67 bd
       0.031872064 -0.15201941 -0.14344111 -0.05659819
000040 f7 ad 56 3c ae 2c 31 be f5 f0 c2 3c 04 45 52 bd
       0.013103 -0.173022 0.023796538 -0.05133535
000050 fe c7 0f be 4e 4e 72 bd 53 9a 86 bc 45 9a ac 3c
       -0.14041135 -0.05915671 -0.01643101 0.021069655
000060 10 a1 9b bc 20 52 b3 3d a2 96 c6 bc f0 d4 d4 bc
       -0.018997699 0.087558985 -0.02424175 -0.025980443
000070 6f ff 4a bd ce d9 12 bd de 02 41 bd 8a 43 38 bd
       -0.049560007 -0.035852246 -0.047121875 -0.044986285
000080 c1 dc 76 3d 8c e7 68 bd b9 40 42 bd 67 9a 43 bd
       0.06026912 -0.056861445 -0.047425006 -0.04775467
000090 1e 33 93 bd 7b 94 57 bc d6 94 20 3e 2d 87 21 bd
       -0.07187484 -0.013157959 0.15681776 -0.039435554
0000a0 80 98 02 be d8 5c cf 3d 8a fa 29 bd 34 92 05 be
       -0.12753487 0.101251304 -0.0414987 -0.13044053
0000b0 9e 8f 03 b9 58 90 ed bd fb 84 c2 bd 31 1f 69 bd
       -0.00012546635 -0.11599797 -0.0949802 -0.056914512
0000c0 81 69 d0 3c 2e b2 96 bd 50 fe d1 bc 9a 17 07 3d
       0.025440933 -0.07358204 -0.025633961 0.032981493
0000d0 63 08 a4 bd 0a 73 7f bd 4a f7 0b bd b9 9a 93 bc
       -0.08009412 -0.06236557 -0.03417138 -0.018018113
0000e0 9c 1e 85 3c 41 ea 8b 3c d0 91 01 be 2b 64 07 bd
       0.016249947 0.017079474 -0.1265328 -0.033054512
0000f0 ba 8f ad bb d7 ec ad 3d 59 54 19 be 9a 04 cd 3b
       -0.0052966746 0.08492439 -0.14973582 0.006256652
000100 db f8 a5 bd 88 e0 8d bd ca d0 69 bd a6 42 c3 3b
       -0.08104106 -0.069275916 -0.057083882 0.005958873
000110 c2 5e 78 3c 31 8d 00 3b c7 97 b2 3d 87 f3 cb 3d
       0.015159311 0.0019615407 0.087203555 0.099585585
000120 ca 4d eb bd 5a b4 a3 3c 60 b8 20 bd 54 33 da bb
       -0.114894465 0.01998346 -0.039238334 -0.006658951
000130 55 2f d8 3c f5 13 b5 3d 97 9d 9d bd f7 a1 1e bd
       0.026389757 0.08841697 -0.076960735 -0.03872868
000140 98 13 c8 bc 73 72 0a 3d 93 6e b0 3c 44 a5 e2 3c
       -0.024423406 0.033800554 0.0215371 0.027666695
000150 3c a7 b9 bc de 26 e8 bc 5f aa 4a bb 33 a3 1e be
       -0.022662751 -0.028338846 -0.0030924303 -0.15491943
000160 f0 28 06 bd f2 c6 1d 3d f2 e4 2d bd d6 25 e8 bc
       -0.032753885 0.038519807 -0.042454667 -0.028338354
000170 82 69 0a 3d 9e e5 43 bd 57 ee d0 3c df 61 0f bd
       0.033792026 -0.047826402 0.025504274 -0.035005447
000180 bf 5b 14 3d 73 8c 03 bd d7 29 17 bd e1 6a 2b bd
       0.03622031 -0.032116365 -0.036905136 -0.041849975
000190 de 60 9d bc de 41 3f be 35 9f ca bd 46 2b 81 bd
       -0.019211229 -0.1867747 -0.098936476 -0.06307082
0001a0 2d f7 08 be 13 1e 35 3c d0 0b 8e 3c c9 00 91 3d
       -0.1337554 0.0110545335 0.017339617 0.07080228
0001b0 f8 d6 17 3b 71 71 3a be 26 e8 55 3d 32 8a 41 be
       0.0023168903 -0.18207337 0.052223347 -0.18900374
0001c0 21 ee 16 be 5f 97 93 bb 62 06 e6 bd 11 b3 3c bd
       -0.14739276 -0.004504129 -0.11231686 -0.04606921
0001d0 a8 74 9c 3d 93 44 7a bc 33 05 b5 bd 73 f3 df bd
       0.07639438 -0.015275138 -0.08838882 -0.10935106
0001e0 e9 f8 77 bc d6 4b 52 bd fd cd 3d bd 80 73 6b 3d
       -0.015135028 -0.051341854 -0.046339024 0.057483196
0001f0 21 f2 48 bd 69 bd 0c bd ea 53 51 bd 13 52 96 bd
       -0.049059037 -0.034360323 -0.051105417 -0.07339873
000200 38 99 0b bd 93 80 84 bd 06 a8 1c be e6 0d 5c 3c
       -0.034081668 -0.06469836 -0.15298471 0.013431048
000210 a8 7b e8 bb 27 08 81 3c ef df 81 bd 18 11 65 bd
       -0.007094819 0.015750958 -0.0634154 -0.055924505
000220 0f 22 43 bd d7 2b de bd f3 29 c3 bd df 75 2c 3b
       -0.047639903 -0.108482055 -0.095294856 0.0026315374
000230 47 4e c5 bd c9 6e f2 bd 80 3c f2 bc e5 ec a8 3a
       -0.09634071 -0.11837537 -0.029569864 0.0012887983
000240 10 27 2e be bf d7 1b be 5e a8 00 be 03 04 6a bd
       -0.17007089 -0.1521902 -0.12564227 -0.057132732
000250 9f 4c 3d bc 7b 2c f2 3c a8 5b c0 bd 58 81 8e 3d
       -0.011553912 0.029562226 -0.09392482 0.06958264
000260 54 00 15 bd 8d 25 93 bc 8a b2 ea bd 7e a4 e3 3d
       -0.036377266 -0.017962242 -0.11459835 0.11115359
000270 30 ae 54 be 9f 9f 30 3d d0 1d 56 bc 50 4e 87 bd
       -0.20769572 0.043120977 -0.013068631 -0.06606734
000280 f1 2b a0 3b c9 b6 1b be 7d da d1 bd 7d e4 36 3d
       0.0048880507 -0.15206446 -0.102467515 0.044651497
000290 00 49 87 bd cc ee f0 3c 7f 5f 7b 3b 45 d7 4e bd
       -0.066057205 0.029410742 0.003835648 -0.050498266
0002a0 b8 54 0a be 2b 7c 07 3d 98 42 61 bd 9b 05 c1 3c
       -0.1350888 0.0330774 -0.05499515 0.023562243
0002b0 1c 0a 9b bd 75 aa e4 3b f9 c6 05 3d 82 f2 98 3d
       -0.075702876 0.006978328 0.03266046 0.0746813
0002c0 2e 47 f4 3c 8b 0b f5 bc dd a4 f7 bd a4 d0 9f bb
       0.029819097 -0.02991273 -0.12091992 -0.004877167
0002d0 ee 9d cd bd 5c 77 2b 3b 0a ae 49 3d cc be 6e bc
       -0.10039888 0.0026163673 0.049238242 -0.014571857
0002e0 58 37 fc 3d ff 1c 49 3d ca b0 32 be 7d b2 81 3d
       0.123152435 0.04909992 -0.17450252 0.06332872
0002f0 0d 1b 0a 3d bb 7e 16 be d3 c0 23 bd 81 f1 46 3d
       0.033717204 -0.14696781 -0.039978813 0.04857016
000300 95 4e 61 bd 8b d5 c5 bd 0f 72 f2 3c f8 5e 68 bd
       -0.055006582 -0.09659871 0.029595403 -0.056731194
000310 e8 da f4 3d 1c 39 e5 3c 42 d4 3b 3d c7 4f 06 3d
       0.119558156 0.027981333 0.04585672 0.032790925
000320 7f 74 e5 bd 98 11 a2 3d c9 a5 a7 bd b3 9c 62 3d
       -0.112038605 0.07913512 -0.08185918 0.05532522
000330 1a 0e a8 3d db 05 c2 3c ee f2 27 bc 75 1a fe bc
       0.08205815 0.023684433 -0.01025079 -0.031018475
000340 b9 64 94 bc 22 ac 95 3d d8 67 62 bb ce 35 83 bd
       -0.018114435 0.07308222 -0.003454676 -0.06406747
000350 2e 0c c9 3c 77 1f 50 bd ef af 2b 3c 42 0e 9b bd
       0.02454194 -0.050811257 0.010478958 -0.07571079
000360 12 b9 0d 3d a6 a2 97 bd 3f 3e 1e 3d 7a e8 14 be
       0.034600325 -0.074040696 0.03863358 -0.14541808
000370 62 46 82 3d c7 af 9f bd 28 3f a7 bd 31 0d 73 bd
       0.06361081 -0.07797199 -0.08166343 -0.059338752
000380 03 e2 21 bc ac 9d 34 bb be 4d c5 bd de 71 13 be
       -0.009880546 -0.00275598 -0.09633969 -0.14398906
000390 45 a6 31 bd 4b 03 db bd e8 65 1b be 93 7d fe 3c
       -0.043371458 -0.106939875 -0.15175593 0.031065738
0003a0 d6 30 f0 bd 67 16 8a bc a1 35 2e bd d1 44 09 3d
       -0.11728065 -0.016856385 -0.042531613 0.033512894
0003b0 76 74 e8 bd 37 53 5d bc 32 06 e9 bd 3c a2 83 bc
       -0.11350338 -0.0135086095 -0.11378135 -0.01606857
0003c0 fb d5 a2 bd 89 e2 a8 bd 31 bf 0f be f7 80 c2 3d
       -0.0795097 -0.08246333 -0.14037777 0.09497254
0003d0 f5 aa bf 3b da 84 05 bd 51 c9 cd bd 04 0f eb 3c
       0.005849237 -0.0325974 -0.10048164 0.028693683
0003e0 8f de 77 3d 24 4d d0 bc b6 20 b2 bc 38 b8 d2 3c
       0.060514983 -0.025427409 -0.021744113 0.025722608
0003f0 29 e3 d5 3d a2 80 8a 3c 38 30 a1 bd 67 7e c8 bc
       0.10443718 0.01690704 -0.07870525 -0.024474336

batch_norm00.weight f4 [256]
000000 b1 6b fc 3f 2d e0 f3 3f d6 5f 00 40 13 96 ef 3f
       1.9720365 1.9052788 2.0058494 1.8717674
000010 c6 12 00 40 91 3e fd 3f 1d 2e 01 40 ee d8 f8 3f
       2.0011458 1.9784719 2.0184395 1.9441202
000020 ce 89 f3 3f b3 64 f9 3f ca 03 f2 3f f2 88 f7 3f
       1.902643 1.9483856 1.8907406 1.9338667
000030 a9 c4 fa 3f 37 18 fc 3f 3e 89 fd 3f 3b f9 f0 3f
       1.9591266 1.969489 1.9807508 1.8826059
000040 bf d0 f1 3f 91 16 e8 3f ff 99 f6 3f 26 a9 ee 3f
       1.8891829 1.8131887 1.9265746 1.864537
000050 4d 89 fd 3f 56 50 df 3f fd e6 f1 3f 51 0f f6 3f
       1.9807526 1.7446392 1.8898617 1.9223424
000060 6b 73 fb 3f 30 a9 f2 3f ef ea 00 40 21 4b f9 3f
       1.9644598 1.8957882 2.0143392 1.9476053
000070 63 42 00 40 5a e7 f5 3f 3b 28 fe 3f f7 c0 ef 3f
       2.004052 1.9211228 1.9856027 1.8730763
000080 a3 a8 f7 3f 49 d2 ec 3f 71 53 fb 3f 8f e0 ee 3f
       1.9348339 1.8501674 1.9634839 1.866228
000090 de fd ea 3f 8b 79 ed 3f 0c 12 fc 3f 7e 84 f8 3f
       1.8358724 1.8552717 1.9693007 1.9415433
0000a0 dc 27 ef 3f f5 7c f0 3f c6 0b fd 3f bf 31 05 40
       1.8684039 1.8788134 1.9769218 2.0811613
0000b0 04 8c 06 40 af 76 f8 3f 16 8b f3 3f f7 77 e3 3f
       2.1022959 1.9411219 1.9026821 1.7770985
0000c0 a5 93 ef 3f 1b 01 da 3f 4a a3 fd 3f 9e fe e8 3f
       1.8716933 1.7031587 1.9815457 1.8202703
0000d0 52 79 ee 3f b3 50 eb 3f 20 23 df 3f a1 43 fe 3f
       1.8630774 1.8384002 1.7432594 1.9864389
0000e0 a7 14 db 3f 01 6a eb 3f 99 e1 f8 3f f9 3d f9 3f
       1.7115678 1.8391725 1.9443847 1.9472038
0000f0 d5 6b e6 3f b9 43 ef 3f 26 01 ff 3f 1b a8 fa 3f
       1.8001658 1.8692542 1.9922225 1.9582552
000100 2b b0 fc 3f 7c 55 f9 3f 8c 36 f2 3f d1 c6 02 40
       1.9741262 1.9479213 1.8922896 2.0433848
000110 92 06 ed 3f 0b ad e7 3f b8 65 e8 3f 80 15 ff 3f
       1.851763 1.8099684 1.8156042 1.9928436
000120 5a 34 f6 3f e8 61 02 40 18 e0 e7 3f b8 4a eb 3f
       1.9234726 2.0372257 1.8115263 1.8382177
000130 62 72 02 40 64 45 f7 3f 33 52 ea 3f 90 8d 01 40
       2.0382314 1.9318051 1.8306335 2.0242653
000140 83 ff ed 3f 36 a4 dc 3f 32 f3 01 40 56 e1 eb 3f
       1.8593601 1.7237613 2.0304685 1.8428142
000150 81 52 02 40 ca d8 e9 3f 99 5d f8 3f 30 8c f2 3f
       2.0362856 1.8269284 1.9403564 1.8949032
000160 c7 3d ff 3f bb 3d f2 3f 27 5c ef 3f 51 50 ef 3f
       1.9940728 1.8925089 1.8699998 1.8696386
000170 07 00 04 40 fa 6c f1 3f f6 da f9 3f 82 84 fc 3f
       2.0625017 1.8861382 1.9519947 1.9727938
000180 63 e8 fa 3f 84 31 ea 3f 05 08 ee 3f 59 18 f6 3f
       1.9602169 1.8296361 1.8596197 1.922618
000190 42 f7 f0 3f 83 85 fa 3f ea 2f f9 3f 70 e5 f9 3f
       1.8825457 1.9571995 1.9467747 1.9523144
0001a0 d3 f2 00 40 00 30 f4 3f 42 8c 01 40 74 c8 f7 3f
       2.0148208 1.9077148 2.0241857 1.9358048
0001b0 31 04 f2 3f 94 39 f3 3f 26 59 fa 3f 3b e7 f2 3f
       1.8907529 1.9001946 1.9558456 1.8976816
0001c0 f7 d9 f8 3f 8a c6 f0 3f 0a 8c 03 40 ff ba e8 3f
       1.9441518 1.8810589 2.0554223 1.8182067
0001d0 4a 7c 00 40 6d cc ef 3f 0b 18 04 40 1c 46 f0 3f
       2.007586 1.8734261 2.0639675 1.8771396
0001e0 3e ef f3 3f 7d 59 f1 3f 88 2f 00 40 b9 a1 d3 3f
       1.9057386 1.8855435 2.002901 1.6533729
0001f0 e3 e5 01 40 70 cc ef 3f a1 5d f6 3f 79 39 ec 3f
       2.0296562 1.8734264 1.9247323 1.8455039
000200 90 16 ec 3f 02 6b f7 3f ec 43 f1 3f 81 07 f4 3f
       1.8444386 1.9329531 1.8848853 1.906479
000210 8c 98 ff 3f ec c3 e8 3f 1b 92 fd 3f 44 b4 ef 3f
       1.9968429 1.8184791 1.9810213 1.8726888
000220 4a 63 05 40 a8 75 fe 3f 6e ce 03 40 62 94 ee 3f
       2.0841851 1.9879656 2.0594745 1.8639033
000230 4a d1 07 40 07 fd e2 3f 3a 61 f8 3f 2f de f5 3f
       2.122149 1.7733468 1.9404671 1.920843
000240 f9 88 01 40 eb 3a fb 3f f9 91 e6 3f 61 35 fc 3f
       2.0239851 1.9627355 1.8013297 1.970379
000250 d6 29 f9 3f ee e3 f0 3f 68 76 00 40 d9 99 05 40
       1.9465892 1.8819559 2.007227 2.087515
000260 ea 2c e8 3f e1 0f e2 3f 04 5a ea 3f 83 17 00 40
       1.8138707 1.7661096 1.830872 2.001435
000270 31 df f3 3f 6e c8 eb 3f 14 dd fa 3f 8a a6 f8 3f
       1.9052488 1.8420541 1.9598718 1.9425824
000280 bb 8e f3 3f 09 87 00 40 39 f3 03 40 65 f6 00 40
       1.9027933 2.008242 2.0617201 2.0150387
000290 93 a9 ec 3f af 87 03 40 0e 3e f3 3f ed 96 fc 3f
       1.848925 2.0551565 1.9003313 1.9733559
0002a0 66 48 f2 3f 0f c9 ed 3f 1e ef f1 3f 2d aa fb 3f
       1.8928344 1.8576983 1.8901098 1.9661309
0002b0 9f ad fe 3f ec f5 f3 3f a7 29 e7 3f 72 9a fd 3f
       1.9896735 1.9059424 1.8059586 1.9812758
0002c0 a9 3b f9 3f 96 b5 f2 3f 2b 7e ff 3f a8 5b f0 3f
       1.9471332 1.8961666 1.9960378 1.8777971
0002d0 0a 64 ed 3f 2f eb fb 3f a6 a5 ee 3f a1 a7 0a 40
       1.8546154 1.9681147 1.8644302 2.1664813
0002e0 e4 d4 ff 3f c2 42 f0 3f 4d 13 ee 3f 62 55 f2 3f
       1.9986844 1.8770373 1.859964 1.8932307
0002f0 49 c4 db 3f 77 77 f6 3f 36 96 01 40 38 88 ef 3f
       1.7169276 1.9255208 2.0247931 1.8713446
000300 ff fd 01 40 f6 05 ea 3f 49 9a e8 3f f5 e3 ec 3f
       2.0311277 1.8283069 1.8172084 1.8507067
000310 5c 5d 01 40 1a 88 e8 3f 0a 83 f4 3f 27 2e f2 3f
       2.0213232 1.8166535 1.910249 1.8920335
000320 a5 8a ec 3f 54 6c f0 3f cf b8 fc 3f 80 cb f3 3f
       1.8479811 1.8783059 1.9743899 1.9046478
000330 97 3c 00 40 25 09 f3 3f c5 33 fb 3f 65 e0 f1 3f
       2.003698 1.8987166 1.9625174 1.8896605
000340 e5 04 eb 3f 79 e2 ee 3f 2d 3c df 3f 9b cd ed 3f
       1.8360869 1.8662864 1.7440239 1.8578371
000350 42 3b fc 3f 48 83 f2 3f 6d 74 f8 3f 51 41 f9 3f
       1.9705584 1.8946314 1.941053 1.9473058
000360 06 36 fe 3f a3 6f f9 3f c0 4f f3 3f 7b 96 01 40
       1.9860237 1.9487194 1.9008713 2.0248096
000370 8e cd fc 3f 19 fb ea 3f 93 24 ea 3f 9c 9b fa 3f
       1.975023 1.8357879 1.8292412 1.9578738
000380 e4 65 e3 3f 83 e5 e5 3f af 16 ee 3f 65 e5 fd 3f
       1.776547 1.7960666 1.8600672 1.9835631
000390 eb 6a fa 3f aa a6 fc 3f b5 e3 03 40 25 44 f4 3f
       1.9563879 1.9738362 2.0607731 1.9083296
0003a0 72 28 fc 3f f4 be e6 3f 1b 45 ef 3f 68 93 ef 3f
       1.9699843 1.8027024 1.8692964 1.871686
0003b0 40 ba f8 3f 74 39 ec 3f 0e 9f e1 3f cb fc fd 3f
       1.9431839 1.8455033 1.7626665 1.9842771
0003c0 e8 a7 02 40 9a ef f1 3f 89 d7 fb 3f da 1d ee 3f
       2.0414982 1.8901246 1.9675151 1.860286
0003d0 97 d9 f7 3f e6 40 f7 3f eb ea f5 3f 04 ec f5 3f
       1.9363278 1.931668 1.9212316 1.9212651
0003e0 6e 28 f3 3f 00 c4 fb 3f 23 32 f2 3f 1e 83 e9 3f
       1.8996713 1.966919 1.892155 1.8243139
0003f0 70 02 f1 3f bb 1e e2 3f 2c 94 e6 3f 46 88 f8 3f
       1.8828869 1.7665628 1.8013968 1.9416587

batch_norm00.bias f4 [256]
000000 7f 08 8b 3e 33 cf 49 bd b0 57 56 bf 97 d6 1e 3e
       0.2715492 -0.049269866 -0.8372755 0.15511547
000010 7f 3e db 3e 9c 0b db be bb d0 15 bd 11 ad 64 bf
       0.42821118 -0.42782295 -0.036576014 -0.8932658
000020 36 26 84 3e 1b 33 96 be 28 b6 3a 3e 40 97 af 3d
       0.25810403 -0.29335865 0.1823355 0.085737705
000030 03 53 f1 be 6f 8f 7d be cd a1 81 3e aa 65 71 bf
       -0.47133645 -0.24761747 0.25318757 -0.9429575
000040 7b cc bf 3e 37 a8 41 bf 6c 5e 5e be 65 2f 6c 3f
       0.37460694 -0.756473 -0.21715707 0.9225982
000050 be e1 22 bf 22 79 62 3f f5 37 a2 3e ad 3a c4 be
       -0.63625705 0.88466084 0.31683317 -0.38326016
000060 33 cc 6a be 25 21 5f 3e de e4 15 bf b9 86 9a 3e
       -0.22929458 0.21789987 -0.5855235 0.3018091
000070 5b c6 b3 be 20 7d fc 3b 92 a8 d9 bd 32 27 7b be
       -0.3511227 0.0077053457 -0.10627855 -0.2452667
000080 89 95 a3 be 19 31 3e 3e 3d 5e 36 be c7 0c 82 3e
       -0.31950024 0.18573417 -0.17809387 0.25400373
000090 9f a1 67 3d 88 0d ad be 32 3e f0 3d 9c 63 06 be
       0.05655062 -0.33799386 0.11730613 -0.13123935
0000a0 dd f5 67 be 02 f0 c0 3e 1f a5 36 bf 23 2d fa 3d
       -0.22652383 0.3768311 -0.71345705 0.122156404
0000b0 1a 2e 36 3e 59 92 59 3e 6b 44 1d bf ec dd 04 bf
       0.17791024 0.21247233 -0.6143252 -0.51901126
0000c0 2b bb 57 3e a6 c5 21 3f 77 59 e3 be c1 43 81 3e
       0.21067493 0.6319221 -0.44404194 0.25247005
0000d0 36 64 fa be 07 e7 0c 3f d3 9b ef be f4 76 c8 3e
       -0.4890458 0.5504002 -0.46798572 0.39153254
0000e0 fa 91 4f bf 65 26 2a 3e 87 c3 67 bf e0 ef e8 be
       -0.8108212 0.16616209 -0.90532726 -0.4549551
0000f0 75 5b 6e 3e 8e a9 d8 3e 1d 1b f5 be f8 65 51 bf
       0.23277076 0.4231686 -0.47872248 -0.81796217
000100 94 84 ba bd 3b bd cb 3e 88 59 1c bf bb c6 8d be
       -0.091073185 0.3979281 -0.61074114 -0.27690682
000110 1c e3 18 3c 72 db 41 bd 37 b2 2d 3f 1f 72 02 bf
       0.009331491 -0.04732842 0.6785006 -0.50955385
000120 72 f5 ec 3b 14 27 ed bd 87 9f 1e 3f 64 52 af be
       0.007231408 -0.11579719 0.6196217 -0.34242547
000130 99 57 7a 3e ae b6 a9 3e f1 a4 f3 be fb e8 5b bf
       0.24447478 0.33147186 -0.47586778 -0.85902375
000140 0e 2d 3e 3d eb 79 8a bf ce fa 58 be 7d 31 fb 3e
       0.046429686 -1.0818456 -0.21189424 0.49061194
000150 b0 b9 87 3c 8a ec 48 bf 3e a7 05 3f b0 55 1b be
       0.016568035 -0.7848593 0.52208316 -0.15169406
000160 4b 33 3e 3e a7 52 dc be f3 51 e0 3e 80 74 00 bd
       0.18574254 -0.4303181 0.43812522 -0.031361103
000170 c9 c8 87 be 9c 65 9a be 0a 8a ac 3d 75 3a d4 be
       -0.26520374 -0.30155647 0.08424766 -0.4145085
000180 ee 99 d7 bd 54 49 58 bf 2e 61 86 bf 0c ed c6 3e
       -0.10527407 -0.8448689 -1.0498407 0.38852727
000190 eb 7d 8b be 73 d0 21 be 3e e3 15 bf 89 bd bf bd
       -0.27244505 -0.15802173 -0.5854987 -0.09362323
0001a0 2e 9f e2 3d 69 96 01 3f 1e c1 eb 3e 3d bb 54 3e
       0.11065517 0.5062013 0.46045774 0.2077455
0001b0 8c 5b a2 3d 5b b2 a0 be 56 67 5c 3e 61 36 22 bf
       0.079276174 -0.31386074 0.21523795 -0.63364226
0001c0 b4 29 ef be 9f 5f b2 3e 2f 4b 54 3e b0 2e bc be
       -0.46711504 0.34838578 0.20731805 -0.3675437
0001d0 ca 52 c6 3e f6 c9 cd 3e ca 95 85 be 97 1b 03 3f
       0.38735038 0.40193146 -0.26090842 0.51213974
0001e0 87 87 c7 be 28 51 13 3e 6b 66 60 3c 41 1f 8e 3f
       -0.38970587 0.14386427 0.013696293 1.1103288
0001f0 4b c0 13 be 26 ff b8 3e 16 54 ba 3e ae cf 41 3f
       -0.14428823 0.36132163 0.36392277 0.7570752
000200 4a 16 fc be 6c 23 5d bf e6 9f 67 bf 82 d8 18 3f
       -0.49235755 -0.86382174 -0.9047836 0.59705365
000210 d9 14 3c 3e 33 ed 78 3e 93 30 cf be 1c f6 2e 3f
       0.18367328 0.24309234 -0.40466747 0.68344283
000220 6f 6a f1 bd f4 d5 76 3a 61 db 98 3e d8 86 25 be
       -0.11787879 0.0009416037 0.29854873 -0.1616472
000230 65 f8 d4 be db 32 f2 bd 65 a3 25 3e 3e 16 db 3e
       -0.4159576 -0.11826106 0.16175611 0.42790407
000240 40 c5 3c 3e f7 6d 58 be 12 83 24 3f 2f f8 5f 3d
       0.1843462 -0.21135698 0.642625 0.054680046
000250 b9 6b 7a be cd 4c 44 3f b7 a8 8e bd 73 86 e9 be
       -0.24455155 0.7667969 -0.069657736 -0.4561039
000260 1e 74 48 bf 40 cf ff 3c 92 13 6f 3f 50 5b 0c 3e
       -0.7830218 0.031226754 0.93389237 0.13706708
000270 8b 3c 4c bf 6f ee 0d 3f 48 35 34 3e 1f 76 b5 be
       -0.7977988 0.55441946 0.1759845 -0.35441682
000280 7d 70 ac 3d 1c 91 7a be 33 5f 77 bd cb bc ad 3e
       0.08419893 -0.24469417 -0.060393523 0.339331
000290 46 85 86 bd 46 4e 20 3e d1 bb 64 be 5c 1d c7 3e
       -0.06568389 0.15654859 -0.22337271 0.38889587
0002a0 e4 06 f8 bd e0 95 72 bc 49 be 27 bf a3 3a b2 3e
       -0.12110689 -0.014806241 -0.6552473 0.3481036
0002b0 65 9f 0c 3e 0d 7f a7 3e 0b fb 4c 3e e2 3c 32 bf
       0.13732679 0.3271412 0.2001764 -0.6962415
0002c0 62 77 b5 3e 5c f2 0e be 36 bd 94 3d 61 ce 78 3e
       0.35442644 -0.1395964 0.072626516 0.24297477
0002d0 56 fc fa 3d c7 bb 3e bf 15 20 5a bb 47 9c 17 bf
       0.122551605 -0.74505275 -0.0033283283 -0.59222835
0002e0 17 95 99 3d c0 c9 41 3f 0a b9 f2 3e c2 1d 81 be
       0.0749914 0.7569847 0.474068 -0.25218016
0002f0 73 c3 c5 3e 50 00 6f be 20 6f 8d bf 88 b5 cd 3e
       0.38625678 -0.23339963 -1.1049538 0.4017756
000300 36 a2 01 3d 88 7f 62 bf 4f e3 10 3f 09 a2 07 3e
       0.031648837 -0.8847585 0.56596845 0.13245405
000310 92 e7 70 bf fe d3 f1 3d 0a ac a1 be ec d4 3e bf
       -0.9410335 0.118080124 -0.31576568 -0.74543643
000320 d4 87 1e bf f3 55 16 bd 65 44 66 3e 24 6b c5 bc
       -0.6192601 -0.03670306 0.22487028 -0.02409894
000330 b3 a0 cf 3e f6 9d 60 be 78 75 cd bd 83 30 d5 bd
       0.4055229 -0.21935257 -0.10032171 -0.104096435
000340 44 bf 0a bf 9c ea 98 3e 7a ec 30 3f 0b be 98 3c
       -0.541981 0.29866493 0.69110835 0.018645307
000350 21 fa 21 bf e4 21 61 3f 3f f2 d9 bd 3e 5f 96 be
       -0.6327229 0.8794234 -0.10641908 -0.2936954
000360 1a b1 42 be e8 a3 45 be 4c dd 59 3e de bf 4f bf
       -0.19012871 -0.19300807 0.21275824 -0.8115214
000370 9d cf 6f 3d 63 bf 3c 3e 6a db 12 3e 3d ac 27 3e
       0.058547605 0.18432383 0.14341512 0.16374297
000380 4d 0c 5c 3f fa 7c 46 3f 30 07 ab be 4b 01 a8 bd
       0.8595627 0.7753445 -0.3340392 -0.082033716
000390 2b 18 ed be 94 e8 ee bd 36 11 1a bf f5 34 d6 bc
       -0.463075 -0.116654545 -0.6018251 -0.026148299
0003a0 a4 44 36 3e 60 5e 7d 3e c7 7c fd 3e ee 0c 06 3f
       0.17799622 0.24743032 0.4950926 0.5236348
0003b0 b7 9f ea be fd 6b 68 bf ca c8 80 bf 0d 90 c3 3d
       -0.45824978 -0.9078978 -1.0061276 0.0954896
0003c0 1d 02 13 bf 63 4f 1d bf b4 85 2b bf 12 ed 38 3e
       -0.574251 -0.6144926 -0.6700089 0.18059185
0003d0 f6 bf bc 3e 2b 29 2a bf 60 eb 18 3b be b3 32 bf
       0.36865205 -0.6646907 0.0023333654 -0.69805515
0003e0 91 38 f6 3e 4e f7 f1 3e 78 7e 69 3e ff 76 ee 3e
       0.48090032 0.4725899 0.2280215 0.46575162
0003f0 1d d0 2d 3f 7f 45 32 3f 9b 49 fe bc 73 e1 e7 3d
       0.6789568 0.6963729 -0.031040957 0.11322298

batch_norm00.running_mean f4 [256]
000000 7d 3a c0 bb 92 c3 33 3c 2d 45 91 3d 19 4c fb 3c
       -0.0058663473 0.010971921 0.07093272 0.030675935
000010 2e 50 88 3d 2f 3e 6a 3d 86 79 bd 3c 25 c1 a1 3d
       0.06655918 0.05718821 0.023129236 0.078981675
000020 ae 38 62 3c ba 66 48 3d 7e d3 b5 3d b8 69 9f 3d
       0.013807459 0.048926093 0.088782296 0.07783836
000030 17 85 af 3c bc b7 6e 3d 10 2b 69 3d 32 24 2d 3d
       0.021425767 0.05828069 0.056925833 0.042270847
000040 5c b7 03 3d 49 59 39 3d f0 db 11 3d 04 08 52 3d
       0.032157287 0.045251165 0.03561014 0.051277176
000050 f9 bd d4 3d e3 59 b7 3d aa 87 6d bb 11 55 30 3d
       0.10387797 0.089526914 -0.0036244192 0.043049876
000060 b4 f5 96 3d c4 cf 72 3d 43 4e 94 3d d6 60 0b 3d
       0.07371083 0.059280172 0.0724149 0.034027897
000070 d2 3d 6e 3d 3f a6 d6 3b 42 ea 70 3d 52 a1 8a 3c
       0.058164425 0.00655058 0.058817156 0.016922627
000080 43 c4 4d 3d c4 8c d2 3d 3b da a4 3d df ec 46 3b
       0.050235998 0.10280755 0.08049437 0.0030353589
000090 26 d0 b4 3d 16 b2 09 3d a5 51 b7 3d 42 a6 2f bc
       0.08828764 0.0336171 0.08951119 -0.010720791
0000a0 59 6a 20 3d 51 73 f5 3d a9 21 dc 3b a2 7e 39 3d
       0.03916392 0.119848855 0.00671788 0.045286782
0000b0 0a 37 6f 3d d2 1c a4 3c e7 d5 52 3d e1 93 6c bb
       0.0584021 0.020033274 0.051473524 -0.0036098885
0000c0 04 2b a7 3c c9 9e 68 3d 19 84 3a 3d 8c 72 17 3d
       0.020406254 0.056792054 0.045536134 0.036974475
0000d0 3d d5 65 3d 66 3d 27 3d 00 eb e6 3c b4 de 7a bb
       0.056111563 0.04083004 0.028188229 -0.0038279714
0000e0 01 ba 3d 3b 2b 73 01 3b 00 33 79 3d 9d ed cd 3c
       0.0028949978 0.0019752483 0.060839653 0.025137717
0000f0 ad 38 9c 3c 1b cd b4 3c 17 95 aa 3d 9a 3a 11 3e
       0.019069994 0.022070458 0.08329218 0.14182511
000100 b9 6c 3a 3d eb 23 86 3c d1 6c c3 3d 5d 05 af 3d
       0.045513842 0.016374549 0.095422395 0.08545945
000110 4c 65 59 3d 1d 1e 9f 3d 12 b9 00 3d 25 c2 d8 3d
       0.05307512 0.077694155 0.031426497 0.10583905
000120 32 19 a1 3d b4 46 85 3d 98 cc a7 3d ad 0b 2f 3d
       0.07866134 0.06507626 0.0819332 0.042735744
000130 bd cb 9e 3d de f1 98 ba 6e e3 92 3b 1d 85 31 3d
       0.07753704 -0.0011668762 0.004482678 0.043339837
000140 aa 8a 2f 3d 29 75 9f 3d 12 e0 aa 3c ba af 25 3c
       0.04285685 0.077860184 0.020858798 0.010112697
000150 e9 ea fd 3c 22 8c 13 3d 5a cd 7a bc 0c b0 18 3d
       0.030995803 0.036022313 -0.015307749 0.037277266
000160 55 71 7d 3d d3 c8 82 3d 4c 93 d2 3c 31 e5 ab 3c
       0.06187566 0.063859604 0.025705002 0.02098331
000170 c2 27 3e 3d ea 4f 58 3d be 7b 3d 3a ae 09 43 3c
       0.046424635 0.052810587 0.0007228217 0.011904163
000180 a0 df a9 3d 7c 82 27 3d d4 a5 ba 3d 0b 11 76 3d
       0.08294606 0.040895924 0.091136605 0.060074847
000190 6f 0a 99 bc 0f 52 4b 3d a0 59 f4 3d 10 b8 a3 3d
       -0.018681733 0.049638804 0.11931157 0.079940915
0001a0 b0 46 f8 3d e9 20 bd 3d 46 f7 e7 3d 56 78 c3 3d
       0.121228576 0.09234793 0.113264605 0.09544437
0001b0 74 b3 99 3d f9 76 9d 3c ab e6 b2 3c 4c cb 9c 3d
       0.07504931 0.01922177 0.021838507 0.07655963
0001c0 d6 d7 9c 3d 66 b9 3b bb 06 02 90 3c 69 4d 49 3d
       0.07658355 -0.0028644442 0.01757909 0.04914609
0001d0 1e 87 af 3d 34 31 f8 3c 03 ad 86 3d 2a 8a 7d 3d
       0.085706934 0.0302969 0.06575968 0.06189934
0001e0 3a 1a 99 3d f6 df 37 3d a7 3d cb 3c cd d6 08 3c
       0.074757054 0.04489132 0.024809672 0.008351994
0001f0 47 7c 98 3d fd 2f 77 3d f7 5c 48 3c d0 54 88 3b
       0.07445579 0.0603485 0.012229196 0.004160501
000200 34 83 07 3e 03 b6 93 3d 99 fa 51 3d 7b e5 f5 3c
       0.13233644 0.0721245 0.05126438 0.030016651
000210 6f bd 93 3d 6e 7b 9f 3d f5 6f c5 3d f5 91 5d 3c
       0.07213866 0.07787214 0.09640495 0.013523568
000220 8e a6 09 3e 37 4c b1 3d a5 40 b4 3d ef 17 14 3e
       0.13442442 0.08657115 0.088013925 0.14462255
000230 d4 d9 fd 3d 9f eb 89 3d a3 6c 8f 3d f7 e9 1a 3d
       0.12395063 0.06734394 0.07003143 0.037820783
000240 92 b1 34 3c d7 76 3f 3d 84 a6 c3 3c 4c e2 ba 3d
       0.011028664 0.046744194 0.023883112 0.09125194
000250 17 ce d8 3d a1 b7 c5 3c a1 95 79 3d 92 38 94 3d
       0.105861835 0.024135413 0.060933713 0.072373524
000260 24 f0 83 3d 99 70 16 3d 46 74 4e 3c 72 10 a8 3d
       0.064422876 0.036728475 0.012600964 0.08206262
000270 46 11 de 3d 64 54 1d 3c bd c1 94 3d f8 5a 80 3c
       0.108431384 0.00960264 0.07263515 0.015668377
000280 30 b0 ef 3c 35 56 b4 3d 03 33 41 b8 3a 42 dd 3d
       0.029258817 0.08805505 -4.6062294e-05 0.10803647
000290 dc 78 7b 3d bb 66 91 3d 50 b1 ff 3c 78 7c 20 3d
       0.061394557 0.070996724 0.031212479 0.039181203
0002a0 c7 02 83 3d 9d a0 69 bc 12 b1 c2 3d b4 03 25 3c
       0.06397014 -0.014259485 0.0950643 0.010071684
0002b0 f9 c4 13 3d d4 b1 18 3c 2c 47 18 3d 16 a6 81 3d
       0.03607652 0.009319741 0.03717725 0.063305065
0002c0 6f 0a 5e 3d 9f 40 30 bc ca d9 06 3d de 6b 3f 3d
       0.05420917 -0.010757594 0.032922544 0.04673373
0002d0 d8 dc 7d 3d 3e 44 c5 3d f8 bb b3 3d ac f2 21 3d
       0.06197819 0.09632157 0.087760866 0.03953807
0002e0 02 47 54 3d a1 9e 49 3c 2c 5f a3 3c 0d 66 f8 3c
       0.05182553 0.0123058865 0.019942842 0.0303221
0002f0 43 5e ab 39 f7 5e 90 3d 61 12 cb 3d e0 21 ce bc
       0.00032685892 0.07049363 0.09915615 -0.025162637
000300 19 71 ae 3c 29 88 9f 3d 71 40 dc 3d 07 cf c8 3c
       0.021294164 0.07789642 0.10754479 0.02451278
000310 e3 72 c4 3d 48 e8 94 3c 9e 85 be 3c 6c 68 d7 3d
       0.095922254 0.018177167 0.023257073 0.10517964
000320 78 2a 0e 3d 9c f7 e9 3c 04 f9 14 3d 6c 06 5e 3d
       0.03470847 0.028560452 0.036370292 0.054205343
000330 e3 a9 2f 3d 0a ac 9a 3d e4 5f 9e 3d f7 68 02 3e
       0.042886626 0.07552345 0.077331334 0.12735353
000340 45 ea af 3d b7 32 a5 bc a0 ae c4 3d 04 06 05 3e
       0.08589605 -0.020165784 0.096036196 0.12990576
000350 15 c9 9c 3d 58 29 11 3d 61 e7 13 3d 42 22 a3 3d
       0.07655541 0.03543982 0.036109332 0.079655185
000360 a5 0c 18 3d e7 f3 9c 3c ed 81 50 3d d7 01 8c 3d
       0.037121434 0.01915927 0.050905157 0.068362884
000370 c9 10 a3 3c a4 7f b4 bb 92 53 28 3d ee 3d 42 3d
       0.019905465 -0.00550838 0.041095324 0.047422342
000380 6d 39 24 3d ec f7 02 3d c5 d3 3c 3b ad 7b 56 3d
       0.040093828 0.031974718 0.0028812748 0.05236404
000390 63 c9 b4 3c 24 18 e2 3d 0a 92 76 3d 11 53 95 3d
       0.022068685 0.11039761 0.060197867 0.07291234
0003a0 a4 6e 58 3d e7 1d e5 bb 19 01 26 3d 7f 56 ca bc
       0.05283989 -0.00699209 0.04052839 -0.024699448
0003b0 9d 4f d9 3d 01 c4 7f 3d 5a cd e4 3d 5b 5c 63 3d
       0.10610888 0.062442783 0.1117198 0.055508
0003c0 45 61 d3 3d 0d a2 88 3d 03 5f 6c 3d 9f 55 82 3c
       0.10321287 0.06671534 0.057707798 0.015909968
0003d0 52 72 14 3d b7 f3 e3 3d d0 0e 29 bb 98 0d 11 3e
       0.036241837 0.11130469 -0.0025796182 0.14165342
0003e0 ed 70 1f 3d 4b 7e 39 3c 1b 33 13 3d 04 3d 2f 3a
       0.038926054 0.0113216145 0.03593741 0.0006684812
0003f0 f6 39 9a 3c b7 76 b3 bc f4 0a 38 3d 1c 14 ea 3c
       0.018826466 -0.021907194 0.04493232 0.028574042

batch_norm00.running_var f4 [256]
000000 95 fe 85 3c e2 1f ef 3c 01 8f a0 3d 3c 04 16 3d
       0.016356746 0.029190008 0.07839776 0.036625132
000010 b9 a9 ab 3d ac 6f 8a 3d 94 b9 0f 3d 6c dd 9d 3d
       0.083819814 0.06759581 0.03508909 0.077082485
000020 29 bd f8 3c 16 fb 6c 3d 8e 21 9d 3d a9 e7 a0 3d
       0.030363636 0.05785664 0.07672416 0.07856686
000030 e1 ef 15 3d 91 f1 85 3d 3e 15 91 3d bd 61 76 3d
       0.03660572 0.06540216 0.0708413 0.060151804
000040 25 61 3d 3d a9 e1 5f 3d 62 b1 29 3d e0 84 8f 3d
       0.046235222 0.054658566 0.04142893 0.07007766
000050 4a 31 ea 3d 94 ce b5 3d 88 f0 4e 3c b8 5a 58 3d
       0.114351824 0.08877292 0.012630589 0.05282089
000060 ad 15 8e 3d 4c 4f 81 3d e7 f3 b5 3d 34 ab 4d 3d
       0.06937728 0.06313953 0.08884411 0.0502121
000070 e0 5c 86 3d cf 2c 7b 3c aa 00 7c 3d e3 63 15 3d
       0.06560683 0.015330507 0.06152407 0.036472213
000080 9c 7c 8e 3d 8b 3a f9 3d 66 5d a0 3d 7a d9 c9 3c
       0.06957361 0.12169369 0.07830314 0.024639834
000090 8b 3e ff 3d af 68 18 3d a0 54 ba 3d b0 a2 43 3c
       0.12463101 0.03720921 0.09098172 0.011940643
0000a0 27 8f 3d 3d 90 e2 e5 3d c2 9a b7 3c f1 89 6f 3d
       0.0462791 0.11224854 0.022412661 0.05848116
0000b0 48 d4 6f 3d 85 ab de 3c ca be 93 3d 11 ec 9e 3c
       0.058552057 0.027181396 0.072141245 0.019399675
0000c0 64 af 12 3d 52 64 88 3d 26 87 8f 3d 02 e8 55 3d
       0.035811797 0.066597596 0.070081994 0.052223213
0000d0 d4 b3 8f 3d ce e4 58 3d ad e8 81 3d e9 fc 67 3c
       0.07016721 0.05295258 0.063432075 0.01415942
0000e0 3d 29 16 3d af 27 eb 3c c8 e8 84 3d f4 6d 2f 3d
       0.03666042 0.028705446 0.06489712 0.04282947
0000f0 f6 34 f8 3c af 4e 2b 3d 5b 5e c2 3d e0 0e 0a 3e
       0.030298691 0.041823085 0.09490653 0.13482237
000100 e0 32 63 3d 8a 89 16 3d 36 63 c3 3d 3d 0a e3 3d
       0.05546844 0.03675226 0.09540407 0.11085937
000110 17 95 2f 3d f8 f6 b3 3d 3a 38 57 3d e8 87 d8 3d
       0.042866793 0.0878734 0.052543856 0.10572797
000120 85 de bd 3d 94 11 9f 3d b9 91 97 3d fd ae 54 3d
       0.09270958 0.07767025 0.07400841 0.051924694
000130 9e 8f b0 3d e8 0e 98 3c 52 3f a8 3c a5 fe 4b 3d
       0.08621143 0.018561795 0.020538006 0.049803395
000140 08 f8 4b 3d 23 45 c1 3d 13 60 1c 3d 0e 83 02 3d
       0.049797088 0.09437015 0.03817756 0.031863265
000150 69 6c 20 3d 04 81 19 3d fa cf 34 3c b3 0f 65 3d
       0.039165888 0.037476555 0.011035914 0.055923175
000160 df 8e 86 3d d6 7d 7b 3d 35 79 25 3d a9 83 e4 3c
       0.06570219 0.061399303 0.040398795 0.027894812
000170 d3 67 7a 3d 94 6a 65 3d 8c c6 91 3c 59 1e 03 3d
       0.06113417 0.056009844 0.01779487 0.032011364
000180 c4 17 92 3d 39 b4 60 3d 4f 8c b5 3d 40 82 93 3d
       0.07133439 0.054859374 0.08864652 0.072025776
000190 5e 34 59 3c e5 b6 57 3d 1e 22 01 3e d5 f3 96 3d
       0.013257114 0.052664656 0.12610671 0.07370726
0001a0 18 cb 29 3e ec d0 c1 3d 74 69 d3 3d c0 01 a8 3d
       0.1658138 0.09463677 0.10322848 0.08203459
0001b0 d9 5b b1 3d d2 a8 17 3d a7 6b f7 3c 61 00 b8 3d
       0.08660097 0.037026234 0.0302027 0.08984447
0001c0 3b 5a ac 3d 39 79 7b 3c 2d 53 05 3d 5f 73 47 3d
       0.084156476 0.015348726 0.032550026 0.04869401
0001d0 76 e1 b5 3d b8 4e 13 3d 08 ba a3 3d 93 f0 8b 3d
       0.08880894 0.035963744 0.07994467 0.06832995
0001e0 77 e9 b4 3d 72 1d 9d 3d d2 43 00 3d 5a 7c ce 3c
       0.088335924 0.07671632 0.03131468 0.02520578
0001f0 c9 a6 bb 3d 05 36 9b 3d ea a7 f2 3c 87 2e df 3c
       0.09162671 0.07578663 0.029621083 0.027243866
000200 c0 64 1d 3e 61 b2 97 3d d6 18 92 3d a3 de 5a 3d
       0.15370464 0.0740707 0.07133643 0.05343498
000210 65 9a 91 3d f0 82 92 3d 46 58 01 3e 82 73 1a 3d
       0.071095265 0.071538806 0.1263133 0.037707813
000220 1b c8 25 3e 4b 20 ef 3d 81 9d ae 3d a0 c1 12 3e
       0.16189615 0.11676081 0.08526135 0.14331675
000230 53 e4 19 3e 20 ae 84 3d 2a e9 b5 3d f2 a1 48 3d
       0.15028505 0.06478524 0.08882363 0.048982568
000240 32 95 a6 3c 77 ea 59 3d 81 e3 51 3d bb dd a6 3d
       0.020334814 0.05320212 0.051242355 0.081477605
000250 55 6e 37 3e 1b 2c 4a 3d 0a 48 81 3d df 00 ba 3d
       0.17913182 0.04935847 0.063125685 0.090821974
000260 b1 bd 95 3d e9 cf 26 3d ee 05 d9 3c 48 1b bc 3d
       0.073115714 0.040725622 0.026492085 0.09184891
000270 c5 85 e0 3d 9f 27 9f 3c b1 e0 98 3d ef 29 dd 3c
       0.109630145 0.019428072 0.074647315 0.026997535
000280 76 3f 33 3d 30 a1 b5 3d 1f c7 90 3c 9e 86 de 3d
       0.043761693 0.08868635 0.017673073 0.1086552
000290 6a b4 89 3d 94 18 7b 3d 96 87 0a 3d e2 75 32 3d
       0.067238644 0.061302736 0.03382071 0.043569453
0002a0 80 6a 97 3d 27 52 52 3c e4 a5 0a 3e 37 ba aa 3c
       0.0739336 0.012836969 0.13539845 0.020840747
0002b0 38 54 38 3d 2c 02 b7 3c 3b 57 1f 3d e2 66 97 3d
       0.045002192 0.022339903 0.03890155 0.0739267
0002c0 dc dc 45 3d bc 2d 1a 3c 7a ef 30 3d ff 01 6b 3d
       0.04830633 0.009410318 0.043197133 0.05737495
0002d0 5f 32 8a 3d 13 da d3 3d 31 a0 d6 3d bb 5b 4d 3d
       0.06747889 0.10344329 0.10479773 0.05013631
0002e0 28 f4 58 3d c2 72 f9 3c c6 0b 08 3d 8b 57 09 3d
       0.05296722 0.030450229 0.033214353 0.033530753
0002f0 82 d8 bd 3c 72 c9 c7 3d 7a df f9 3d da 76 36 3c
       0.023174528 0.097552195 0.12200828 0.011136735
000300 01 06 0f 3d 92 39 b1 3d 75 6d e9 3d 5a a1 07 3d
       0.034917835 0.08653559 0.113978304 0.03311286
000310 83 fa 06 3e bf 25 26 3d bb b7 dc 3c d8 83 e1 3d
       0.131815 0.04056334 0.026943078 0.11011475
000320 a5 3a 47 3d 31 44 2c 3d 5d 3f 33 3d 3c a7 85 3d
       0.048639912 0.04205722 0.0437616 0.06526038
000330 74 ff 7e 3d 4d 6a ef 3d 54 78 dc 3d 5a 21 f4 3d
       0.062255338 0.11690197 0.10765138 0.11920424
000340 72 86 a5 3d 36 9c 26 3c 68 8a a5 3d d4 9e 26 3e
       0.08082284 0.0101690795 0.080830395 0.16271526
000350 5a 36 05 3e 1a 52 4b 3d 98 15 74 3d f2 6e cd 3d
       0.13009015 0.049638845 0.059590906 0.10030927
000360 da f4 52 3d 9e 12 f7 3c ff bc 63 3d fd f2 9b 3d
       0.05150304 0.030160245 0.055600163 0.07614706
000370 51 31 0b 3d c2 03 9a 3c b4 ee 58 3d e8 74 90 3d
       0.03398258 0.01880062 0.05296202 0.07053548
000380 52 58 30 3d 6d 01 53 3d 87 63 d5 3c 0a eb 5f 3d
       0.04305298 0.05151503 0.026048435 0.05466751
000390 d5 ad 41 3d 67 5f e1 3d 57 b8 8c 3d ee 5a a2 3d
       0.04728492 0.11004525 0.068710975 0.079275
0003a0 24 85 5e 3d 9e 76 7d 3c 58 3c 1e 3d 97 af 71 3c
       0.05432619 0.015470175 0.038631767 0.014751337
0003b0 55 14 d2 3d e9 20 c5 3d cc a2 db 3d a3 25 67 3d
       0.10257784 0.09625418 0.107244104 0.056432378
0003c0 47 ed c8 3d b1 de ae 3d 3e 76 95 3d 2d ac 09 3d
       0.09810882 0.08538569 0.072979435 0.033611465
0003d0 88 e7 26 3d 01 c5 0d 3e a4 08 98 3c e1 94 20 3e
       0.04074815 0.13844682 0.018558808 0.15681793
0003e0 2a ee 88 3d c5 3c ea 3c ab a3 17 3d 28 e0 cd 3c
       0.06686051 0.02859343 0.03702132 0.0251313
0003f0 ab 05 34 3d df 49 53 3c 82 1b 77 3d 18 5b 4f 3d
       0.043950718 0.01289603 0.060328968 0.050623983

linear01.weight f4 [128, 256]
000000 62 4a 5c 3b 53 ae f5 3d f4 1a c8 bb 0a ce 4c bd
       0.0033613672 0.1199614 -0.0061067287 -0.05000118
000010 ed 6d 94 be 3f c8 b4 be e2 42 ae 3d b4 27 5e 3e
       -0.28990117 -0.35309026 0.08508851 0.21694833
000020 f3 d7 c9 bd b1 b6 9e bd 10 6c dd 3c f4 c4 05 3d
       -0.09855642 -0.07749689 0.027029067 0.032658532
000030 e2 60 9b 3c 2a fa e8 bc 1b 7a 66 3d a9 53 ae be
       0.018967096 -0.0284396 0.056268793 -0.34048203
000040 00 3a 3f 3e d9 e2 ef 3c 80 f2 8e 3e ad 0e 11 bf
       0.18674469 0.029282974 0.27919388 -0.5666302
000050 f4 d3 0e 3e 42 a4 81 3e 27 d2 1e bd 64 ca a5 be
       0.13948041 0.2532063 -0.038774636 -0.32380974
000060 58 ab b8 be 10 40 7e 3e b0 76 4e 3d 66 ab 39 bc
       -0.36068225 0.24829125 0.050406158 -0.0113323685
000070 8d f7 99 3d 5f 7e b0 3d 07 a1 6b be 73 e6 77 3b
       0.0751792 0.086178534 -0.23010646 0.0037826567
000080 e4 d2 7b 3e 8e 74 1e bd d3 d2 1a bf 63 eb 90 bc
       0.24592167 -0.038685374 -0.6047794 -0.017690366
000090 80 eb 14 be 17 a6 5a be 04 96 e9 3d ad b9 9c bd
       -0.14542961 -0.21352421 0.11405566 -0.07652602
0000a0 3b 0f 8d be 2d ef ea 3d 99 55 58 3e 83 ad 79 be
       -0.27550682 0.114714004 0.21126403 -0.24382596
0000b0 87 4f 07 bf 5c 0f 75 bc 2f f1 ca be ff 10 7d bd
       -0.52855724 -0.014957275 -0.39637133 -0.061783787
0000c0 a9 3e 3e be 4e fd 2a be e8 6d f1 bd c0 50 f1 3e
       -0.1857859 -0.1669819 -0.11788541 0.4713192
0000d0 03 df dc be 6b 02 44 3c 50 d7 87 bd 77 6d 9e 3d
       -0.43138894 0.011963467 -0.066328645 0.077357225
0000e0 8b fe c5 bd 3b 09 26 bd db d1 36 3e 19 c9 2a be
       -0.09667691 -0.040536147 0.17853491 -0.16678275
0000f0 35 15 69 bd 5a cc 98 bd af f0 df bd 1f ca 86 be
       -0.05690499 -0.07460852 -0.109345786 -0.2632608
000100 b9 6a 3e 3e 74 52 9f 3d 22 9f 80 be ed ce cc be
       0.18595399 0.077793986 -0.2512141 -0.40001622
000110 c2 81 8d be 13 87 a0 be 20 2c ce bc f7 52 bd bd
       -0.2763806 -0.31353053 -0.025167525 -0.0924434
000120 6e 2a b1 be 3b 07 c0 be ef e5 b7 3d d1 c4 03 3e
       -0.34602684 -0.37505516 0.08979403 0.12868048
000130 52 0a 5b bd 2d 04 0a be fa 87 58 3d 01 3e e6 bd
       -0.05347664 -0.13478155 0.052864052 -0.11242295
000140 8c db a8 3d 04 2d 86 bd cd 39 20 be 4d 0a a3 bd
       0.08245 -0.06551555 -0.15647049 -0.07960949
000150 d7 9e a2 3d 07 3f ab 3a 8b 8a 06 bc 36 a7 c0 be
       0.079404525 0.0013065048 -0.008211742 -0.37627572
000160 82 06 8d 3d 52 ac e5 bd a2 bb 34 3a 36 3a bf bd
       0.06886007 -0.11214508 0.00068944145 -0.09337275
000170 f6 10 d1 bd a6 42 3d bd e7 96 46 3e c3 bf 4a 3c
       -0.10208313 -0.04620614 0.19393502 0.012374821
000180 15 85 1e be 03 90 18 3e 42 5d 97 be 9c 98 37 be
       -0.15480454 0.14898686 -0.29563338 -0.1792931
000190 a4 76 8c 3e 36 af 8d 3c 48 73 5f 3c 68 76 6f be
       0.27434266 0.017295461 0.013638325 -0.23385012
0001a0 27 89 f5 be f5 63 a5 3b 2d 02 40 be 3b ab 35 3e
       -0.479562 0.005047316 -0.1875083 0.177411
0001b0 c0 05 54 bd 1f c9 d3 3d d3 93 c2 3d 77 13 99 be
       -0.051763296 0.10341095 0.095008515 -0.29897663
0001c0 ef 20 f4 3d 7a 2a af bd 45 81 01 bd 1c 54 e1 bc
       0.11920344 -0.08553024 -0.03161742 -0.027505927
0001d0 00 b6 8f be 06 aa ff bd 43 88 be 3e b2 28 04 be
       -0.28068542 -0.12483601 0.37213334 -0.12906149
0001e0 1f 6a 71 3d fc 07 d4 bd 64 b5 f1 bc 42 90 a7 3c
       0.058939096 -0.103530854 -0.02950544 0.02045453
0001f0 01 6d 37 bf 74 47 92 3b 2d 8c 11 3e 44 db 42 be
       -0.716507 0.0044640843 0.14213629 -0.19028956
000200 05 3e 2d 3e 19 1f b7 3d c5 4d 67 3e 87 dd bc 3a
       0.1691819 0.08941478 0.2258826 0.0014409282
000210 3b ac dc bd 57 9a 70 3e 68 31 89 be 31 84 96 3e
       -0.10775038 0.23496376 -0.26795506 0.2939773
000220 6c cc c7 bd ee 6c 1b be 47 42 1d 3d a9 df 20 bd
       -0.09755787 -0.15178272 0.038393285 -0.0392758
000230 0e 0e 47 be e6 93 cb 3c 28 95 5a bd 94 ff 58 be
       -0.19438955 0.024850797 -0.053364903 -0.21191245
000240 22 04 b0 be 1c 38 75 be 37 04 96 3c 3c 1e 95 39
       -0.34378153 -0.23947185 0.018312557 0.0002844202
000250 e0 0d 2b 3c d9 c5 89 3e 40 51 27 bd 30 89 10 bd
       0.01044032 0.26908758 -0.04084897 -0.035287082
000260 0c 8d 8b 3e e2 c9 91 3d 1c 6d a0 be 39 63 58 bd
       0.27256048 0.07118584 -0.31333244 -0.052829
000270 ba 1d e9 be f2 b6 f4 3a 51 9c 04 be 0d 7c 9e bc
       -0.45530492 0.0018670245 -0.12950255 -0.019346261
000280 7c c2 73 be 38 92 a3 be b6 c5 6f bc 66 81 52 3e
       -0.23804659 -0.31947494 -0.01463454 0.20557174
000290 91 d7 90 bc 27 57 8f be 84 d2 69 be ab 3f 8f be
       -0.017680915 -0.2799618 -0.22834212 -0.27978262
0002a0 2c 7b 54 be d9 79 01 3e 8a 66 c2 bd 4b 9b 21 bd
       -0.20750111 0.12644137 -0.09492214 -0.03945474
0002b0 e0 20 ab 3d 92 66 33 be 0c 4a 88 bd 21 df c3 be
       0.0835588 -0.17519596 -0.06654748 -0.3825617
0002c0 61 cc e4 bd 81 eb 21 3c f6 7f 00 be 22 b0 8a be
       -0.11171795 0.009882809 -0.12548813 -0.27087504
0002d0 18 cc 1e be 2f 88 a6 be 8b 6b 50 be 48 1b 27 be
       -0.15507543 -0.32525775 -0.20353524 -0.16319
0002e0 c6 b4 0c be b0 f6 38 3d 50 42 1e 3c b2 4c 7b be
       -0.13740835 0.045157135 0.009659365 -0.24540976
0002f0 b4 0d 74 be 8f 03 e3 bd f5 41 3e 3e 89 94 07 3f
       -0.23833352 -0.11084663 0.18579848 0.5296102
000300 39 6f 30 be 8e bc 55 3e 65 00 54 be ad 9e 0e be
       -0.17229928 0.20872709 -0.20703276 -0.13927718
000310 56 79 a9 bd e9 1b 8c 3e 10 de 2a be 4d 6f 0e be
       -0.08275096 0.27365044 -0.16686273 -0.13909645
000320 20 42 0e be 44 18 f3 bd 30 75 b3 be d1 c6 15 be
       -0.13892412 -0.11869863 -0.35050344 -0.14626624
000330 f9 f1 a5 bc a0 89 f0 3c 87 38 0c 3c 27 14 3c 3b
       -0.020256983 0.0293625 0.008558399 0.0028698535
000340 03 5a 9d bd e3 b1 35 be dc 8d 1f 3d 64 a0 bf ba
       -0.07683184 -0.1774364 0.038953647 -0.0014619944
000350 c7 3c a5 be 6b 31 b4 3c e2 5f 75 bd e3 46 cf 3d
       -0.32272932 0.02199622 -0.059905894 0.101209424
000360 77 ad a3 be ea df 65 3e 7b dd 34 3e 5f 34 df 3d
       -0.3196828 0.22448698 0.17662613 0.10898661
000370 cf bd 16 bd 93 ea fd 3e cc 68 40 3d f4 0b 4e 3d
       -0.03680211 0.49593028 0.046974942 0.05030437
000380 f9 19 c4 bd 83 5d 67 be 86 df 82 3d 1c 05 2a be
       -0.095752664 -0.22594266 0.0639029 -0.16603512
000390 96 b1 2a be df 22 fb 3d 3e 1d d4 bd d3 dc b3 be
       -0.16669306 0.122625105 -0.1035714 -0.35129413
0003a0 98 8b b2 be 40 33 14 bd e8 f9 34 be a6 3f 69 bd
       -0.34872127 -0.03618169 -0.17673457 -0.056945466
0003b0 01 02 9a bd a5 67 78 be 96 6f 21 be 4c 8b f6 bd
       -0.075199135 -0.24258287 -0.15765223 -0.120382875
0003c0 82 9b 8b 3e 5f 4d 9b bd 29 3d 15 3e bc 39 be 3c
       0.2726708 -0.07583117 0.14574112 0.02322089
0003d0 f2 79 33 3e a4 cd d5 be d1 6a 31 3e 68 8c aa 3e
       0.17526987 -0.41758454 0.17325903 0.33310246
0003e0 0f 33 2d be f0 69 06 3e 7f d7 cf be 07 e1 f1 bd
       -0.16914009 0.1312635 -0.40594098 -0.11810499
0003f0 49 91 c9 be fd e5 2d 3e 52 5e 83 be 7c 8e 6c be
       -0.39368656 0.16982265 -0.25657898 -0.23101228
